Shortcut Run/results/testlvl1/Move.onnx (onnx, 73131 bytes, 6 tensors)

network_body._body_endoder.seq_layers.0.weight f4 [128, 6]
0	0x3f0299b5	0.5101579
1	0xbf04cffc	-0.5187986
2	0xbe9870cb	-0.29773554
3	0xbe846770	-0.25860167
4	0x3e9c705d	0.30554476
5	0xbe175188	-0.14777195
6	0x3e39f1e3	0.18158679
7	0x3e138413	0.14405851
8	0x3dfc6ddf	0.12325644
9	0xbb1e5546	-0.0024159714
10	0xbebfb20d	-0.3744053
11	0x3f3560bb	0.70850724
12	0xbeb0246e	-0.34402794
13	0xbf0598bf	-0.521862
14	0x3ea2d889	0.31805828
15	0xbea01895	-0.31268755
16	0x3b48acdb	0.0030620608
17	0x3e7e5c90	0.24839997
18	0x3ecba529	0.39774445
19	0x3c9f7c97	0.019468589
20	0x3dc1953a	0.09452291
21	0x3f4c26e9	0.7974687
22	0x3cacbbe6	0.02108569
23	0xbea0d1ab	-0.31409964
24	0x3e3681e7	0.17822991
25	0x3e7b5a19	0.24546088
26	0x3d11ea1c	0.035623655
27	0xbe59ab57	-0.21256767
28	0xbe5605ae	-0.20900604
29	0x3eeca12a	0.46216708
30	0x3d7e73d1	0.06212217
31	0x3f1dca08	0.616364
32	0xbea21e7b	-0.3166388
33	0xbf8481d5	-1.0352122
34	0xbf8d6dfb	-1.1049188
35	0x3eeec186	0.46632022
36	0x3d926723	0.07148578
37	0xbee52cc0	-0.44760704
38	0x3c852a1c	0.01625543
39	0xbe57a75d	-0.21059938
40	0xbeee25cf	-0.4651322
41	0x3e0fc258	0.1403898
42	0xbe7ed686	-0.24886522
43	0xbeeebcbc	-0.46628368
44	0x3f03b39e	0.5144595
45	0xbf1a12b0	-0.60184765
46	0xbeb556b7	-0.3541772
47	0x3f084001	0.5322266
48	0xbea5fd14	-0.32419646
49	0xbeb725f7	-0.35771152
50	0xbe71514b	-0.23566167
51	0xbf2a25e1	-0.6646405
52	0xbe7778d5	-0.24167188
53	0xbee2ced4	-0.44298422
54	0x3f45bf9d	0.77245504
55	0x3e471b7a	0.19444075
56	0x3f2260d1	0.6342898
57	0x3dbf20ae	0.09332405
58	0xbf0d2e3e	-0.55148685
59	0x3ec86d2f	0.391458
60	0x3e5db00f	0.21649192
61	0x3c8fb796	0.017543595
62	0xbe5aa40c	-0.21351641
63	0x3ee78a7f	0.45222852
64	0x3f1c4f73	0.6105873
65	0xbf011764	-0.50426316
66	0xbee2ee1b	-0.44322285
67	0x3dc61d98	0.09673613
68	0x3e4ed4e6	0.20198402
69	0x3dc5bc12	0.09655012
70	0xbef8ad12	-0.48569542
71	0x3d23b2ac	0.039965317
72	0xbf08c4b4	-0.53425145
73	0x3f089b9c	0.5336244
74	0x3e5ac490	0.21364045
75	0xbf644169	-0.8916231
76	0x3eb6b7ff	0.35687253
77	0xbdeedce4	-0.11663225
78	0x3ea26af7	0.31722233
79	0xbe709a97	-0.23496471
80	0xbefd58de	-0.49481863
81	0xbe6f50b4	-0.2337063
82	0xbf0bfe69	-0.54685074
83	0xbdf85b0c	-0.12126741
84	0xbe840949	-0.25788334
85	0xbe0eec0b	-0.13957231
86	0xbf481b75	-0.78166896
87	0xbe9e2c44	-0.30893147
88	0x3ed6c8b9	0.41950014
89	0x3e426942	0.18985465
90	0xbeb0c188	-0.34522653
91	0xbe84a502	-0.2590714
92	0xbe4444ff	-0.19166945
93	0x3c8c211a	0.017105628
94	0x3ea673ee	0.32510322
95	0x3e468018	0.19384801
96	0xbdb0abed	-0.08626542
97	0x3ed7145d	0.42007723
98	0xbd87a312	-0.066229
99	0x3e0e1b19	0.13877524
100	0x3db72690	0.08942902
101	0xbc9fa96e	-0.01948997
102	0xbe91bf50	-0.28466272
103	0x3f254f0a	0.6457373
104	0x3e8a7fbc	0.2705058
105	0xbe2ef949	-0.17087282
106	0xbeebca8b	-0.46052966
107	0xbe027f3e	-0.12743852
108	0x3eb687e3	0.35650548
109	0xbf92e90a	-1.1477368
110	0xbd866a5b	-0.065632544
111	0x3d907d5a	0.07055159
112	0x3e4fb17f	0.20282553
113	0x3e063ef5	0.13109954
114	0x3ecb888d	0.39752617
115	0xbe292187	-0.16516696
116	0x3e18f8ad	0.14938612
117	0xbe5e0ad7	-0.21683823
118	0x3c41a903	0.011820081
119	0x3e35da58	0.17759073
120	0xbd918cc8	-0.0710693
121	0xbc185cdd	-0.009299484
122	0xbd88294b	-0.06648501
123	0xbf3c35a5	-0.73519355
124	0xbedbb316	-0.4291007
125	0x3f038f55	0.5139058
126	0x3eabadca	0.33531028
127	0xbe398f1f	-0.18121003
128	0xbec02aaa	-0.3753255
129	0xbe978c80	-0.2959938
130	0x3ea29201	0.31752017
131	0xbf21c2c2	-0.631878
132	0x3d4fc588	0.05072549
133	0xbc9197b7	-0.017772539
134	0xbcde8043	-0.02716077
135	0x3e167470	0.14692855
136	0x3f22add6	0.635465
137	0x3d8f78c6	0.070054576
138	0xbe1126fd	-0.14175029
139	0x3dcb2b55	0.09920374
140	0xbf63c080	-0.88965607
141	0xbf174fb4	-0.5910599
142	0xbe6cac0d	-0.23112507
143	0xbb9fedee	-0.0048806584
144	0x3e84095d	0.25788394
145	0xbe05241b	-0.13002054
146	0xbe48d511	-0.19612528
147	0xbf0cc560	-0.5498867
148	0x3f16e92f	0.5894956
149	0x3f234bb1	0.6378737
150	0x3d66c49e	0.056339853
151	0xbf0d2d46	-0.55147207
152	0xbf1eb962	-0.6200162
153	0xbe3c89ac	-0.18411893
154	0x3e8a1a92	0.26973397
155	0x3f02b7da	0.51061785
156	0x3f1a527e	0.60282123
157	0x3f1415f2	0.57845986
158	0xbe7979c9	-0.24362864
159	0x3e4589b8	0.19290817
160	0xbf4ef1cb	-0.80837697
161	0x3ea0f817	0.31439278
162	0x3f350397	0.707086
163	0x3eed98da	0.4640568
164	0xbebb8746	-0.36626643
165	0x3d1116bb	0.035422068
166	0x3f008748	0.5020642
167	0xbf06ad05	-0.52607757
168	0xbe1ed1a0	-0.15509653
169	0xbec8175a	-0.39080316
170	0xbdfe67be	-0.12422131
171	0x3e3e4403	0.18580632
172	0xbf1addfa	-0.6049496
173	0xbf0f73ce	-0.5603608
174	0xbdb0981e	-0.08622764
175	0xbea4c5a2	-0.32182032
176	0x3ee482a0	0.4463091
177	0x3f0e9b25	0.5570548
178	0xbd4467c6	-0.04795053
179	0x3e43d394	0.1912368
180	0x3ec7281c	0.3889779
181	0x3e733b7d	0.23753162
182	0x3ab1b695	0.0013558442
183	0xbcc569cc	-0.0240983
184	0x3dd14a33	0.102192305
185	0x3ebd6c6d	0.36996785
186	0x3d3483f6	0.04407116
187	0x3f10c6f4	0.5655358
188	0x3da0e65a	0.07856436
189	0xbd5d8e45	-0.054090757
190	0x3f268fae	0.6506299
191	0xbe07a0bf	-0.13244914
192	0x3ec6ff7b	0.3886679
193	0x3ea434bb	0.3207148
194	0x3ecbff55	0.3984324
195	0x3f47047d	0.77741224
196	0xbe9ff3d5	-0.31240717
197	0x3e9262fc	0.28591144
198	0xbe646d33	-0.22307281
199	0xbe23e247	-0.16004287
200	0xbf2829a6	-0.6568855
201	0x3f67ce04	0.9054873
202	0x3e3843ee	0.17994663
203	0xbd52a2b2	-0.05142469
204	0x3ea71569	0.32633522
205	0xbed4865a	-0.41508752
206	0x3e91e017	0.2849128
207	0x3e555d4f	0.20836376
208	0x3f175c3c	0.59125113
209	0xbf2300b4	-0.6367295
210	0x3c7946f5	0.015214671
211	0x3eae2ba9	0.34017685
212	0xbe876c7d	-0.26449957
213	0xbee222ce	-0.4416718
214	0xbd978ed9	-0.07400293
215	0xbea7cd4a	-0.3277381
216	0x3e83b5c2	0.25724608
217	0xbf2137af	-0.6297559
218	0xbf148a25	-0.5802329
219	0x3e9c7e78	0.30565238
220	0xbef2761b	-0.47355732
221	0xbcd361f4	-0.025803544
222	0x3f118ea6	0.5685829
223	0xbe8a842d	-0.27053967
224	0xbc6f7e84	-0.014617566
225	0x3dbb21b1	0.091372855
226	0xbe4943e8	-0.1965481
227	0x3e2fda1f	0.1717305
228	0xbea45354	-0.32094824
229	0x3e7ee6b3	0.24892692
230	0x3d952bed	0.07283769
231	0xbea7d588	-0.327801
232	0x3f7b7457	0.98224396
233	0x3f102e8c	0.56321025
234	0xbe188bd8	-0.14897096
235	0x3d50a37f	0.050937172
236	0x3e99e2fe	0.30055994
237	0xbed77acf	-0.42085883
238	0x3eaa2028	0.33227658
239	0x3f23b822	0.6395284
240	0x3ee8930e	0.45424694
241	0xbda61cda	-0.08110972
242	0xbecd8922	-0.40143687
243	0xbebeb907	-0.3725054
244	0xbd64b4e5	-0.055836577
245	0x3f3828ea	0.7193743
246	0xbd13bcc9	-0.03606871
247	0xbc106a0b	-0.008814345
248	0x3e6d59bd	0.23178764
249	0x3d82767f	0.063702576
250	0xbec9459d	-0.39310923
251	0xbe5068a2	-0.20352414
252	0x3f36c43e	0.7139319
253	0x3ebefd09	0.37302426
254	0x3ea64676	0.32475632
255	0xbeb8dcb4	-0.36105883

network_body._body_endoder.seq_layers.0.bias f4 [128]
0	0x3bdb30e4	0.006689178
1	0xb9dec929	-0.00042493016
2	0xbaab27a2	-0.0013058076
3	0x2b711da4	8.5661534e-13
4	0x397eaec2	0.0002428843
5	0x39f0986d	0.00045889933
6	0x3aa8e622	0.0012885968
7	0xbafb7229	-0.0019183803
8	0xb3812215	-6.01323e-08
9	0xbaf7ca91	-0.0018904974
10	0x3046ec7f	7.236806e-10
11	0x3b8c4471	0.00428062
12	0x3bdd4289	0.0067523164
13	0x3b11e7fb	0.0022263515
14	0xb9de08fa	-0.00042349828
15	0xba562f3c	-0.00081704906
16	0xbbebdffa	-0.007198331
17	0x37ceca21	2.4651237e-05
18	0x38e4f300	0.000109171495
19	0x3c29f9dd	0.010374513
20	0x3b254cec	0.002522285
21	0x2f531873	1.9199024e-10
22	0xb9e06117	-0.00042796947
23	0xbab189af	-0.0013545061
24	0xb8bb3b59	-8.927909e-05
25	0xbb55eede	-0.0032643597
26	0x3a034de8	0.00050088624
27	0x37a18429	1.9254237e-05
28	0xa584f7c7	-2.306625e-16
29	0x3c15689b	0.009119178
30	0x3aa5f380	0.001266107
31	0x35d972ac	1.6201134e-06
32	0xbb4978ca	-0.0030742162
33	0x3a8dd043	0.0010819513
34	0x876872b7	-1.7487452e-34
35	0xba95781a	-0.0011403591
36	0x3a40adb1	0.0007350101
37	0xbb583e81	-0.003299624
38	0xba7742fb	-0.0009432283
39	0xbae83e69	-0.0017718795
40	0x3a1bbb74	0.00059407135
41	0x2cca63d3	5.752268e-12
42	0x97caea22	-1.3113047e-24
43	0x39b507d1	0.00034528834
44	0x3b83650c	0.0040098485
45	0x2188e679	9.276724e-19
46	0x3ba91253	0.005159655
47	0xb9ae38b2	-0.00033230108
48	0x39defafd	0.0004253014
49	0x3a8f1635	0.0010916652
50	0xba4f1c87	-0.0007900674
51	0xbb1a3385	-0.0023529243
52	0x0b36dfd7	3.5220323e-32
53	0xbb3b1570	-0.0028546713
54	0xba191fa4	-0.00058412016
55	0x36d75a4f	6.4180126e-06
56	0x0cf54fd7	3.7796279e-31
57	0x399ae1cf	0.0002954141
58	0x3b8ef56d	0.004362753
59	0xb8d3e868	-0.00010104553
60	0xbb007336	-0.001959992
61	0xba1bef8a	-0.0005948475
62	0x3ace3770	0.0015733074
63	0xbb3cfa0d	-0.0028835565
64	0xbab75405	-0.0013986832
65	0x3a163ca5	0.00057310826
66	0x3926d87b	0.00015911639
67	0x2697d654	1.0535824e-15
68	0xbad489df	-0.0016215405
69	0x394dd385	0.0001962912
70	0x3ab66605	0.0013915902
71	0xbbb34639	-0.0054710177
72	0xae032dbb	-2.982657e-11
73	0x3b87c9d3	0.0041439324
74	0x3a564d04	0.00081749284
75	0x37291d45	1.008e-05
76	0x3ba56282	0.0050471434
77	0x01e6798f	8.4663084e-38
78	0xb90435e5	-0.00012608578
79	0x3af096b0	0.0018355455
80	0x39f5565c	0.00046794384
81	0xba97221c	-0.0011530551
82	0x92bc9ce0	-1.1903141e-27
83	0xaace9067	-3.669315e-13
84	0x3af182e4	0.0018425849
85	0x3b48e13c	0.0030651828
86	0x3b099efd	0.0020999305
87	0x3a48b5c8	0.0007656482
88	0xbb51904e	-0.0031976881
89	0xbb355627	-0.002766976
90	0xb50e5c34	-5.3033295e-07
91	0x2cb09b54	5.0194657e-12
92	0x8572cdb3	-1.1416566e-35
93	0xbabf850c	-0.0014611795
94	0xbb4cdeac	-0.0031260652
95	0x2816e2f5	8.375886e-15
96	0xb6d68c31	-6.3940174e-06
97	0xba4b4e42	-0.0007755497
98	0x3a97f52b	0.0011593451
99	0x1a45b97c	4.0888478e-23
100	0x3b1e2161	0.0024128782
101	0xbb7be5e1	-0.003843658
102	0x34405124	1.7910912e-07
103	0xb10ac3aa	-2.0192865e-09
104	0x2d701e15	1.36491e-11
105	0xa1ede920	-1.6121452e-18
106	0xba1ef478	-0.00060636504
107	0xacea4349	-6.65815e-12
108	0x3ab11b3d	0.0013512146
109	0xb910e174	-0.00013816898
110	0xa2afa2c7	-4.7606192e-18
111	0xb69e8c87	-4.7251265e-06
112	0xba4d22ae	-0.0007825297
113	0x39121653	0.00013931961
114	0x00000000	0.0
115	0xba04cc4d	-0.00050658436
116	0xbbf56106	-0.0074883727
117	0x35e1b581	1.6816631e-06
118	0x38f0f155	0.000114890434
119	0xad10d506	-8.232753e-12
120	0xb6ccf14b	-6.107764e-06
121	0x129b2596	9.791141e-28
122	0xbb9828fc	-0.0046435576
123	0x199dc5b8	1.6313277e-23
124	0x1855ab65	2.7616137e-24
125	0x8938242c	-2.2165202e-33
126	0xb995f62e	-0.00028602913
127	0xb85ec7aa	-5.3114876e-05

network_body._body_endoder.seq_layers.2.weight f4 [128, 128]
0	0xbd1bffc8	-0.03808573
1	0x3db44ea7	0.08804064
2	0x3d495b9a	0.049159624
3	0x3e1fa027	0.15588437
4	0xbd0dce59	-0.034620617
5	0xbc96cc71	-0.018408032
6	0xbc672ce7	-0.014109827
7	0x3d41f9be	0.047357313
8	0xbc932346	-0.017961156
9	0xb97751d6	-0.00023586242
10	0xbc01bb36	-0.00791817
11	0xbcfafb55	-0.030637423
12	0xbe10f524	-0.14156014
13	0xbd4df8a3	-0.050285947
14	0xbd16c51a	-0.036809064
15	0x3a7f07a3	0.0009728616
16	0xbc732292	-0.014839785
17	0x3e3d38c1	0.18478681
18	0x3e3c05a8	0.18361533
19	0xbd71b09e	-0.059006326
20	0xbde7fb30	-0.11327207
21	0x3d2764ef	0.040867742
22	0x3d286f80	0.04112196
23	0x3cbb9d30	0.022902101
24	0xba0f8a00	-0.00054755807
25	0xbdee4476	-0.11634152
26	0x3ced1997	0.028942866
27	0xbd07bbcc	-0.03313808
28	0xbd9a0b72	-0.07521714
29	0xbcc8bc74	-0.024503924
30	0x3db7c1f0	0.089725375
31	0x3c08c994	0.008348841
32	0xbd13413b	-0.03595088
33	0xbdb3302f	-0.08749425
34	0x3ce0a935	0.027424434
35	0x3e659a13	0.22422056
36	0xbde3ca2b	-0.11122545
37	0x3b963b77	0.0045847255
38	0x3d472034	0.048614696
39	0x3d3f5d11	0.046719614
40	0x3d4a95fa	0.049459435
41	0x3dd0cdd3	0.10195508
42	0xbda4ddf8	-0.0805015
43	0x3da2eb90	0.07955086
44	0x3c68987a	0.0141965095
45	0x3e0e8733	0.13918762
46	0xbcb3d9a9	-0.021954374
47	0x3deee629	0.11664993
48	0x3d92e6f1	0.07172955
49	0xbd9d836b	-0.076910816
50	0xbdf75f12	-0.1207868
51	0xbca037ea	-0.019557912
52	0x3dded264	0.108799726
53	0xbd3218bf	-0.04348063
54	0x3e1a4077	0.15063654
55	0xbc533dea	-0.012893179
56	0x3e303854	0.17208987
57	0xbc81d67c	-0.015849344
58	0xbd181f99	-0.03713951
59	0x3da818da	0.08207865
60	0xbd05025d	-0.032472957
61	0x3da7cb87	0.08193117
62	0x3d139fb3	0.036040973
63	0xbe11f42e	-0.14253303
64	0xbe1c82d9	-0.1528429
65	0x3cc37185	0.023857841
66	0x3dcc7d3e	0.099848256
67	0xbbb14b27	-0.00541057
68	0xbd5e56be	-0.054281943
69	0xbccf42d7	-0.025300426
70	0xbe1f6220	-0.15564775
71	0x3caf907f	0.021431206
72	0xbdd34be1	-0.10317207
73	0xbd4495d0	-0.047994435
74	0x3d192311	0.037386958
75	0xbc676c47	-0.014124936
76	0x3d74a502	0.059727676
77	0xbddea4a7	-0.10871249
78	0xbc851e75	-0.016249875
79	0x3d296216	0.041353308
80	0xbd8059e2	-0.06267144
81	0xbc3e4e9a	-0.01161542
82	0xbca10249	-0.01965441
83	0xbd109a7d	-0.03530358
84	0x3cf283cf	0.029603867
85	0x3d1fc465	0.039005656
86	0x3bfb38d6	0.0076666875
87	0xbd682575	-0.056676347
88	0x3c82e6fa	0.015979279
89	0xbd839604	-0.064250976
90	0xbda92532	-0.082590476
91	0xbd8ca68f	-0.06867706
92	0xbd6a1685	-0.057150383
93	0xbda6616d	-0.08124051
94	0x3d7a63da	0.061130382
95	0xbb56b10a	-0.0032759332
96	0xbd77d31b	-0.06050406
97	0xbd3eca3f	-0.046579596
98	0x3da7713b	0.08175894
99	0x3a3e72a8	0.000726501
100	0xbd59bbf3	-0.053157758
101	0x3e00bf80	0.12573051
102	0x3d4f7f2b	0.050658386
103	0xbdfc2ce0	-0.12313247
104	0x3db6945b	0.08915015
105	0xbb844924	-0.0040370394
106	0xbd61d4c0	-0.055134535
107	0xbdec168c	-0.11527738
108	0xbd0a6380	-0.033786297
109	0xbdf71c3e	-0.12065934
110	0x3bf66f92	0.0075206244
111	0xbd0382fc	-0.03210734
112	0x3dce2865	0.100662984
113	0xbe1492cf	-0.14509128
114	0x3e0b25de	0.13588664
115	0x3da3e9c2	0.0800357
116	0xbcc03eec	-0.023467503
117	0xbdd7f683	-0.10545065
118	0xbda9ca04	-0.082904845
119	0x3d298de8	0.041395098
120	0xbd4e9276	-0.050432645
121	0x3c100aea	0.008791665
122	0xbdf3db26	-0.119070336
123	0x3dbd4ace	0.092427835
124	0x3e041cdf	0.12901638
125	0xbd4c3ad8	-0.049860805
126	0x3e1c3f9b	0.15258639
127	0xbbf565a2	-0.007488922
128	0xbde14c61	-0.11000896
129	0xbc2c3bb2	-0.010512279
130	0xbd0a8e90	-0.033827364
131	0x3dd3e80d	0.103469945
132	0xbe0f22bd	-0.13978095
133	0xbe1e9518	-0.15486562
134	0x3cbc9aad	0.023022974
135	0xbddecf5a	-0.10879393
136	0x3e3bacf0	0.18327689
137	0x391cd8b5	0.00014958049
138	0xbc3bec6c	-0.011469942
139	0x3bf4b98d	0.0074684084
140	0xbdbbf17d	-0.091769196
141	0x3d1ac36a	0.037784018
142	0xbe1ba850	-0.15200925
143	0x3def9151	0.11697639
144	0xbc9436b7	-0.018092496
145	0x3d30dedf	0.043181296
146	0xbe005c0d	-0.12535115
147	0x3e3f3a65	0.1867462
148	0x3c4978dd	0.012296882
149	0xbd9ff864	-0.078110486
150	0x3d2beafe	0.041972153
151	0x3d1f637c	0.038913235
152	0xbe6f34a1	-0.2335992
153	0x3e2437d7	0.16036926
154	0xbccf225f	-0.025284944
155	0xbda7471b	-0.08167859
156	0xbcc855b2	-0.024454925
157	0x3d1a205d	0.03762852
158	0xbd4f6641	-0.050634626
159	0x3d379b85	0.04482605
160	0xbe4cb47c	-0.19990724
161	0xbd5b1aa2	-0.053492196
162	0xbd06a0c2	-0.032868154
163	0x3d6e8a37	0.05823728
164	0xbdfeda81	-0.1244402
165	0x3d2a2cfc	0.041546807
166	0x3d4510f1	0.04811186
167	0xbcbc2fd0	-0.022972018
168	0xbe06dc49	-0.1316997
169	0x3e06dbfe	0.13169858
170	0xbcbe4296	-0.02322511
171	0x3cc22069	0.023697095
172	0xbcb5ef2b	-0.02220877
173	0x3ccdac1b	0.02510648
174	0xbdfdc35a	-0.12390776
175	0xbd4b805b	-0.049682956
176	0x3c161b69	0.0091618085
177	0x3cc22f31	0.023704143
178	0x3d9e4f0c	0.07729921
179	0x3d36af05	0.044600505
180	0xbdc2d146	-0.09512572
181	0x3da52fde	0.080657706
182	0x3d855447	0.06510215
183	0xbc89568b	-0.0167649
184	0xbe13a1f9	-0.14417256
185	0xbe1cf24c	-0.15326804
186	0xbc154eef	-0.0091130575
187	0xbc8b1ffd	-0.016983027
188	0xbe5bb7ab	-0.21456783
189	0x3d856eb6	0.06515257
190	0xbd322754	-0.043494537
191	0x3abec869	0.0014555576
192	0xbb05dedd	-0.0020427026
193	0xbc830104	-0.015991695
194	0xbe5ac67c	-0.21364778
195	0x3d925892	0.071458
196	0x3dc35415	0.09537522
197	0x3de4b244	0.11166814
198	0xbcce99db	-0.025219848
199	0xbd853167	-0.065035634
200	0xbdba82cd	-0.091069795
201	0xbd6c5ee2	-0.057707675
202	0xbc109b37	-0.008826069
203	0x3d71b3dc	0.059009418
204	0xbda434c8	-0.0801788
205	0xbd944923	-0.07240512
206	0xbd873c7c	-0.06603333
207	0xbd0aaecf	-0.033858117
208	0x3ced609e	0.028976735
209	0x3da995a4	0.08280495
210	0xbde4f0a6	-0.111787125
211	0xbe01cf6e	-0.12676784
212	0xbd9c3e38	-0.07629055
213	0x3d86c829	0.06581146
214	0xbe25b1e8	-0.16181147
215	0x3c1f1a2b	0.009710829
216	0xbc7e2e0b	-0.015513907
217	0xbd0f847c	-0.035038456
218	0xbe4d5588	-0.20052159
219	0xbdaa3acc	-0.08311996
220	0x38821b4d	6.203968e-05
221	0xbdbb102d	-0.09133945
222	0x3d43e096	0.047821604
223	0x3e392c4b	0.18083303
224	0x3bede400	0.0072598457
225	0xbd11be2f	-0.035581764
226	0xbd196986	-0.03745415
227	0xbdade667	-0.084912114
228	0xbd9ea0e3	-0.077455305
229	0xbd56d6e3	-0.052451026
230	0x3e1ba27e	0.15198705
231	0x3db32115	0.08746544
232	0x3d230106	0.039795898
233	0x3db3dfd1	0.08782924
234	0xbd4e9284	-0.050432697
235	0x3ca6075d	0.020267183
236	0x3dabee4b	0.0839506
237	0x3d23a2c1	0.039950136
238	0x3e1d19cc	0.15341872
239	0x3c66d7da	0.014089549
240	0xbdb9e4ed	-0.09076867
241	0xbe3e3b68	-0.18577349
242	0x3c9bdfad	0.019027555
243	0xbd1edf25	-0.038787026
244	0x3baf2f99	0.0053462503
245	0x3de7d684	0.113202125
246	0x3db8b1cd	0.09018288
247	0x3ca38412	0.019960437
248	0xbd7fc014	-0.06243904
249	0x3c114740	0.008867085
250	0x3aff6d0c	0.0019487455
251	0xbdd2ed41	-0.10299159
252	0xbd4fb7f7	-0.050712552
253	0xbd345cf3	-0.044033956
254	0xbcae44ea	-0.021273095
255	0xbcec1ab1	-0.028821321

network_body._body_endoder.seq_layers.2.bias f4 [128]
0	0xb8eff4db	-0.00011442016
1	0x2f26688d	1.5134756e-10
2	0x3b051a89	0.0020310006
3	0xb8b7d0c6	-8.765007e-05
4	0xba052c39	-0.0005080137
5	0x39c48299	0.00037481336
6	0xa0bab889	-3.163174e-19
7	0xba31a2cd	-0.00067762734
8	0xb7fe741a	-3.0333224e-05
9	0x3bde2591	0.0067793806
10	0xbb00eda2	-0.001967289
11	0x28193c6b	8.506307e-15
12	0x39ddb0fc	0.00042284268
13	0xbafc10ae	-0.0019231045
14	0xba239aa9	-0.00062410027
15	0xba937125	-0.001124893
16	0x3977d06b	0.00023633397
17	0xb4e24ed6	-4.215314e-07
18	0xba2194d5	-0.00061638403
19	0x39552f05	0.00020330779
20	0xb898a666	-7.278919e-05
21	0xa40e91d8	-3.0914876e-17
22	0xba60fe8c	-0.00085828523
23	0xbb51a1b6	-0.0031987256
24	0xbaef5b8f	-0.001826154
25	0x380e0d0d	3.3867593e-05
26	0xbbef1960	-0.007296726
27	0x3a0b4e67	0.0005314112
28	0x3a8eefe5	0.0010905234
29	0x39c973d1	0.00038423997
30	0x32258dd0	9.6365085e-09
31	0xa4b1a4db	-7.704079e-17
32	0xbaaeab99	-0.0013326287
33	0x393d8185	0.00018072694
34	0xb97bb764	-0.00024005544
35	0xb86293d1	-5.4020264e-05
36	0xa3ebc7fc	-2.5563448e-17
37	0x29c387e7	8.683315e-14
38	0xb9423e08	-0.0001852439
39	0xb82ad4e2	-4.072942e-05
40	0xba75326b	-0.0009353521
41	0xbb4e587f	-0.0031485853
42	0x3b669cf4	0.0035188766
43	0xb90a0f55	-0.00013166417
44	0xb7cfddb7	-2.4779567e-05
45	0xbb2b27f9	-0.0026116355
46	0x393200a2	0.00016975639
47	0xbaab0ea1	-0.0013050624
48	0xba1dae13	-0.0006015014
49	0x14045190	6.680382e-27
50	0xba5a20f6	-0.00083209516
51	0xba7fe544	-0.0009761641
52	0xb6a047f5	-4.7767485e-06
53	0x2b4c3b10	7.2557325e-13
54	0x3a0420a6	0.00050402654
55	0x3a0a3e5d	0.0005273575
56	0x2d16e276	8.576797e-12
57	0xbb6f230f	-0.0036489402
58	0x2c0c2c0b	1.9919645e-12
59	0x3b46fbfd	0.00303626
60	0xbaa57aad	-0.0012625061
61	0x39e78ebf	0.00044166108
62	0xb90bda06	-0.00013337293
63	0xbb2dfd34	-0.0026548626
64	0xb8a79eca	-7.992757e-05
65	0x37518352	1.2487946e-05
66	0x3abcdb69	0.0014408651
67	0xba38d124	-0.00070502074
68	0xa7912192	-4.028198e-15
69	0x38bcb17c	8.9975976e-05
70	0x1f2c0195	3.6423725e-20
71	0x38dfd77b	0.00010673605
72	0xab8b1dd4	-9.884823e-13
73	0xbaa8b769	-0.0012872043
74	0x39f2e79c	0.000463304
75	0x39e7cc30	0.00044211885
76	0x3b5b3b60	0.0033452138
77	0x3ac5cc8b	0.0015090866
78	0xa8e2db2c	-2.5186091e-14
79	0xa56f117b	-2.0735868e-16
80	0xa6ddaf9a	-1.5382552e-15
81	0x37ae5a47	2.0784455e-05
82	0x27b6fd35	5.0789675e-15
83	0xbabfad43	-0.001462378
84	0xba83056a	-0.000999612
85	0x99dd72c3	-2.2897216e-23
86	0x3ada48bc	0.0016653757
87	0xb79c358f	-1.862159e-05
88	0x3a33ecfa	0.00068636204
89	0x3af1c01f	0.0018444097
90	0xb845f73c	-4.7198715e-05
91	0x387033f3	5.726884e-05
92	0x3999b611	0.00029318084
93	0x39c81f23	0.0003817017
94	0xbb07691f	-0.0020662022
95	0xbab8a0bc	-0.0014085989
96	0xbab9c698	-0.0014173565
97	0x3b0f351a	0.002185172
98	0x37607eed	1.3380993e-05
99	0xab6ecacb	-8.483602e-13
100	0x398d9c49	0.00027010057
101	0x9f045bab	-2.8027913e-20
102	0xbaa57779	-0.0012624107
103	0x38a6e751	7.958583e-05
104	0x3bcaedcb	0.006192898
105	0xbab25b4a	-0.0013607529
106	0x3b563075	0.0032682691
107	0x39f7df24	0.00047277764
108	0xb1a857be	-4.8994186e-09
109	0x3982c19a	0.00024939777
110	0x3a10103c	0.0005495583
111	0x2f553177	1.938981e-10
112	0x3a02aeda	0.00049851614
113	0x3a2258b8	0.00061930297
114	0xb9bb8329	-0.0003576514
115	0xba215a5f	-0.0006155129
116	0x3182a853	3.802634e-09
117	0xba571005	-0.0008203986
118	0xaebe2f7b	-8.648634e-11
119	0x3b70e7db	0.003675929
120	0xbb11164a	-0.002213853
121	0x300f3dda	5.2110993e-10
122	0x3908a0a8	0.0001302982
123	0x2b2191f0	5.740122e-13
124	0xba1e2ab0	-0.00060335826
125	0xb080b446	-9.364463e-10
126	0xb9f494c4	-0.00046650146
127	0xb892571e	-6.978049e-05

action_model._discrete_distribution.branches.0.weight f4 [3, 128]
0	0xbafa5fba	-0.0019102015
1	0xbbd1e0d0	-0.0064049736
2	0x3b678f7c	0.0035333326
3	0xbcb9a75b	-0.02266281
4	0xbc301aee	-0.010748608
5	0xba8cdf51	-0.0010747706
6	0x3c829383	0.01593948
7	0xbb82db44	-0.0039934237
8	0xbb60aaf5	-0.0034281586
9	0xbc337c31	-0.0109549025
10	0xbc6f836a	-0.014618734
11	0x3ae6c2d8	0.0017605675
12	0xbcc52e87	-0.024070038
13	0x3a2a803e	0.0006504095
14	0xbc48b7a1	-0.012250812
15	0x3b1075a8	0.0022042785
16	0x3a1cafa9	0.0005977103
17	0x3ba827d4	0.005131701
18	0xbb2210c7	-0.0024729238
19	0x3a1ec22f	0.0006056157
20	0x3b315262	0.002705716
21	0x3bb00860	0.005372092
22	0x3bc7dffc	0.006099699
23	0x3c38aded	0.011271936
24	0xbc2baed6	-0.010478696
25	0x3a9ce8e8	0.0011971267
26	0xba6c5ff0	-0.00090169813
27	0xbc76ece5	-0.0150711285
28	0x3c03a49a	0.00803485
29	0xbc35b545	-0.011090581
30	0x3be4c933	0.0069819926
31	0x3b6d159f	0.0036176217
32	0x3c5370a1	0.012905271
33	0xbca894a2	-0.020578686
34	0xba6d9fe6	-0.0009064659
35	0xbcbc31c4	-0.022972949
36	0x3c923acf	0.017850308
37	0x3c8d0f8a	0.017219324
38	0xbaaa7bf1	-0.0013006908
39	0x3b8ecf48	0.004358206
40	0xbc3f7c78	-0.0116873905
41	0xbc14aeff	-0.009074925
42	0x3bfc99c7	0.0077087614
43	0xbbb808d3	-0.0056162863
44	0xbb11cc06	-0.0022246852
45	0x3c511fb6	0.012763908
46	0x3b5176c2	0.0031961654
47	0x3b61c905	0.0034452092
48	0xbbd55f10	-0.0065115765
49	0x3ba96cfa	0.0051704617
50	0x3bf21456	0.007387678
51	0x3c8fb300	0.017541409
52	0xbbfb5845	-0.0076704347
53	0xbc23a979	-0.009989136
54	0xbc0514f1	-0.008122669
55	0xbc309c7b	-0.010779495
56	0xbbe3597b	-0.006938157
57	0xbc1a4f06	-0.009418255
58	0xb9cc8ed6	-0.00039016333
59	0x3ca1e745	0.019763598
60	0x3c51d2ea	0.0128066335
61	0xbba7d5b4	-0.005121911
62	0xbb48a62b	-0.0030616622
63	0x3cabadb2	0.020956848
64	0x3b142028	0.0022602174
65	0x3bbd4512	0.005776056
66	0xbb88c039	-0.0041733054
67	0xbc943985	-0.018093834
68	0x3b50f407	0.0031883733
69	0xbc348ec1	-0.011020363
70	0x3a70e6d0	0.0009189667
71	0x3b2dc57f	0.0026515422
72	0x3bfd8452	0.007736721
73	0xbb4ab065	-0.0030927893
74	0xbbeeee14	-0.0072915647
75	0x39ac973a	0.0003291907
76	0x3caf5a13	0.021405255
77	0x3b5bdc10	0.0033547916
78	0x3bb0cefd	0.0053957687
79	0x3b40e527	0.002943346
80	0x3b977c46	0.004622969
81	0xbc233082	-0.009960296
82	0xbc412d43	-0.011790576
83	0x3b1d4941	0.0023999962
84	0x3c089109	0.00833536
85	0xbbb7b0b7	-0.005605783
86	0x3bc6c2ea	0.006065716
87	0x3bf99420	0.007616535
88	0x3b06bded	0.0020559982
89	0x3c96beec	0.018401586
90	0x3ac99bda	0.001538153
91	0xbba02b94	-0.0048880074
92	0x3be35a9b	0.0069382912
93	0xbbf47063	-0.0074596866
94	0x3b99483b	0.0046778
95	0x3c1fc9d4	0.009752709
96	0x3c1d98b9	0.009618931
97	0x3d1c2f6b	0.03813116
98	0xbc5ca005	-0.013465886
99	0x398e05cd	0.00027088673
100	0x3bb9393e	0.0056525758
101	0x3bc0327b	0.0058653927
102	0x3c1e8606	0.009675508
103	0x3c2c5e96	0.010520598
104	0x3d1248a1	0.035713796
105	0x39b57f2d	0.00034617764
106	0x3c738bc4	0.014864866
107	0x3a6ec275	0.0009107956
108	0xbac3dbae	-0.0014942789
109	0xbc4fe6cb	-0.012689303
110	0xbbc9e491	-0.0061612804
111	0x3b5d93f0	0.0033810101
112	0xbc0ae33e	-0.00847703
113	0xbc642fa3	-0.013927373
114	0x3c40a738	0.011758618
115	0xbc1b4172	-0.009476053
116	0xbbb5de9e	-0.0055502197
117	0x3af70f5b	0.0018849181
118	0x3b8aaf58	0.0042323284
119	0x3cc44b4e	0.02396169
120	0x3c54a0fc	0.012977835
121	0xbb7fec42	-0.0039050733
122	0x3b3854fd	0.002812683
123	0x3b9f3d63	0.004859613
124	0x3c3cafc9	0.01151652
125	0xbb8e9ac5	-0.004351946
126	0xbc4fb490	-0.012677327
127	0x383a8b34	4.44755e-05
128	0x3b877225	0.00413348
129	0x3c131665	0.008977507
130	0x3c9f415a	0.019440342
131	0xbbe7b0a1	-0.0070706164
132	0xbbb08210	-0.0053865984
133	0xbbda0d7a	-0.0066544386
134	0x3bef1ffb	0.0072975135
135	0x3bd6c010	0.0065536574
136	0xbb21193d	-0.0024581694
137	0xbac7a369	-0.0015231195
138	0xbabecff1	-0.0014557821
139	0xbb91f590	-0.004454322
140	0xbad43b1f	-0.0016191936
141	0xbbe78727	-0.007065672
142	0x3c60ee04	0.013728622
143	0x3a2d5573	0.0006612159
144	0x3a1356a3	0.0005620515
145	0x3b2861c0	0.002569303
146	0xbbf76de6	-0.0075509427
147	0x3c8e6fd7	0.017387314
148	0x3b3abafc	0.00284928
149	0xbcaaef12	-0.02086595
150	0xbc8668e0	-0.01640743
151	0x3b8872c9	0.004164074
152	0xba9699ee	-0.0011489966
153	0x3c14f14a	0.009090731
154	0xbb7680ef	-0.0037613472
155	0xbc3c458f	-0.011491193
156	0x3bebb383	0.0071930303
157	0xbbd475d4	-0.006483773
158	0xbca08d12	-0.019598518
159	0x3b8ad689	0.0042370004
160	0xbc22c4f3	-0.009934652
161	0x3bf09b65	0.007342743
162	0x3c1a6323	0.00942305
163	0x3bc3cb41	0.0059751575
164	0x3c315f62	0.010825964
165	0xbc389e73	-0.011268246
166	0xbbf28c3a	-0.00740197
167	0xb9d4d3c3	-0.00040593566
168	0xbba1e182	-0.0049402127
169	0xbae0be2a	-0.0017146517
170	0x3c923dad	0.017851675
171	0x3b878422	0.0041356245
172	0x3b6afb25	0.003585526
173	0xba95b507	-0.0011421748
174	0xbbde095f	-0.0067760195
175	0xbb66a69f	-0.0035194529
176	0x3c2e6319	0.010643744
177	0xbac06eda	-0.0014681474
178	0xba8fe4c4	-0.0010978212
179	0xbc992697	-0.018695159
180	0x3c21e3a4	0.009880934
181	0x3b8bddbf	0.0042683776
182	0xbb7747e6	-0.0037732064
183	0xbba2c6f9	-0.004967567
184	0x3c9fb8f2	0.019497368
185	0xbc55954b	-0.0130360825
186	0x395094fb	0.00019891925
187	0x3c6dead3	0.0145213185
188	0x3bf3ed68	0.0074440725
189	0x39c90f14	0.00038348942
190	0x3bdd8681	0.006760419
191	0xbb7560af	-0.003744166
192	0xbc0a32a2	-0.008434923
193	0xbb4ab5a8	-0.003093103
194	0x3bc00ad6	0.0058606667
195	0xbc5f3474	-0.013623346
196	0xbc0f5c7f	-0.00875008
197	0x3c3025b3	0.010751176
198	0xbb9814bf	-0.004641145
199	0x3c1832e1	0.009289474
200	0xbbd1a985	-0.006398382
201	0x3c1a176d	0.009404999
202	0xbb71bdda	-0.0036886842
203	0x3ae12457	0.0017176968
204	0x3c8571d2	0.016289625
205	0x3c0da5f2	0.0086455215
206	0xbba54eaf	-0.00504478
207	0x3bd3352f	0.006445549
208	0x3934372f	0.00017186695
209	0x3b209748	0.0024504233
210	0xba1a6e68	-0.00058910856
211	0xbc1dca07	-0.009630687
212	0xbb73102b	-0.0037088494
213	0xbb03f78f	-0.002013657
214	0x3b33ad7f	0.0027416644
215	0xbb39e768	-0.0028366689
216	0x3bec95be	0.007219999
217	0xbbeb5f60	-0.0071830004
218	0xba62605c	-0.00086355745
219	0x3c59612d	0.013267797
220	0xbb2990a0	-0.0025873557
221	0xbb577833	-0.003287804
222	0x3abb1ac3	0.0014274943
223	0x3b592647	0.0033134387
224	0x3b773a7c	0.0037724068
225	0x3bdd027a	0.00674468
226	0xbb719601	-0.003686309
227	0xbc61f0af	-0.013790294
228	0x3a2ff22e	0.0006711808
229	0xbc75aa77	-0.014994255
230	0xbc1ca158	-0.009559952
231	0x3ca210f9	0.019783484
232	0x3bcc25f9	0.0062301126
233	0xbbcc4d71	-0.0062348177
234	0xba2f793d	-0.0006693786
235	0x3b3ebaaa	0.002910296
236	0xbb4908c2	-0.0030675386
237	0x3c0813fa	0.008305544
238	0xb98c9745	-0.00026815585
239	0xbb9481d7	-0.0045320797
240	0x3b7b6610	0.0038360395
241	0xbb8bd370	-0.0042671487
242	0xbc0122e1	-0.007881851
243	0x3a0ed87f	0.00054491305
244	0x3bcf116a	0.0063192146
245	0xbaa6562e	-0.0012690478
246	0xbc1f1c91	-0.009711401
247	0x3baeac11	0.0053305705
248	0xbbed740e	-0.007246501
249	0x3c5765cd	0.01314683
250	0x3b058e20	0.0020378903
251	0x3c1711e6	0.009220576
252	0xbbb40574	-0.005493814
253	0xbb2c8a96	-0.002632772
254	0x3b15a5fc	0.002283453
255	0x3c50bd3f	0.012740432

action_model._discrete_distribution.branches.0.bias f4 [3]
0	0xbae166a2	-0.0017196725
1	0xb9d0e261	-0.00039841517
2	0x3a2f8821	0.0006696005
