Shortcut Run/results/Test2/Move/checkpoint.pt (torch, 149007 bytes, 10 tensors)

network_body._body_endoder.seq_layers.0.weight f4 [128, 6]
00000000: f505 5bbd 262b 8bbe bf09 b6be 5e0e e8be
00000010: f4d3 bc3e fb53 89bd 29ad febc ebc0 5d3e
00000020: 288c 2a3f 3e2a 223a 5f4a c7bd f4a1 c43d
00000030: d8b5 68be 4da1 023e 3889 f7be 05c1 133f
00000040: 3d62 fcbd fc30 42bf 7b25 f5bc 7060 ed3e
00000050: 9340 4e3e f50f 3f3e 4afe d13d 2616 333f
00000060: ecb1 053e ef75 21bf d983 e7be 8531 043f
00000070: 9b56 0a3d 70f5 fc3e bb8e b53e 417a 77bd
00000080: 5a9f 7d3d 7afe a4bd b5e9 b0bd 6824 a43e
00000090: 41ef f83d a632 5d3f d4cc f83e 7983 8f3d
000000a0: 46e8 f93e 9f1a 1b3f 8efc a5be 98a3 3bbe
000000b0: 4e9d fd3e 129f cf3e f09a cabe 31de 0b3f
000000c0: 250f 4d3f 53d5 d3be 24a1 503f 1284 443d
000000d0: a633 2cbf 9941 c13e d5ba b2bf a7e8 e6bd
000000e0: eb77 a03c 163b 0cbe 3e71 a0be a2af 883e
000000f0: 1e11 563f 4b0e a1be e018 d3be 202d 293f
00000100: 65e2 0ebf 02e1 8dbe 5e7e dcbc 7414 143f
00000110: 6861 fa3d 5712 0c3d ab97 4a3f e7c8 16bf
00000120: 2bf3 f0be d362 0cbf a282 5f3e 9c95 9e3e
00000130: 72e9 febe 277b 563e 55d0 9bbb ea30 99be
00000140: d93a 3dbf 59eb 0ebf 8102 b9bb e480 c43e
00000150: 6470 5f3d 7d90 e83e f520 d53e 3a79 eebe
00000160: 21fd 453e c548 46bd 598b a13e ed55 63bf
00000170: e255 393e e9ee cd3f d4d0 2c3f 6523 1e3e
00000180: 3eee 503f 9bf4 8dbe 963e f8be e578 d5be
00000190: cc5d f83e 7db8 42bd 54b6 173f 8dc2 5d3d
000001a0: fc34 f13e 951f f93e f3e5 d1be 0a4b 41bc
000001b0: c803 423e 1be8 403e 6371 1e3f 12dc 933e
000001c0: 79fb 1abe 211b 8a3d cfc1 603e b045 8ebf
000001d0: 1f3b f63d bda0 803e fcce 093d d4af 4abf
000001e0: 8fc6 b83e 22c8 45bd a0c1 54bd 444b f33e
000001f0: b47e 523f 967a e33e 3e32 903e dcbd b33e
00000200: 028a 993e c397 a3be 1574 a03d 0daf 66bd
00000210: f3e0 803e d9f9 343f b283 063f 758d 833e
00000220: 2969 333f e277 113f b123 343e 108a b83e
00000230: 909b 4dbe 90ae 84bf 170b 2d3f 1d34 e03e
00000240: 3f21 bdbd ac57 bc3d 6430 2dbe 85b8 723e
00000250: a14e 023f dafe bd3e 0840 a63d e674 9a3e
00000260: 7c1c 463f c137 4d3e 2dd3 863e 2775 753e
00000270: 17a7 fa3e f793 bd3c 92ce f5bd 8bf8 ef3e
00000280: f11a 693f 0fbb da3e 75a0 a23d 8d49 d3bc
00000290: f09a 5f3e 7355 a03e 06b6 553f 96d5 b5ba
000002a0: 3551 7cbf 5ff9 763f ea3f e0be 122c 09bf
000002b0: ed3a 7c3f bd1b de3d f12f 833d 9c93 313d
000002c0: 9dc6 ddbd cdd8 35be 3322 ec3e 5af4 a73e
000002d0: fd32 883f e23d 00bf 7cd5 a4be f52f 52bd
000002e0: 8a0a 3ebe ea2c af3e bff0 c5bd b1cb 95bc
000002f0: 7a88 973c c162 583f c987 d2bd f84b 8d3e
00000300: a49d e2bd fa94 3a3e 0e16 37bd ec3f a03e
00000310: cbbe 41be e158 1ebd 804e c33e 9be0 c3bd
00000320: 8cde e8be 3ade eebd 586a c1be 37b7 563e
00000330: a62c 84bd c865 9dbe 6ccb 1dbe 7c01 003c
00000340: 4da3 cc3e 2388 45bf 5382 97bc ec6a c83e
00000350: 7482 d9be 4f3e b03e 68f3 7b3e 38ed 31be
00000360: b6d8 73be 236a 42be f5d2 873e daac 043d
00000370: bedf d53e 36f2 bd3c 0896 ae3d 47e4 16bf
00000380: 399e c1bc 03f4 e8be dacd 5c3e 8db3 aabe
00000390: 467d bc3e 8f7c 6e3f 1c0c 35bf f8f5 a73e
000003a0: c874 6fbe ee9f 89be 889a efbd a9fb 4ebe
000003b0: 3047 b43e dc0d 1a3e ff74 dbbe 8a4d a8bd
000003c0: 3c1c cd3d ff04 64be 6825 7fbf 9111 84bf
000003d0: 11cb 8a3e b972 88bf e667 f63e bc9f b0bc
000003e0: 3ba1 863e b51c 0bbf cb7e b6be c631 1b3f
000003f0: dcb5 10bd 2741 67bf 2026 433f 857b 133f
-0.053472478 -0.27181357 -0.3555431 -0.4532346 0.36880457 -0.06705471 -0.031088429 0.21655624
0.6662011 0.0006186104 -0.09730982 0.096012026 -0.22725618 0.12756844 -0.48346877 0.577164
-0.12323425 -0.75855994 -0.029925099 0.46362638 0.2014182 0.18658431 0.1025358 0.6995567
0.13056153 -0.6307058 -0.4521778 0.5163806 0.033774 0.49406004 0.35460457 -0.060419325
0.061919548 -0.0805635 -0.08638326 0.32059026 0.12155009 0.8640541 0.4859377 0.07007498
0.48810023 0.60587496 -0.32419246 -0.18324125 0.49534076 0.4055105 -0.39571333 0.5463591
0.80101234 -0.4137369 0.8149588 0.047977515 -0.6726631 0.3774536 -1.3963267 -0.11274844
0.019588431 -0.13694414 -0.31336397 0.26696497 0.8361987 -0.31456217 -0.41229916 0.6608448
-0.558142 -0.2771073 -0.026915725 0.5784371 0.1222561 0.034197178 0.79137677 -0.589003
-0.47060522 -0.54838294 0.21827176 0.30973518 -0.4978748 0.20945416 -0.0047550597 -0.2992013
-0.7391792 -0.5582786 -0.0056460504 0.38379586 0.054550543 0.45422736 0.41626707 -0.46576864
0.19334842 -0.048409242 0.31551626 -0.8880299 0.18099168 1.6088535 0.67506146 0.1544319
0.8161353 -0.27725682 -0.4848525 -0.41693798 0.4850906 -0.047539223 0.59262586 0.054140616
0.47110736 0.48656908 -0.4099575 -0.011797676 0.18946755 0.18838541 0.61891764 0.28878838
-0.15134992 0.06743456 0.21948932 -1.1115017 0.12022995 0.25122634 0.03364466 -0.7917454
0.36088988 -0.048286565 -0.051942468 0.4751836 0.82224584 0.44429463 0.28163332 0.3510579
0.29988104 -0.31951723 0.07834641 -0.056319285 0.25171623 0.7069374 0.525447 0.2569386
0.70082337 0.5682355 0.1759174 0.36042833 -0.20078874 -1.0365772 0.67595047 0.4378976
-0.09234857 0.091964096 -0.16912991 0.23703201 0.5090123 0.371085 0.08117682 0.3016731
0.77387214 0.200408 0.2633299 0.23970471 0.48955604 0.023141844 -0.12002291 0.4686931
0.91056734 0.4272084 0.07940761 -0.025791908 0.21836448 0.31315193 0.8348087 -0.0013872858
-0.9856141 0.9647426 -0.43798763 -0.5358287 0.98527414 0.108451344 0.064056285 0.043353662
-0.10828898 -0.17758484 0.46119842 0.32803613 1.064056 -0.50094426 -0.32194126 -0.051315267
-0.18558708 0.34213954 -0.09665059 -0.018285604 0.018497694 0.84525687 -0.10279805 0.27597022
-0.11065224 0.18220893 -0.044698767 0.3129877 -0.18920438 -0.03865898 0.38145828 -0.095643245
-0.4548229 -0.1166348 -0.37776446 0.20968328 -0.064538285 -0.30741715 -0.1540963 0.007812854
0.3996834 -0.77160853 -0.01849476 0.39144075 -0.4248234 0.34422538 0.24604571 -0.17375648
-0.23813137 -0.189858 0.26528135 0.032391407 0.41772264 0.023186784 0.0852471 -0.58942074
-0.023635017 -0.45498666 0.21562901 -0.3334011 0.36814326 0.9315881 -0.707216 0.32804847
-0.23384392 -0.2687983 -0.11699396 -0.20213188 0.35210562 0.1504435 -0.42862698 -0.082179144
0.10015151 -0.22267531 -0.9966645 -1.0317861 0.27108052 -1.066001 0.48126143 -0.021560542
0.26294884 -0.5434068 -0.3564361 0.60622823 -0.035329685 -0.9033379 0.7623005 0.5761035

network_body._body_endoder.seq_layers.0.bias f4 [128]
00000000: 0000 0000 0000 0000 0000 0000 0000 0000
00000010: 0000 0000 0000 0000 0000 0000 0000 0000
00000020: 0000 0000 0000 0000 0000 0000 0000 0000
00000030: 0000 0000 0000 0000 0000 0000 0000 0000
00000040: 0000 0000 0000 0000 0000 0000 0000 0000
00000050: 0000 0000 0000 0000 0000 0000 0000 0000
00000060: 0000 0000 0000 0000 0000 0000 0000 0000
00000070: 0000 0000 0000 0000 0000 0000 0000 0000
00000080: 0000 0000 0000 0000 0000 0000 0000 0000
00000090: 0000 0000 0000 0000 0000 0000 0000 0000
000000a0: 0000 0000 0000 0000 0000 0000 0000 0000
000000b0: 0000 0000 0000 0000 0000 0000 0000 0000
000000c0: 0000 0000 0000 0000 0000 0000 0000 0000
000000d0: 0000 0000 0000 0000 0000 0000 0000 0000
000000e0: 0000 0000 0000 0000 0000 0000 0000 0000
000000f0: 0000 0000 0000 0000 0000 0000 0000 0000
00000100: 0000 0000 0000 0000 0000 0000 0000 0000
00000110: 0000 0000 0000 0000 0000 0000 0000 0000
00000120: 0000 0000 0000 0000 0000 0000 0000 0000
00000130: 0000 0000 0000 0000 0000 0000 0000 0000
00000140: 0000 0000 0000 0000 0000 0000 0000 0000
00000150: 0000 0000 0000 0000 0000 0000 0000 0000
00000160: 0000 0000 0000 0000 0000 0000 0000 0000
00000170: 0000 0000 0000 0000 0000 0000 0000 0000
00000180: 0000 0000 0000 0000 0000 0000 0000 0000
00000190: 0000 0000 0000 0000 0000 0000 0000 0000
000001a0: 0000 0000 0000 0000 0000 0000 0000 0000
000001b0: 0000 0000 0000 0000 0000 0000 0000 0000
000001c0: 0000 0000 0000 0000 0000 0000 0000 0000
000001d0: 0000 0000 0000 0000 0000 0000 0000 0000
000001e0: 0000 0000 0000 0000 0000 0000 0000 0000
000001f0: 0000 0000 0000 0000 0000 0000 0000 0000
0.0 0.0 0.0 0.0 0.0 0.0 0.0 0.0
0.0 0.0 0.0 0.0 0.0 0.0 0.0 0.0
0.0 0.0 0.0 0.0 0.0 0.0 0.0 0.0
0.0 0.0 0.0 0.0 0.0 0.0 0.0 0.0
0.0 0.0 0.0 0.0 0.0 0.0 0.0 0.0
0.0 0.0 0.0 0.0 0.0 0.0 0.0 0.0
0.0 0.0 0.0 0.0 0.0 0.0 0.0 0.0
0.0 0.0 0.0 0.0 0.0 0.0 0.0 0.0
0.0 0.0 0.0 0.0 0.0 0.0 0.0 0.0
0.0 0.0 0.0 0.0 0.0 0.0 0.0 0.0
0.0 0.0 0.0 0.0 0.0 0.0 0.0 0.0
0.0 0.0 0.0 0.0 0.0 0.0 0.0 0.0
0.0 0.0 0.0 0.0 0.0 0.0 0.0 0.0
0.0 0.0 0.0 0.0 0.0 0.0 0.0 0.0
0.0 0.0 0.0 0.0 0.0 0.0 0.0 0.0
0.0 0.0 0.0 0.0 0.0 0.0 0.0 0.0

network_body._body_endoder.seq_layers.2.weight f4 [128, 128]
00000000: fd07 fabc d2dc ecbd cb96 653d 952a ea3d
00000010: ddb6 f0bd 4fe2 e5bd 0558 193e f62d 0c3e
00000020: 3206 00bd eea8 bfbb f328 0c3d aa3d 9e3d
00000030: 689d 943d 53c2 e3bd afe2 13bc 611f b5bd
00000040: 8ea5 16bc 4c1a afbd 49e5 b1bc aec1 0ebe
00000050: 226b 923d 2121 d8bd 77fc b63d 5378 923d
00000060: c05f 5dbd 8b97 1d3e c515 833d e660 29bd
00000070: aa40 8d3d 361c c33d 96bc 6dba 2f0b 783c
00000080: 12ab 6ebd fe72 413c b9c4 193d f544 093d
00000090: 78e4 a2bd 780c 5c3a eb64 523d ba81 f0bd
000000a0: fbbf 393d 982e 053e a374 9fbd 0825 663d
000000b0: 1d0d 72be ac23 973d ac8b 8fbd 051c 603d
000000c0: b249 173a be54 013d c096 993b 71b2 113e
000000d0: 8a8f 75bd 4c57 b3bd fb9b a2bc 3dc2 e1bb
000000e0: 824d e7bc ce52 8dbc 2a48 02bd 4bd6 8bbd
000000f0: 6258 a63d f3e4 84bc 9a15 07be 95ea 123d
00000100: 8d8d e83c 1aaf a93d 4eb9 213d 6fd5 51bc
00000110: bc13 a13d 4a83 703d 16c9 47be 76a3 713c
00000120: b65b 953d 1561 16bd 3244 5ebe 496c 2e3d
00000130: f3f4 d43d 2499 133e 94bc 003e c32a 20bd
00000140: 3875 b5bd 8468 823d af69 6dbe e8b1 d8bd
00000150: 6970 263d 08f9 d3bd 8b3e 18bc 4ea3 183d
00000160: ea4f b33d 9531 0dbd 69fb bbbc 267b 00be
00000170: d0d2 013d 52c7 f23d 7a57 f83b 1951 33bd
00000180: 6488 023d 8640 93bd 69eb 063d cccf 193d
00000190: c138 98bd 933f e63d f856 463e 84bd 52bd
000001a0: ae5b b6bd fa82 553d 6c5a fabd 6cc0 3b3e
000001b0: 20de 923b 9e25 0bbc 539e 16bd 8980 153e
000001c0: b43d 793d 85da 8dbd 5e3a f23d 8991 32bc
000001d0: 02c7 9e3d f446 05be 628a bb3c 4c08 89bd
000001e0: f88e 493b 4f74 14be 7422 c53d f47f 943d
000001f0: 4b46 ccbd 3653 8bbd f2cc 3b3e d3ed cb3c
00000200: cec4 b2bd 5070 353d b459 0fbd 922d 983d
00000210: f8b0 d5bd 986d 9dbd 779d 51bb c6a3 2d3e
00000220: 32d5 eabd 66db d1bb 3714 f83a b30e 283e
00000230: ae18 6dbc d2f7 3dbd f615 febc dbae 07be
00000240: 154b 2e3e 4398 0ebe 9b58 11bd a36c ecbd
00000250: a2ad a83c 2d65 9b3d df66 9d3d 72e3 cebd
00000260: 7993 83bd b8d6 b7bd 953c 433a 05e7 dcbb
00000270: 1530 363e e6da c8bc 05a3 e0bd 2fb2 283d
00000280: e509 bf3d dc52 29bd 9be0 5abc f166 92bc
00000290: 40c9 f93c 59b2 fc3d 84c0 2abd abb1 d23d
000002a0: 9934 54bd d554 d53c 4830 b53d 970d 8cbd
000002b0: ef45 39bd d92b a13d 2f82 233d 7dec 32bd
000002c0: c235 5f3d 8013 16bd 9f30 87bc 34cf 59bd
000002d0: af07 f83c 33d4 4f3e a8ae 34bd 8dbf be3c
000002e0: 9054 eebc e7bf e43d 030c 94bd 96b7 c2bd
000002f0: 2bc7 553d 6a41 4ebc 52e0 d7bc b646 a6bd
00000300: 58b0 f33b d2f3 7f3c 4565 42bc ecaf 2cbe
00000310: b4ae ab3d 1115 be3d 0279 a13c 203f 963d
00000320: d559 afbd af00 b03d 32f3 ce3b df5a 7ebd
00000330: 8492 01bd 3328 dc3d e3b5 f8bc 8cde 513d
00000340: 4c9a 31be 8e09 883c b254 bebd 1875 733d
00000350: 51d0 a83d fa07 12bd a07c fbbc 2c4a 02be
00000360: 4af1 9cbd 90f6 96bc 1949 fc3d ea4b 07bd
00000370: 49b8 69bd 1e0c 3b3e a311 233e 752f eebd
00000380: fbea a6bc 30bf 68bc 85c1 07be 9c81 2e3d
00000390: d14f 973d 9ce7 d5bc 4d02 823d 4744 ec3c
000003a0: caca 43be f68a 8d3c 818c 123d 71cf a63d
000003b0: da7d 003c 1970 1c3e c20f 973d bbd3 393d
000003c0: 744f 663d 9cf2 a13d a779 ec3d 746c e9bd
000003d0: cc58 603d 7918 c5bd d1ed 31bc 3fc3 f7bc
000003e0: b2fb a6bc ab0c dfbd 8b19 613d 5759 14be
000003f0: 7f32 803c 442a 0dbd 67ff 0c3d 1d9c 56be
-0.030521387 -0.11565556 0.05605201 0.11433903 -0.117536284 -0.112248056 0.14974983 0.13689408
-0.03125591 -0.0058489954 0.03421874 0.07726605 0.07256585 -0.11121049 -0.009026214 -0.08843876
-0.009194745 -0.085499376 -0.021715777 -0.1394107 0.0714934 -0.10553194 0.089348726 0.07151856
-0.054046392 0.1538984 0.064006366 -0.041352175 0.06897099 0.09526865 -0.0009068934 0.015139385
-0.058268614 0.011807201 0.037541125 0.03351303 -0.07953733 0.0008394192 0.051365774 -0.117434934
0.045349102 0.13006055 -0.077859186 0.05618766 -0.23637815 0.07379851 -0.07009062 0.05471422
0.00057711743 0.031574957 0.0046871603 0.14228226 -0.059951343 -0.08756885 -0.019849768 -0.00688961
-0.0282352 -0.017251398 -0.031807102 -0.068279825 0.081223264 -0.016222453 -0.13191834 0.035868246
0.02838781 0.08285351 0.03948336 -0.012807234 0.07865092 0.058718957 -0.19510302 0.014748445
0.07292883 -0.03671368 -0.21705702 0.042583738 0.10398283 0.14413887 0.12571937 -0.03910328
-0.08860248 0.06367591 -0.23184846 -0.10580808 0.040634546 -0.10350233 -0.009292255 0.037265114
0.08755477 -0.034471113 -0.02294703 -0.12546977 0.031695187 0.118544236 0.0075787874 -0.043778513
0.031868353 -0.07190041 0.03293935 0.037551686 -0.074327 0.112425946 0.19369113 -0.051450267
-0.08904205 0.052126862 -0.12224278 0.18335122 0.004482046 -0.008492855 -0.036772083 0.14599814
0.06084986 -0.06926445 0.11827539 -0.010898956 0.077528015 -0.13015348 0.022893135 -0.06691036
0.0030755382 -0.14497493 0.09625712 0.072509676 -0.09974345 -0.068029806 0.18339899 0.024893677
-0.08728944 0.044296563 -0.034997657 0.07430567 -0.10434145 -0.07686919 -0.0031984726 0.16957006
-0.11466445 -0.006404328 0.0018926923 0.16411857 -0.014471216 -0.046378918 -0.031016331 -0.13250296
0.17020829 -0.1392527 -0.03548489 -0.11544158 0.020590607 0.07587657 0.07685637 -0.101019755
-0.064246126 -0.08976501 0.0007447687 -0.006741407 0.1779178 -0.024518441 -0.109685935 0.041185554
0.09328059 -0.041338786 -0.013359214 -0.017871352 0.030491471 0.123387046 -0.041687503 0.10287794
-0.051807974 0.026041428 0.088470995 -0.068385296 -0.04523271 0.078696914 0.039919075 -0.043682564
0.054494627 -0.03663969 -0.016502677 -0.05317612 0.030277101 0.20295791 -0.044111878 0.023284698
-0.029093057 0.11169415 -0.072288536 -0.095076725 0.052191895 -0.012588838 -0.026352081 -0.08118956
0.0074367933 0.015622096 -0.011864965 -0.16863984 0.08382931 0.09281362 0.019711021 0.07336259
-0.08562056 0.085938804 0.0063156122 -0.06209838 -0.03163387 0.10749855 -0.030360168 0.051237628
-0.17344016 0.016606119 -0.09293498 0.05943784 0.08242858 -0.03565214 -0.030699074 -0.12723607
-0.0766321 -0.018428117 0.1231863 -0.03303138 -0.057060514 0.18266341 0.15924697 -0.116301455
-0.02037572 -0.014205739 -0.13257416 0.042604074 0.07388271 -0.026111417 0.06348095 0.02884115
-0.19120327 0.017278176 0.035778526 0.08145035 0.007842505 0.15277137 0.073760524 0.045367938
0.056228116 0.07907602 0.11546641 -0.11397639 0.054772183 -0.096238084 -0.0108599225 -0.030244468
-0.02038369 -0.10891088 0.054956 -0.14487205 0.015649078 -0.034464136 0.03442326 -0.2095799

network_body._body_endoder.seq_layers.2.bias f4 [128]
00000000: 0000 0000 0000 0000 0000 0000 0000 0000
00000010: 0000 0000 0000 0000 0000 0000 0000 0000
00000020: 0000 0000 0000 0000 0000 0000 0000 0000
00000030: 0000 0000 0000 0000 0000 0000 0000 0000
00000040: 0000 0000 0000 0000 0000 0000 0000 0000
00000050: 0000 0000 0000 0000 0000 0000 0000 0000
00000060: 0000 0000 0000 0000 0000 0000 0000 0000
00000070: 0000 0000 0000 0000 0000 0000 0000 0000
00000080: 0000 0000 0000 0000 0000 0000 0000 0000
00000090: 0000 0000 0000 0000 0000 0000 0000 0000
000000a0: 0000 0000 0000 0000 0000 0000 0000 0000
000000b0: 0000 0000 0000 0000 0000 0000 0000 0000
000000c0: 0000 0000 0000 0000 0000 0000 0000 0000
000000d0: 0000 0000 0000 0000 0000 0000 0000 0000
000000e0: 0000 0000 0000 0000 0000 0000 0000 0000
000000f0: 0000 0000 0000 0000 0000 0000 0000 0000
00000100: 0000 0000 0000 0000 0000 0000 0000 0000
00000110: 0000 0000 0000 0000 0000 0000 0000 0000
00000120: 0000 0000 0000 0000 0000 0000 0000 0000
00000130: 0000 0000 0000 0000 0000 0000 0000 0000
00000140: 0000 0000 0000 0000 0000 0000 0000 0000
00000150: 0000 0000 0000 0000 0000 0000 0000 0000
00000160: 0000 0000 0000 0000 0000 0000 0000 0000
00000170: 0000 0000 0000 0000 0000 0000 0000 0000
00000180: 0000 0000 0000 0000 0000 0000 0000 0000
00000190: 0000 0000 0000 0000 0000 0000 0000 0000
000001a0: 0000 0000 0000 0000 0000 0000 0000 0000
000001b0: 0000 0000 0000 0000 0000 0000 0000 0000
000001c0: 0000 0000 0000 0000 0000 0000 0000 0000
000001d0: 0000 0000 0000 0000 0000 0000 0000 0000
000001e0: 0000 0000 0000 0000 0000 0000 0000 0000
000001f0: 0000 0000 0000 0000 0000 0000 0000 0000
0.0 0.0 0.0 0.0 0.0 0.0 0.0 0.0
0.0 0.0 0.0 0.0 0.0 0.0 0.0 0.0
0.0 0.0 0.0 0.0 0.0 0.0 0.0 0.0
0.0 0.0 0.0 0.0 0.0 0.0 0.0 0.0
0.0 0.0 0.0 0.0 0.0 0.0 0.0 0.0
0.0 0.0 0.0 0.0 0.0 0.0 0.0 0.0
0.0 0.0 0.0 0.0 0.0 0.0 0.0 0.0
0.0 0.0 0.0 0.0 0.0 0.0 0.0 0.0
0.0 0.0 0.0 0.0 0.0 0.0 0.0 0.0
0.0 0.0 0.0 0.0 0.0 0.0 0.0 0.0
0.0 0.0 0.0 0.0 0.0 0.0 0.0 0.0
0.0 0.0 0.0 0.0 0.0 0.0 0.0 0.0
0.0 0.0 0.0 0.0 0.0 0.0 0.0 0.0
0.0 0.0 0.0 0.0 0.0 0.0 0.0 0.0
0.0 0.0 0.0 0.0 0.0 0.0 0.0 0.0
0.0 0.0 0.0 0.0 0.0 0.0 0.0 0.0

action_model._continuous_distribution.mu.weight f4 [1, 128]
00000000: ddde dcbb 5ef9 ba3b 7fbb 0bbd 6b72 ddbb
00000010: adb4 05bd bd3e d0bc a592 fcbc ea25 163c
00000020: 0804 f9bc 90af 503b 1b60 e53b a8f0 3c3d
00000030: 5179 05bd 1d47 b6bc ef8b c1bc e19c 103d
00000040: 81d5 8abc 036a 97bc b327 f33b 0479 253c
00000050: ba57 73bc a7bd 19bc 9cc4 8e3c 038e 5bbb
00000060: 2c02 c63b abda 443c 71d6 9fbc c5ba 7c3c
00000070: 49c4 c03c 13b3 94bc 52ff 94bc d0fc 7c3c
00000080: 586a d0bc c812 68bc d01b 18bb 02fe c33c
00000090: 8fbd 243b 417e 9a3c 1d12 ddbc 61ba a53b
000000a0: d4f8 8e3b 13ea fe3b 8fe2 a6bc e420 31bc
000000b0: ea66 c3bb aa99 943b bb96 b43b 0adf 12bc
000000c0: 62ac d93b a7dc 933b 5822 5bbc c3f2 b23b
000000d0: 94e9 b13c 4bc2 98bb 7acd 833c e52e e9ba
000000e0: dadd 5cbc d64f 9ebc 0f2c 783c 0dc8 bebb
000000f0: 7458 263c ed69 713d 1ad4 d3bc 7d74 2f3d
00000100: 6bf5 913c 287f 093c 402e e43b 1da9 e1bc
00000110: b095 80bb d7da 7e3c 903d 5bbb 8766 febc
00000120: 3af5 efbc 104d 1dbc bb0c 64bc d1ab bebb
00000130: 478e c13c 33b1 193c a6e8 ab3c 5f8e 75bb
00000140: 9fed 4ebc ed33 8f3b 1fae 4bbb 9af1 d63c
00000150: 0fb4 04bc 7104 49bc 38f0 c9bc 3a3d e93c
00000160: fbdb 8dbc e505 d9bb 3848 7f3b 5bcd ccba
00000170: 9306 e8bc 93c5 28bc 8b48 7dbb 4665 3f3c
00000180: 573b 47bc b2bc 4b3b 436d 5fbc cf69 c43c
00000190: e665 ab3b 6ec1 babb ab96 98b9 9493 c23b
000001a0: ccde 493b be21 40bc 30a9 ddb9 fc0e 9c3c
000001b0: b316 ab3b db6a 9abc bc02 adbb e59c 4bbc
000001c0: 7b69 4a3c c2d9 813c fcd0 9bbb 6764 013d
000001d0: 0958 353c 6b8b bfbb cbb4 d3bb 6778 b4bc
000001e0: 2be4 043d 59e8 9ebc 3efb aabc 211d babb
000001f0: 53d5 adbc eade d2bc c0f0 4eb8 94ac 26bc
-0.0067404346 0.0057059964 -0.034114357 -0.0067580245 -0.03264301 -0.025420541 -0.030831644 0.009164313
-0.03039743 0.0031842925 0.006999982 0.046127945 -0.0325864 -0.022250706 -0.023626296 0.03530586
-0.01694751 -0.018483168 0.007420504 0.010099653 -0.014852459 -0.009383596 0.017427735 -0.0033501394
0.0060427394 0.012015025 -0.019511433 0.015425389 0.023531096 -0.018151795 -0.018188152 0.015441135
-0.025441334 -0.014164634 -0.0023209937 0.023924831 0.00251374 0.01885903 -0.026986176 0.0050576185
0.0043631587 0.0077793687 -0.020371703 -0.010811064 -0.005963196 0.0045349197 0.0055111325 -0.0089643095
0.006642864 0.004512388 -0.013374887 0.0054610684 0.021717824 -0.0046618334 0.01608919 -0.0017790465
-0.013480628 -0.019325178 0.015147223 -0.0058221878 0.010152925 0.05893891 -0.025857974 0.0428357
0.01781722 0.008392133 0.0069635212 -0.02754646 -0.003924094 0.015555105 -0.0033453442 -0.031054748
-0.029291738 -0.009600893 -0.013919051 -0.005818822 0.023627413 0.0093806265 0.020984959 -0.0037468893
-0.0126298955 0.0043702037 -0.0031079126 0.026238251 -0.00809957 -0.012269125 -0.024650678 0.028471578
-0.017316809 -0.006623017 0.0038952958 -0.0015625166 -0.028323447 -0.010301012 -0.0038647975 0.01168186
-0.012160144 0.0031087813 -0.01363689 0.023976235 0.005230653 -0.005699328 -0.00029103956 0.005938003
0.0030802963 -0.011726795 -0.0004227846 0.019050114 0.005221212 -0.01884978 -0.005279867 -0.012427543
0.01235425 0.015850905 -0.0047551375 0.03158989 0.0110683525 -0.0058454773 -0.006460761 -0.022030069
0.03244416 -0.019397901 -0.020871755 -0.005679742 -0.021219885 -0.02574106 -4.9338443e-05 -0.010172982

network_body._body_endoder.seq_layers.0.weight f4 [128, 6]
00000000: e8bf 47be 9572 33bf c058 3a3f 9bdd 293e
00000010: c688 35be ddbe d13e 0178 e03d 23a6 8b3d
00000020: da84 493c 866f 763e 4774 83bf 9da6 2fbe
00000030: eaed 183e e6e4 36bd c9fd 0d3f 65f7 87be
00000040: dc4f a23e f3a1 fdbd 1243 5f3e e8d5 d8be
00000050: 31dc a5be f60e 323e 44cc a7bc 445d adbe
00000060: b043 26bf 5d4c 103f 1c10 c3be d344 bdbd
00000070: 60f8 83be dfac 613e dee4 153e 0e6f 4cbf
00000080: 5a27 903f bd26 7ebe 4503 1d3f 8602 98be
00000090: 15eb 86be e896 783e 8987 863e 9cd4 023f
000000a0: a97c 833d 56a1 7dbc eef6 863e 7feb 0abf
000000b0: 8d37 a5be fc7f 49be 6c6d 9ebb fcd1 533f
000000c0: c81a 10bf 74b3 2a3e 646e de3e 03a2 08bf
000000d0: e1bb ac3e 272a d2be 148b 20bd e4f2 b93e
000000e0: 32a2 b9bd 14b4 3dbe 2c48 b0be 70ae c9be
000000f0: e39b 033f 0d98 283f e6e5 a7be 62b8 c33e
00000100: 1fda 8abe 110d 353e ed1b f9be 3526 233f
00000110: 8e4e dbbd 642d d33b e107 b93a d2d8 2b3d
00000120: 7b10 c33e 8baa eabe cfc7 af3e d60c abbe
00000130: 6c08 91bd a66c 113f 977b 0c3d 678c a0bc
00000140: b629 183e e791 87be dff3 97bd b758 8ebe
00000150: 82dc 9b3d 986f dcbd 7024 dbbe ccf9 243e
00000160: 8d65 94bd 627c 913e 6b09 cebe 6794 983e
00000170: b4b5 dfbd 9a55 00bd e611 bd3e 68e1 1bbe
00000180: 8a82 1bbf 0d6a 3dbc c4ca 0c3f a1f4 6e3f
00000190: afbd e4bd 4c25 e93d bd07 ddbd b6ca da3c
000001a0: 4a8f 203f 3c89 853d 3a55 13be fa73 a33d
000001b0: 9014 c63e 1f19 c83e 3836 e43e d28d a6bd
000001c0: ea32 f9bd bcc8 2dbf dbcc 0e3e 8c72 2abf
000001d0: 20ac a83d 0d75 d23d 10d6 183e a644 2fbf
000001e0: f179 0bbe 678c 873e a690 8e3d 4ec3 b63e
000001f0: ea3d 743e 1763 3bbf 260d 273f 4db8 513e
00000200: 7039 58be 48af b6be 53b0 853e 5e07 b3be
00000210: 3955 113f eebe 9fbe ce2f 0fbe 63f5 0abe
00000220: a30f 093f 2b44 dcbc 5aeb 8e3b 9354 1abe
00000230: 439c 5bbd 728b e83e b5e5 63be 7c4e debd
00000240: c632 ce3e 82bd d5bd 5c63 f63d 3aee 9a3d
00000250: f728 253e 319a 05bf c019 5cbe 0cca e1be
00000260: 1872 81be cf0c 0c3f 628e 8dbe 83dc b73e
00000270: 1c88 653b 6fc0 17bf b21a e93c b5e1 9b3e
00000280: 278b 14be 240b 4c3f 40bc 0fbf e043 493f
00000290: 4572 c23e 9db9 12bf b665 81be 625f 603e
000002a0: 381a 563e 3884 1b3f 361c 8f3d 3a2a 803d
000002b0: dd29 31bf f62f 723e 3e79 1bbe be56 7d3e
000002c0: 1dae 7dbf 1078 763c 7d2e 2f3f 8238 41bf
000002d0: a720 9b3e b80f b2bd 4fcb 063d 3868 a73e
000002e0: 966b 4c3e 1da6 09bf bb48 fc3e 5d87 373d
000002f0: c07c 003e 0820 1ebf 148c 313d 24f1 643e
00000300: 41a9 703e 397c 853e 8dd4 963e 96c3 a43c
00000310: 37fb 0abf 6ecc f9be 6e75 50be f346 0dbf
00000320: 7c14 dcbe 1138 f53d 600d e73d 4c9a 26be
00000330: 09a0 083e cea2 fe3e baa1 573e 5219 19bf
00000340: dea0 64be cef2 a43e 0928 c23d 6ad7 3b3e
00000350: 9a30 15bf cc97 043a 229c d73e e337 043f
00000360: a076 8b3e aacf 85be 0659 2c3f 7719 813c
00000370: 29fc 93be bf6a 643f c341 813f 2de5 a3bc
00000380: 35b1 133f 9702 31bf 76a7 953f 0850 d3bd
00000390: 5b15 03bf c062 553e 7b93 0abe 886b 76be
000003a0: 0a29 ad3d b3e9 c53c 91ae 2cbf fe87 b33d
000003b0: d3a3 e43d ea03 51bf 4fbd dc3e 7070 cf3b
000003c0: c813 913e b5ea f13e a143 80be faf4 a03d
000003d0: e4f2 cf3e 73f0 de3e 0f2a 55be e776 48be
000003e0: c06a edbd df5b 8c3d c55a 243d 0f19 39be
000003f0: f2dc e73e 1d5f fbbe 2f03 93be 7c51 683e
-0.195068 -0.70096713 0.7279167 0.16588442 -0.17727956 0.4096593 0.10960389 0.068187974
0.012299741 0.2406598 -1.026986 -0.17153402 0.14934507 -0.04465189 0.5546537 -0.26555935
0.31701553 -0.12384405 0.21802929 -0.42350698 -0.32394555 0.1738852 -0.020483144 -0.3386022
-0.6494703 0.5636652 -0.38098228 -0.09241643 -0.25775433 0.22038601 0.14638087 -0.79856956
1.1262009 -0.24819465 0.61333114 -0.29689425 -0.26351228 0.24276316 0.2627528 0.51105666
0.064202614 -0.01548036 0.26360267 -0.5426559 -0.32268944 -0.19677728 -0.0048348214 0.82742286
-0.56290865 0.16670018 0.43443596 -0.5337221 0.3373709 -0.41047785 -0.039195135 0.36318123
-0.090641394 -0.18525726 -0.34430063 -0.39390898 0.5140974 0.6585701 -0.32792586 0.3822661
-0.27119538 0.17680766 -0.48654118 0.63730174 -0.107083425 0.00644462 0.0014116728 0.041954823
0.3809851 -0.4583324 0.3433213 -0.3340823 -0.070816845 0.5680641 0.034297552 -0.019598199
0.14859661 -0.26478502 -0.074195616 -0.2780206 0.07610418 -0.10763472 -0.42801237 0.16110915
-0.07245932 0.2841521 -0.4024156 0.29800722 -0.10923329 -0.031331636 0.36927718 -0.15222704
-0.6074606 -0.011560929 0.54996896 0.93342024 -0.11168992 0.11384067 -0.107924916 0.026707988
0.6271864 0.06520316 -0.1438798 0.07981105 0.38687563 0.39081666 0.44572616 -0.08132519
-0.12167914 -0.6788442 0.13945334 -0.66581035 0.08235955 0.10276232 0.14925408 -0.68464124
-0.13620736 0.26474306 0.06961183 0.3569588 0.23851743 -0.73198074 0.6525444 0.20480461
-0.2111566 -0.35680604 0.26111087 -0.34966558 0.56770664 -0.31200355 -0.1398308 -0.1357017
0.53539485 -0.026887974 0.004361552 -0.15071325 -0.05361582 0.45418888 -0.22255595 -0.108548135
0.40273112 -0.10436536 0.1203067 0.07564969 0.16128908 -0.521884 -0.21494198 -0.44099462
-0.2528236 0.54707044 -0.27647692 0.35910425 0.0035023754 -0.59278005 0.028455112 0.30445638
-0.14506207 0.797045 -0.5614662 0.78619194 0.37977806 -0.57314473 -0.25272912 0.21911386
0.20908439 0.60748625 0.06987803 0.06258054 -0.69204503 0.23651108 -0.15182969 0.24740121
-0.990938 0.015043274 0.6843031 -0.7547685 0.3029835 -0.08694404 0.032908734 0.326967
0.19962916 -0.53769094 0.4927424 0.044806827 0.12547588 -0.61767626 0.04334648 0.22357613
0.23502065 0.26071337 0.29459038 0.020112794 -0.54289573 -0.4878878 -0.20357296 -0.55186385
-0.42984378 0.119735844 0.11281848 -0.16269797 0.13342299 0.49733585 0.21057788 -0.5980426
-0.22326991 0.32216495 0.09480292 0.18343893 -0.58277285 0.000505802 0.42111307 0.51647776
0.2723894 -0.26134998 0.6732334 0.015759213 -0.2890332 0.8922538 1.0098194 -0.02000674
0.5769227 -0.69144577 1.169173 -0.10317999 -0.5120446 0.20838451 -0.13532822 -0.24064457
0.08455093 0.024159288 -0.6745387 0.08766173 0.111640595 -0.816466 0.4311318 0.0063305423
0.28335404 0.4724938 -0.25051597 0.078592256 0.40614998 0.43542823 -0.20816825 -0.19576608
-0.115926266 0.068534605 0.040125627 -0.18075965 0.45285755 -0.49096003 -0.28713366 0.22687334

network_body._body_endoder.seq_layers.0.bias f4 [128]
00000000: 0000 0000 0000 0000 0000 0000 0000 0000
00000010: 0000 0000 0000 0000 0000 0000 0000 0000
00000020: 0000 0000 0000 0000 0000 0000 0000 0000
00000030: 0000 0000 0000 0000 0000 0000 0000 0000
00000040: 0000 0000 0000 0000 0000 0000 0000 0000
00000050: 0000 0000 0000 0000 0000 0000 0000 0000
00000060: 0000 0000 0000 0000 0000 0000 0000 0000
00000070: 0000 0000 0000 0000 0000 0000 0000 0000
00000080: 0000 0000 0000 0000 0000 0000 0000 0000
00000090: 0000 0000 0000 0000 0000 0000 0000 0000
000000a0: 0000 0000 0000 0000 0000 0000 0000 0000
000000b0: 0000 0000 0000 0000 0000 0000 0000 0000
000000c0: 0000 0000 0000 0000 0000 0000 0000 0000
000000d0: 0000 0000 0000 0000 0000 0000 0000 0000
000000e0: 0000 0000 0000 0000 0000 0000 0000 0000
000000f0: 0000 0000 0000 0000 0000 0000 0000 0000
00000100: 0000 0000 0000 0000 0000 0000 0000 0000
00000110: 0000 0000 0000 0000 0000 0000 0000 0000
00000120: 0000 0000 0000 0000 0000 0000 0000 0000
00000130: 0000 0000 0000 0000 0000 0000 0000 0000
00000140: 0000 0000 0000 0000 0000 0000 0000 0000
00000150: 0000 0000 0000 0000 0000 0000 0000 0000
00000160: 0000 0000 0000 0000 0000 0000 0000 0000
00000170: 0000 0000 0000 0000 0000 0000 0000 0000
00000180: 0000 0000 0000 0000 0000 0000 0000 0000
00000190: 0000 0000 0000 0000 0000 0000 0000 0000
000001a0: 0000 0000 0000 0000 0000 0000 0000 0000
000001b0: 0000 0000 0000 0000 0000 0000 0000 0000
000001c0: 0000 0000 0000 0000 0000 0000 0000 0000
000001d0: 0000 0000 0000 0000 0000 0000 0000 0000
000001e0: 0000 0000 0000 0000 0000 0000 0000 0000
000001f0: 0000 0000 0000 0000 0000 0000 0000 0000
0.0 0.0 0.0 0.0 0.0 0.0 0.0 0.0
0.0 0.0 0.0 0.0 0.0 0.0 0.0 0.0
0.0 0.0 0.0 0.0 0.0 0.0 0.0 0.0
0.0 0.0 0.0 0.0 0.0 0.0 0.0 0.0
0.0 0.0 0.0 0.0 0.0 0.0 0.0 0.0
0.0 0.0 0.0 0.0 0.0 0.0 0.0 0.0
0.0 0.0 0.0 0.0 0.0 0.0 0.0 0.0
0.0 0.0 0.0 0.0 0.0 0.0 0.0 0.0
0.0 0.0 0.0 0.0 0.0 0.0 0.0 0.0
0.0 0.0 0.0 0.0 0.0 0.0 0.0 0.0
0.0 0.0 0.0 0.0 0.0 0.0 0.0 0.0
0.0 0.0 0.0 0.0 0.0 0.0 0.0 0.0
0.0 0.0 0.0 0.0 0.0 0.0 0.0 0.0
0.0 0.0 0.0 0.0 0.0 0.0 0.0 0.0
0.0 0.0 0.0 0.0 0.0 0.0 0.0 0.0
0.0 0.0 0.0 0.0 0.0 0.0 0.0 0.0

network_body._body_endoder.seq_layers.2.weight f4 [128, 128]
00000000: 2e3f 9f3b f859 1fbe b2d8 63bc 4364 d43c
00000010: ffea 26be 3a72 863d 3aa5 73bc 9332 f7bd
00000020: 72c7 463e b6b8 8fbd bfbf f2bd 1c22 1dbc
00000030: 20b9 82bd 4c8b 8dbd d0f9 6cbd 9ab5 21be
00000040: 7d99 84bc b34a 88bc 5706 573d 14c4 6e3c
00000050: 4453 29bd 51f3 f53d 4ad2 063e 2421 1fbd
00000060: ea87 04be dee5 973d 175e 95bd 3b10 8abc
00000070: fa31 863d e998 feba 9f8d 25bd 5f1a c2bd
00000080: 8ee7 923c 97b4 093d 7fbf 1ebd cea4 f53d
00000090: 4f7e 12bc a64d f6bc 946c abbd ff19 303e
000000a0: 3b91 cfbd 67c5 1abe 6dab 63bc fbeb f9bc
000000b0: 2b8c dbbc b863 c9bd f8d4 553c ff67 e2bd
000000c0: ee17 0dbe da98 9a3c f262 f63d 38d3 a1bd
000000d0: f252 36be ba57 60bd ea4c 5b3d eb05 223c
000000e0: b958 e63c d8b3 4ebd 0f08 e1bc 1223 e93c
000000f0: c1a0 c83c 35e1 abb9 9b0a 843d c7e4 3dbd
00000100: 2b40 fabd ae7b 3fbe bf70 8f3d 68e6 9c3d
00000110: fa56 a4bd bdad ee3c 198c c5bd d9e2 4e3d
00000120: dad4 9cbd 3c1e bcbc 94d1 953d 6ead 1fbe
00000130: fc73 a73d 1957 53bc 78d0 a1bc 532d 45bd
00000140: 983d 843d 69ed 70be 61e2 fa3c 055f 1f3d
00000150: 262e 90bd ea3e 9bbd 06ba 9a3d bc31 013e
00000160: 1966 083e d383 04bd 6e8c 08be d0f6 1cbe
00000170: 4db1 debc 2740 c1bd af20 0e3e f9b6 98bd
00000180: 344c 0fbe d6f1 803c e118 46be 7e09 89bc
00000190: 216c 123d 92d5 ea3d a025 5b3e 29e0 ecbd
000001a0: b2e0 83bd 20dc 3abe cb7e 643e 5403 153e
000001b0: fb1f 5bbd d499 0a3b 5447 1c3e 7c66 843c
000001c0: 40fa 9d3b 964c a3bc ab2b 0fbc e2fb a73d
000001d0: b83a 5e3d 2e4c a5bd 6c4b 0abe c67e b9bd
000001e0: cf01 d2bc faa1 08be 6509 edbd b067 153d
000001f0: cca5 1e3d b065 44bd 378f d2bd 5c2d 013e
00000200: df68 eb3c 4c1e fa3d c07b 0c3d 8793 bcbc
00000210: 47b0 e8bd fe3e 073c 04ea 243d 80dc 1f3d
00000220: e3da 233d e281 babd f7ef 84bb 3d19 213d
00000230: 50b0 a9bd 4929 d0bd 3864 1d3e 219a 3fbd
00000240: 562a c0bc 12ca 70bc 52ae c03c 6bb4 243b
00000250: bbed 90bb 3fc3 673d 86d9 6c3e 3c02 bcbd
00000260: dbcf 1abc 74fb ba3c 668f 573c b2b0 84bc
00000270: 9708 dc3d 9545 1fbe bd52 81bd 0d7f 983b
00000280: f374 babd 6b2b e73d 3b00 9a3d cac7 37be
00000290: f924 2e3d 5b25 4c3c ef72 21bd 93bf 153d
000002a0: 6c17 193e d736 10be 576b d83c c950 a6bd
000002b0: 0c7f 0e3e 14bb 9fbd e386 76bd ba71 303e
000002c0: c206 a4bc 110a dfbd 6098 19bc cec9 7f3d
000002d0: f08e 14be 0219 27bd 5d37 37bd 525c c03d
000002e0: acc5 93bc a352 27be 9613 7d3c f78a 653d
000002f0: a57b 00be d471 a03d 993c 853d f610 cd3d
00000300: 6872 ffbc 4bee 58bc b77b 94bd 9eaa 28bd
00000310: 720c 43bd ce5b 4e3e 2896 f23b 0011 fd3c
00000320: a98e 1b3c de5a 263e 3f59 ce3a d555 53be
00000330: a152 283d c57b 243e 5d38 08bd 8175 05be
00000340: 3e89 8bbd d06a 77be cfb6 393e cc04 e5ba
00000350: 316a dfbc 4816 d9bc 1bfc 5f3d b8f1 8f3c
00000360: 589a d13c 7f8f adbd f236 203c 49b3 2b3e
00000370: c475 f83c 2bd3 863b 4faa f6bc fb74 16bc
00000380: 2387 41bb e19e 4dbe 60b7 07be 95da 13be
00000390: fefa e23d be58 da3d f418 663d 1b1e 103e
000003a0: 13bd b3bc b1f4 073e 151d a7bd 7c9c d33c
000003b0: 22f7 82bc ceeb 363b dfed 60ba 34ea 1c3e
000003c0: d9bc bb3d d7e7 6e3e e78d ce3d 9c39 1b3e
000003d0: 2e37 6c3d 6278 013d cfdb b53d c415 1c3e
000003e0: 3c3c 3c3d b4b8 debd aea5 b63c 6017 3fbd
000003f0: 1e4a 19bd 7b2d da3c a0e6 8d3c 96de ccbd
0.0048598265 -0.15561664 -0.013906645 0.025926715 -0.16300581 0.06564756 -0.014870936 -0.12070193
0.1941202 -0.07017653 -0.11852979 -0.009590652 -0.06382966 -0.069113344 -0.057855427 -0.15791932
-0.01618647 -0.016637182 0.05249628 0.014573116 -0.041339174 0.120092995 0.13166156 -0.038849965
-0.12942472 0.074168906 -0.07293337 -0.016853442 0.06552501 -0.0019424233 -0.040418264 -0.09477686
0.01793268 0.03361949 -0.038756844 0.119943246 -0.008941247 -0.030066323 -0.08370319 0.17197417
-0.101351224 -0.15114366 -0.013895852 -0.030508032 -0.026800236 -0.09833473 0.013051264 -0.11054992
-0.1377866 0.018871713 0.12030591 -0.07901615 -0.17805079 -0.054771163 0.053540148 0.009889106
0.028118478 -0.05046448 -0.027469663 0.028459106 0.024490716 -0.00032783454 0.06447335 -0.046360757
-0.1221927 -0.18699524 0.070039265 0.07661134 -0.08024402 0.02913558 -0.09645862 0.050509308
-0.07657786 -0.022963636 0.073153645 -0.15593502 0.08176419 -0.012899184 -0.019752726 -0.048138928
0.064570606 -0.23528065 0.030625524 0.038908977 -0.07040052 -0.07580359 0.075550124 0.12616628
0.13320197 -0.03235228 -0.1333482 -0.15328526 -0.027184153 -0.09436064 0.13879655 -0.07456774
-0.13993913 0.015740316 -0.19345428 -0.016728159 0.03574765 0.114665166 0.21401072 -0.11566193
-0.064393416 -0.18248034 0.22313993 0.14552051 -0.053497296 0.0021148818 0.15261585 0.01616215
0.004821092 -0.01993398 -0.008738439 0.0820234 0.054255217 -0.08071171 -0.13505334 -0.09057383
-0.025635628 -0.13343039 -0.115740575 0.036475837 0.038732335 -0.04794854 -0.10281222 0.1261496
0.02873653 0.1221281 0.034297705 -0.023019565 -0.11361747 0.008254765 0.040262237 0.039028645
0.04000367 -0.091068044 -0.0040569264 0.03933071 -0.08285582 -0.101641245 0.15370262 -0.04677785
-0.023457687 -0.014696615 0.023520622 0.0025131952 -0.004422871 0.056582686 0.23129854 -0.09180114
-0.009448971 0.02282498 0.013156747 -0.016197536 0.10743826 -0.15553887 -0.06314609 0.0046538175
-0.091043375 0.11287578 0.07519575 -0.17947307 0.04251573 0.012460078 -0.03941625 0.036559653
0.14950341 -0.1408342 0.026418371 -0.08120877 0.13915652 -0.07799354 -0.06018723 0.17230883
-0.020022754 -0.10890592 -0.009374708 0.062448315 -0.14507651 -0.040795334 -0.044730533 0.09392609
-0.018038593 -0.16340117 0.015446564 0.05604073 -0.12547167 0.07834211 0.06505699 0.10013001
-0.031182483 -0.013240407 -0.07250159 -0.04117834 -0.04761929 0.20152208 0.007403154 0.030891895
0.009494462 0.162456 0.001574315 -0.20638211 0.041094426 0.1606284 -0.033256877 -0.13033105
-0.06813286 -0.2416184 0.18136142 -0.0017472743 -0.027272316 -0.026499882 0.054683786 0.017571315
0.025586292 -0.08474635 0.009778725 0.1676761 0.030329593 0.0041145287 -0.030110506 -0.009183164
-0.002953001 -0.20080139 -0.13253546 -0.14438851 0.11083029 0.106614575 0.05617614 0.14073984
-0.021940744 0.13276936 -0.08159844 0.025831454 -0.015986983 0.0027911547 -0.00085803674 0.15323716
0.09166879 0.23330627 0.100856595 0.15158695 0.05766981 0.031608947 0.08879816 0.15242678
0.04595588 -0.10875073 0.0222958 -0.04665315 -0.0374242 0.026633015 0.017321885 -0.100033924

network_body._body_endoder.seq_layers.2.bias f4 [128]
00000000: 0000 0000 0000 0000 0000 0000 0000 0000
00000010: 0000 0000 0000 0000 0000 0000 0000 0000
00000020: 0000 0000 0000 0000 0000 0000 0000 0000
00000030: 0000 0000 0000 0000 0000 0000 0000 0000
00000040: 0000 0000 0000 0000 0000 0000 0000 0000
00000050: 0000 0000 0000 0000 0000 0000 0000 0000
00000060: 0000 0000 0000 0000 0000 0000 0000 0000
00000070: 0000 0000 0000 0000 0000 0000 0000 0000
00000080: 0000 0000 0000 0000 0000 0000 0000 0000
00000090: 0000 0000 0000 0000 0000 0000 0000 0000
000000a0: 0000 0000 0000 0000 0000 0000 0000 0000
000000b0: 0000 0000 0000 0000 0000 0000 0000 0000
000000c0: 0000 0000 0000 0000 0000 0000 0000 0000
000000d0: 0000 0000 0000 0000 0000 0000 0000 0000
000000e0: 0000 0000 0000 0000 0000 0000 0000 0000
000000f0: 0000 0000 0000 0000 0000 0000 0000 0000
00000100: 0000 0000 0000 0000 0000 0000 0000 0000
00000110: 0000 0000 0000 0000 0000 0000 0000 0000
00000120: 0000 0000 0000 0000 0000 0000 0000 0000
00000130: 0000 0000 0000 0000 0000 0000 0000 0000
00000140: 0000 0000 0000 0000 0000 0000 0000 0000
00000150: 0000 0000 0000 0000 0000 0000 0000 0000
00000160: 0000 0000 0000 0000 0000 0000 0000 0000
00000170: 0000 0000 0000 0000 0000 0000 0000 0000
00000180: 0000 0000 0000 0000 0000 0000 0000 0000
00000190: 0000 0000 0000 0000 0000 0000 0000 0000
000001a0: 0000 0000 0000 0000 0000 0000 0000 0000
000001b0: 0000 0000 0000 0000 0000 0000 0000 0000
000001c0: 0000 0000 0000 0000 0000 0000 0000 0000
000001d0: 0000 0000 0000 0000 0000 0000 0000 0000
000001e0: 0000 0000 0000 0000 0000 0000 0000 0000
000001f0: 0000 0000 0000 0000 0000 0000 0000 0000
0.0 0.0 0.0 0.0 0.0 0.0 0.0 0.0
0.0 0.0 0.0 0.0 0.0 0.0 0.0 0.0
0.0 0.0 0.0 0.0 0.0 0.0 0.0 0.0
0.0 0.0 0.0 0.0 0.0 0.0 0.0 0.0
0.0 0.0 0.0 0.0 0.0 0.0 0.0 0.0
0.0 0.0 0.0 0.0 0.0 0.0 0.0 0.0
0.0 0.0 0.0 0.0 0.0 0.0 0.0 0.0
0.0 0.0 0.0 0.0 0.0 0.0 0.0 0.0
0.0 0.0 0.0 0.0 0.0 0.0 0.0 0.0
0.0 0.0 0.0 0.0 0.0 0.0 0.0 0.0
0.0 0.0 0.0 0.0 0.0 0.0 0.0 0.0
0.0 0.0 0.0 0.0 0.0 0.0 0.0 0.0
0.0 0.0 0.0 0.0 0.0 0.0 0.0 0.0
0.0 0.0 0.0 0.0 0.0 0.0 0.0 0.0
0.0 0.0 0.0 0.0 0.0 0.0 0.0 0.0
0.0 0.0 0.0 0.0 0.0 0.0 0.0 0.0

value_heads.value_heads.extrinsic.weight f4 [1, 128]
00000000: 00bd 083d 218c 683d 2077 4e3e 5ad5 d43d
00000010: de8e 453e 5173 993c 65ab 1c3e 8dbe 56be
00000020: 5d52 1b3c 0408 9fbd 30e6 0e3e cbd4 403d
00000030: 63af bb3d f918 6cbd 7cc6 f23d f642 ce3c
00000040: 122f e7bd 02fa 29be 2110 49bd b172 a03c
00000050: 2f1b a83d 8e91 c6bd 0852 a53d cfc0 273e
00000060: 0478 e33c 6e43 a93d 79c3 7e3d c869 bb3d
00000070: 89c7 c4bd dcdc 45be 5af3 213e 5bbe 43be
00000080: 83f1 31be 3ac8 08bd b373 afbd 59bb 333e
00000090: 6462 33be e743 9e3d f4b4 153c 443d cfbc
000000a0: 31dc 823d a473 00be edbc ea3d f27a 0cbd
000000b0: 02ef 34be b7e4 e03d 79b3 1a3d c8da c53b
000000c0: fdfa 8b3a d0a4 193e 5d6a 97bd 9618 2abe
000000d0: ac17 e23b 55b3 353e 139b ab3a a435 87bd
000000e0: 51b7 0c3d 77df d2bd a3e3 3fbe 7e88 27bd
000000f0: b174 00be ab80 f63d 7da4 f8bd 74b0 b83d
00000100: a8c4 74bd fb99 463e a499 24be 0de5 003e
00000110: 12c6 073e 0559 373b 5eab 4dbe 32ac c53d
00000120: fc8d 143e 9a89 96bd acb3 e4bd 1e1c 50bd
00000130: eadb 24bd 5585 0bbe dd51 e4bd 9f98 2d3e
00000140: 58e2 0c3e 0a58 3fbe 9bc4 f33c 7d23 15bd
00000150: 3029 57be 7199 133d ea44 d13d 5ed8 103e
00000160: 33fe d63d e717 303e a1c4 1fbe 1dd1 8ebd
00000170: d705 26be 8571 f33d e39f a8bc 9909 363e
00000180: 3782 3fbe 7369 90bd 19a1 203e 7b6c c8bc
00000190: 08d4 99bd 701f b73b 201c 51bd 579d 393e
000001a0: 924a ac3d 3591 1abe f47a 563e e68b a53d
000001b0: 5696 103e 8fdb 3dbe e2a6 213e 2999 98bd
000001c0: 83cc bebd e224 523d c7d2 313e e2d6 0bbe
000001d0: 8536 233e a383 48bc 02b8 533e 9db4 0dbe
000001e0: b066 5abe 5193 893c 004f 213e a57b 4a3c
000001f0: 5df3 d7bd 1a6d 8dbd 3d13 fa3d f331 45be
0.03338337 0.056774262 0.2016263 0.10392256 0.19292781 0.018731745 0.15299757 -0.20971127
0.009480086 -0.07765201 0.13954997 0.047077935 0.09164312 -0.057641003 0.11854264 0.025178414
-0.11288275 -0.16599277 -0.049087647 0.01958594 0.0820831 -0.09695731 0.08072287 0.16382144
0.027767189 0.08264814 0.062198136 0.091510355 -0.09608371 -0.19322532 0.15815488 -0.19115584
-0.17377286 -0.033394076 -0.0856699 0.17551936 -0.17518002 0.07727795 0.009137381 -0.025297768
0.063896544 -0.12544113 0.11461816 -0.034296937 -0.17669299 0.10981124 0.037768815 0.0060380436
0.0010679659 0.15004277 -0.07393334 -0.16610941 0.0068997946 0.17744191 0.001309248 -0.06602028
0.03435451 -0.10296529 -0.1873918 -0.040901653 -0.12544514 0.1203626 -0.12140749 0.09018031
-0.05975786 0.19394676 -0.16074234 0.12587376 0.13259152 0.0027976644 -0.20084903 0.09651984
0.14507288 -0.07350464 -0.11167082 -0.050808065 -0.04024879 -0.13625081 -0.11148427 0.16952752
0.13758218 -0.18685928 0.029756835 -0.036410797 -0.21011806 0.036035005 0.102182224 0.14145038
0.104977034 0.17196618 -0.15602352 -0.06973479 -0.16213165 0.118868865 -0.020584052 0.17777099
-0.18702017 -0.07051363 0.15686454 -0.02446579 -0.07511145 0.0055884644 -0.051052213 0.18126427
0.08412661 -0.15094455 0.2094534 0.08083324 0.14119849 -0.18540786 0.15786317 -0.07451088
-0.09316351 0.051304705 0.17365561 -0.1365619 0.15938766 -0.012238416 0.20675662 -0.1383843
-0.21328235 0.016793879 0.15752792 0.012358581 -0.10544465 -0.06905575 0.12210701 -0.19257335
