Shortcut Run/results/LEVEL1/Move/Move-232.onnx (onnx, 71941 bytes, 5 tensors)

network_body._body_endoder.seq_layers.0.weight f4 [128, 6]
000000 5e f3 0f 3f 3d 0e 00 bd d5 c9 21 bf 49 d7 fe bd
       0.56230724 -0.03126358 -0.63198596 -0.12443406
000010 56 13 13 3e c6 06 45 3f ae 43 00 3f f4 8a 13 be
       0.14362845 0.7696346 0.5010327 -0.14408475
000020 73 85 70 3e a1 b2 4d be 0a 22 fd bd 98 58 ea be
       0.23488407 -0.20087673 -0.12360008 -0.45770717
000030 4f 4d 91 3e 43 ad 32 be b1 7f 0c 3f 47 6c bc 3e
       0.28379294 -0.17448907 0.5488234 0.3680136
000040 7a 70 17 bf 8f 7d 04 3f 82 dc 77 be 2a e1 a4 be
       -0.59156 0.5175409 -0.24205211 -0.32203037
000050 24 05 1b 3d 76 c4 2a 3e 70 9c 44 be a2 76 08 3f
       0.0378467 0.16676506 -0.19200301 0.5330602
000060 17 06 a4 3e e6 2f 28 3f d6 0f 28 be ce 7a 22 be
       0.32035896 0.6569809 -0.16412291 -0.15867159
000070 d6 06 7e 3e 7c e5 55 be 05 47 16 3f 94 af 3e 3d
       0.24807295 -0.20888323 0.5870212 0.046554163
000080 ac 90 03 bf 1f be 91 3f 60 40 c2 bd 6a 4b d7 3e
       -0.51392627 1.1386145 -0.09484935 0.42049724
000090 a6 0c b9 be ed 18 46 3f 29 34 df be 7f 76 c4 3e
       -0.36142462 0.77381784 -0.43594483 0.38371655
0000a0 c9 88 0e 3f f1 e1 45 3f 15 bb 35 bd 01 df 32 be
       0.5567747 0.77297884 -0.04436787 -0.17467882
0000b0 ec 5d 67 bd 4b cc 26 be c8 50 15 be ad 5e d1 3e
       -0.056486055 -0.16288869 -0.14581597 0.40892544
0000c0 76 17 2e be 58 07 1a bf ef ce af 3e 78 ce 59 be
       -0.17001137 -0.60167456 0.34337565 -0.21270168
0000d0 aa af 45 bf 15 64 32 3c bb a4 ad 3c 96 e0 92 be
       -0.7722117 0.010888119 0.021196714 -0.2868697
0000e0 6e 13 7d bc d2 e7 83 3e c2 2a 13 bf 91 ce 59 3e
       -0.015446527 0.25762802 -0.5748712 0.21270205
0000f0 80 71 04 3e 4f 8c c9 3d 84 86 fa bc dc 4b 45 3e
       0.12933922 0.09841215 -0.03058172 0.1926722
000100 8b 7d 97 be f6 b3 64 3f 06 48 fd 3e de 89 a8 bc
       -0.2958797 0.893371 0.49469012 -0.020573553
000110 dc 7d 6e 3e fc 0c 4a 3e fd 30 8b 3e 2f 91 82 bd
       0.23290199 0.19731516 0.27185813 -0.06375348
000120 f4 b3 db be 1b 20 0b be 73 f0 5a 3d f7 0f 7e be
       -0.4291073 -0.13586466 0.053451966 -0.24810778
000130 e4 e2 f1 3d 71 34 d9 3c 8c 25 3b be eb 00 23 be
       0.11810854 0.026514264 -0.18276042 -0.15918319
000140 b4 b7 de be 04 f0 79 3e ea 5b 96 bc ae ae aa 3e
       -0.4349953 0.24407965 -0.018354375 0.33336395
000150 1d d1 25 be dd 5b dd be fb 8e 1b be e0 2a 68 bc
       -0.16193052 -0.4323415 -0.15191261 -0.014170378
000160 66 70 08 be 8d fd c8 3e d2 c6 b7 bd 05 28 33 bf
       -0.13324127 0.39255944 -0.08973469 -0.6998294
000170 eb 97 ab 3e 2b 45 3a 3e c4 a6 6a 3e 62 7a 91 3e
       0.33514342 0.18190448 0.22915179 0.28413683
000180 97 9b b6 3f 7f 56 92 be aa e9 a2 be 08 df bf bd
       1.4266232 -0.28581616 -0.31818897 -0.09368712
000190 15 4c 48 be 50 e8 81 bd f7 9e d0 be 2c a9 34 be
       -0.19560273 -0.06343138 -0.4074628 -0.17642659
0001a0 27 cb d2 3d cc e6 78 bc 5b 02 0c be 5e 4f a9 be
       0.102926545 -0.015191745 -0.13672774 -0.33068365
0001b0 5f 50 27 3e 51 04 21 3e eb 44 8f be 27 98 83 3e
       0.16339253 0.15724303 -0.27982268 0.2570202
0001c0 14 d6 22 bf f9 d9 fd bd 32 16 2e 3e ce 33 04 be
       -0.6360791 -0.123950906 0.17000654 -0.12910387
0001d0 07 d9 09 3f 25 32 54 3f 3f ed 5a bd be 44 cc 3e
       0.5384678 0.82889014 -0.05344891 0.39896196
0001e0 c1 76 b1 3e 2f 46 af 3e 83 ec d8 be 56 97 1e 3f
       0.34660915 0.34233233 -0.42367944 0.6194967
0001f0 44 7c 2e bf 81 10 66 3e 6c e7 e8 3e 00 54 83 3e
       -0.68158364 0.22467233 0.4548906 0.25650024
000200 78 c1 c5 be 03 13 31 3f e2 93 63 bf 28 9a 35 be
       -0.38624167 0.69169635 -0.88897526 -0.17734587
000210 ee 56 de 3c bd 83 bb 3e 2a fb a3 3c 0e 73 ec 3d
       0.02714106 0.36623946 0.020017225 0.115453824
000220 f0 40 99 3e 48 da f3 be 68 93 ad bd 77 c3 3d bd
       0.29932356 -0.47627473 -0.08475381 -0.046328988
000230 36 9f a1 3e 1a e1 92 3e c5 f8 30 be 39 e5 19 bf
       0.3156678 0.28687364 -0.17282398 -0.6011539
000240 04 3d 7f 3e b3 3c 27 be ee 00 3c 3f 65 1e 56 3c
       0.2492562 -0.16331749 0.7343892 0.01306877
000250 c8 c6 e7 3e f9 c7 8d be 78 06 a5 3e de 45 a8 be
       0.45268846 -0.2769163 0.32231498 -0.32865804
000260 e4 d3 a4 bc f2 2c 49 bd a0 fc 43 bd 06 89 a4 3e
       -0.020120569 -0.04911513 -0.047848344 0.3213579
000270 94 7d 53 3e 15 90 14 bf d1 cc 14 be fb 69 bc 3e
       0.20653373 -0.5803235 -0.14531256 0.36799607
000280 29 a9 82 3e 91 6c da 3e d0 fd 26 be ec 59 ed 3e
       0.25519684 0.42660955 -0.1630776 0.46357667
000290 23 32 4e bf 2d ef 9d 3e e5 58 ba 3d b1 7c 89 3e
       -0.8054525 0.3084654 0.090989865 0.26852944
0002a0 07 61 db 3e ac ae 9f be 72 a3 4d be 29 96 0a be
       0.42847463 -0.31187952 -0.2008188 -0.13533844
0002b0 25 5f 29 3e 15 f4 ad 3d 36 3c 9e bd 73 68 c0 be
       0.16540201 0.084938206 -0.07726328 -0.37579688
0002c0 38 14 90 be f5 1b 9a be aa 11 20 3f 55 dd b1 3a
       -0.28140426 -0.30099455 0.62526953 0.001356999
0002d0 81 3e 98 bd 34 7d a3 be 15 ac 45 3f 72 8d b7 3d
       -0.07433797 -0.3193146 0.772157 0.089625254
0002e0 17 7f 1f bf 0a 7c 04 bf ca 6e f2 3d f0 44 76 bd
       -0.623033 -0.5175177 0.118375376 -0.060124338
0002f0 38 4c be 3e bb 23 20 bf fe 17 03 3f 7c f9 c6 3e
       0.37167525 -0.6255452 0.51208484 0.38862216
000300 99 a0 a6 3e 6a 1a f9 bd 97 60 06 bf 0b 1e fe be
       0.325444 -0.12163241 -0.52491134 -0.49632296
000310 a9 b5 ef be c4 7d 6e 3f 59 d6 e0 bd 3d cf 8a bd
       -0.46818283 0.93160653 -0.109783836 -0.06777809
000320 5a 8b f9 3c c6 f6 ae be ce ca e8 3e 25 8a 2b be
       0.030461956 -0.34172648 0.45467228 -0.16751917
000330 b8 0f d4 3d 43 7b 82 3f a4 c5 16 3d 88 8e fa 3c
       0.103545606 1.0193866 0.03680958 0.030585542
000340 57 66 fc bd de 27 59 be 0a b8 63 3e f8 86 12 bc
       -0.12324207 -0.21206614 0.22238174 -0.008943312
000350 0c b6 17 be 94 1b 2c 3e 78 08 3c 3e 08 9b e5 be
       -0.14815539 0.16807395 0.18362606 -0.44844842
000360 42 dc 86 be 34 14 31 3e 39 43 e5 3d b5 93 98 bd
       -0.26339918 0.17292863 0.11194462 -0.07450048
000370 50 b0 17 3e 5d 94 f5 be ce f2 ee bd 5d 4f 88 bb
       0.14813352 -0.47964755 -0.11667405 -0.0041598515
000380 85 8a c3 bd af c1 34 be da 84 be bd 71 67 92 be
       -0.09547905 -0.1765201 -0.09302683 -0.28594545
000390 ef f5 e1 bb 35 cd ce bd 97 9c 0b bf 2b a9 19 be
       -0.0068957726 -0.10097734 -0.5453581 -0.15005939
0003a0 a3 b9 b2 3e 03 5b c1 bd 5f e0 d4 3e fc 6c c4 3e
       0.34907255 -0.09441187 0.41577432 0.38364398
0003b0 37 b5 a9 bd eb 55 9b 3e ad 16 fd be 98 af 9c 3e
       -0.08286517 0.30338988 -0.49431363 0.30602717
0003c0 d3 82 37 bf 3c 3a 85 3c e9 cc 83 3f 44 45 d0 bd
       -0.71683997 0.01626312 1.0296909 -0.10169461
0003d0 d4 1e 13 3f 50 fb b4 be f6 3c 5e be 3d e2 ab be
       0.57468915 -0.35347986 -0.21702942 -0.33571044
0003e0 94 19 31 be 61 04 91 be 22 66 8b be f0 c8 e5 be
       -0.17294914 -0.28323653 -0.2722636 -0.44879866
0003f0 64 b0 b0 3d f0 4d 11 bd 0c e9 f1 3d 6d 3b 17 bf
       0.08627394 -0.035474718 0.11812028 -0.5907505

network_body._body_endoder.seq_layers.0.bias f4 [128]
000000 00 00 00 00 00 00 00 00 00 00 00 00 00 00 00 00
       0.0 0.0 0.0 0.0
000010 00 00 00 00 00 00 00 00 00 00 00 00 00 00 00 00
       0.0 0.0 0.0 0.0
000020 00 00 00 00 00 00 00 00 00 00 00 00 00 00 00 00
       0.0 0.0 0.0 0.0
000030 00 00 00 00 00 00 00 00 00 00 00 00 00 00 00 00
       0.0 0.0 0.0 0.0
000040 00 00 00 00 00 00 00 00 00 00 00 00 00 00 00 00
       0.0 0.0 0.0 0.0
000050 00 00 00 00 00 00 00 00 00 00 00 00 00 00 00 00
       0.0 0.0 0.0 0.0
000060 00 00 00 00 00 00 00 00 00 00 00 00 00 00 00 00
       0.0 0.0 0.0 0.0
000070 00 00 00 00 00 00 00 00 00 00 00 00 00 00 00 00
       0.0 0.0 0.0 0.0
000080 00 00 00 00 00 00 00 00 00 00 00 00 00 00 00 00
       0.0 0.0 0.0 0.0
000090 00 00 00 00 00 00 00 00 00 00 00 00 00 00 00 00
       0.0 0.0 0.0 0.0
0000a0 00 00 00 00 00 00 00 00 00 00 00 00 00 00 00 00
       0.0 0.0 0.0 0.0
0000b0 00 00 00 00 00 00 00 00 00 00 00 00 00 00 00 00
       0.0 0.0 0.0 0.0
0000c0 00 00 00 00 00 00 00 00 00 00 00 00 00 00 00 00
       0.0 0.0 0.0 0.0
0000d0 00 00 00 00 00 00 00 00 00 00 00 00 00 00 00 00
       0.0 0.0 0.0 0.0
0000e0 00 00 00 00 00 00 00 00 00 00 00 00 00 00 00 00
       0.0 0.0 0.0 0.0
0000f0 00 00 00 00 00 00 00 00 00 00 00 00 00 00 00 00
       0.0 0.0 0.0 0.0
000100 00 00 00 00 00 00 00 00 00 00 00 00 00 00 00 00
       0.0 0.0 0.0 0.0
000110 00 00 00 00 00 00 00 00 00 00 00 00 00 00 00 00
       0.0 0.0 0.0 0.0
000120 00 00 00 00 00 00 00 00 00 00 00 00 00 00 00 00
       0.0 0.0 0.0 0.0
000130 00 00 00 00 00 00 00 00 00 00 00 00 00 00 00 00
       0.0 0.0 0.0 0.0
000140 00 00 00 00 00 00 00 00 00 00 00 00 00 00 00 00
       0.0 0.0 0.0 0.0
000150 00 00 00 00 00 00 00 00 00 00 00 00 00 00 00 00
       0.0 0.0 0.0 0.0
000160 00 00 00 00 00 00 00 00 00 00 00 00 00 00 00 00
       0.0 0.0 0.0 0.0
000170 00 00 00 00 00 00 00 00 00 00 00 00 00 00 00 00
       0.0 0.0 0.0 0.0
000180 00 00 00 00 00 00 00 00 00 00 00 00 00 00 00 00
       0.0 0.0 0.0 0.0
000190 00 00 00 00 00 00 00 00 00 00 00 00 00 00 00 00
       0.0 0.0 0.0 0.0
0001a0 00 00 00 00 00 00 00 00 00 00 00 00 00 00 00 00
       0.0 0.0 0.0 0.0
0001b0 00 00 00 00 00 00 00 00 00 00 00 00 00 00 00 00
       0.0 0.0 0.0 0.0
0001c0 00 00 00 00 00 00 00 00 00 00 00 00 00 00 00 00
       0.0 0.0 0.0 0.0
0001d0 00 00 00 00 00 00 00 00 00 00 00 00 00 00 00 00
       0.0 0.0 0.0 0.0
0001e0 00 00 00 00 00 00 00 00 00 00 00 00 00 00 00 00
       0.0 0.0 0.0 0.0
0001f0 00 00 00 00 00 00 00 00 00 00 00 00 00 00 00 00
       0.0 0.0 0.0 0.0

network_body._body_endoder.seq_layers.2.weight f4 [128, 128]
000000 b3 c7 a5 bd 9e b6 b2 bd e9 d4 36 bd be 67 ba 3d
       -0.0809473 -0.08726238 -0.04463664 0.091018185
000010 6b ae a6 3d 08 48 0f be fe 59 ae bc 81 75 26 3b
       0.08138736 -0.13992321 -0.021283146 0.0025399628
000020 58 e3 84 3e 65 d4 a5 bd 05 cd 55 3e 86 ea 82 bd
       0.259547 -0.08097152 0.2087899 -0.06392388
000030 ec 4b 62 bd ec 2a df bd 9e fd 40 bd a0 41 3e bb
       -0.055248186 -0.108968586 -0.04711687 -0.0029030815
000040 3c c9 66 3c fa bd c0 3d e4 44 c9 3d cc 0b d2 bb
       0.014086064 0.09411235 0.09827593 -0.0064100977
000050 3c 07 10 be 87 c4 c0 3d 05 86 7c 3e a6 cd 7c bd
       -0.1406526 0.094124846 0.246605 -0.06171956
000060 a5 cf 06 3d 0a 08 a5 3d a3 43 02 3e 35 80 f7 3d
       0.03291287 0.08058174 0.12721114 0.120850004
000070 81 24 a3 bd 84 c4 20 3e 57 05 51 3c 95 c5 06 3d
       -0.07965947 0.15699965 0.012757621 0.032903273
000080 26 25 46 3d b6 6c 80 3d 23 f6 db bc 74 40 e7 bd
       0.04837527 0.06270735 -0.026850766 -0.1129159
000090 ca 39 9d 3d b2 ad ff 3d 82 f0 22 bd c8 2e df ba
       0.07677038 0.124843016 -0.039780147 -0.0017027492
0000a0 43 ac 55 3d 51 f5 c8 bc 3f 40 b3 3d 4c e5 02 be
       0.052166235 -0.024531038 0.08752488 -0.12782782
0000b0 5c 7c 88 3d 37 f7 d4 ba bb c3 6d 3d dd bf a8 3d
       0.06664345 -0.0016247992 0.05804799 0.0823972
0000c0 fa b6 3f be aa da be 3c 6b d2 59 3c cb a2 2b be
       -0.18722144 0.023297627 0.013294796 -0.1676132
0000d0 7b 83 8c bd 32 87 25 3d a9 a0 09 3c 48 d4 87 3d
       -0.068610154 0.040412135 0.008400121 0.06632286
0000e0 30 a8 3f be d5 8e 57 bd 6f b1 31 3d d5 a5 93 bc
       -0.18716502 -0.05262645 0.043382104 -0.01802341
0000f0 c6 75 b8 bd fb df ae bd 09 14 03 3d fd ec a9 bc
       -0.090068385 -0.08538815 0.03200153 -0.020742888
000100 21 5b b4 bd b5 6d bd bc 28 90 38 bc 14 cb 92 bd
       -0.08806444 -0.023123601 -0.011264838 -0.0716764
000110 08 6e 96 be 56 d7 9d 3d bf ee 6d 3c fc 2a 3a 3b
       -0.29380822 0.07707088 0.014522254 0.0028406968
000120 17 42 0f 3e 94 5b 31 be 32 67 61 3e ab ac 1b be
       0.13990055 -0.1732009 0.22012022 -0.15202586
000130 34 88 0a 3d aa 84 18 bb 70 d7 ab 3d 9a b0 ba 3d
       0.0338213 -0.0023272433 0.08390701 0.09115715
000140 c8 2f 85 bc 88 cf a8 bd 0c 8e ac 3d 17 3d 90 3d
       -0.016258135 -0.082427084 0.08425531 0.07042902
000150 8d c6 dc bd c3 7e be 3c 6f 59 bf bd a8 c5 01 3c
       -0.10780058 0.023253804 -0.0934323 0.00792066
000160 e8 43 ae 3d 1e b6 e8 3c aa 07 88 bd ec 39 3a 3d
       0.08509046 0.028407153 -0.06642087 0.045465395
000170 1b b7 8a bd df 96 6d bc e4 b4 e7 bd 6a bc 94 bd
       -0.06773206 -0.0145013025 -0.11313799 -0.072625
000180 52 8b 83 3d 15 4f e4 bd ab 29 03 be d4 6d b3 3d
       0.064230576 -0.11147896 -0.12808864 0.087611824
000190 44 42 7b 3d 8b d6 2e 3d f9 41 af bd 0b 64 35 bd
       0.061342493 0.042685073 -0.08557505 -0.04428486
0001a0 a3 28 cc 3d 19 3f 6b bd 00 90 db 3b ba 2f 1f 3d
       0.09968688 -0.05743322 0.0067005157 0.038863875
0001b0 73 85 8f 3d 53 e9 23 be 79 38 95 3d 89 cc 9f bc
       0.07007875 -0.16006975 0.07286162 -0.01950671
0001c0 48 4d 04 3c b4 b2 86 bd a6 6c 88 3c d4 7b ca bc
       0.008075066 -0.06577054 0.01665337 -0.024717249
0001d0 fc ac a9 3d 2a 8b 3a bd 50 f3 03 3d a7 fc 44 bc
       0.08284947 -0.045542873 0.032214463 -0.012023128
0001e0 3c 67 2a 3d 5e 7f 2d be a9 bd f5 3c 05 40 4b 3c
       0.04160236 -0.16943118 0.029997664 0.0124054
0001f0 d6 67 a2 bd f9 63 20 3e d6 12 fd bd 3d c6 f0 bd
       -0.079299614 0.15663137 -0.12357108 -0.11756561
000200 01 fd d6 3d 2a de 14 be 4b 25 22 be 77 d1 bb 3d
       0.104974754 -0.14537874 -0.15834539 0.091708116
000210 7e 08 34 bd 03 d5 d7 bc cc 62 18 3c 93 fe 12 3d
       -0.04395341 -0.02634669 0.009300899 0.035887312
000220 ce ea 22 bc 2e 93 aa bc b9 6b 29 3a 20 41 07 be
       -0.009943677 -0.020822134 0.00064628903 -0.13208437
000230 37 56 f2 bd 68 6a 17 3e f2 87 c6 bb c3 f7 54 3c
       -0.118328504 0.14786685 -0.0060586864 0.012998524
000240 a7 1b ea 3d ce ab 4f be bb cb 1c 3e ea 6a 78 3d
       0.114310555 -0.20280382 0.15312092 0.060648836
000250 d7 00 02 3e 47 79 2d 3e 80 04 fa bd 4b e2 a5 bd
       0.12695633 0.16940795 -0.122078896 -0.080998026
000260 1c 56 f0 bd 9d a2 35 be cc 11 d3 bd 93 46 ea bd
       -0.11735174 -0.17737813 -0.10306129 -0.11439242
000270 66 e0 1e 3c 0f ab 39 bc 7b 16 fd bd e5 a5 92 bd
       0.009697055 -0.011332287 -0.123578034 -0.07160548
000280 b8 90 cc bd 24 14 2c 3e 42 b3 f6 3d 05 1d 23 3e
       -0.099885404 0.16804558 0.120459095 0.15929039
000290 da 3a 4c 3e 95 9f b9 3d 9d 34 a5 bd a9 5d 06 3e
       0.19944325 0.09063641 -0.08066676 0.13121666
0002a0 33 09 d5 3c 86 f2 4e bc 37 ac 4c 3d 51 e4 69 3d
       0.026005363 -0.012631064 0.049968924 0.057102505
0002b0 a5 56 33 3d 7d 95 76 3d 7f ae fb 3c 18 5c cd 3d
       0.043783803 0.060201157 0.030722855 0.10027331
0002c0 75 e7 06 bd 06 f1 11 bc c1 93 77 3d 87 f1 df bd
       -0.03293558 -0.008907562 0.060443643 -0.109347396
0002d0 c2 f6 60 bd bb eb dc bb 26 6c 16 3c 37 f8 54 3d
       -0.054922827 -0.0067419684 0.009181058 0.05199453
0002e0 0b 0b 30 bd 01 e3 8a 3d 3e 67 0c 3d 6c ee c9 bd
       -0.04297928 0.06781579 0.034278147 -0.098599285
0002f0 a5 48 f0 bd 1f 5c 1a bd 29 69 91 3d 27 a3 5e 3e
       -0.11732606 -0.03768551 0.07100136 0.21741925
000300 52 4f 20 3c be 2d 24 3d bd 76 c6 bd 59 07 15 be
       0.009784536 0.040082686 -0.09690616 -0.14553584
000310 a1 76 c7 bd 7a 5c f4 bd 88 b6 94 bd 32 d2 4d be
       -0.097394235 -0.11931701 -0.072613776 -0.20099714
000320 99 e0 bb bd ff 4b 35 bd 0b d2 c6 bd 5a cc 40 3d
       -0.09173698 -0.04426193 -0.09708031 0.047069885
000330 cb f7 62 bc 0e 35 df bd 8f 3d ad bd dd ec 7f bc
       -0.013853024 -0.10898791 -0.08459007 -0.015620437
000340 d0 9d 0a be f5 81 cb 3d 69 ea 05 bd fd c6 4a 3d
       -0.13536763 0.09936897 -0.032694254 0.049506176
000350 09 42 55 bd 0c 90 cc 3d 76 45 24 bc 39 91 b7 bd
       -0.05206493 0.09988412 -0.010026326 -0.08963246
000360 01 fc c9 3d 7c d0 21 3e 0a 0c 88 bd 8c c9 83 bc
       0.09862519 0.15802187 -0.06642921 -0.016087316
000370 83 36 c8 bc 4c 1d ec bd 68 0a 45 bd 01 40 a7 3d
       -0.024440056 -0.115290254 -0.048105627 0.08166505
000380 99 2c 01 3d 57 76 d9 3d 13 49 45 bd d9 5d 08 3d
       0.031536672 0.10618275 -0.048165392 0.033292625
000390 cb 8d c3 bb 20 6d e8 3c 6e a5 80 bd da 03 2d bd
       -0.005967831 0.028372347 -0.06281553 -0.04224
0003a0 b0 0a eb bd d9 0d 45 bd 05 8c f9 3d 68 e0 09 be
       -0.11476648 -0.04810891 0.1218491 -0.1346451
0003b0 33 0e 12 3c 94 fa 13 3c 46 e8 6e bc a4 93 81 bb
       0.008914518 0.00903191 -0.0145817455 -0.0039543677
0003c0 d5 08 90 3d 4a be 08 3d 68 d3 87 bd a8 18 98 3d
       0.070329346 0.0333846 -0.066321194 0.07426578
0003d0 cf 8e 2e 3e 41 1e 30 be c6 65 16 3c 50 cc 64 3d
       0.17046665 -0.17199041 0.009179538 0.05585891
0003e0 50 8a ba 3d fb d0 07 3d 16 e7 fa 3c 73 28 94 bd
       0.09108412 0.033158284 0.030627768 -0.072342776
0003f0 a1 62 21 bd ea 7d 4c bd 3f 0d e0 3d 2c 1b 66 3d
       -0.0394007 -0.04992477 0.109400265 0.056178257

network_body._body_endoder.seq_layers.2.bias f4 [128]
000000 00 00 00 00 00 00 00 00 00 00 00 00 00 00 00 00
       0.0 0.0 0.0 0.0
000010 00 00 00 00 00 00 00 00 00 00 00 00 00 00 00 00
       0.0 0.0 0.0 0.0
000020 00 00 00 00 00 00 00 00 00 00 00 00 00 00 00 00
       0.0 0.0 0.0 0.0
000030 00 00 00 00 00 00 00 00 00 00 00 00 00 00 00 00
       0.0 0.0 0.0 0.0
000040 00 00 00 00 00 00 00 00 00 00 00 00 00 00 00 00
       0.0 0.0 0.0 0.0
000050 00 00 00 00 00 00 00 00 00 00 00 00 00 00 00 00
       0.0 0.0 0.0 0.0
000060 00 00 00 00 00 00 00 00 00 00 00 00 00 00 00 00
       0.0 0.0 0.0 0.0
000070 00 00 00 00 00 00 00 00 00 00 00 00 00 00 00 00
       0.0 0.0 0.0 0.0
000080 00 00 00 00 00 00 00 00 00 00 00 00 00 00 00 00
       0.0 0.0 0.0 0.0
000090 00 00 00 00 00 00 00 00 00 00 00 00 00 00 00 00
       0.0 0.0 0.0 0.0
0000a0 00 00 00 00 00 00 00 00 00 00 00 00 00 00 00 00
       0.0 0.0 0.0 0.0
0000b0 00 00 00 00 00 00 00 00 00 00 00 00 00 00 00 00
       0.0 0.0 0.0 0.0
0000c0 00 00 00 00 00 00 00 00 00 00 00 00 00 00 00 00
       0.0 0.0 0.0 0.0
0000d0 00 00 00 00 00 00 00 00 00 00 00 00 00 00 00 00
       0.0 0.0 0.0 0.0
0000e0 00 00 00 00 00 00 00 00 00 00 00 00 00 00 00 00
       0.0 0.0 0.0 0.0
0000f0 00 00 00 00 00 00 00 00 00 00 00 00 00 00 00 00
       0.0 0.0 0.0 0.0
000100 00 00 00 00 00 00 00 00 00 00 00 00 00 00 00 00
       0.0 0.0 0.0 0.0
000110 00 00 00 00 00 00 00 00 00 00 00 00 00 00 00 00
       0.0 0.0 0.0 0.0
000120 00 00 00 00 00 00 00 00 00 00 00 00 00 00 00 00
       0.0 0.0 0.0 0.0
000130 00 00 00 00 00 00 00 00 00 00 00 00 00 00 00 00
       0.0 0.0 0.0 0.0
000140 00 00 00 00 00 00 00 00 00 00 00 00 00 00 00 00
       0.0 0.0 0.0 0.0
000150 00 00 00 00 00 00 00 00 00 00 00 00 00 00 00 00
       0.0 0.0 0.0 0.0
000160 00 00 00 00 00 00 00 00 00 00 00 00 00 00 00 00
       0.0 0.0 0.0 0.0
000170 00 00 00 00 00 00 00 00 00 00 00 00 00 00 00 00
       0.0 0.0 0.0 0.0
000180 00 00 00 00 00 00 00 00 00 00 00 00 00 00 00 00
       0.0 0.0 0.0 0.0
000190 00 00 00 00 00 00 00 00 00 00 00 00 00 00 00 00
       0.0 0.0 0.0 0.0
0001a0 00 00 00 00 00 00 00 00 00 00 00 00 00 00 00 00
       0.0 0.0 0.0 0.0
0001b0 00 00 00 00 00 00 00 00 00 00 00 00 00 00 00 00
       0.0 0.0 0.0 0.0
0001c0 00 00 00 00 00 00 00 00 00 00 00 00 00 00 00 00
       0.0 0.0 0.0 0.0
0001d0 00 00 00 00 00 00 00 00 00 00 00 00 00 00 00 00
       0.0 0.0 0.0 0.0
0001e0 00 00 00 00 00 00 00 00 00 00 00 00 00 00 00 00
       0.0 0.0 0.0 0.0
0001f0 00 00 00 00 00 00 00 00 00 00 00 00 00 00 00 00
       0.0 0.0 0.0 0.0

action_model._continuous_distribution.mu.weight f4 [1, 128]
000000 dd 51 50 3c 5b 2d 85 bc 9b 61 b8 3c e8 15 16 3a
       0.01271483 -0.016256979 0.02250748 0.000572531
000010 3a e5 8a 3c 13 51 79 3c a8 f5 a2 bc 08 b4 e4 bc
       0.016955007 0.0152170835 -0.019892529 -0.027917877
000020 c0 9b f3 bb 77 32 50 bd 84 c5 16 bd df dd 95 bc
       -0.0074343383 -0.050829377 -0.03680946 -0.018294273
000030 8b 88 fb bb 2f f5 31 3c d7 0d df 3c 1f 6f 1a 3c
       -0.0076761893 0.010861679 0.027228279 0.009425907
000040 d3 a3 1d 3d 43 9a 9c bb 13 2b 4a bc d9 70 8b bc
       0.038486313 -0.0047791316 -0.012339371 -0.017021583
000050 db 36 35 bc fd 4c 19 3b 7b 2f b8 bb 76 d5 99 3b
       -0.011060442 0.0023391836 -0.0056208945 0.004694636
000060 9a d2 c9 3c 57 79 2c 3b a9 28 a8 3b db d1 0a 3c
       0.024636555 0.0026317441 0.0051318 0.008472885
000070 d3 86 97 bc 5d 6c ef bc ef 4f 94 3c f7 6e bf 3c
       -0.018496906 -0.029226476 0.018104522 0.023368342
000080 7f 10 02 bc f5 b9 39 bc 47 7f a0 3b 58 a1 96 3c
       -0.007938503 -0.0113358395 0.004897985 0.018387482
000090 df 52 39 3b fa 97 63 bc 7b b1 71 ba 28 eb 39 bc
       0.0028278155 -0.0138912145 -0.0009219867 -0.0113475695
0000a0 6a a6 ce 3c 7c bc 02 bc 7f cc 83 3c 32 04 54 3b
       0.025225837 -0.0079795085 0.016088722 0.0032351133
0000b0 53 39 32 3c 85 26 83 bb cf 09 e8 3c 98 71 2e bc
       0.010877925 -0.0040023946 0.02832499 -0.0106472
0000c0 04 c5 3b bb 8b bb 40 bc 02 0c e3 3b 34 63 25 3c
       -0.0028651366 -0.011763464 0.0069289217 0.010094453
0000d0 51 c3 c9 bc 63 87 25 3b 0f c2 06 3c 7a 88 fa bb
       -0.024629267 0.0025257699 0.008224978 -0.007645664
0000e0 07 70 6a bb 3b eb ff bb e7 1a 19 bb 2d 28 10 3c
       -0.003577234 -0.007810024 -0.0023361982 0.008798641
0000f0 13 e7 22 3c 1e b3 8f bb 6c 58 86 3c 43 fd 03 ba
       0.009942788 -0.004385366 0.016399585 -0.00050349924
000100 73 77 25 3d 5c fe 8c b8 90 d4 e8 3b 0e 7f cb 3b
       0.04039712 -6.723098e-05 0.0071054175 0.0062102145
000110 45 c1 5d 3b 64 18 8a b9 75 5d 32 ba f8 18 30 3c
       0.0033837121 -0.00026339584 -0.00068040873 0.0107481405
000120 23 53 c5 3c df d1 95 bc 3e 7e 03 3d af 03 87 3b
       0.024087494 -0.01828855 0.032102816 0.004120312
000130 9d ac e8 bc 5b f6 80 bc 49 69 19 bc b4 74 c5 3b
       -0.02840262 -0.015742471 -0.009363481 0.006025875
000140 96 24 2d 3c 63 4e d7 3c 5c 66 b3 ba 12 e2 93 3b
       0.010567805 0.026282495 -0.0013687122 0.0045130337
000150 f0 a9 f3 bc b7 fd 0a bb 29 05 29 bb 5f 01 72 3a
       -0.029744118 -0.0021208355 -0.002579043 0.00092317717
000160 63 f4 06 3c a5 79 37 bc 93 23 ea 3c d9 da 81 bc
       0.008236977 -0.011198436 0.028581416 -0.015851425
000170 5c 6f 9c 3c 79 86 c3 3c c5 ac 4a bd f2 6e 62 bb
       0.019096069 0.023867832 -0.049481172 -0.0034550992
000180 e3 e4 e7 bb 53 19 a7 3c 3a d0 dd 3c cf 01 5e 3c
       -0.007076846 0.020397818 0.02707683 0.013550236
000190 ef eb 8a 3b 60 9b 73 bc bf df 9e 3b 48 98 75 bb
       0.0042395513 -0.014868587 0.00484845 -0.00374748
0001a0 88 da 5e 3c 74 ec 98 3b 46 2d b1 bc a3 f6 95 3a
       0.013601907 0.0046668593 -0.021628033 0.0011441301
0001b0 6b a7 f0 bc ea 01 d7 3b 9b 00 93 bc ce dd 42 3b
       -0.029376706 0.0065615075 -0.017944625 0.0029734257
0001c0 95 bd 6b 3c b3 9a 1e 3c 39 91 36 bc ca fc e7 3c
       0.014388462 0.009680438 -0.011143022 0.028318781
0001d0 f0 5c 65 3c 8c a4 4a 3c 53 c7 ea bb d8 4d 98 bc
       0.013999209 0.012368333 -0.0071648746 -0.018591806
0001e0 cc bd 8d 3c 1e 8a 0f 3d 4e ef 23 bc 30 78 ae bc
       0.017302416 0.03504383 -0.010005785 -0.021297544
0001f0 59 f5 36 bb 5d 59 48 3c 45 f8 cb 3c fc a8 b7 3c
       -0.0027917235 0.012228337 0.024898658 0.022419445
