Shortcut Run/results/LEVEL1/Move/Move-931.pt (torch, 149831 bytes, 11 tensors)

network_body._body_endoder.seq_layers.0.weight f4 [128, 6]
0.7479726 0.04013528 0.79993474 0.5646597 -0.15466279 0.107626796 -0.22285888 -0.5139556
0.13303953 0.105618976 0.5927899 -0.34464973 -0.27543977 0.31865478 0.9151488 0.18446676
0.46794245 -0.72404903 0.11301871 -0.13926329 -0.11428248 0.1769315 -0.3021195 0.518099
0.5294954 -0.9114879 -0.47201857 0.47447243 0.83127767 -0.30285227 -1.1585367 -0.3949088
0.8560804 0.7528661 -0.53483814 -0.28394347 -0.11208081 -0.0432802 0.15327136 -0.7866421
-0.48515797 0.193518 0.51274467 -0.48823294 0.23449868 0.051616613 -0.1885758 0.66734225
-0.56784695 0.18859182 -0.11652063 -0.20173152 -0.4537792 -0.5189894 0.28764644 0.014024234
0.77429444 0.22086844 0.29846072 1.1557688 -1.1993053 0.3594507 -0.2928289 -0.19731562
-0.6518215 0.288286 -0.41532725 0.14574885 0.6347078 -0.37156284 -0.030993508 -0.041326575
0.5102184 -0.12371756 -0.44789755 0.76565886 -0.4300794 0.49461702 -0.028848946 -0.1438952
0.16085035 -1.0462183 0.28550407 0.42786992 0.5410376 -0.005127353 -0.4509836 0.22650471
0.6901214 0.35870543 0.2805821 0.8510718 -0.1382653 0.49021816 -0.27789724 0.054610174
-0.014458677 -0.09046798 0.46448806 -0.37428463 0.23143904 -0.1822027 -0.16645116 -0.028399704
-0.31849656 -1.0526615 0.12838976 0.29056552 0.2782397 0.026780328 -0.05137148 0.16439764
0.7208083 0.8336052 -0.46676093 0.8389492 0.67756313 0.052352805 -0.30627117 0.45659882
-0.305657 -0.3760849 -0.1887985 -0.07163468 0.24061891 0.44201294 0.87820005 -0.026241712
0.32729995 -0.24563722 -0.29436398 -0.28817517 -0.22080234 -0.39106777 0.22002816 -0.941182
0.18395278 0.1489469 -0.20582871 -0.020973573 -0.16546297 0.10131357 -0.08243154 0.16248573
-0.037726592 0.22932075 0.8140592 -0.20030278 0.616798 0.55583954 0.22271714 0.2775433
0.20221327 -0.6905556 0.2001906 0.46296537 0.06064173 -0.4212221 -0.61086035 0.11251056
0.31317112 0.6460972 0.12882999 -0.22515751 0.043624695 0.7854507 -0.6496382 -0.7581128
0.43200645 0.31987485 0.20094885 0.121286355 0.46687528 0.13840249 -0.31040722 -0.21072909
-0.89115965 0.52015436 -0.060656797 0.012715967 0.24349068 -0.17360525 0.13044944 0.02576453
0.1764495 0.5497341 0.003920101 -0.17228954 0.2981881 0.11363141 0.15133433 -0.2069819
0.001657759 0.45555013 -0.43169972 -0.56405216 -0.07878284 0.08113818 -0.52348053 0.07350796
-0.17356946 -0.10179685 -0.73063725 -0.17946687 0.002540723 0.5365634 0.53656423 -0.16444384
0.111540265 0.14395459 -0.33894917 -0.19521584 -0.15239055 0.38492775 -0.8360906 -0.16925448
-0.012394772 -0.27223584 0.7531492 -0.02101798 -0.056666054 -0.25512576 -0.83251536 -0.6297781
0.709944 0.32136732 0.61940783 -0.25662816 -0.23603447 -0.17552656 -0.04949122 0.36530265
-0.18126209 0.31278858 0.29806697 -0.058492307 0.6397729 -0.053095814 0.10800405 0.19655973
-0.24257463 0.4158466 0.018563107 0.0946701 0.26141965 1.075172 -0.13087001 -0.74312985
-0.34519136 0.14279361 0.07240853 -0.3328725 -0.06654028 -0.22027977 -0.05318661 0.66180176
00000000: 227b 3f3f e464 243d 86c8 4c3f 8a8d 103f
00000010: ec5f 1ebe 706b dc3d 1e35 64be 9892 03bf
00000020: 843b 083e c34e d83d 14c1 173f ee75 b0be
00000030: 7106 8dbe b826 a33e 3147 6a3f dbe4 3c3e
00000040: 2796 ef3e 475b 39bf 5a76 e73d 099b 0ebe
00000050: ef0c eabd 882d 353e 68af 9abe 23a2 043f
00000060: 038d 073f 4557 69bf 6bac f1be 0dee f23e
00000070: 9dce 543f 740f 9bbe ee4a 94bf 7c31 cabe
00000080: 1628 5b3f d5bb 403f 27eb 08bf 0a61 91be
00000090: a08a e5bd 9446 31bd 2bf3 1c3e 6061 49bf
000000a0: a066 f8be 9529 463e 3c43 033f abf9 f9be
000000b0: 6c20 703e f16b 533d 041a 41be f1d6 2a3f
000000c0: 6b5e 11bf 371e 413e 5ea2 eebd b592 4ebe
000000d0: bf55 e8be 7ddc 04bf 6546 933e e7c5 653c
000000e0: 2938 463f 562b 623e d8cf 983e 3bf0 933f
000000f0: d682 99bf ec09 b83e abed 95be 1b0d 4abe
00000100: c6dd 26bf 399a 933e c6a5 d4be 303f 153e
00000110: 367c 223f 7c3d bebe 19e6 fdbc 0e46 29bd
00000120: ac9d 023f a25f fdbd d452 e5be 3802 443f
00000130: 5e33 dcbe 713e fd3e a054 ecbc 4359 13be
00000140: f4b5 243e 7bea 85bf 972d 923e c411 db3e
00000150: 7181 0a3f 5b03 a8bb 53e7 e6be daf0 673e
00000160: ccab 303f 3da8 b73e 75a8 8f3e d7df 593f
00000170: 6b95 0dbe e0fd fa3e 8c48 8ebe ebae 5f3d
00000180: 16e4 6cbc 4747 b9bd 61d1 ed3e 3ca2 bfbe
00000190: 5bfe 6c3e 5893 3abe 2c72 2abe 7fa6 e8bc
000001a0: fb11 a3be 9dbd 86bf 9b78 033e 01c5 943e
000001b0: 6f75 8e3e 6b62 db3c e76a 52bd db57 283e
000001c0: e586 383f 2667 553f 4afb eebe 60c5 563f
000001d0: c774 2d3f e56f 563d 93cf 9cbe 52c7 e93e
000001e0: 137f 9cbe 338e c0be 6554 41be 34b5 92bd
000001f0: ce64 763e 854f e23e b8d1 603f dcf8 d6bc
00000200: dc93 a73e 5388 7bbe e0b6 96be b28b 93be
00000210: 021a 62be 093a c8be 104f 613e 4ef1 70bf
00000220: 1e5e 3c3e 8985 183e c3c4 52be c5d0 abbc
00000230: 206f 29be 7d7d cf3d ded1 a8bd a962 263e
00000240: 3387 1abd 0fd3 6a3e 2f66 503f 2c1c 4dbe
00000250: 79e6 1d3f 804b 0e3f f60f 643e 281a 8e3e
00000260: ff10 4f3e 40c8 30bf c4fe 4c3e cc09 ed3e
00000270: 7663 783d 6caa d7be 5861 1cbf f06b e63d
00000280: f757 a03e a066 253f 02ec 033e b18f 66be
00000290: cfaf 323d 4c13 493f b04e 26bf ae13 42bf
000002a0: f32f dd3e a3c6 a33e 89c5 4d3e fb64 f83d
000002b0: 470a ef3e 62b9 0d3e b2ed 9ebe 5ec9 57be
000002c0: 0a23 64bf d628 053f 4373 78bd a256 503c
000002d0: 9f55 793e 93c5 31be 8a94 053e 2310 d33c
000002e0: 2daf 343e 60bb 0c3f 3174 803b ab6c 30be
000002f0: 1cac 983e 96b7 e83d 63f7 1a3e 10f3 53be
00000300: 2949 d93a de3d e93e bf07 ddbe b965 10bf
00000310: e658 a1bd c62b a63d d202 06bf 578b 963d
00000320: 31bc 31be de7a d0bd 0b0b 3bbf 2ac6 37be
00000330: 4282 263b 385c 093f 465c 093f f763 28be
00000340: 396f e43d d568 133e bf8a adbe a9e6 47be
00000350: 450c 1cbe 4015 c53e 090a 56bf 0c51 2dbe
00000360: 7113 4bbc 7f62 8bbe 63ce 403f e62d acbc
00000370: aa1a 68bd d89f 82be ba1f 55bf 2339 21bf
00000380: e4be 353f 428a a43e 8391 1e3f c464 83be
00000390: 05b3 71be 3cbd 33be 4eb7 4abd f308 bb3e
000003a0: c59c 39be d325 a03e 3c9c 983e a195 6fbd
000003b0: 28c8 233f ff7a 59bd 3a31 dd3d f446 493e
000003c0: 7c65 78be d8e9 d43e a811 983c 66e2 c13d
000003d0: ccd8 853e 3c9f 893f ca02 06be c23d 3ebf
000003e0: ecbc b0be 7d38 123e ec4a 943d 446e aabe
000003f0: 4546 88bd 0591 61be 34da 59bd d76b 293f

network_body._body_endoder.seq_layers.0.bias f4 [128]
0.0 0.0 0.0 0.0 0.0 0.0 0.0 0.0
0.0 0.0 0.0 0.0 0.0 0.0 0.0 0.0
0.0 0.0 0.0 0.0 0.0 0.0 0.0 0.0
0.0 0.0 0.0 0.0 0.0 0.0 0.0 0.0
0.0 0.0 0.0 0.0 0.0 0.0 0.0 0.0
0.0 0.0 0.0 0.0 0.0 0.0 0.0 0.0
0.0 0.0 0.0 0.0 0.0 0.0 0.0 0.0
0.0 0.0 0.0 0.0 0.0 0.0 0.0 0.0
0.0 0.0 0.0 0.0 0.0 0.0 0.0 0.0
0.0 0.0 0.0 0.0 0.0 0.0 0.0 0.0
0.0 0.0 0.0 0.0 0.0 0.0 0.0 0.0
0.0 0.0 0.0 0.0 0.0 0.0 0.0 0.0
0.0 0.0 0.0 0.0 0.0 0.0 0.0 0.0
0.0 0.0 0.0 0.0 0.0 0.0 0.0 0.0
0.0 0.0 0.0 0.0 0.0 0.0 0.0 0.0
0.0 0.0 0.0 0.0 0.0 0.0 0.0 0.0
00000000: 0000 0000 0000 0000 0000 0000 0000 0000
00000010: 0000 0000 0000 0000 0000 0000 0000 0000
00000020: 0000 0000 0000 0000 0000 0000 0000 0000
00000030: 0000 0000 0000 0000 0000 0000 0000 0000
00000040: 0000 0000 0000 0000 0000 0000 0000 0000
00000050: 0000 0000 0000 0000 0000 0000 0000 0000
00000060: 0000 0000 0000 0000 0000 0000 0000 0000
00000070: 0000 0000 0000 0000 0000 0000 0000 0000
00000080: 0000 0000 0000 0000 0000 0000 0000 0000
00000090: 0000 0000 0000 0000 0000 0000 0000 0000
000000a0: 0000 0000 0000 0000 0000 0000 0000 0000
000000b0: 0000 0000 0000 0000 0000 0000 0000 0000
000000c0: 0000 0000 0000 0000 0000 0000 0000 0000
000000d0: 0000 0000 0000 0000 0000 0000 0000 0000
000000e0: 0000 0000 0000 0000 0000 0000 0000 0000
000000f0: 0000 0000 0000 0000 0000 0000 0000 0000
00000100: 0000 0000 0000 0000 0000 0000 0000 0000
00000110: 0000 0000 0000 0000 0000 0000 0000 0000
00000120: 0000 0000 0000 0000 0000 0000 0000 0000
00000130: 0000 0000 0000 0000 0000 0000 0000 0000
00000140: 0000 0000 0000 0000 0000 0000 0000 0000
00000150: 0000 0000 0000 0000 0000 0000 0000 0000
00000160: 0000 0000 0000 0000 0000 0000 0000 0000
00000170: 0000 0000 0000 0000 0000 0000 0000 0000
00000180: 0000 0000 0000 0000 0000 0000 0000 0000
00000190: 0000 0000 0000 0000 0000 0000 0000 0000
000001a0: 0000 0000 0000 0000 0000 0000 0000 0000
000001b0: 0000 0000 0000 0000 0000 0000 0000 0000
000001c0: 0000 0000 0000 0000 0000 0000 0000 0000
000001d0: 0000 0000 0000 0000 0000 0000 0000 0000
000001e0: 0000 0000 0000 0000 0000 0000 0000 0000
000001f0: 0000 0000 0000 0000 0000 0000 0000 0000

network_body._body_endoder.seq_layers.2.weight f4 [128, 128]
-0.07188375 0.18182757 -0.032406602 -0.0177903 -0.08137652 0.09504758 -0.21788028 0.02410463
0.09832064 -0.08709167 -0.014250595 -0.005767485 -0.08855672 -0.03305652 0.028826842 -0.049883433
-0.10085339 -0.014462658 0.23265964 -0.026008273 -0.030866906 -0.080950946 0.03515517 0.121205516
-0.06861156 -0.05646118 0.08756682 0.07478536 0.097547844 0.016543144 -0.1093443 -0.06390362
-0.03284758 -0.058296572 0.18733235 -0.024648555 -0.060503136 -0.0816161 0.019956192 -0.1330596
-0.15544133 0.2522312 0.045075294 -0.0041950475 -0.013520317 0.06355679 0.038634118 0.019767135
-0.029215392 -0.06177536 -0.07194985 0.08017995 0.04031374 -0.21468557 0.08073939 0.16891427
0.021130456 -0.09569156 0.043804806 -0.03225278 0.053440526 -0.1001366 -0.14418836 0.032781545
-0.15967171 0.057872973 -0.0909578 0.02562216 0.09581204 -0.09302825 0.04465751 0.052601203
0.000250795 0.08238146 -0.08239819 0.000158348 0.075412735 0.033701822 0.023907276 -0.13012536
0.07319845 -0.004250607 0.032787524 -0.018870099 -0.08437993 -0.029480966 -0.108488 0.036175415
-0.032707218 -0.0070822043 0.0713977 -0.071332894 -0.08135277 0.028021522 -0.1323044 -0.015438017
0.1410058 -0.06751172 0.0947794 0.15267582 -0.06482122 -0.043180287 -0.08129918 0.06707306
0.03966822 0.012530003 0.12141686 0.21330124 -0.024213472 0.014446912 0.0016411224 0.115686215
-0.07350477 -0.019754158 0.10815182 -0.16875121 0.09057563 -0.017042827 -0.007613406 -0.01585827
0.04150179 0.09147793 -0.0679234 0.05056251 0.025407316 -0.09973979 -0.090442486 -0.08995115
-0.102453336 -0.20021312 0.12826678 -0.08014226 0.10619053 -0.08043646 -0.058447417 -0.05520204
0.08046789 0.049533848 -0.062876254 0.014344723 0.03921375 0.008109289 0.0060418327 0.081564195
-0.019602632 0.08079666 -0.00069332833 -0.08878037 -0.06151552 -0.054188367 -0.041474372 0.02747871
-0.13554178 0.10048129 0.07525391 -0.042898975 -0.039934162 -0.052035052 0.063052274 -0.05423443
-0.018901821 -0.06325644 0.002316605 -0.032742586 0.15299976 -0.055554144 -0.053164817 -0.022421675
-0.0064421436 -0.017785158 0.012477585 0.093406275 -0.06729939 -0.19826284 -0.0036417276 -0.12274505
-0.065326504 0.063950196 0.024060776 -0.12924363 -0.045247316 -0.010908735 -0.08996217 0.10518615
-0.058732722 -0.14839064 0.045430087 0.098116405 -0.04136786 0.001776907 -0.20398284 -0.0751071
0.12955762 0.10557241 0.084082104 -0.13924651 0.11275493 0.0113905845 0.095991164 0.020693798
-0.0653351 0.078743964 0.08831386 -0.027022706 -0.21443222 0.14446 -0.02514306 0.014010815
0.20105517 0.071988724 0.00858731 -0.12463709 0.05879364 -0.09329267 0.09187287 0.15978909
-0.03934733 -0.023528 -0.040041443 0.0093621295 -0.051363748 0.114027664 -0.06500339 0.009795255
-0.075276054 -0.053914554 0.051671118 -0.036526367 -0.11912612 0.14002568 -0.021743719 -0.22567962
-0.11018837 -0.1506143 -0.11924604 0.047739383 0.031553995 -0.07933201 0.0093322545 0.021953551
-0.07365849 0.045016836 -0.11875389 0.048692312 -0.011848211 -0.0072993073 0.08541525 -0.06416658
-0.044437993 -0.103647806 -0.059038773 -0.16848536 -0.11520412 0.018739007 0.022184765 -0.011235759
00000000: ca37 93bd 0231 3a3e c9bc 04bd f7bc 91bc
00000010: bca8 a6bd 4ea8 c23d 021c 5fbe 1377 c53c
00000020: 555c c93d 1e5d b2bd 547b 69bc 2cfd bcbb
00000030: 3a5d b5bd 4666 07bd 4526 ec3c 9252 4cbd
00000040: 398c cebd c9f4 6cbc 543e 6e3e 4d0f d5bc
00000050: 98dc fcbc 9cc9 a5bd defe 0f3d 993a f83d
00000060: 3884 8cbd d743 67bd 3c56 b33d 1129 993d
00000070: 2ac7 c73d 7d85 873c e8ef dfbd e7df 82bd
00000080: 2f8b 06bd 63c8 6ebd 0dd4 3f3e c4eb c9bc
00000090: 23d2 77bd 5826 a7bd 2b7b a33c c740 08be
000000a0: 032c 1fbe 7324 813e dfa0 383d 9c76 89bb
000000b0: 5284 5dbc 102a 823d cf3e 1e3d b0ee a13c
000000c0: 1e55 efbc 2908 7dbd 715a 93bd 6335 a43d
000000d0: 0520 253d 89d6 5bbe b15a a53d ddf7 2c3e
000000e0: c719 ad3c f0f9 c3bd ab6c 333d 7e1b 04bd
000000f0: 74e4 5a3d 6b14 cdbd 1da6 13be f145 063d
00000100: fb80 23be 360c 6d3d 1548 babd 90e5 d13c
00000110: 1a39 c43d 9885 bebd cbea 363d 5c74 573d
00000120: 237d 8339 9cb7 a83d 62c0 a8bd 380a 2639
00000130: fe71 9a3d ec0a 0a3d 31d9 c33c 953f 05be
00000140: 12e9 953d ad48 8bbb 364c 063d 7795 9abc
00000150: 62cf acbd 1182 f1bc f52e debd ac2c 143d
00000160: 01f8 05bd d611 e8bb f538 923d fb16 92bd
00000170: 489c a6bd 648d e53c ce7a 07be bdef 7cbc
00000180: d363 103e 9643 8abd b41b c23d 0d57 1c3e
00000190: fdc0 84bd d0dd 30bd 2f80 a6bd 9a5d 893d
000001a0: 257b 223d a44a 4d3c 67a9 f83d a46b 5a3e
000001b0: 555b c6bc beb2 6c3c ee1a d73a e5ec ec3d
000001c0: ab89 96bd 79d3 a1bc b47e dd3d 1ecd 2cbe
000001d0: b77f b93d 669d 8bbc e179 f9bb 34e9 81bc
000001e0: c8fd 293d c858 bb3d 6c1b 8bbd a21a 4f3d
000001f0: 0123 d03c 6044 ccbd e939 b9bd 4f38 b8bd
00000200: 0ed3 d1bd ab04 4dbe 5e58 033e a021 a4bd
00000210: 6c7a d93d dfbb a4bd 8f66 6fbd 891b 62bd
00000220: 59cc a43d 01e4 4a3d 44c5 80bd 2106 6b3c
00000230: 999e 203d d3dc 043c 91fa c53b 210b a73d
00000240: b395 a0bc b878 a53d 7ac0 35ba 7cd2 b5bd
00000250: b3f7 7bbd 9ff4 5dbd 08e1 29bd 081b e13c
00000260: 77cb 0abe 22c9 cd3d b91e 9a3d d6b6 2fbd
00000270: 0192 23bd b522 55bd 8d21 813d ec24 5ebd
00000280: fed7 9abc 988c 81bd 2fd2 173b 171d 06bd
00000290: f8ab 1c3e be8c 63bd 5ac3 59bd a9ad b7bc
000002a0: 9e18 d3bb 2eb2 91bc c96e 4c3c ca4b bf3d
000002b0: 43d4 89bd 6a05 4bbe 0daa 6ebb c261 fbbd
000002c0: e7c9 85bd 52f8 823d 1b1b c53c 7158 04be
000002d0: 4055 39bd 8dba 32bc 163e b8bd d66b d73d
000002e0: b991 70bd b7f3 17be e614 3a3d 41f1 c83d
000002f0: 5871 29bd 1be7 e83a e1e0 50be c0d1 99bd
00000300: c1aa 043e 5936 d83d 3d33 ac3d a396 0ebe
00000310: 0fec e63d 939f 3a3c 0497 c43d 0a86 a93c
00000320: 69ce 85bd 8444 a13d e6dd b43d b95e ddbc
00000330: 1f94 5bbe 52ed 133e d2f8 cdbc 9e8d 653c
00000340: 68e1 4d3e d36e 933d cab1 0c3c bb41 ffbd
00000350: 9ad1 703d 3a10 bfbd d827 bc3d c09f 233e
00000360: aa2a 21bd cbbd c0bc 7f02 24bd 9e63 193c
00000370: cb62 52bd 5687 e93d 7f20 85bd 477c 203c
00000380: 552a 9abd 82d5 5cbd 18a5 533d ac9c 15bd
00000390: 65f8 f3bd e462 0f3e e21f b2bc 8f18 67be
000003a0: 71aa e1bd a33a 1abe 4537 f4bd 5f8a 433d
000003b0: c33e 013d d278 a2bd 50e6 183c efd7 b33c
000003c0: 43da 96bd 9363 383d 3d35 f3bd 9771 473d
000003d0: 001f 42bc 072f efbb 31ee ae3d c569 83bd
000003e0: 9d04 36bd 4d45 d4bd a4d2 71bd 6d87 2cbe
000003f0: 23f0 ebbd 8c82 993c d3bc b53c 3016 38bc

network_body._body_endoder.seq_layers.2.bias f4 [128]
0.0 0.0 0.0 0.0 0.0 0.0 0.0 0.0
0.0 0.0 0.0 0.0 0.0 0.0 0.0 0.0
0.0 0.0 0.0 0.0 0.0 0.0 0.0 0.0
0.0 0.0 0.0 0.0 0.0 0.0 0.0 0.0
0.0 0.0 0.0 0.0 0.0 0.0 0.0 0.0
0.0 0.0 0.0 0.0 0.0 0.0 0.0 0.0
0.0 0.0 0.0 0.0 0.0 0.0 0.0 0.0
0.0 0.0 0.0 0.0 0.0 0.0 0.0 0.0
0.0 0.0 0.0 0.0 0.0 0.0 0.0 0.0
0.0 0.0 0.0 0.0 0.0 0.0 0.0 0.0
0.0 0.0 0.0 0.0 0.0 0.0 0.0 0.0
0.0 0.0 0.0 0.0 0.0 0.0 0.0 0.0
0.0 0.0 0.0 0.0 0.0 0.0 0.0 0.0
0.0 0.0 0.0 0.0 0.0 0.0 0.0 0.0
0.0 0.0 0.0 0.0 0.0 0.0 0.0 0.0
0.0 0.0 0.0 0.0 0.0 0.0 0.0 0.0
00000000: 0000 0000 0000 0000 0000 0000 0000 0000
00000010: 0000 0000 0000 0000 0000 0000 0000 0000
00000020: 0000 0000 0000 0000 0000 0000 0000 0000
00000030: 0000 0000 0000 0000 0000 0000 0000 0000
00000040: 0000 0000 0000 0000 0000 0000 0000 0000
00000050: 0000 0000 0000 0000 0000 0000 0000 0000
00000060: 0000 0000 0000 0000 0000 0000 0000 0000
00000070: 0000 0000 0000 0000 0000 0000 0000 0000
00000080: 0000 0000 0000 0000 0000 0000 0000 0000
00000090: 0000 0000 0000 0000 0000 0000 0000 0000
000000a0: 0000 0000 0000 0000 0000 0000 0000 0000
000000b0: 0000 0000 0000 0000 0000 0000 0000 0000
000000c0: 0000 0000 0000 0000 0000 0000 0000 0000
000000d0: 0000 0000 0000 0000 0000 0000 0000 0000
000000e0: 0000 0000 0000 0000 0000 0000 0000 0000
000000f0: 0000 0000 0000 0000 0000 0000 0000 0000
00000100: 0000 0000 0000 0000 0000 0000 0000 0000
00000110: 0000 0000 0000 0000 0000 0000 0000 0000
00000120: 0000 0000 0000 0000 0000 0000 0000 0000
00000130: 0000 0000 0000 0000 0000 0000 0000 0000
00000140: 0000 0000 0000 0000 0000 0000 0000 0000
00000150: 0000 0000 0000 0000 0000 0000 0000 0000
00000160: 0000 0000 0000 0000 0000 0000 0000 0000
00000170: 0000 0000 0000 0000 0000 0000 0000 0000
00000180: 0000 0000 0000 0000 0000 0000 0000 0000
00000190: 0000 0000 0000 0000 0000 0000 0000 0000
000001a0: 0000 0000 0000 0000 0000 0000 0000 0000
000001b0: 0000 0000 0000 0000 0000 0000 0000 0000
000001c0: 0000 0000 0000 0000 0000 0000 0000 0000
000001d0: 0000 0000 0000 0000 0000 0000 0000 0000
000001e0: 0000 0000 0000 0000 0000 0000 0000 0000
000001f0: 0000 0000 0000 0000 0000 0000 0000 0000

action_model._discrete_distribution.branches.0.weight f4 [3, 128]
-0.011941557 -0.0028110754 -0.012971811 0.00792723 -0.006652063 0.0045444276 0.0001009705 0.008989881
-0.00049100205 0.005338345 -0.012003096 0.0033027006 0.0033100264 -0.00039793085 0.0015054581 -0.008553376
-0.010081495 -0.0074643726 0.0015981693 -0.0037016475 0.0049620043 0.0049480926 0.0039782138 0.006164126
-0.008127962 0.0033805934 0.02111662 -0.01772623 0.0057157176 0.0025954533 -0.02016866 0.005673957
-0.0003362612 0.010967481 -0.004028806 0.005613177 -6.3772335e-05 -0.010072646 0.0013529877 0.0038238454
0.0052458886 0.0004702379 -0.0015049026 0.0049252496 0.0151694715 -0.01336456 0.005329873 -0.0030688848
-0.005398614 -0.0029586593 0.01771397 -0.01228821 0.0048938436 -0.011820341 -0.0010594089 0.015946439
0.0068652234 -0.018315664 0.003113468 0.0072673424 0.00825984 0.009712606 -0.005170261 -0.0017381543
0.007428476 -0.002892735 -0.008202057 -0.012556349 0.008284333 -0.0018355243 -0.009559971 0.0083528375
-0.012704357 -0.004556394 -0.006024582 -0.001166487 0.0114563685 -0.006934494 0.0025200942 -0.0060433117
0.019816266 0.00025552043 0.011376525 0.008702424 0.0022722185 0.005587466 -0.00036358423 0.007524992
-0.013319591 -0.014997545 0.017881274 -0.0021498536 -0.0044356254 0.0071751066 0.014419796 0.003242276
-0.0038250242 -0.004524444 0.011588956 -0.00036715015 0.0212844 0.0033694808 -0.0003526216 -0.004777387
-0.01077526 -0.003710237 0.0037088238 0.009287287 -0.0032998812 0.0058322432 0.005657125 -0.0039097983
0.0071224677 0.0035768524 0.0004715949 -0.01018194 0.0024538846 0.0149739105 0.00071202347 0.0019741773
-0.0040069274 -0.005555198 0.0061307107 -0.003856161 0.006631552 -0.015556648 -0.0062159803 -0.00664353
0.00087766844 0.012424751 -0.009434849 -0.0021609294 -0.006659128 -0.014128761 0.007569363 0.013828379
-0.004558885 -0.0003625434 -0.000125533 -0.020023411 -0.004154417 0.007656188 0.007535224 0.0034217455
0.0017904247 -0.0009629824 0.005531944 -0.0017646936 -0.0019813215 -0.011951726 -0.0036482972 0.008350418
0.008634104 -0.014125684 -0.02191672 0.0046900664 0.0010117057 -0.0039451476 0.010087575 -0.0013550309
-0.007094176 0.010511017 0.0022686569 0.00658532 0.0014176912 -0.008479748 -0.002595427 -0.0038574205
3.1225034e-05 0.0015733669 -0.012019328 -0.0050679496 -0.0026385288 -0.01007031 0.0003926132 -0.01730379
0.006875319 -0.0017461088 -0.0023845274 -0.002705896 0.015620455 -0.011110413 -5.3157953e-07 0.0014449434
-0.0039059408 0.000508407 0.006557642 0.0045268578 0.018744238 0.002899109 -0.00111115 0.009770814
0.010066462 -0.0075947763 0.00888054 0.0045882612 -0.01874695 -0.0036789177 -0.0002532644 -0.015408895
0.010304238 0.0016506853 0.012023385 0.01026757 0.00032635767 -0.005443167 -0.0069710896 -0.009159365
-0.0011613503 -0.013543968 -0.0062540295 -0.002174098 0.022400679 0.004950368 -0.0021349173 -0.013512002
-0.005833721 0.021365229 -0.00090248196 0.01637924 0.00018010155 0.004204542 0.0004939608 -0.008353471
0.0025155742 0.0109105995 0.0005676074 0.004756514 0.0031429995 0.011605806 -0.0026352766 -0.00778915
-0.01742903 0.0086058695 0.019205611 -0.0006114259 0.0009666943 -0.0074384585 0.0030357107 -0.003439666
0.0044747004 -0.0028229852 0.00072143786 0.0077114017 -0.0159273 -0.009323451 0.0062371227 -0.009812126
0.0015041959 0.005659355 -0.0035615761 0.00030041422 -0.0066593066 -0.00940252 0.003385473 -0.022353213
00000000: 85a6 43bc 053a 38bb b887 54bc 36e1 013c
00000010: 8df9 d9bb 6ce9 943b 20c0 d338 4b4a 133c
00000020: 97b6 00ba 49ed ae3b a2a8 44bc 1f72 583b
00000030: 07ed 583b 60a1 d0b9 cb52 c53a 7623 0cbc
00000040: db2c 25bc b297 f4bb aa79 d13a 5797 72bb
00000050: 4f98 a23b 9c23 a23b ad5b 823b 70fc c93b
00000060: 252b 05bc f28c 5d3b c3fc ac3c 9936 91bc
00000070: ea4a bb3b 7b18 2a3b bf38 a5bc 9aec b93b
00000080: 374c b0b9 f3b0 333c 1304 84bb beee b73b
00000090: 83bd 85b8 bd07 25bc bc56 b13a 7b99 7a3b
000000a0: b4e5 ab3b 438a f639 2740 c5ba fd63 a13b
000000b0: 6089 783c 07f7 5abc 37a6 ae3b 581f 49bb
000000c0: dbe6 b0bb 11e6 41bb e31c 913c 7d54 49bc
000000d0: 895c a03b 1baa 41bc dddb 8aba 1ba2 823c
000000e0: abf5 e03b bb0a 96bc 530b 4c3b e322 ee3b
000000f0: 4854 073c 9f21 1f3c 4b6b a9bb c8d2 e3ba
00000100: 936a f33b 0a94 3dbb ec61 06bc 25b9 4dbc
00000110: 03bb 073c fa95 f0ba 6da1 1cbc 57da 083c
00000120: ef25 50bc ce4d 95bb db69 c5bb cfe4 98ba
00000130: 7eb3 3b3c c03a e3bb 2a28 253b f906 c6bb
00000140: b955 a23c 5ff7 8539 9b64 3a3c 9d94 0e3c
00000150: 80e9 143b 1017 b73b 739f beb9 3594 f63b
00000160: 6a3a 5abc 43b8 75bc c07b 923c 8fe4 0cbb
00000170: b958 91bb 281d eb3b 0241 6c3c 5d7c 543b
00000180: 42ad 7abb ca41 94bb 9bdf 3d3c 0f7e c0b9
00000190: 9f5c ae3c 82d2 5c3b 12e0 b8b9 a08b 9cbb
000001a0: b78a 30bc 7327 73bb bd0f 733b b429 183c
000001b0: d242 58bb 671c bf3b 675f b93b c41d 80bb
000001c0: 9763 e93b a069 6a3b 6540 f739 27d2 26bc
000001d0: 5ad1 203b 2255 753c 16a7 3a3a 3361 013b
000001e0: 8b4c 83bb 6108 b6bb 21e4 c83b a5b7 7cbb
000001f0: 7d4d d93b 50e1 7ebc 6caf cbbb f8b1 d9bb
00000200: 5513 663a 2f91 4b3c a094 1abc 619e 0dbb
00000210: d034 dabb 527c 67bc 6b08 f83b 6d90 623c
00000220: b362 95bb c013 beb9 82a1 03b9 2308 a4bc
00000230: c721 88bb c3e0 fa3b 0aea f63b 5d3f 603b
00000240: afac ea3a a870 7cba 4f45 b53b 4b4d e7ba
00000250: 0fd9 01bb 2cd1 43bc 4518 6fbb 31d0 083c
00000260: 0f76 0d3c 6a6f 67bc b18a b3bc 21af 993b
00000270: 369b 843a 4c46 81bb 5b46 253c 4b9b b1ba
00000280: 4376 e8bb 6736 2c3c bfad 143b abc9 d73b
00000290: d3d1 b93a a4ee 0abc 0a18 2abb c7cc 7cbb
000002a0: a0f7 0238 6f39 ce3a b7ec 44bc 0b11 a6bb
000002b0: 2beb 2cbb f1fd 24bc a7d7 cd39 aec0 8dbc
000002c0: 5b4a e13b b0dd e4ba bb45 1cbb 6755 31bb
000002d0: f0ec 7f3c 7308 36bc deb1 0eb5 4164 bd3a
000002e0: d0fa 7fbb 9e46 053a 7de1 d63b 0956 943b
000002f0: 848d 993c fafe 3d3b 02a4 91ba c415 203c
00000300: cded 243c 9add f8bb af7f 113c 2059 963b
00000310: 3493 99bc ff19 71bb 93c8 84b9 9775 7cbc
00000320: 1bd3 283c cf5b d83a bbfd 443c 4f39 283c
00000330: fc1a ab39 985c b2bb bd6d e4bb 2911 16bc
00000340: 7338 98ba 85e7 5dbc 9aee ccbb 507b 0ebb
00000350: a181 b73c b236 a23b f8e9 0bbb 7261 5dbc
00000360: cc28 bfbb 2206 af3c 8a94 6cba c22d 863c
00000370: a4d9 3c39 41c6 893b 267d 013a ffdc 08bc
00000380: 55dc 243b 5fc2 323c 7dcb 143a 88dc 9b3b
00000390: c8fa 4d3b 4726 3e3c 9bb4 2cbb 203c ffbb
000003a0: 53c7 8ebc a2ff 0c3c 1655 9d3c 1948 20ba
000003b0: c269 7d3a 50be f3bb c6f2 463b 056c 61bb
000003c0: 82a0 923b d501 39bb e01e 3d3a edaf fc3b
000003d0: f879 82bc 63c1 18bc c760 cc3b 0ac3 20bc
000003e0: 7028 c53a 1c72 b93b 5569 69bb ea80 9d39
000003f0: 5036 dabb 070d 1abc d0de 5d3b 161e b7bc

action_model._discrete_distribution.branches.0.bias f4 [3]
0.0 0.0 0.0
00000000: 0000 0000 0000 0000 0000 0000

network_body._body_endoder.seq_layers.0.weight f4 [128, 6]
0.050904725 0.635814 0.49811357 -0.20540181 -0.34007594 0.34685886 -0.5943042 0.07115559
-0.039737258 0.115897916 -0.0929058 0.92107964 0.42566943 0.16346842 0.6451793 0.3424055
0.7338987 0.16999872 -0.17444377 -0.6711107 1.0515066 0.15109512 -0.22585048 -0.06815635
-0.30917352 -0.290306 -0.300425 0.19843327 0.18161505 0.7814664 -0.22434407 0.14088267
0.07099367 -0.6616759 -0.018360235 0.56017864 0.17035078 0.10657916 -0.67560905 0.31916624
-0.74695444 -0.16341878 -0.19787659 -0.74164325 0.35336745 -0.08781525 0.07101096 -0.4005264
-0.11071901 -0.38151607 -0.3930721 -0.7027906 0.12628901 0.021434443 -0.54087216 -0.42213184
-0.14448918 0.52587116 0.28715143 -0.011798667 -0.0863905 0.41809323 -0.27646258 -0.025959456
-0.34302667 -0.076991774 0.37848702 0.2430103 0.3701224 0.43543544 -0.0668629 -0.09465577
-0.015458245 0.012536849 -0.053457312 0.61123353 0.044961054 0.0949106 0.09745487 0.18547179
-0.49195337 0.5272217 0.5718164 0.5548349 -0.21493456 0.47408393 0.156558 -0.38388318
-0.6075152 0.849501 0.19053109 -0.028831057 -0.42727923 -0.3354403 0.0523803 -0.23985198
-0.17882739 0.15942074 0.2651338 -0.18979736 0.14355738 -0.08758299 0.39550638 0.029828174
0.9263065 -0.1311182 0.14325921 0.45425394 -0.47030586 -0.252831 0.40534627 -0.09253936
0.14519559 -0.0024249929 0.6142949 0.21439604 -0.19912751 -0.13457069 -0.085733645 0.4133501
-0.80316633 0.83350223 0.121564664 -0.05341288 0.11410602 0.0743769 0.012671398 0.2386637
-0.5749729 0.25621775 0.14981395 -0.59162307 -0.7395888 0.77474207 -0.5538893 0.7668623
-0.86939365 -0.34526703 0.23190011 0.8643934 -0.62092245 0.62036365 0.63279957 -0.1437068
-0.25527683 -0.047604132 -0.0045732926 0.2013729 -0.084063135 0.63277435 -0.29287872 -0.24149957
-0.01679453 -0.11729653 -0.63806707 0.37755212 0.9198949 -0.039530665 0.39872286 0.075464055
0.4109616 0.06923156 -0.08937585 0.35098988 -0.37413058 0.4625103 1.0164416 -0.5642537
0.3644036 0.33367476 0.25695306 0.20630077 -0.06886407 0.03247485 -0.19795322 0.021463126
0.503981 -0.0941211 -0.34328952 -0.004848566 -0.0908588 -0.38641146 -0.035771713 -0.27713075
0.064213365 0.38093477 0.1328598 0.19479418 -0.38320714 0.69290364 0.6210298 0.35452875
-0.37047845 -0.4273415 -0.6027049 -0.60253906 0.1295273 -0.015563889 0.33132577 -0.183742
-0.73871857 0.58978885 0.40214318 -0.13169141 -0.2492013 0.23689526 -0.07252427 -1.2216511
-0.2501246 -0.7004869 -0.13343112 -0.60222524 -0.09659571 -0.44289774 -0.23935387 -0.19490002
0.5795422 0.11600834 -0.51216316 -0.6394669 -0.002692393 0.28596434 0.69469786 -0.03402989
-0.9282231 -0.30120882 0.34176177 0.0038518074 -0.14396778 0.023555238 0.54098636 -0.48410973
-0.079574175 -0.33569354 -0.06184009 -0.46337658 -0.36430413 -0.9574852 0.12096867 0.44112948
-0.6926693 0.018190822 -0.07201277 -0.26555553 0.5494488 -0.03401083 -0.17837042 0.14236452
0.16417383 -0.30626705 0.020747209 -0.8382525 0.14215088 0.8990037 0.6586497 0.10876687
00000000: 7981 503d b5c4 223f be08 ff3e da54 52be
00000010: 6f1e aebe 7c97 b13e 5224 18bf 06ba 913d
00000020: 89c3 22bd e35b ed3d 6545 bebd e0cb 6b3f
00000030: 58f1 d93e 4464 273e 782a 253f c64f af3e
00000040: c9e0 3b3f 2514 2e3e 63a1 32be e9cd 2bbf
00000050: c597 863f aeb8 1a3e 5945 67be 8e95 8bbd
00000060: fe4b 9ebe fda2 94be 4ed1 99be 1732 4b3e
00000070: 4cf9 393e 2f0e 483f 74ba 65be 8c43 103e
00000080: 2165 913d 9763 29bf 3468 96bc de67 0f3f
00000090: 6f70 2e3e 2d46 da3d b7f4 2cbf c269 a33e
000000a0: 6838 3fbf 4157 27be 29a0 4abe 55dc 3dbf
000000b0: 94ec b43e 7bd8 b3bd 326e 913d cc11 cdbe
000000c0: a6c0 e2bd 1356 c3be bf40 c9be 16ea 33bf
000000d0: e851 013e 4997 af3c 9976 0abf aa21 d8be
000000e0: f9f4 13be 7e9f 063f 8305 933e 324f 41bc
000000f0: 81ed b0bd 5110 d63e 818c 8dbe eda8 d4bc
00000100: 31a1 afbe ddad 9dbd 0dc9 c13e b1d7 783e
00000110: af80 bd3e 65f1 de3e 6bef 88bd e2da c1bd
00000120: 9444 7dbc 5b67 4d3c 0ef6 5abd cd79 1c3f
00000130: 1529 383d 7d60 c23d 6b96 c73d 51ec 3d3e
00000140: 50e1 fbbe 00f8 063f 8f62 123f a909 0e3f
00000150: ce17 5cbe 21bb f23e be50 203e 568c c4be
00000160: 1e86 1bbf e678 593f 951a 433e 1c2f ecbc
00000170: 58c4 dabe d5be abbe ba8c 563d c29b 75be
00000180: 871e 37be 313f 233e 9ebf 873e 3d5a 42be
00000190: b500 133e b65e b3bd d07f ca3e 375a f43c
000001a0: 6c22 6d3f d943 06be 8bb2 123e f993 e83e
000001b0: eecb f0be 1173 81be 8c89 cf3e 4785 bdbd
000001c0: 27ae 143e a1ec 1ebb 6e42 1d3f a38a 5b3e
000001d0: 15e8 4bbe e6cc 09be 1f95 afbd a0a2 d33e
000001e0: 4f9c 4dbf 6760 553f e5f6 f83d 77c7 5abd
000001f0: 6bb0 e93d eb52 983d b29b 4f3c 4264 743e
00000200: 6d31 13bf f92e 833e d468 193e 9c74 17bf
00000210: b155 3dbf 7f55 463f b0cb 0dbf 1651 443f
00000220: 9590 5ebf d7c6 b0be 3977 6d3e e348 5d3f
00000230: c6f4 1ebf 27d0 1e3f 27ff 213f e027 13be
00000240: a5b3 82be 8dfc 42bd 8fdb 95bb b334 4e3e
00000250: 4b29 acbd 80fd 213f 33f4 95be aa4b 77be
00000260: af94 89bc 2a39 f0bd 5d58 23bf 834e c13e
00000270: 3b7e 6b3f e8ea 21bd 6725 cc3e e68c 9a3d
00000280: 8f69 d23e 47c9 8d3d b00a b7bd f2b4 b33e
00000290: 0b8e bfbe 26ce ec3e c21a 823f ee72 10bf
000002a0: 1c93 ba3e 6bd7 aa3e 5a8f 833e 8240 533e
000002b0: 9b08 8dbd 5904 053d 40b4 4abe 70d3 af3c
000002c0: e604 013f 90c2 c0bd a5c3 afbe b8e0 9ebb
000002d0: 2e14 babd b9d7 c5be 5c85 12bd 15e4 8dbe
000002e0: 4c82 833d e209 c33e 660c 083e 2078 473e
000002f0: ba33 c4be 2262 313f cffb 1e3f cb84 b53e
00000300: 5aaf bdbe 81cc dabe de4a 1abf 0040 1abf
00000310: cea2 043e afff 7ebc 88a3 a93e dd26 3cbe
00000320: a91c 3dbf 67fc 163f b6e5 cd3e 1dda 06be
00000330: a02e 7fbe ac94 723e 9b87 94bd 105f 9cbf
00000340: 5510 80be 1c53 33bf 2ba2 08be 6f2b 1abf
00000350: f9d3 c5bd 7ec3 e2be 2e19 75be df93 47be
00000360: e15c 143f c895 ed3d 201d 03bf 1ab4 23bf
00000370: dc72 30bb eb69 923e b8d7 313f ed62 0bbd
00000380: 07a0 6dbf 0b38 9abe 66fb ae3e 9b6e 7c3b
00000390: 4a6c 13be eaf6 c03c 157e 0a3f 3bdd f7be
000003a0: c9f7 a2bd 06e0 abbe 094c 7dbd b23f edbe
000003b0: 1286 babe c01d 75bf 6cbe f73d b9db e13e
000003c0: c652 31bf eb04 953c 6e7b 93bd e5f6 87be
000003d0: ada8 0c3f f14e 0bbd bca6 36be 01c8 113e
000003e0: 2f1d 283e 09cf 9cbe 0df6 a93c b797 56bf
000003f0: 0090 113e 1b25 663f 449d 283f 2ac1 de3d

network_body._body_endoder.seq_layers.0.bias f4 [128]
0.0 0.0 0.0 0.0 0.0 0.0 0.0 0.0
0.0 0.0 0.0 0.0 0.0 0.0 0.0 0.0
0.0 0.0 0.0 0.0 0.0 0.0 0.0 0.0
0.0 0.0 0.0 0.0 0.0 0.0 0.0 0.0
0.0 0.0 0.0 0.0 0.0 0.0 0.0 0.0
0.0 0.0 0.0 0.0 0.0 0.0 0.0 0.0
0.0 0.0 0.0 0.0 0.0 0.0 0.0 0.0
0.0 0.0 0.0 0.0 0.0 0.0 0.0 0.0
0.0 0.0 0.0 0.0 0.0 0.0 0.0 0.0
0.0 0.0 0.0 0.0 0.0 0.0 0.0 0.0
0.0 0.0 0.0 0.0 0.0 0.0 0.0 0.0
0.0 0.0 0.0 0.0 0.0 0.0 0.0 0.0
0.0 0.0 0.0 0.0 0.0 0.0 0.0 0.0
0.0 0.0 0.0 0.0 0.0 0.0 0.0 0.0
0.0 0.0 0.0 0.0 0.0 0.0 0.0 0.0
0.0 0.0 0.0 0.0 0.0 0.0 0.0 0.0
00000000: 0000 0000 0000 0000 0000 0000 0000 0000
00000010: 0000 0000 0000 0000 0000 0000 0000 0000
00000020: 0000 0000 0000 0000 0000 0000 0000 0000
00000030: 0000 0000 0000 0000 0000 0000 0000 0000
00000040: 0000 0000 0000 0000 0000 0000 0000 0000
00000050: 0000 0000 0000 0000 0000 0000 0000 0000
00000060: 0000 0000 0000 0000 0000 0000 0000 0000
00000070: 0000 0000 0000 0000 0000 0000 0000 0000
00000080: 0000 0000 0000 0000 0000 0000 0000 0000
00000090: 0000 0000 0000 0000 0000 0000 0000 0000
000000a0: 0000 0000 0000 0000 0000 0000 0000 0000
000000b0: 0000 0000 0000 0000 0000 0000 0000 0000
000000c0: 0000 0000 0000 0000 0000 0000 0000 0000
000000d0: 0000 0000 0000 0000 0000 0000 0000 0000
000000e0: 0000 0000 0000 0000 0000 0000 0000 0000
000000f0: 0000 0000 0000 0000 0000 0000 0000 0000
00000100: 0000 0000 0000 0000 0000 0000 0000 0000
00000110: 0000 0000 0000 0000 0000 0000 0000 0000
00000120: 0000 0000 0000 0000 0000 0000 0000 0000
00000130: 0000 0000 0000 0000 0000 0000 0000 0000
00000140: 0000 0000 0000 0000 0000 0000 0000 0000
00000150: 0000 0000 0000 0000 0000 0000 0000 0000
00000160: 0000 0000 0000 0000 0000 0000 0000 0000
00000170: 0000 0000 0000 0000 0000 0000 0000 0000
00000180: 0000 0000 0000 0000 0000 0000 0000 0000
00000190: 0000 0000 0000 0000 0000 0000 0000 0000
000001a0: 0000 0000 0000 0000 0000 0000 0000 0000
000001b0: 0000 0000 0000 0000 0000 0000 0000 0000
000001c0: 0000 0000 0000 0000 0000 0000 0000 0000
000001d0: 0000 0000 0000 0000 0000 0000 0000 0000
000001e0: 0000 0000 0000 0000 0000 0000 0000 0000
000001f0: 0000 0000 0000 0000 0000 0000 0000 0000

network_body._body_endoder.seq_layers.2.weight f4 [128, 128]
0.09570427 -0.035092644 -0.13694602 -0.051804036 0.035250816 0.0020215064 -0.07765615 -0.040683657
0.007415587 -0.007507252 -0.010943941 -0.07398888 0.114120506 -0.1368654 -0.017443858 -0.067304194
-0.036260873 0.027905136 0.07080198 0.03730586 0.106121145 -0.008675046 -0.08504563 -0.023926644
-0.13213569 0.065830916 -0.10251259 -0.13646917 -0.04228065 0.027582427 0.14901537 -0.021883942
0.14015853 0.080134965 0.00035079246 0.03130921 -0.133782 0.0026828425 -0.08764609 0.05709086
0.008039039 0.064027004 0.13924737 -0.03336895 0.028709248 0.0010615297 0.017887939 0.14426544
-0.18854368 0.12077528 0.06711772 -0.012989292 0.13800932 0.0010648377 0.04936588 -0.01362989
0.17117137 -0.14234595 0.075642414 -0.028034838 0.12600467 0.0082014585 0.07456147 -0.033993
-0.04406656 0.08989007 -0.0022550842 0.10471381 -0.05036288 0.01701181 0.003989459 0.045621235
0.1684429 0.096530095 0.14298974 -0.07031261 0.0037148707 -0.06714076 -0.08312283 -0.010874688
0.04085635 -0.15143934 0.06328144 0.050522044 -0.09991137 0.0070187342 0.03483564 0.0017596355
0.06839937 -0.031065274 0.0031763639 0.021767654 -0.11988544 0.11376759 0.17771727 0.08534719
-0.051810894 -0.23737244 -0.094067425 0.09324475 0.04990289 0.052057505 0.026855366 0.01193047
0.06321944 0.10977481 0.3294462 0.0043621967 -0.080044515 0.079251766 -0.05030827 -0.028125782
0.017971354 0.10996699 -0.032070003 -0.08570524 0.08194231 0.0054215244 0.026333883 0.0024618732
0.048270762 -0.10060684 -0.06299297 -0.08441079 -0.047627755 -0.07832859 -0.061155565 0.0071208016
0.025808204 -0.22588232 -0.061741304 0.013823684 0.15259679 0.01286031 -0.08088265 -0.11701869
0.017636808 -0.044705693 0.09000329 0.17411049 0.0165801 0.0550376 0.1879373 0.016646486
-0.053264532 -0.108884566 0.031179493 -0.045794394 -0.028019242 -0.017911037 -0.08683494 0.059209142
0.015756339 -0.053946495 -0.11427161 -0.06657644 0.21712004 -0.04403293 0.07792894 -0.13053524
0.008806563 0.017424395 -0.08963887 0.18698058 -0.0784904 -0.044476714 0.061919186 0.08819702
-0.083810754 0.18988383 0.11901522 0.07844314 0.049232554 -0.057079613 -0.091474146 -0.07877487
-0.0061681485 0.019483274 -0.067882255 -0.031758968 -0.052165676 0.14212216 0.065072306 0.02184259
0.054742493 -0.05018465 -0.025986904 0.057095084 -0.024103321 0.04789402 -0.14925732 -0.024773886
-0.015193927 -0.06357987 0.01855495 0.22283503 0.1220104 0.0920236 0.040990643 0.013571739
0.01838509 -0.1011533 0.02775876 0.052048765 -0.06524898 0.052586976 -0.012364785 0.22261772
0.046281528 0.020197842 0.174813 0.019826947 -0.007508675 -0.04003813 -0.04815579 -0.0016656925
-0.10927839 0.09741747 0.021418918 -0.014863098 0.053628907 0.0101908175 0.13257714 -0.06312346
0.03603701 0.04388377 -0.038915977 0.11404148 0.08878612 0.111840464 0.06648696 0.2695441
0.08089203 0.15991157 0.024643602 -0.06635358 -0.044407148 0.12067402 -0.0019163474 0.09460818
-0.09291886 0.065600045 0.07648731 0.049559414 0.06472233 0.076577835 -0.016087435 -0.0922378
-0.039903164 -0.023591798 0.079150274 -0.03424038 0.10237727 0.017175995 0.10989307 -0.047830556
00000000: 9a00 c43d 4ebd 0fbd 943b 0cbe 7830 54bd
00000010: 2963 103d 407b 043b 300a 9fbd e8a3 26bd
00000020: 74fe f23b 65ff f5bb 374e 33bc 7b87 97bd
00000030: 03b8 e93d 7226 0cbe 6ce6 8ebc c8d6 89bd
00000040: 4886 14bd 5099 e43c a100 913d 08ce 183d
00000050: 0b56 d93d c821 0ebc 672c aebd cf01 c4bc
00000060: 944e 07be 5cd2 863d 1ff2 d1bd 93be 0bbe
00000070: 7a2e 2dbd 8bf4 e13c 7c97 183e f445 b3bc
00000080: b885 0f3e cd1d a43d 91ea b739 163e 003d
00000090: 26fe 08be a1d2 2f3b cb7f b3bd 1bd8 693d
000000a0: 2cb6 033c 9720 833d dd96 0e3e e1ad 08bd
000000b0: a82f eb3c 0723 8b3a ba89 923c 52ba 133e
000000c0: 9811 41be 0859 f73d 0475 893d 0ad1 54bc
000000d0: 5152 0d3e 0692 8b3a e133 4a3d e74f 5fbc
000000e0: 8c47 2f3e 23c3 11be 69ea 9a3d 51a9 e5bc
000000f0: 5e07 013e 695f 063c afb3 983d 3e3c 0bbd
00000100: 237f 34bd 4918 b83d 09ca 13bb 3274 d63d
00000110: 4f49 4ebd 5a5c 8b3c 02ba 823b 55dd 3a3d
00000120: 4c7c 2c3e 92b1 c53d e76b 123e 0f00 90bd
00000130: 3075 733b 1881 89bd 4d3c aabd bf2b 32bc
00000140: fd58 273d ea12 1bbe b399 813d 34f0 4e3d
00000150: 559e ccbd 69fd e53b d1af 0e3d 92a3 e63a
00000160: f814 8c3d 9a7c febc 8b2a 503b 1452 b23c
00000170: 7f86 f5bd fbfe e83d 84fb 353e 82ca ae3d
00000180: a937 54bd c311 73be 6ca6 c0bd 1af7 be3d
00000190: f966 4c3d 403a 553d c9ff db3c 0578 433c
000001a0: 3279 813d 9ed1 e03d 2cad a83e c2f0 8e3b
000001b0: 61ee a3bd c04e a23d 0b10 4ebd 0a68 e6bc
000001c0: a938 933c 6036 e13d d65b 03bd 3b86 afbd
000001d0: 5fd1 a73d 0ba7 b13b 28ba d73c 6157 213b
000001e0: 90b7 453d f50a cebd 7502 81bd 90df acbd
000001f0: 5215 43bd bd6a a0bd 427e 7abd 9d55 e93b
00000200: ba6b d33c b24d 67be 73e4 7cbd bc7c 623c
00000210: 5542 1c3e 0db4 523c cea5 a5bd 7fa7 efbd
00000220: 117b 903c 511d 37bd a553 b83d 054a 323e
00000230: fdd2 873c 1b6f 613d a372 403e 365e 883c
00000240: e92b 5abd dffe debd 236c ff3c e792 3bbd
00000250: 9c88 e5bc 2bba 92bc 84d6 b1bd 4985 723d
00000260: 7013 813c 00f7 5cbd 3c07 eabd 3b59 88bd
00000270: b754 5e3e e05b 34bd 3599 9f3d 08ab 05be
00000280: 6749 103c 9bbd 8e3c 9594 b7bd d677 3f3e
00000290: 93bf a0bd 372d 36bd f99e 7d3d a4a0 b43d
000002a0: f9a4 abbd e870 423e 40be f33d cca6 a03d
000002b0: 13a8 493d 50cc 69bd cc56 bbbd b854 a1bd
000002c0: 2e1e cabb 639b 9f3c da05 8bbd b115 02bd
000002d0: adab 55bd 7988 113e a144 853d 3bef b23c
000002e0: aa39 603d 6b8e 4dbd 7de2 d4bc 89dc 693d
000002f0: 5474 c5bc 852c 443d e9d6 18be 9bf2 cabc
00000300: f3ef 78bc 2a36 82bd 8d00 983c de2e 643e
00000310: 97e0 f93d df76 bc3d cee5 273d 005c 5e3c
00000320: 549c 963c 7629 cfbd 5766 e33c 1631 553d
00000330: 42a1 85bd 7165 573d ab95 4abc e6f5 633e
00000340: b391 3d3d f275 a53c 2e02 333e 1f6c a23c
00000350: 550b f6bb 06ff 23bd 013f 45bd 5e53 daba
00000360: 59cd dfbd cf82 c73d ba76 af3c 5a84 73bc
00000370: fca9 5b3d 63f7 263c 4dc2 073e df46 81bd
00000380: 8b9b 133d 78bf 333d 5c66 1fbd 948e e93d
00000390: 7fd5 b53d 9d0c e53d 512a 883d af01 8a3e
000003a0: b8aa a53d dcbf 233e 61e1 c93c 63e4 87bd
000003b0: 45e4 35bd f123 f73d f32d fbba efc1 c13d
000003c0: 3e4c bebd 5159 863d 61a5 9c3d d0fe 4a3d
000003d0: 248d 843d d7d4 9c3d ccc9 83bc 2ce7 bcbd
000003e0: 8071 23bd 9643 c1bc 8a19 a23d a43f 0cbd
000003f0: 2dab d13d acb4 8c3c 9e0f e13d f9e9 43bd

network_body._body_endoder.seq_layers.2.bias f4 [128]
0.0 0.0 0.0 0.0 0.0 0.0 0.0 0.0
0.0 0.0 0.0 0.0 0.0 0.0 0.0 0.0
0.0 0.0 0.0 0.0 0.0 0.0 0.0 0.0
0.0 0.0 0.0 0.0 0.0 0.0 0.0 0.0
0.0 0.0 0.0 0.0 0.0 0.0 0.0 0.0
0.0 0.0 0.0 0.0 0.0 0.0 0.0 0.0
0.0 0.0 0.0 0.0 0.0 0.0 0.0 0.0
0.0 0.0 0.0 0.0 0.0 0.0 0.0 0.0
0.0 0.0 0.0 0.0 0.0 0.0 0.0 0.0
0.0 0.0 0.0 0.0 0.0 0.0 0.0 0.0
0.0 0.0 0.0 0.0 0.0 0.0 0.0 0.0
0.0 0.0 0.0 0.0 0.0 0.0 0.0 0.0
0.0 0.0 0.0 0.0 0.0 0.0 0.0 0.0
0.0 0.0 0.0 0.0 0.0 0.0 0.0 0.0
0.0 0.0 0.0 0.0 0.0 0.0 0.0 0.0
0.0 0.0 0.0 0.0 0.0 0.0 0.0 0.0
00000000: 0000 0000 0000 0000 0000 0000 0000 0000
00000010: 0000 0000 0000 0000 0000 0000 0000 0000
00000020: 0000 0000 0000 0000 0000 0000 0000 0000
00000030: 0000 0000 0000 0000 0000 0000 0000 0000
00000040: 0000 0000 0000 0000 0000 0000 0000 0000
00000050: 0000 0000 0000 0000 0000 0000 0000 0000
00000060: 0000 0000 0000 0000 0000 0000 0000 0000
00000070: 0000 0000 0000 0000 0000 0000 0000 0000
00000080: 0000 0000 0000 0000 0000 0000 0000 0000
00000090: 0000 0000 0000 0000 0000 0000 0000 0000
000000a0: 0000 0000 0000 0000 0000 0000 0000 0000
000000b0: 0000 0000 0000 0000 0000 0000 0000 0000
000000c0: 0000 0000 0000 0000 0000 0000 0000 0000
000000d0: 0000 0000 0000 0000 0000 0000 0000 0000
000000e0: 0000 0000 0000 0000 0000 0000 0000 0000
000000f0: 0000 0000 0000 0000 0000 0000 0000 0000
00000100: 0000 0000 0000 0000 0000 0000 0000 0000
00000110: 0000 0000 0000 0000 0000 0000 0000 0000
00000120: 0000 0000 0000 0000 0000 0000 0000 0000
00000130: 0000 0000 0000 0000 0000 0000 0000 0000
00000140: 0000 0000 0000 0000 0000 0000 0000 0000
00000150: 0000 0000 0000 0000 0000 0000 0000 0000
00000160: 0000 0000 0000 0000 0000 0000 0000 0000
00000170: 0000 0000 0000 0000 0000 0000 0000 0000
00000180: 0000 0000 0000 0000 0000 0000 0000 0000
00000190: 0000 0000 0000 0000 0000 0000 0000 0000
000001a0: 0000 0000 0000 0000 0000 0000 0000 0000
000001b0: 0000 0000 0000 0000 0000 0000 0000 0000
000001c0: 0000 0000 0000 0000 0000 0000 0000 0000
000001d0: 0000 0000 0000 0000 0000 0000 0000 0000
000001e0: 0000 0000 0000 0000 0000 0000 0000 0000
000001f0: 0000 0000 0000 0000 0000 0000 0000 0000

value_heads.value_heads.extrinsic.weight f4 [1, 128]
-0.11895917 -0.18887272 0.17162147 -0.05104626 -0.12336127 -0.11728149 0.074477226 -0.20069979
0.04207382 0.10799251 0.13793483 -0.12030315 0.05998739 0.12915708 -0.17896792 0.040173873
-0.13306455 0.06632564 -0.12696786 0.016624557 0.059475284 -0.16101223 0.12760164 -0.20599037
-0.047732893 0.08865806 -0.07494556 -0.05920683 0.07561111 0.022523694 -0.018669954 0.0228656
0.044111516 0.028251939 0.015134161 -0.039588343 -0.13219927 0.020758746 -0.19977908 -0.1267381
-0.043075558 -0.11110014 0.09433494 -0.16527589 -0.10124945 0.09499197 0.034951124 -0.04091385
0.10549785 0.10096319 -0.06912774 -0.08089773 -0.006982206 0.108805485 0.100623235 -0.17183015
-0.044029452 -0.15427887 -0.21296881 0.04574848 -0.023563739 0.21004984 0.08046945 0.074091226
-0.116405025 -0.12719111 0.07322361 -0.16863069 -0.17506638 -0.1291308 -0.10162682 0.16415326
0.12733935 -0.18454029 0.020756485 0.10166886 -0.11784305 0.06488887 0.20638423 0.046179112
-0.1309692 -0.022120802 0.10464101 0.16529946 0.0035304318 0.21164903 -0.025312744 -0.009656067
-0.071201906 -0.08971381 -0.17201127 0.06639524 -0.12680827 0.20345174 0.20039083 0.1142571
0.1845418 -0.14725496 0.08999649 0.02100877 0.07513633 -0.030071659 -0.20271178 0.15225625
-0.06369285 -0.15730661 0.1570688 0.14943434 -0.13389198 0.062424764 -0.044294797 -0.14909984
-0.21471922 0.14645892 -0.12252565 0.092604004 0.07552084 0.16396427 0.019762484 0.16547693
0.026660813 -0.0934445 -0.20083751 0.2077973 0.0049229525 -0.11491057 0.1748392 0.008135694
00000000: dea0 f3bd da67 41be 8abd 2f3e e215 51bd
00000010: d5a4 fcbd 4731 f0bd 8487 983d 3f84 4dbe
00000020: 9955 2c3d 2d2b dd3d ca3e 0d3e 7f61 f6bd
00000030: 56b5 753d c141 043e 5e43 37be 5c8d 243d
00000040: 1342 08be bdd5 873d dd03 02be 3930 883c
00000050: 5b9c 733d 64e0 24be 01aa 023e 24ef 52be
00000060: 9183 43bd 5b92 b53d 0f7d 99bd dc82 72bd
00000070: ffd9 9a3d 9c83 b83c bbf1 98bc a450 bb3c
00000080: 47ae 343d 9c70 e73c 46f5 773c 6327 22bd
00000090: 3f5f 07be 3f0e aa3c e392 4cbe a2c7 01be
000000a0: ff6f 30bd 7888 e3bd ad32 c13d 153e 29be
000000b0: df5b cfbd 268b c23d e928 0f3d 4895 27bd
000000c0: 420f d83d cac5 ce3d d892 8dbd b6ad a5bd
000000d0: fdca e4bb 69d5 de3d 8e13 ce3d 3ef4 2fbe
000000e0: 3a58 34bd 48fb 1dbe 7f14 5abe c262 3b3d
000000f0: be08 c1bc 4e17 573e 2bcd a43d 24bd 973d
00000100: c265 eebd 633e 02be 43f6 953d 86ad 2cbe
00000110: 9a44 33be dd3a 04be b921 d0bd cb17 283e
00000120: 3f65 023e 21f8 3cbe 8109 aa3c c337 d03d
00000130: b257 f1bd 75e4 843d 6356 533e 4f26 3d3d
00000140: ca1c 06be af36 b5bc 074e d63d 4344 293e
00000150: d15e 673b 86ba 583e ac5c cfbc 7b34 1ebc
00000160: 4ed2 91bd e0bb b7bd b923 30be 3afa 873d
00000170: 07da 01be a755 503e 4133 4d3e a0ff e93d
00000180: 87f8 3c3e 01ca 16be 1450 b83d 961a ac3c
00000190: 14e1 993d d758 f6bc ad93 4fbe 10e9 1b3e
000001a0: 6671 82bd fc14 21be a5d6 203e 5105 193e
000001b0: fb1a 09be 1cb1 7f3d 766e 35bd a1ad 18be
000001c0: 5bdf 5bbe 54f9 153e baee fabd 2ba7 bd3d
000001d0: acaa 9a3d 40e6 273e efe4 a13c c972 293e
000001e0: c767 da3c d45f bfbd 59a8 4dbe d1c8 543e
000001f0: b850 a13b 3c56 ebbd 0c09 333e 934b 053c
