Shortcut Run/results/LEVEL1/Move/Move-7312.onnx (onnx, 71941 bytes, 5 tensors)

network_body._body_endoder.seq_layers.0.weight f4 [128, 6]
000000 43 b8 87 3e 3d 29 ba bd 42 01 d8 bd 0e 00 d7 3e
       0.26507768 -0.09089897 -0.10547115 0.4199223
000010 e5 b3 95 be ee 27 70 3f 54 fe 0c bf bf de 3e 3f
       -0.2923881 0.9381093 -0.55075574 0.74558634
000020 44 80 9e 3d 8c 34 89 be 5a df 05 bf 85 a3 89 be
       0.077393085 -0.26797903 -0.5229393 -0.26882568
000030 a9 0d 24 be 3f 03 4e 3e 6f ed ae 3e 28 29 ae 3e
       -0.16020836 0.20118426 0.34165522 0.34015775
000040 96 32 1d bf 8f 60 4b bf 14 69 f4 bd c2 84 9a be
       -0.61405313 -0.7944421 -0.119341046 -0.3017941
000050 39 a1 aa 3e 19 3f 81 bb 85 ed b0 bd 2a ef 86 be
       0.33326128 -0.0039442894 -0.08639053 -0.26354343
000060 1b 89 8a 3e 47 2f 14 bf 2a 86 a1 bd b6 85 8b bd
       0.27057728 -0.5788464 -0.07886918 -0.06812613
000070 4b 38 81 be 54 e4 5a 3f 40 f0 f1 be a1 be 19 3e
       -0.2523826 0.8550465 -0.4725361 0.15014125
000080 ea 22 3a be 4d 31 98 3e 94 c9 2d be b4 e9 59 3e
       -0.18177381 0.29725114 -0.16971427 0.21280557
000090 36 da 9a 3e 64 a6 a8 3e cd a1 a4 3e 70 e3 33 3e
       0.30244607 0.32939446 0.32154694 0.1756723
0000a0 d6 c0 ba 3e dc 30 9a 3e 47 6c 03 3e 05 df 91 3c
       0.36475247 0.30115402 0.12834273 0.01780654
0000b0 54 7e 3c 3e 43 ea 7a 3d 6e 5b e8 3e 92 0b c4 3d
       0.18407565 0.061258566 0.45382255 0.09572519
0000c0 a0 ef f6 bc 4f 73 28 bf 3f 27 d8 be 6d 0a 44 3f
       -0.030143559 -0.65800947 -0.42217442 0.7657841
0000d0 08 83 30 be 92 db 17 3f 79 44 c3 3e a3 7a 81 be
       -0.17237484 0.5931941 0.38138178 -0.25288877
0000e0 ba 40 3d bf ef 65 d9 3e d6 0f 3e bf 20 88 e9 be
       -0.7392689 0.42460582 -0.74242914 -0.45611668
0000f0 6b 4e 18 3f c2 b6 c7 be 0f 7a d5 be c1 0c 34 bf
       0.59494656 -0.3900662 -0.41694686 -0.7033196
000100 3b e5 00 3e 42 bb 14 3f 32 05 ce be 97 eb 3d bf
       0.12587444 0.5809823 -0.4023834 -0.74187607
000110 8b a5 04 bf 42 1c 2e 3f 4d bb 80 3e f6 f8 28 bf
       -0.518151 0.6801187 0.251429 -0.66004884
000120 6e 36 fc 3e ee 98 84 be f9 b5 25 3e ab d2 12 3e
       0.49260277 -0.25897926 0.16182698 0.14338176
000130 11 18 c8 3e 2c f2 c2 be 30 ba 99 bd ac 1d 4f bf
       0.3908086 -0.38075387 -0.075062156 -0.8090465
000140 3d d5 1f 3f 5b 2a b2 be 0a 8b ab 3e 2b 23 89 bf
       0.6243475 -0.3479794 0.33504516 -1.0713857
000150 51 ab 8c b9 e0 ef 26 bf e4 bb a9 3d 54 ab d9 bc
       -0.00026830522 -0.6520977 0.082877904 -0.026570953
000160 55 b2 60 3e 1f 56 e0 3e b2 d7 2e 3e 0c 6a 6e 3e
       0.21943028 0.43815705 0.17074469 0.23282641
000170 02 70 aa 3e d3 d8 1b 3f c6 45 4e 3f 45 08 56 3e
       0.3328858 0.6087772 0.80575216 0.20901592
000180 6a 69 8b 3e 06 06 c9 be 40 44 ad bd 40 0e 17 bf
       0.27228862 -0.39262408 -0.08460283 -0.5900612
000190 05 c4 3c bf 41 b0 64 be 4f 8c 2c bf 3c ed 81 3e
       -0.737366 -0.2233286 -0.67401594 0.25376308
0001a0 56 12 ec 3e ac cb 2c 3e 79 6d b1 3e d5 15 65 3e
       0.4610774 0.1687457 0.34653834 0.2237161
0001b0 b9 64 fd bd 04 4d 25 3e f4 cf 5a 3e 75 fb 6b bd
       -0.12372727 0.1614266 0.2136839 -0.057612855
0001c0 9a 36 88 3e 1e aa a4 3d 9b 01 31 3f 79 6c e6 bd
       0.26604158 0.0804026 0.69143075 -0.11251158
0001d0 83 41 93 be cb 66 b0 be f3 8d 96 be 46 0f 84 3e
       -0.2876092 -0.34453425 -0.29405174 0.25792903
0001e0 4f 1a 07 3f 1a 54 84 3f 85 5f e3 3e 34 13 2b bf
       0.5277452 1.0338166 0.44408813 -0.66826177
0001f0 6f 1c 15 3e 94 1b 78 bd 9c a6 cb 3e 60 f2 d5 3e
       0.14561628 -0.060573176 0.3977555 0.4178648
000200 5c 7e 80 be 08 c0 98 3e dc 8f 73 bd 3d d2 1f 3f
       -0.25096405 0.29834008 -0.059463367 0.62430173
000210 fe 53 6b be 68 7b 83 3d 6e c7 72 3e 46 90 5e 3e
       -0.22981259 0.06420022 0.23708889 0.21734723
000220 2c e7 3c 3e ed 7e 8a be 8c a0 91 bd 36 d3 86 be
       0.1844756 -0.27049962 -0.071107 -0.26333016
000230 09 21 c2 be 76 55 3b be 57 1f 95 be 28 81 29 bf
       -0.3791583 -0.1829432 -0.29125473 -0.662127
000240 c4 c5 34 3e 0d 9c 19 bf c4 f5 9f be fd e2 f1 3e
       0.17653567 -0.6000374 -0.31242192 0.4724349
000250 e5 1f 8f be ce 08 2b be 3d 54 0f 3f c8 99 06 bf
       -0.2795402 -0.16702577 0.5598791 -0.525784
000260 0a 8f c5 bd ac 49 16 3f 02 9c db be 82 52 c8 bd
       -0.09646423 0.58706164 -0.42892462 -0.09781362
000270 d1 34 15 bf 78 d1 41 3e a2 2a c2 be 4b e6 05 3f
       -0.58283716 0.18927562 -0.3792315 0.52304524
000280 e4 dd 2c bf ae c9 1c 3f fb 5b fc bd 2a a3 93 3d
       -0.6752608 0.6124524 -0.123222314 0.072088555
000290 c0 68 95 3e eb e7 21 be 70 95 fd bd db c6 7d be
       0.2918148 -0.15811126 -0.123820186 -0.24782889
0002a0 86 98 09 bd 29 1a 10 3f 80 57 27 bd 47 1c ae bc
       -0.033592723 0.5628992 -0.04085493 -0.021253718
0002b0 8f 4f 92 bf 95 f3 0f be 97 50 3c bd be 9d a4 bc
       -1.1430529 -0.14057763 -0.045975294 -0.020094749
0002c0 cd c6 9e bd 24 d7 7b 3e 62 27 70 be 58 e3 f9 bd
       -0.07752762 0.24593788 -0.23452523 -0.122015655
0002d0 64 02 02 be 2b 7e bf bd 4b 88 ba 3e c6 75 aa 3d
       -0.12696224 -0.093502365 0.36432108 0.08323245
0002e0 fa 0b 01 3f 3c 87 08 be 4c 43 15 3e 46 f8 01 3e
       0.504089 -0.13332838 0.14576453 0.12692365
0002f0 f7 ef 94 be e4 79 a6 3e 32 5b 94 be ee 4c 1d 3e
       -0.2908933 0.3251487 -0.28975827 0.15361378
000300 a2 e1 69 3e 4a b7 32 bf 35 c9 65 bf c0 9a d0 bc
       0.22839978 -0.69810927 -0.8976014 -0.025464416
000310 f1 ea 61 3e be 3b d3 3e 19 5c b0 be a0 ee 26 be
       0.2206228 0.41256517 -0.34445265 -0.16301966
000320 d0 5d 4b 3f df 02 0b 3f a4 3d 0c be 52 ba f0 be
       0.7944002 0.54301256 -0.13695389 -0.4701715
000330 95 49 ff be 97 2b c2 3e 4e 3c f7 3d ed ad a5 3f
       -0.49860826 0.3792388 0.12072049 1.2943703
000340 d9 ca 66 bd ea a6 39 bf 3a 97 90 bd 75 9f 85 3e
       -0.056345794 -0.72520316 -0.07060094 0.2609822
000350 e9 c3 ed 3e 57 fe 7b be 54 6b c5 3e 7d da c5 3d
       0.4643853 -0.24608742 0.38558447 0.09660814
000360 52 3e 8e be 99 87 4b 3e b9 7b 02 3d 93 f0 b9 be
       -0.27781922 0.19875945 0.031856272 -0.36316356
000370 6c 7f e5 be a7 98 59 3e ca ba 02 bf 3a b2 a6 3e
       -0.44823778 0.21249638 -0.5106627 0.3255785
000380 ac 12 59 3e 41 75 9b be 86 4c d6 3d b1 0b 2c bf
       0.21198529 -0.30362895 0.104638144 -0.6720534
000390 f1 2a 01 bf 76 f8 c5 3e e6 49 7b 3e 8e 67 f9 be
       -0.5045615 0.38666123 0.24539909 -0.48711818
0003a0 ce 62 2d bd f0 32 a4 be f1 a4 9f be d3 e8 46 be
       -0.042330556 -0.32070112 -0.31180528 -0.19424753
0003b0 e5 16 0f 3f 68 9f c0 3e 47 e2 a5 bd 9b dc b2 3e
       0.5589431 0.37621617 -0.080997996 0.34933934
0003c0 95 87 ad 3e 59 e2 18 3e 39 bc 9d be 9e 56 c3 3d
       0.33892503 0.14930095 -0.30807665 0.09538005
0003d0 d3 ad e7 be c8 e7 25 3f e5 6e 96 3e 04 d8 98 be
       -0.45249805 0.64806795 0.2938148 -0.29852307
0003e0 9a c3 96 be c2 ac 59 be 91 9a 7d bd dd 76 c5 bd
       -0.29446107 -0.21257308 -0.061914984 -0.09641812
0003f0 88 13 ab bd 88 36 05 bf 87 a4 ee 3e ca 25 d0 3d
       -0.08353335 -0.52036333 0.466099 0.10163458

network_body._body_endoder.seq_layers.0.bias f4 [128]
000000 00 00 00 00 00 00 00 00 00 00 00 00 00 00 00 00
       0.0 0.0 0.0 0.0
000010 00 00 00 00 00 00 00 00 00 00 00 00 00 00 00 00
       0.0 0.0 0.0 0.0
000020 00 00 00 00 00 00 00 00 00 00 00 00 00 00 00 00
       0.0 0.0 0.0 0.0
000030 00 00 00 00 00 00 00 00 00 00 00 00 00 00 00 00
       0.0 0.0 0.0 0.0
000040 00 00 00 00 00 00 00 00 00 00 00 00 00 00 00 00
       0.0 0.0 0.0 0.0
000050 00 00 00 00 00 00 00 00 00 00 00 00 00 00 00 00
       0.0 0.0 0.0 0.0
000060 00 00 00 00 00 00 00 00 00 00 00 00 00 00 00 00
       0.0 0.0 0.0 0.0
000070 00 00 00 00 00 00 00 00 00 00 00 00 00 00 00 00
       0.0 0.0 0.0 0.0
000080 00 00 00 00 00 00 00 00 00 00 00 00 00 00 00 00
       0.0 0.0 0.0 0.0
000090 00 00 00 00 00 00 00 00 00 00 00 00 00 00 00 00
       0.0 0.0 0.0 0.0
0000a0 00 00 00 00 00 00 00 00 00 00 00 00 00 00 00 00
       0.0 0.0 0.0 0.0
0000b0 00 00 00 00 00 00 00 00 00 00 00 00 00 00 00 00
       0.0 0.0 0.0 0.0
0000c0 00 00 00 00 00 00 00 00 00 00 00 00 00 00 00 00
       0.0 0.0 0.0 0.0
0000d0 00 00 00 00 00 00 00 00 00 00 00 00 00 00 00 00
       0.0 0.0 0.0 0.0
0000e0 00 00 00 00 00 00 00 00 00 00 00 00 00 00 00 00
       0.0 0.0 0.0 0.0
0000f0 00 00 00 00 00 00 00 00 00 00 00 00 00 00 00 00
       0.0 0.0 0.0 0.0
000100 00 00 00 00 00 00 00 00 00 00 00 00 00 00 00 00
       0.0 0.0 0.0 0.0
000110 00 00 00 00 00 00 00 00 00 00 00 00 00 00 00 00
       0.0 0.0 0.0 0.0
000120 00 00 00 00 00 00 00 00 00 00 00 00 00 00 00 00
       0.0 0.0 0.0 0.0
000130 00 00 00 00 00 00 00 00 00 00 00 00 00 00 00 00
       0.0 0.0 0.0 0.0
000140 00 00 00 00 00 00 00 00 00 00 00 00 00 00 00 00
       0.0 0.0 0.0 0.0
000150 00 00 00 00 00 00 00 00 00 00 00 00 00 00 00 00
       0.0 0.0 0.0 0.0
000160 00 00 00 00 00 00 00 00 00 00 00 00 00 00 00 00
       0.0 0.0 0.0 0.0
000170 00 00 00 00 00 00 00 00 00 00 00 00 00 00 00 00
       0.0 0.0 0.0 0.0
000180 00 00 00 00 00 00 00 00 00 00 00 00 00 00 00 00
       0.0 0.0 0.0 0.0
000190 00 00 00 00 00 00 00 00 00 00 00 00 00 00 00 00
       0.0 0.0 0.0 0.0
0001a0 00 00 00 00 00 00 00 00 00 00 00 00 00 00 00 00
       0.0 0.0 0.0 0.0
0001b0 00 00 00 00 00 00 00 00 00 00 00 00 00 00 00 00
       0.0 0.0 0.0 0.0
0001c0 00 00 00 00 00 00 00 00 00 00 00 00 00 00 00 00
       0.0 0.0 0.0 0.0
0001d0 00 00 00 00 00 00 00 00 00 00 00 00 00 00 00 00
       0.0 0.0 0.0 0.0
0001e0 00 00 00 00 00 00 00 00 00 00 00 00 00 00 00 00
       0.0 0.0 0.0 0.0
0001f0 00 00 00 00 00 00 00 00 00 00 00 00 00 00 00 00
       0.0 0.0 0.0 0.0

network_body._body_endoder.seq_layers.2.weight f4 [128, 128]
000000 30 9e 22 3d 53 2d 7c bd 8e bc 02 be 25 b7 31 3d
       0.03970164 -0.061566662 -0.1276724 0.04338755
000010 76 1a dd bd 6c 37 55 bd d0 9e 52 bd d8 d8 9a 3e
       -0.10796063 -0.052054808 -0.051420987 0.30243564
000020 e6 34 45 3e 4f bc ff 3d 94 ed 90 3d 56 87 f7 3c
       0.1925846 0.12487089 0.070765644 0.0302159
000030 a5 a3 28 3e d1 b2 92 bd 63 eb 09 be 31 a0 2e 3d
       0.16468675 -0.07163013 -0.13468699 0.04263324
000040 42 cc d6 3d ce 5a d0 ba c0 13 2c 3d 8c 63 87 bd
       0.10488178 -0.0015896203 0.042011023 -0.06610784
000050 91 28 1a bd d5 e3 b1 bd 38 73 45 3d 68 65 8a bd
       -0.037636343 -0.08686034 0.048205584 -0.06757623
000060 97 e2 0e be be 27 be 3d ed 8d 68 3d 7f 1d 0e 3e
       -0.13953625 0.09284924 0.056775976 0.1387844
000070 aa 13 7e 3d 5e 0f 24 3b 51 eb 62 bd 0c 96 d3 bd
       0.06203047 0.0025033574 -0.055400196 -0.103313535
000080 7d 7a 16 3d 05 8b 07 3e eb 31 54 bd c0 86 fe bd
       0.036737908 0.13236625 -0.051805418 -0.12428045
000090 a7 a5 08 3d 4c e8 d4 bd 4e 48 02 be 33 65 45 be
       0.033361103 -0.103958696 -0.12722895 -0.19276886
0000a0 09 1c 83 bd 74 fa c6 3c 59 98 ec bc e9 f6 48 3c
       -0.06401832 0.024289347 -0.028881239 0.012265899
0000b0 d1 26 dc bd 35 33 b3 bd d4 d6 61 3d fe af 03 be
       -0.10749591 -0.08750001 0.055136517 -0.12860104
0000c0 fe ca 51 3d 42 4e a9 3c 5c d2 ca 3b f9 bf d8 3c
       0.05121898 0.020667199 0.0061896276 0.026458727
0000d0 bf 7e a7 bd d0 1b da 3d c9 37 9e 3d 17 21 f4 3c
       -0.08178472 0.10649836 0.07725484 0.029800935
0000e0 c2 10 91 bd 22 9e af 3d 6f 6e 59 bd 8b 1b 37 3e
       -0.070832744 0.08575083 -0.053083833 0.178816
0000f0 25 ab 6e bd df e4 61 bd 3b 05 7e 3d 93 53 13 3c
       -0.058268685 -0.05514991 0.062016707 0.008992094
000100 8c be 5c bd 27 fa 65 3d df c5 c1 3d 13 4d d8 3c
       -0.053892657 0.056146767 0.09461569 0.02640394
000110 96 6f 8e b9 f4 f7 25 bd 81 4d d6 3c b0 2b d2 bc
       -0.0002716749 -0.04051967 0.026160004 -0.025655597
000120 79 f3 2c be 69 f6 12 be 5b af 6a 3d 7e 98 7b 3d
       -0.16889752 -0.1435181 0.05729614 0.061424725
000130 40 e9 40 3e 15 1f aa 3d b8 38 21 be e1 dd 23 3e
       0.18838978 0.0830671 -0.15744293 0.16002609
000140 ce 65 33 3d f9 e6 10 be 27 e7 f6 bd ee ae c6 3c
       0.04379826 -0.14150609 -0.120558076 0.024253335
000150 2b c8 f9 3d bf 9c 07 bd 7d 2b b2 3d ac 32 01 bd
       0.12196382 -0.03310847 0.08699701 -0.031542465
000160 0f 20 7a bd 2f 88 14 bd 80 5e 32 3c ad f8 4d 3d
       -0.06106573 -0.036262687 0.010886788 0.050285984
000170 8e 1d ee bd c2 90 50 3d 42 4d f3 bc ba e4 db 3d
       -0.11626731 0.0509193 -0.029699925 0.107369855
000180 2c 48 23 3d 66 e0 8d 3d 94 54 b8 bd f2 f1 26 3e
       0.03986375 0.06927566 -0.09000507 0.16303232
000190 d9 de 89 bc 8c ab ec 3c 1b 7e 43 be c6 26 db 3c
       -0.016829895 0.028890394 -0.19091074 0.026751887
0001a0 05 db 02 3d 5e b3 83 bd 65 30 8a 3d 54 11 17 be
       0.031947155 -0.06430696 0.06747512 -0.14752704
0001b0 01 4f 88 38 8c 72 2f be b6 bd 04 3c a7 51 95 bb
       6.499701e-05 -0.1713354 0.008101871 -0.004556853
0001c0 97 bf 4e bd 34 57 2f 3d 8f b0 89 bd 47 08 e9 bd
       -0.050475683 0.042807773 -0.06723129 -0.11378532
0001d0 22 0c 0f 3e e6 59 8e 3d 84 8f 76 bb 10 ee a3 bd
       0.13969472 0.069507405 -0.0037622163 -0.08004391
0001e0 ad 61 8d bb 81 94 00 bd 3a 50 56 3e 11 2a 5e 3d
       -0.0043146224 -0.031391624 0.20929042 0.054239336
0001f0 53 f6 3b be c3 0a a6 bd f0 48 81 bd 37 dc 70 3d
       -0.18355684 -0.081075214 -0.0631274 0.058803763
000200 0d 10 3a 3e 44 33 77 bd 6e 89 51 3d c5 9e 1c 3d
       0.18170185 -0.060351625 0.051156454 0.038237352
000210 37 e9 f6 3d e5 44 f2 3c 48 49 19 bd 5c 8f 47 bd
       0.12056201 0.029573867 -0.037423402 -0.048720703
000220 cc cc 04 be 8f 36 7e bd 0e 26 c6 3d 1f d9 40 3d
       -0.12968749 -0.06206375 0.09675227 0.047082063
000230 5d d7 8c 3c b6 bb 1e 3d a3 f9 47 bd 45 60 07 be
       0.017192537 0.038753234 -0.048822057 -0.13220318
000240 07 d8 b9 3d e6 60 ae 3c d6 b9 26 3d d0 65 7a be
       0.09074407 0.02128644 0.04070457 -0.24452901
000250 b8 87 7d bd 9e 1a 4a 3c b3 9a c9 bc 8c 0f 52 3d
       -0.06189701 0.012335448 -0.0246099 0.051284358
000260 97 af bd b8 ff 83 23 3d b3 50 b9 bc b2 80 a6 bc
       -9.0449284e-05 0.039920803 -0.022621488 -0.020325039
000270 33 d2 65 3d 76 a6 a1 bd ee 52 25 3e 3b 0d 35 3c
       0.056108665 -0.07893078 0.16144916 0.011050518
000280 a9 fa d6 bd 4a 44 00 3c f6 9b 4c bd 5f 7a 0d be
       -0.104970284 0.007828781 -0.049953423 -0.13816212
000290 f5 6d 18 bd b5 c8 72 bd cf 4f b4 3c 70 fc f8 bc
       -0.03721424 -0.05927344 0.022010712 -0.03039381
0002a0 dd 05 7e 3d b6 93 c3 3a 01 25 f8 3c 85 34 33 3c
       0.06201731 0.0014921341 0.030291082 0.010937815
0002b0 95 f8 f4 bd bf b4 e5 3d 96 60 84 3d ce 33 ac bb
       -0.11961476 0.11216115 0.06463735 -0.005255199
0002c0 da 16 ec 3c 74 fe 1a 3c 87 de e8 3c c6 cc b9 3b
       0.02881949 0.00946008 0.028426422 0.005670163
0002d0 e1 36 11 3e bd 41 00 be e1 06 38 bd 42 3f 2f 3e
       0.14181091 -0.12525077 -0.044928435 0.17113975
0002e0 c9 ed 6c 3e 4d 2d 65 3d c1 36 21 bd fb 72 0b 3e
       0.23137583 0.055951405 -0.039358858 0.1361808
0002f0 5a 58 31 be a4 95 81 bd 40 77 0a bd 08 3b b0 3d
       -0.1731886 -0.0632737 -0.033805132 0.08605009
000300 e9 cf 6f bd 7e 6e 20 be 3f b3 9b bd 53 ee 76 bd
       -0.058547888 -0.1566715 -0.07602548 -0.060285877
000310 5a aa 3a 3d b4 e9 b6 bd 08 18 a0 3d 6c 23 0c 3d
       0.045572616 -0.08931294 0.078170836 0.03421347
000320 f2 00 cd 3d 91 22 e6 3d 30 ce 91 3d 89 a6 be 3d
       0.10009946 0.11237062 0.07119405 0.09309108
000330 38 a7 ba 3d 33 4d ea 3c 76 cd e6 bd ef d0 35 3d
       0.09113926 0.028601265 -0.11269657 0.044388708
000340 0e 0c c9 bd ae 49 bc 3d b5 e0 7f bd cd 0c 94 bc
       -0.098167524 0.09193741 -0.062470157 -0.01807251
000350 c4 7a 31 bc 20 62 e5 bd 4b 7e 28 3c 65 1d b6 bd
       -0.010832492 -0.112003565 0.010284017 -0.08892325
000360 46 53 a8 bc b9 f9 f0 3c a9 28 e8 3d c2 67 18 3d
       -0.02054752 0.029415952 0.1133588 0.037208326
000370 da e7 52 3c 2a f8 b2 3d 16 fe b0 bd e0 bd f3 3d
       0.0128726605 0.0873874 -0.08642213 0.1190145
000380 48 51 17 bb 9e 52 43 bc 9f 66 86 3b 7d 55 20 bd
       -0.002308922 -0.011921553 0.004101589 -0.039144028
000390 10 13 53 3d 6a 00 32 3e df 1a b6 bd 3d e5 5a bd
       0.05153185 0.1738297 -0.08891844 -0.053441275
0003a0 6e 8c ec bd 5c fa 84 3c 95 6f a6 3d 97 7d bb 3d
       -0.11550222 0.016232662 0.08126751 0.09154814
0003b0 a5 83 34 bd f3 1d e7 bd da 4f 34 bd 22 94 c4 bc
       -0.04407086 -0.11285009 -0.044021465 -0.023996416
0003c0 95 7b 68 be 66 c7 14 3d a1 f4 db bc 59 8f 5a bd
       -0.22703393 0.036322974 -0.026850047 -0.053359363
0003d0 81 fb cc 3b b6 f4 3a 3d a7 74 ba 3c e3 f0 02 bb
       0.0062555675 0.04564353 0.022760702 -0.0019980005
0003e0 15 2b 7b bc 8a 2c 84 3d fd 66 cf 3c 33 a8 89 3c
       -0.015330096 0.06453808 0.025317663 0.016803836
0003f0 b9 59 18 3d eb 8f 1b bc 72 cf 94 3d a8 9f 10 bb
       0.03719494 -0.009494762 0.072661296 -0.0022067819

network_body._body_endoder.seq_layers.2.bias f4 [128]
000000 00 00 00 00 00 00 00 00 00 00 00 00 00 00 00 00
       0.0 0.0 0.0 0.0
000010 00 00 00 00 00 00 00 00 00 00 00 00 00 00 00 00
       0.0 0.0 0.0 0.0
000020 00 00 00 00 00 00 00 00 00 00 00 00 00 00 00 00
       0.0 0.0 0.0 0.0
000030 00 00 00 00 00 00 00 00 00 00 00 00 00 00 00 00
       0.0 0.0 0.0 0.0
000040 00 00 00 00 00 00 00 00 00 00 00 00 00 00 00 00
       0.0 0.0 0.0 0.0
000050 00 00 00 00 00 00 00 00 00 00 00 00 00 00 00 00
       0.0 0.0 0.0 0.0
000060 00 00 00 00 00 00 00 00 00 00 00 00 00 00 00 00
       0.0 0.0 0.0 0.0
000070 00 00 00 00 00 00 00 00 00 00 00 00 00 00 00 00
       0.0 0.0 0.0 0.0
000080 00 00 00 00 00 00 00 00 00 00 00 00 00 00 00 00
       0.0 0.0 0.0 0.0
000090 00 00 00 00 00 00 00 00 00 00 00 00 00 00 00 00
       0.0 0.0 0.0 0.0
0000a0 00 00 00 00 00 00 00 00 00 00 00 00 00 00 00 00
       0.0 0.0 0.0 0.0
0000b0 00 00 00 00 00 00 00 00 00 00 00 00 00 00 00 00
       0.0 0.0 0.0 0.0
0000c0 00 00 00 00 00 00 00 00 00 00 00 00 00 00 00 00
       0.0 0.0 0.0 0.0
0000d0 00 00 00 00 00 00 00 00 00 00 00 00 00 00 00 00
       0.0 0.0 0.0 0.0
0000e0 00 00 00 00 00 00 00 00 00 00 00 00 00 00 00 00
       0.0 0.0 0.0 0.0
0000f0 00 00 00 00 00 00 00 00 00 00 00 00 00 00 00 00
       0.0 0.0 0.0 0.0
000100 00 00 00 00 00 00 00 00 00 00 00 00 00 00 00 00
       0.0 0.0 0.0 0.0
000110 00 00 00 00 00 00 00 00 00 00 00 00 00 00 00 00
       0.0 0.0 0.0 0.0
000120 00 00 00 00 00 00 00 00 00 00 00 00 00 00 00 00
       0.0 0.0 0.0 0.0
000130 00 00 00 00 00 00 00 00 00 00 00 00 00 00 00 00
       0.0 0.0 0.0 0.0
000140 00 00 00 00 00 00 00 00 00 00 00 00 00 00 00 00
       0.0 0.0 0.0 0.0
000150 00 00 00 00 00 00 00 00 00 00 00 00 00 00 00 00
       0.0 0.0 0.0 0.0
000160 00 00 00 00 00 00 00 00 00 00 00 00 00 00 00 00
       0.0 0.0 0.0 0.0
000170 00 00 00 00 00 00 00 00 00 00 00 00 00 00 00 00
       0.0 0.0 0.0 0.0
000180 00 00 00 00 00 00 00 00 00 00 00 00 00 00 00 00
       0.0 0.0 0.0 0.0
000190 00 00 00 00 00 00 00 00 00 00 00 00 00 00 00 00
       0.0 0.0 0.0 0.0
0001a0 00 00 00 00 00 00 00 00 00 00 00 00 00 00 00 00
       0.0 0.0 0.0 0.0
0001b0 00 00 00 00 00 00 00 00 00 00 00 00 00 00 00 00
       0.0 0.0 0.0 0.0
0001c0 00 00 00 00 00 00 00 00 00 00 00 00 00 00 00 00
       0.0 0.0 0.0 0.0
0001d0 00 00 00 00 00 00 00 00 00 00 00 00 00 00 00 00
       0.0 0.0 0.0 0.0
0001e0 00 00 00 00 00 00 00 00 00 00 00 00 00 00 00 00
       0.0 0.0 0.0 0.0
0001f0 00 00 00 00 00 00 00 00 00 00 00 00 00 00 00 00
       0.0 0.0 0.0 0.0

action_model._continuous_distribution.mu.weight f4 [1, 128]
000000 f3 ec 3a bc c8 76 a2 ba 88 4d dc 3a 08 1f 74 bc
       -0.011409032 -0.0012395019 0.0016807774 -0.014899977
000010 b3 be 50 3c d4 d5 31 3c 8f 35 ad bc 96 8c 8a 3a
       0.012740779 0.010854203 -0.021143703 0.0010570462
000020 11 12 c6 3b bf 26 9d 3c b3 c2 a0 bc 15 4b cd bc
       0.006044634 0.019183515 -0.01962409 -0.025060216
000030 15 c3 52 bc a8 e6 ae 3b 58 ff 4c bc b7 41 c9 ba
       -0.012863894 0.005337555 -0.012512051 -0.0015354668
000040 aa 99 e4 bc 77 64 88 3b 2f 05 4b 3c db 84 c9 bb
       -0.027905304 0.004162367 0.012391373 -0.006149871
000050 28 2a 64 ba ab d9 a5 3c cf f4 d0 3c 47 3d 13 bb
       -0.00087037915 0.020245394 0.025507359 -0.0022466944
000060 58 f6 38 ba a3 e3 7a 3c 9e ee 86 3c 9f 94 86 3b
       -0.0007055751 0.015313062 0.016471203 0.0041070725
000070 45 11 f4 3b 8b 10 43 bc 11 cb 09 ba 7f 81 54 bc
       0.0074483478 -0.0119058 -0.00052563945 -0.012970327
000080 17 1f c1 bc b7 9a 1c 3d e8 a9 b6 bb 0f b4 41 3c
       -0.023574395 0.038233485 -0.0055744536 0.0118227145
000090 8c c3 8e bc 48 50 15 3c ff 02 2e 3b e7 d6 05 bb
       -0.017427228 0.009113379 0.0026552079 -0.0020422281
0000a0 69 a2 8b bc e1 3e a1 bc 57 7a 53 3c 17 13 29 3c
       -0.017045217 -0.019683303 0.012907586 0.010319493
0000b0 d7 9f 8b bb 3d 12 f4 ba 05 43 a6 3c fc d2 18 bc
       -0.0042609978 -0.0018621158 0.02029563 -0.009327646
0000c0 23 33 be ba b3 e8 97 bb 5d 3f 5b bb 92 89 2c 3c
       -0.001451109 -0.004635894 -0.0033454516 0.010530846
0000d0 d4 55 8a 3a de 51 8f 38 7a 18 5c 3b 1f 59 20 bb
       0.0010554143 6.83402e-05 0.0033583925 -0.0024467183
0000e0 30 4d dc bb ab 4f de 3b 67 00 55 bc 37 60 1e bc
       -0.0067230687 0.0067843995 -0.013000584 -0.009666494
0000f0 25 52 6c bc 6b fb d0 ba 42 2c 7f bc 60 2c 31 3c
       -0.014423882 -0.0015944069 -0.015574517 0.0108138025
000100 ad 66 6e 3c 85 e6 d5 b9 77 af d6 bb 2f b9 d4 3b
       0.014550847 -0.00040798276 -0.0065516788 0.006491802
000110 d8 7a 22 bc 64 99 07 3c 4b db f6 bc 70 ca f1 bb
       -0.009916984 0.008276317 -0.030133864 -0.0073788688
000120 9e af 38 3b dd a7 ed 3b c0 a2 08 bb 15 b6 23 bc
       0.0028180848 0.007252677 -0.002084896 -0.009992142
000130 54 91 99 3c 14 37 94 3c c0 91 eb 3c d4 dd c0 bc
       0.018746056 0.01809267 0.028756022 -0.023543276
000140 13 aa b6 bb ab 57 b9 3b e9 50 1d 3c b5 0b 12 bc
       -0.0055744736 0.005656203 0.00960181 -0.008913924
000150 aa 56 02 bc db 90 08 bc 1a 60 26 b9 9f 55 05 3d
       -0.007955233 -0.0083353175 -0.00015866794 0.032552358
000160 ab 99 4a 3c 37 02 e4 3c 4f 80 c2 3b 2c 2b 8e 3c
       0.012365739 0.027833087 0.0059357057 0.01735457
000170 33 34 86 bc 40 f9 4a 3c c2 aa 17 bc 42 77 bb 3b
       -0.016382312 0.012388527 -0.00925702 0.0057210037
000180 7d a3 1a 3c f8 62 8d bc cc 8e 3f 3c 73 87 f7 3b
       0.009438393 -0.017259106 0.01169176 0.0075539886
000190 e3 16 40 bc 43 31 b1 3c d5 a8 15 bc a5 f1 cf b9
       -0.011724207 0.021629935 -0.009134491 -0.00039662156
0001a0 01 b7 9a 3c 98 51 e2 3c d4 b2 20 ba 21 b2 b5 3a
       0.018886091 0.027626798 -0.0006130163 0.0013862291
0001b0 a7 a8 83 bb f4 09 49 3c 02 a3 89 3c fa 72 bb bb
       -0.0040179077 0.012270439 0.016801361 -0.0057204934
0001c0 2f a2 93 3c 1c 94 b9 3c af 51 c6 ba dd a8 b7 3a
       0.018021671 0.022653632 -0.0015130545 0.0014012117
0001d0 d0 e1 3c bc b0 67 16 bc 54 e7 ab 3b fa 1c e5 bb
       -0.011528447 -0.009179994 0.0052460823 -0.0069919797
0001e0 9a 5c 38 3b 0e 4a 31 bc e5 9d bd 3c 12 da de bb
       0.0028131367 -0.010820879 0.023146579 -0.0068008984
0001f0 f8 1b 12 bc ca bf d4 bb a2 1b af bc f6 7b b5 3b
       -0.008917801 -0.0064925896 -0.021375481 0.005538459
