Shortcut Run/results/LEVEL1/Move/Move-3761.onnx (onnx, 71941 bytes, 5 tensors)

network_body._body_endoder.seq_layers.0.weight f4 [128, 6]
00000000: 316a e33e b404 2ebe 3fd0 313c 78ab 1fbe
00000010: 6e64 443f 0057 223e 2bf6 b13e 2591 1a3f
00000020: 300f 1f3f 4c2c f1be 7e75 9d3e d366 123f
00000030: 269d a2bd 7946 dbbe 8bc8 44be e360 273f
00000040: 2750 3cbd 2189 19be 3ff5 2b3f 43ba ab3e
00000050: 8618 713f d828 983e cfe5 42be c2ab 7d3f
00000060: 62f0 fabd a3c5 333d f6e8 6e3e 98a6 debe
00000070: 6c50 1c3f 3a26 3e3e ee5e b4be 403b 02bf
00000080: 4c26 de3d 6f36 0ebf 670b e73e 5cb3 8f3d
00000090: 4a55 7c3e 259d 7abe baf3 ba3e 25f1 a23e
000000a0: ccf8 c2bd 39e7 2abf 55a9 cb3e a1f0 22be
000000b0: 5305 aa3d 254c 3d3e fac6 b9be 00b8 7dbe
000000c0: 22a9 24be 7e3c 1fbf 5f13 c2bd f2ad 853e
000000d0: 5dcb afbe f448 80be 5bad 9e3c 0d9c 083e
000000e0: 0906 dfbd c0c9 f73e c2bf 113f 6524 00be
000000f0: b239 a2be c07f 7f3e 0168 3bbf 76ab be3e
00000100: 6fcc 4f3d 3834 ff3d 31ef 2a3e 1ffd 98be
00000110: 8c3a bf3e 7ffa 183e 6ed2 c83e 4af1 adbd
00000120: 1f7a 5cbe 926f eebe d68c 613e 62ff b0be
00000130: 4343 80be ae7c 243f 6992 36be ea03 8f3c
00000140: 3c13 ab3e 9fb9 c0bd 019c 333d ba17 05be
00000150: 0503 c03d 0ea8 6c3d 87aa 1bbe 3ec2 0a3f
00000160: e294 4cbf c766 9f3d 61ca 1f3e e081 cc3d
00000170: c232 523e 86d1 083f 73c6 df3d 7c82 7c3e
00000180: 3def 73be bd1e cabe f9a3 223f 278f ec3d
00000190: c526 fbbe 1ac8 ddbe 0353 bb3e e983 71be
000001a0: 2456 283e a443 2ebf d1f5 913f 4d6a 5e3e
000001b0: 1937 533d 1c0b e93e 5bdd f83d 9d3e b53e
000001c0: d0d3 96be e846 f23e 5236 4d3f ad36 f63e
000001d0: e8ba 45be 4efb 02bf a65c 9c3d 5526 613f
000001e0: dd9c 3dbf 0386 c9be ba92 413f 47d3 ff3e
000001f0: 5cd2 14bf 32ce 653d 910b 7bbe 932d 033e
00000200: 7426 1c3f e5f4 353d f078 25be e8b9 86be
00000210: 0fe5 c6be 7e50 533e 9233 9cbe 00a5 96be
00000220: cf9a 3f3e 3881 8cbe cf9b 8bbc a859 163c
00000230: a817 6cbe 7394 5bbe 10a1 73bd 3f3a cd3e
00000240: 8be3 643e 8284 a2bf 5b8e d33e 0303 88be
00000250: 7ac4 883f 74a9 173e ac2a a0bd 8f8d dbbe
00000260: bf13 2d3f ffee 753e 815c 28bf 9bde abbe
00000270: f9b2 03be 2759 2cbd 70d4 afbe 203e aa3d
00000280: 4d00 5bbe 9891 20bd 77ab 183d 851a 3e3f
00000290: 957f bf3e 2d81 dcbe f338 8b3e f1df 4a3f
000002a0: c3af afbe 6a43 9a3e 25de 8fbe 6ed7 19bf
000002b0: d56c 97be 5e0d 683e e7bc cd3d 3100 253e
000002c0: 741d f83e 9a98 31be 1f58 533e 8cd2 ddbd
000002d0: fa65 183e e827 74be 73da ad3c 5200 8f3f
000002e0: 8da5 aebe 2cc4 443f 23ab 00bf e27b 073d
000002f0: e209 fdbe 4aca 6abf 89d9 ec3e da06 683b
00000300: 5140 943e c8df b83e a35e 913e 1d08 02bf
00000310: 6fd8 70bd 3535 813d 16f8 bcbd d2c8 62bf
00000320: 6aa4 85be 8877 c03e b70e 0a3f 17a6 dcbe
00000330: ee56 f9bd e65a 57bd b97d 933e 889a 91be
00000340: 0b58 bfbe 0f76 04bd bc05 17be c954 a73f
00000350: 2522 e23d 234b 32bc 580d c03e d302 7bbc
00000360: 099b 56bf 95e9 c0be 591a 73be 5727 62be
00000370: 4ad7 813e 6151 ee3e fcfe 883e d476 983c
00000380: 64f6 5d3e 9960 71be da7b 063f 8bdf 14be
00000390: 7f65 a4be 1ee1 f63e a91b 2a3e 79c1 993e
000003a0: 5dad 13bf e5ab a4be 9fa0 f4be 6936 c83e
000003b0: f65a 23bf d3ed 233f 78e0 813e 41fa e5be
000003c0: ec36 13bf 2017 98bd 4f08 1a3f ed23 dd3e
000003d0: b6cb 9e3e 72ae 98be 08d2 2cbf 2fb5 cdbe
000003e0: cee6 193d fe71 dcbb 445b 673e 5f86 e43e
000003f0: f82f 403f 2a7f 96be 64aa e03d 151c 0c3e
0.44416955 -0.16993982 0.010852872 -0.15592754 0.76715744 0.158535 0.34758124 0.6037772
0.6213255 -0.47104108 0.30753702 0.5718815 -0.0794013 -0.42827204 -0.19217126 0.6538221
-0.045974877 -0.14993717 0.6717109 0.33540544 0.94178045 0.2971866 -0.19032978 0.99090207
-0.12252881 0.043889653 0.23331055 -0.43486476 0.61060214 0.1856927 -0.35228676 -0.5087166
0.10847148 -0.5555181 0.45125887 0.07016632 0.2464191 -0.24474008 0.36514074 0.31824604
-0.095201105 -0.6675907 0.39777628 -0.15912105 0.08301797 0.18486078 -0.3628462 -0.24777222
-0.16080144 -0.6220168 -0.09476351 0.26109272 -0.3433484 -0.2505566 0.019369772 0.13340779
-0.10889823 0.4839611 0.56933224 -0.12513883 -0.31684643 0.24951077 -0.7320557 0.3724019
0.050732072 0.12461132 0.16692807 -0.29880616 0.37349355 0.14939307 0.39223045 -0.08493288
-0.2153096 -0.46569496 0.22026381 -0.34569842 -0.25051317 0.64252746 -0.17829289 0.017457921
0.33413112 -0.094104044 0.04384995 -0.12997332 0.09375576 0.057777457 -0.1520177 0.5420264
-0.7991468 0.07783275 0.15604545 0.09985709 0.20527175 0.5344471 0.10926523 0.24659151
-0.23821731 -0.39476576 0.6353145 0.11550742 -0.49053016 -0.43316728 0.3658677 -0.23585476
0.1643911 -0.6807196 1.1403142 0.21720238 0.051566217 0.45516288 0.12151595 0.35399333
-0.29458475 0.47319722 0.8016101 0.4808859 -0.1930958 -0.5116471 0.07634859 0.87949115
-0.7406748 -0.39360055 0.7561451 0.4996588 -0.5813348 0.056104846 -0.24516131 0.12810354
0.60996175 0.044423003 -0.16159415 -0.2631371 -0.38846633 0.20636174 -0.30508095 -0.2942276
0.18711399 -0.27442336 -0.017042069 0.009176649 -0.23055899 -0.21443348 -0.059479773 0.400835
0.22352426 -1.2696688 0.41319546 -0.26564798 1.068496 0.14810735 -0.07820639 -0.42881438
0.67608255 0.24016951 -0.6576615 -0.33568272 -0.12861241 -0.04207721 -0.34341764 0.08312631
-0.21386833 -0.03920135 0.037272897 0.74259216 0.37402025 -0.43067303 0.27191886 0.7924796
-0.34313783 0.30129558 -0.2809917 -0.60094345 -0.2957522 0.22661349 0.10045796 0.16113354
0.4845997 -0.17343369 0.20639084 -0.10831174 0.14882651 -0.23843348 0.021222329 1.1171973
-0.3411068 0.76861835 -0.50261134 0.03307713 -0.49421602 -0.9171492 0.46259716 0.0035404474
0.2895532 0.36108232 0.28392515 -0.5079363 -0.058800157 0.063089766 -0.09227006 -0.8858768
-0.26102 0.37591195 0.53928703 -0.43095466 -0.12174784 -0.052576922 0.28806856 -0.2843821
-0.3737186 -0.032339152 -0.14748281 1.3072749 0.11041669 -0.010882172 0.3751018 -0.015320498
-0.83830315 -0.3767821 -0.2374052 -0.2208532 0.25359565 0.46546462 0.26757038 0.01861135
0.21676022 -0.23572005 0.5253273 -0.145384 -0.32108685 0.48218626 0.16612114 0.3003042
-0.57686406 -0.32162395 -0.47778794 0.39104012 -0.6381067 0.64034766 0.2536657 -0.4491749
-0.5750568 -0.07426286 0.6016893 0.43191472 0.31014794 -0.2982059 -0.6750798 -0.40177295
0.037573628 -0.006727456 0.22593409 0.44633767 0.75073195 -0.29393893 0.109699994 0.13682587

network_body._body_endoder.seq_layers.0.bias f4 [128]
00000000: 0000 0000 0000 0000 0000 0000 0000 0000
00000010: 0000 0000 0000 0000 0000 0000 0000 0000
00000020: 0000 0000 0000 0000 0000 0000 0000 0000
00000030: 0000 0000 0000 0000 0000 0000 0000 0000
00000040: 0000 0000 0000 0000 0000 0000 0000 0000
00000050: 0000 0000 0000 0000 0000 0000 0000 0000
00000060: 0000 0000 0000 0000 0000 0000 0000 0000
00000070: 0000 0000 0000 0000 0000 0000 0000 0000
00000080: 0000 0000 0000 0000 0000 0000 0000 0000
00000090: 0000 0000 0000 0000 0000 0000 0000 0000
000000a0: 0000 0000 0000 0000 0000 0000 0000 0000
000000b0: 0000 0000 0000 0000 0000 0000 0000 0000
000000c0: 0000 0000 0000 0000 0000 0000 0000 0000
000000d0: 0000 0000 0000 0000 0000 0000 0000 0000
000000e0: 0000 0000 0000 0000 0000 0000 0000 0000
000000f0: 0000 0000 0000 0000 0000 0000 0000 0000
00000100: 0000 0000 0000 0000 0000 0000 0000 0000
00000110: 0000 0000 0000 0000 0000 0000 0000 0000
00000120: 0000 0000 0000 0000 0000 0000 0000 0000
00000130: 0000 0000 0000 0000 0000 0000 0000 0000
00000140: 0000 0000 0000 0000 0000 0000 0000 0000
00000150: 0000 0000 0000 0000 0000 0000 0000 0000
00000160: 0000 0000 0000 0000 0000 0000 0000 0000
00000170: 0000 0000 0000 0000 0000 0000 0000 0000
00000180: 0000 0000 0000 0000 0000 0000 0000 0000
00000190: 0000 0000 0000 0000 0000 0000 0000 0000
000001a0: 0000 0000 0000 0000 0000 0000 0000 0000
000001b0: 0000 0000 0000 0000 0000 0000 0000 0000
000001c0: 0000 0000 0000 0000 0000 0000 0000 0000
000001d0: 0000 0000 0000 0000 0000 0000 0000 0000
000001e0: 0000 0000 0000 0000 0000 0000 0000 0000
000001f0: 0000 0000 0000 0000 0000 0000 0000 0000
0.0 0.0 0.0 0.0 0.0 0.0 0.0 0.0
0.0 0.0 0.0 0.0 0.0 0.0 0.0 0.0
0.0 0.0 0.0 0.0 0.0 0.0 0.0 0.0
0.0 0.0 0.0 0.0 0.0 0.0 0.0 0.0
0.0 0.0 0.0 0.0 0.0 0.0 0.0 0.0
0.0 0.0 0.0 0.0 0.0 0.0 0.0 0.0
0.0 0.0 0.0 0.0 0.0 0.0 0.0 0.0
0.0 0.0 0.0 0.0 0.0 0.0 0.0 0.0
0.0 0.0 0.0 0.0 0.0 0.0 0.0 0.0
0.0 0.0 0.0 0.0 0.0 0.0 0.0 0.0
0.0 0.0 0.0 0.0 0.0 0.0 0.0 0.0
0.0 0.0 0.0 0.0 0.0 0.0 0.0 0.0
0.0 0.0 0.0 0.0 0.0 0.0 0.0 0.0
0.0 0.0 0.0 0.0 0.0 0.0 0.0 0.0
0.0 0.0 0.0 0.0 0.0 0.0 0.0 0.0
0.0 0.0 0.0 0.0 0.0 0.0 0.0 0.0

network_body._body_endoder.seq_layers.2.weight f4 [128, 128]
00000000: fcec e8bc 8de7 fb3a 5eaf cf3c ef7a 92bd
00000010: 650d 0abe 8277 7bbd cc6e 99bd 0b59 5a3d
00000020: e475 9dbd 6167 9b3b d97c ebbd e8df 11be
00000030: e00f 1dbe cb78 23bd bead 033e 8611 e83c
00000040: 88db 3bbc e59f cc3d 3ff7 10bd 9d21 a7bd
00000050: e18f 983d 8e96 d3bc 36ce a3bc 5b53 8d3d
00000060: 1ea4 1abc cdf6 da3d 06c4 4fbc 2b6c a6bd
00000070: 0d49 8ebd 4409 22bd 8d95 e9bd e129 383d
00000080: a9c4 7f3d 0efd 983c 8789 cf3d a106 82bd
00000090: a3ca 71bc a286 813d 0d90 323d 9c76 bf3d
000000a0: c4dd edbd be34 6cbe d646 993d 28a4 08be
000000b0: 2c27 bbbd 4d01 63bb 01b9 a93c 74ca 23be
000000c0: 2ec8 42be 7396 a1bc 0a44 18be b876 4dbd
000000d0: 74b9 423d 9f15 32bd a97a 213e 07a0 bdbd
000000e0: d3ff e4bd cc78 8abd 7a0d bd3c 1671 2ebd
000000f0: c675 403d ccd8 c53c 0a63 f83d 175e 3c3d
00000100: 6e35 c2bc b005 67be f1a0 023e b618 a2bd
00000110: 62f9 263e 6209 d63d a5a5 2abc 8dc3 dc3d
00000120: d339 ab3d ec31 9ebd bd5b 69bd 68a0 a5bc
00000130: 2f10 113e 8e7a c73d cca2 02bc 4251 ce3d
00000140: 64df d2bd ac2d 01be 428b 283d 0293 923c
00000150: 374f fe3d c679 b0bd 345b 08bd 62e7 37bc
00000160: e3b7 87bd b26f 0bbd 813f 3c3d 27f7 073b
00000170: 7407 72bd 16ca 923d 5e3f edbd 9a46 b2bd
00000180: 8752 6fba 214e 1cbd d854 08bc 476a d23d
00000190: 553c d5bb 6771 02bd f8d0 1d3e b6c2 893c
000001a0: aa08 973d b418 80bd b5ec 133b 8905 b93c
000001b0: 280e 31bb 2545 d3bc d81b d13d 68bf 55bd
000001c0: ed2d 9d3d 05bf 1cbe ea08 a93d cfa1 0bbd
000001d0: a389 db3d 3b65 d23d 17cf 053c b695 aa3c
000001e0: 6808 90bc e24b 1e3d 337d e8bd 720d f03d
000001f0: 4c8a d33c a06c 60bd 8979 29bd 11f2 e03c
00000200: 2906 0abe 6e15 aa3c 0ff4 77bd 209c 82bd
00000210: dab3 963c cd50 48bd 1624 5e3d 9158 99bd
00000220: f65c eabc 3246 c63d 483d 843d 4217 bd3d
00000230: e37c 28bd 651f 933d 8efb 1dbe 4a2c 563d
00000240: c028 8b3c 8188 b23c 4e9d 7c3d c198 12bd
00000250: 2a96 193e eb1c 1b3d f866 f43d 6b89 e13d
00000260: 5e87 8f3c d184 3a3b d160 00be 940f cebc
00000270: 6dff 21bd fe8b b3bd 36d1 303d 9cff e9bc
00000280: 2700 2fbd 9720 ea3c d01d c3bd 816c 963b
00000290: e090 8cbd 51ad 6fbc a28c 9a3d 33e3 55bb
000002a0: d495 2d3d b9b8 08be c8ad aebd 5171 79bd
000002b0: b088 5b3e 2b77 0b3d 0c2d 323e e18c 81bc
000002c0: b8a4 363d 5d55 93bd bb0d 643e c833 d53b
000002d0: 8b9f 19bb 7011 6ebd e4b6 04bd 9623 61be
000002e0: ccd5 923d 869a 093d 0561 febd 2aef 05bc
000002f0: 83ea 5dbd 22d8 5f3d 92e7 003d 7e24 ee3d
00000300: d02c 11be b620 9a3d a28f 86bd 9151 b73c
00000310: 1aa9 acbd 4b1b 0dbd 91c1 36bd a499 c63c
00000320: e924 a73d 9253 a33d 326e 313d 0ea7 16bd
00000330: 286c 693d 7297 eabd 60cd 0f3d b944 4f3e
00000340: af45 c8bd 2e04 fe3d 8537 813e 75fc 9d3d
00000350: 0c1b 1c3d 7182 893c 6897 22be 6ddc cebd
00000360: f287 353d 0cec cdbb 887f 933d be9b 023e
00000370: d6bb c63c 1fea bfbc fefa fabc 54da 163c
00000380: 2db0 e8bc 0d88 ae3c b8ed 21bd 77c0 eabc
00000390: 56dc 52bc 6f00 dabb 6ccd 0f3d bd64 5c3e
000003a0: 5aff b0bd a727 36bd 4fad a03d f958 ebbd
000003b0: 013d 05bd 8c7f a83a 9e4b 983b 4474 83bd
000003c0: 839e 5abd 410f 413d 0c73 ae3d 8b60 333e
000003d0: 85c7 91bd a21e 8c3d 7902 b13c 53f9 1cbd
000003e0: 83fa bebc 17e7 463d d0a3 4e3d 048c 6ebd
000003f0: 9f16 01bb f909 7ebd 96fb e33d a927 a0bd
-0.028433315 0.0019218788 0.025352176 -0.07152354 -0.13481672 -0.06139327 -0.07491836 0.053307574
-0.076885015 0.0047425483 -0.11498422 -0.1424557 -0.15338087 -0.03991012 0.12859246 0.028328668
-0.011465915 0.09991435 -0.035392042 -0.08160708 0.07449318 -0.025828626 -0.01999579 0.069006644
-0.009438543 0.10691605 -0.012681013 -0.081261 -0.06947527 -0.039559618 -0.11405478 0.044961814
0.06244341 0.018675353 0.10133653 -0.063489206 -0.014757785 0.06324507 0.04359441 0.09348795
-0.11614564 -0.23066995 0.07484214 -0.1334387 -0.09138331 -0.0034638226 0.0207181 -0.15995198
-0.19021675 -0.01972506 -0.14869705 -0.050162047 0.047540143 -0.04347765 0.15769447 -0.092590384
-0.11181607 -0.067613214 0.023077715 -0.042588316 0.046987318 0.024151228 0.12128265 0.04598817
-0.023707118 -0.22560763 0.12756707 -0.079148695 0.1630607 0.104510084 -0.010415469 0.10779486
0.083606385 -0.077243656 -0.056972254 -0.02021809 0.1416633 0.09740172 -0.007973384 0.100740924
-0.10296515 -0.12615079 0.04114843 0.017892364 0.12417453 -0.086169764 -0.033290103 -0.0112246
-0.066268705 -0.034042068 0.045959 0.002074668 -0.05908914 0.07167451 -0.11584352 -0.087048724
-0.0009129424 -0.038160447 -0.00832101 0.10274177 -0.0065074363 -0.03184643 0.15411747 0.016816478
0.073746994 -0.06254712 0.0022571508 0.022585647 -0.0027016494 -0.025789807 0.10210389 -0.052184492
0.07674775 -0.15307243 0.08253653 -0.03408986 0.107196115 0.102732144 0.00816705 0.02082334
-0.017582133 0.038646586 -0.11352005 0.117213145 0.025822781 -0.054791093 -0.04137567 0.027459176
-0.13478912 0.020762172 -0.060535487 -0.06377435 0.018396307 -0.048905183 0.054233633 -0.07487596
-0.02860878 0.096813574 0.06457001 0.09232952 -0.041134726 0.071837224 -0.15427992 0.05228833
0.016987205 0.021793606 0.061673455 -0.03579021 0.1499869 0.037869375 0.11933702 0.110125385
0.017520603 0.0028460512 -0.12536933 -0.025153913 -0.039550234 -0.08766936 0.04316827 -0.028564267
-0.042724755 0.028579993 -0.09527171 0.0045905714 -0.0686357 -0.014628724 0.07546355 -0.0032636642
0.042379215 -0.13351716 -0.0852924 -0.060899083 0.21438861 0.034049194 0.17399997 -0.015814247
0.04459068 -0.07194016 0.22270863 0.006506417 -0.0023441042 -0.0581221 -0.03240098 -0.21986231
0.07169685 0.03359463 -0.12420849 -0.008174697 -0.054178726 0.05464948 0.031470843 0.11628054
-0.14177251 0.0752577 -0.065703645 0.022377761 -0.08430691 -0.034449857 -0.044618193 0.024243183
0.08161337 0.07974924 0.04331798 -0.03678041 0.05698791 -0.11454667 0.03510797 0.2024106
-0.09778916 0.12403141 0.2523767 0.07714168 0.03811173 0.016785832 -0.1587807 -0.10100637
0.0443191 -0.0062842425 0.07202059 0.12754723 0.024259489 -0.023427067 -0.03063726 0.009207327
-0.02840432 0.021305108 -0.039533347 -0.028656228 -0.012869915 -0.0066528837 0.035108015 0.21522804
-0.086424544 -0.04447141 0.07845556 -0.114915796 -0.03252888 0.0012855395 0.004647686 -0.0641866
-0.053373825 0.047133688 0.08518037 0.17517297 -0.071181335 0.0684178 0.021607624 -0.03832371
-0.023312813 0.04856023 0.050449193 -0.058238998 -0.001969732 -0.06202123 0.111319706 -0.078200646

network_body._body_endoder.seq_layers.2.bias f4 [128]
00000000: 0000 0000 0000 0000 0000 0000 0000 0000
00000010: 0000 0000 0000 0000 0000 0000 0000 0000
00000020: 0000 0000 0000 0000 0000 0000 0000 0000
00000030: 0000 0000 0000 0000 0000 0000 0000 0000
00000040: 0000 0000 0000 0000 0000 0000 0000 0000
00000050: 0000 0000 0000 0000 0000 0000 0000 0000
00000060: 0000 0000 0000 0000 0000 0000 0000 0000
00000070: 0000 0000 0000 0000 0000 0000 0000 0000
00000080: 0000 0000 0000 0000 0000 0000 0000 0000
00000090: 0000 0000 0000 0000 0000 0000 0000 0000
000000a0: 0000 0000 0000 0000 0000 0000 0000 0000
000000b0: 0000 0000 0000 0000 0000 0000 0000 0000
000000c0: 0000 0000 0000 0000 0000 0000 0000 0000
000000d0: 0000 0000 0000 0000 0000 0000 0000 0000
000000e0: 0000 0000 0000 0000 0000 0000 0000 0000
000000f0: 0000 0000 0000 0000 0000 0000 0000 0000
00000100: 0000 0000 0000 0000 0000 0000 0000 0000
00000110: 0000 0000 0000 0000 0000 0000 0000 0000
00000120: 0000 0000 0000 0000 0000 0000 0000 0000
00000130: 0000 0000 0000 0000 0000 0000 0000 0000
00000140: 0000 0000 0000 0000 0000 0000 0000 0000
00000150: 0000 0000 0000 0000 0000 0000 0000 0000
00000160: 0000 0000 0000 0000 0000 0000 0000 0000
00000170: 0000 0000 0000 0000 0000 0000 0000 0000
00000180: 0000 0000 0000 0000 0000 0000 0000 0000
00000190: 0000 0000 0000 0000 0000 0000 0000 0000
000001a0: 0000 0000 0000 0000 0000 0000 0000 0000
000001b0: 0000 0000 0000 0000 0000 0000 0000 0000
000001c0: 0000 0000 0000 0000 0000 0000 0000 0000
000001d0: 0000 0000 0000 0000 0000 0000 0000 0000
000001e0: 0000 0000 0000 0000 0000 0000 0000 0000
000001f0: 0000 0000 0000 0000 0000 0000 0000 0000
0.0 0.0 0.0 0.0 0.0 0.0 0.0 0.0
0.0 0.0 0.0 0.0 0.0 0.0 0.0 0.0
0.0 0.0 0.0 0.0 0.0 0.0 0.0 0.0
0.0 0.0 0.0 0.0 0.0 0.0 0.0 0.0
0.0 0.0 0.0 0.0 0.0 0.0 0.0 0.0
0.0 0.0 0.0 0.0 0.0 0.0 0.0 0.0
0.0 0.0 0.0 0.0 0.0 0.0 0.0 0.0
0.0 0.0 0.0 0.0 0.0 0.0 0.0 0.0
0.0 0.0 0.0 0.0 0.0 0.0 0.0 0.0
0.0 0.0 0.0 0.0 0.0 0.0 0.0 0.0
0.0 0.0 0.0 0.0 0.0 0.0 0.0 0.0
0.0 0.0 0.0 0.0 0.0 0.0 0.0 0.0
0.0 0.0 0.0 0.0 0.0 0.0 0.0 0.0
0.0 0.0 0.0 0.0 0.0 0.0 0.0 0.0
0.0 0.0 0.0 0.0 0.0 0.0 0.0 0.0
0.0 0.0 0.0 0.0 0.0 0.0 0.0 0.0

action_model._continuous_distribution.mu.weight f4 [1, 128]
00000000: 13c1 24bc 763c 49bc 8330 f73c 30e2 28bc
00000010: b86a cf3c 8801 6cbc 6d5f 513c fe2d 2d3b
00000020: f3c5 1cbc 1f89 5d3c 7e19 bf3b e090 113c
00000030: 65e3 56bc 6d67 4e3a 4580 0ebd 6d91 ba3c
00000040: 72dd 55bc d375 de39 cd35 ccbc 8c32 96bc
00000050: 148c 98bb a338 93bb 3f33 1e3d b9d7 a23b
00000060: c7c9 b0bc baf0 dd3b 0b14 283c ddcb 37bc
00000070: 737b abbb 30e7 2c3b f79b e53b 7a30 123c
00000080: 0796 0cba bfc7 6ebb 10a1 d6bc 0b9e 7e3c
00000090: 3f26 d9bb 552f f9bb 9309 4f3c 52b8 833c
000000a0: 586b f73b da7a 62bc c67a 2fbb 35d1 c0bc
000000b0: 15e3 1a3a ca85 ea3b 4ddb 5a3c b70e 503c
000000c0: 5bde 33bc f2ec c93b bf10 0f3d 13a5 293c
000000d0: 7de7 d1bc 3f7d de3a 93c4 6c3c 4a0e 523c
000000e0: c26b 71bb beac 2abc 079b a5bc 6772 e7bb
000000f0: cabd 683c 210e afbc 7d20 f2bb b2a9 02bd
00000100: c72d d3bb bb5a 7b3c 2d06 18bc 0b15 05bd
00000110: c333 8bbb caf0 aebc f5c6 f838 e8ce 603c
00000120: 4ac9 49bd cbff 113d 4c82 41bc 3b12 0f3d
00000130: 80e0 e53b bc18 80bc e063 c9bc d78a e53b
00000140: 0ab0 f1bb cf58 37bb b56e ebbb d8d7 b93c
00000150: d35a dab9 e2d0 03bd 28fa 6ebc f803 81bc
00000160: c6bc 84bb 1050 a9ba a288 c4bc 720d e0bb
00000170: d6a2 98bc 4d66 a53b 9b8a fa3b 39b7 373c
00000180: 1f59 d13a 2358 2c39 0d33 efbb d5e8 c73c
00000190: d5c2 323b 9a5e 91bb 2025 2ebd 1378 393c
000001a0: a399 233a b750 3cbc dff1 213c 20ed 4ebb
000001b0: 84b9 0f3d 7991 1e3b cc0a 083c 6a6f bf3c
000001c0: d623 b93c 223c 513c e232 94bb c895 e3bc
000001d0: 647d 1abc 6b90 283d 4abd ddba 98c6 573c
000001e0: c703 ccbb 7b4d 3fbc 4116 3f3d 9a6f 5e3c
000001f0: a791 b43c c329 78bc a259 fa3b 535a 1a3d
-0.010055798 -0.012282481 0.0301745 -0.010307834 0.025319442 -0.014404662 0.012779099 0.0026425119
-0.009568679 0.013521462 0.0058318963 0.008884639 -0.0131157385 0.0007873688 -0.034790296 0.022774423
-0.013053285 0.00042430926 -0.024927998 -0.01833465 -0.0046553705 -0.0044928356 0.03862309 0.004969564
-0.02158059 0.0067730816 0.010258685 -0.011218038 -0.005233222 0.0026382916 0.007007118 0.0089226905
-0.0005362932 -0.0036434976 -0.026199847 0.01554061 -0.0066268737 -0.0076045194 0.01263656 0.016079102
0.007550638 -0.013823235 -0.002677606 -0.023537258 0.00059084716 0.007157062 0.013357949 0.012698821
-0.010978307 0.0061622793 0.03492808 0.010354298 -0.025623078 0.0016974582 0.014451164 0.01282079
-0.003683791 -0.0104171615 -0.020215524 -0.0070631984 0.0142054055 -0.021369042 -0.007389127 -0.031900115
-0.006444666 0.015341456 -0.009278816 -0.03249077 -0.004248114 -0.021355052 0.0001186262 0.013721205
-0.04926423 0.035644334 -0.01181085 0.034929495 0.007015288 -0.015636794 -0.024583757 0.0070050764
-0.007375722 -0.0027976518 -0.007184828 0.02268593 -0.0004164787 -0.032181628 -0.014586009 -0.015748963
-0.004050824 -0.0012917537 -0.023990933 -0.0068375403 -0.018632334 0.0050475956 0.0076459176 0.011213117
0.0015971995 0.00016436032 -0.007299787 0.024403015 0.0027276773 -0.004436326 -0.042515874 0.011320132
0.000624085 -0.011493853 0.009884327 -0.0031574443 0.03508903 0.0024195595 0.008303355 0.023368556
0.022600096 0.012770684 -0.0045226673 -0.027781382 -0.0094293095 0.041153353 -0.0016917374 0.013169907
-0.006226036 -0.011676188 0.046652082 0.013576413 0.022042109 -0.0151466755 0.0076400796 0.037683796
