Shortcut Run/results/LEVEL1/Move/Move-357.pt (torch, 149007 bytes, 10 tensors)

network_body._body_endoder.seq_layers.0.weight f4 [128, 6]
-0.4423004 -0.36356932 -0.537108 -0.38065782 -0.41599944 -0.022985978 -0.082573585 0.20579422
-0.036000665 0.28715014 0.109346986 -0.8962992 -0.36178535 -0.36272416 -0.16577122 0.19846877
0.19630757 -0.042414013 0.85874957 0.35512093 -0.19643992 -0.462442 0.2432029 -0.16263834
0.72144353 0.03360607 -0.119285226 -0.050998736 -0.61944604 0.075346746 0.21084723 -0.016574183
0.086974174 0.2241175 0.8947518 -0.6333467 0.032493193 -0.28788495 -0.632025 -0.08629763
0.41712746 0.6302997 0.12770735 0.06791903 -0.09792628 0.29826027 -1.0017806 0.5854033
-0.2467204 0.12185857 0.34183866 0.7826845 -0.43627056 0.1356695 0.20603421 -0.46735528
-0.8114151 0.2739928 -0.34882098 -0.20573401 0.1924162 0.044577405 0.2662144 0.29491022
-0.5434898 0.623144 -0.08030078 0.2589387 0.5809999 -0.16229065 -0.71169823 -0.33065996
-0.05262675 0.58697605 -0.35146272 0.43555057 0.032170262 -0.046776213 -0.055929583 0.21604174
0.23586409 -0.61721206 0.16849959 0.5804919 0.3982729 -0.23466863 -0.116427585 -0.030319532
0.50973326 -0.35621637 0.99241006 0.2535461 -0.06798024 -0.24073884 -0.012441684 0.5024368
0.4054077 -0.5058249 -0.3599199 -0.026960317 0.749569 -0.47644556 -0.34051737 0.20804797
-0.16232611 -0.089242205 -0.1739737 0.27880135 -0.49093512 -0.35326776 -0.27343044 0.33684748
-0.32334426 -0.54944617 -0.9125265 0.02915222 0.7574271 0.45923188 0.46162796 0.40909886
0.031768277 0.096029535 0.065067045 -0.22628336 0.21129826 0.5344376 0.38732195 0.1900674
-0.00031666344 -0.025126938 0.5655087 0.2683678 -0.6435536 -0.55252564 -0.5206639 -1.1685902
-0.06975653 0.28867912 -0.81347674 0.5463499 0.49138924 0.41493183 -0.2535762 0.047106802
0.2686101 0.27842113 -0.16291372 -0.05970282 0.009837584 0.20953509 -0.19128141 -0.29018313
0.11436098 -0.15300749 0.2798886 0.4801689 0.8488921 -0.31263036 0.1082938 0.302571
0.4704329 -0.830933 -0.39925966 0.14541727 0.035261028 0.47379136 -0.15677899 0.60729486
-0.20678398 0.23909654 -0.04396372 0.17028888 0.27744406 -0.03880966 0.4639573 -0.69245595
0.9721354 0.17181832 -0.019372646 0.785011 -0.04208149 0.15990637 -0.5554912 -0.21285875
-0.30849934 -0.18082964 -0.6571399 0.16550773 0.07857594 0.25225398 0.12122656 -0.096963294
-0.112958156 0.366033 0.276464 -0.74014354 -0.1161359 -0.4970725 0.41503662 0.4088317
-0.947039 0.2663272 0.2949208 0.19081056 0.104899496 -0.114833646 0.45817494 -0.25700495
0.43530598 -0.24597903 0.45448437 0.22220789 -0.31385797 0.25990927 -0.4376105 -0.32119107
0.19539274 0.30644894 -0.03011285 -0.034902584 0.110787675 0.32650998 0.25156516 0.48856956
0.43940583 -0.55408746 0.48299062 -0.3389118 -0.31684193 -0.2615477 -0.5684802 -0.20149848
0.3534573 -0.06850085 0.0742908 0.17468543 -0.066361405 0.6776166 0.21357445 -0.41927713
-0.41616228 0.67069894 -0.027729906 0.46145198 0.1852122 0.66162926 0.821209 0.40075618
-0.019406002 0.42419147 0.67262304 1.0915655 -0.38406637 -0.29920083 0.57523227 -0.5943843
00000000: 3375 e2be c225 babe e97f 09bf 95e5 c2be
00000010: e1fd d4be 174d bcbc 571c a9bd b8bb 523e
00000020: 6f75 13bd 5805 933e 50f1 df3d dd73 65bf
00000030: ee3b b9be fbb6 b9be eebf 29be 663b 4b3e
00000040: da04 493e 51ba 2dbd 03d7 5b3f 69d2 b53e
00000050: 8c27 49be 33c5 ecbe 2e0a 793e aa8a 26be
00000060: 86b0 383f 85a6 093d d04b f4bd 0de4 50bd
00000070: 0494 1ebf 654f 9a3d 56e8 573e 95c6 87bc
00000080: 841f b23d 0f7f 653e 740e 653f 0223 22bf
00000090: 9517 053d a865 93be 64cc 21bf d0bc b0bd
000000a0: bb91 d53e 525b 213f b7c5 023e 2219 8b3d
000000b0: 938d c8bd 92b5 983e 593a 80bf fedc 153f
000000c0: 46a4 7cbe fc90 f93d 7a05 af3e 035e 483f
000000d0: db5e dfbe f2ec 0a3e a2fa 523e 3149 efbe
000000e0: e6b8 4fbf c948 8c3e aa98 b2be f0ab 52be
000000f0: c108 453e cc96 363d 414d 883e 79fe 963e
00000100: 2622 0bbf 5d86 1f3f bc74 a4bd 9d93 843e
00000110: 69bc 143f 852f 26be db31 36bf 434c a9be
00000120: 268f 57bd 1044 163f ecf2 b3be 7c00 df3e
00000130: f7c4 033d 6a98 3fbd 6b16 65bd 0c3a 5d3e
00000140: 5b86 713e 9c01 1ebf 288b 2c3e 1e9b 143f
00000150: 6dea cb3e f94c 70be 9671 eebd ab60 f8bc
00000160: e17d 023f fe61 b6be 960e 7e3f cbd0 813e
00000170: 3939 8bbd 3e84 76be 34d8 4bbc b39f 003f
00000180: 9991 cf3e be7d 01bf 6c47 b8be e2db dcbc
00000190: c1e3 3f3f acf0 f3be 4b58 aebe 870a 553e
000001a0: d138 26be 9ec4 b6bd 2926 32be 0dbf 8e3e
000001b0: d95b fbbe 83df b4be 13ff 8bbe 4677 ac3e
000001c0: 618d a5be 81a8 0cbf 569b 69bf a3d0 ee3c
000001d0: bee6 413f 7120 eb3e 805a ec3e 6875 d13e
000001e0: 741f 023d 22ab c43d df41 853d d3b6 67be
000001f0: 925e 583e e7d0 083f 104f c63e 07a1 423e
00000200: d905 a6b9 02d7 cdbc 2ec5 103f 8167 893e
00000210: eebf 24bf 5272 0dbf 3b4a 05bf 5d94 95bf
00000220: 83dc 8ebd c0cd 933e 0340 50bf 96dd 0b3f
00000230: 5f97 fb3e f271 d43e bdd4 81be 10f3 403d
00000240: 4387 893e 378d 8e3e dbd2 26be f28a 74bd
00000250: d12d 213c 5e90 563e 46df 43be e292 94be
00000260: 1736 ea3d ffad 1cbe 8f4d 8f3e b3d8 f53e
00000270: fe50 593f 1611 a0be 24c9 dd3d 96ea 9a3e
00000280: 95dc f03e 06b8 54bf c36b ccbe 44e8 143e
00000290: de6d 103d c894 f23e ac8a 20be ad77 1b3f
000002a0: 2ebf 53be b9d5 743e 4d13 34bd 3560 2e3e
000002b0: 260d 8e3e e1f6 1ebd d08b ed3e cb44 31bf
000002c0: dedd 783f 24f1 2f3e 62b3 9ebc 7bf6 483f
000002d0: a45d 2cbd 7fbe 233e ac34 0ebf a5f7 59be
000002e0: a0f3 9dbe 682b 39be 523a 28bf dc7a 293e
000002f0: 6cec a03d 6f27 813e a145 f83d b194 c6bd
00000300: 9b56 e7bd ad68 bb3e b08c 8d3e 0c7a 3dbf
00000310: a9d8 edbd 4980 febe ae7f d43e 6352 d13e
00000320: 2671 72bf 0a5c 883e dcff 963e d863 433e
00000330: 8cd5 d63d e72d ebbd e895 ea3e 2796 83be
00000340: 6de0 de3e ede1 7bbe 2db2 e83e 778a 633e
00000350: feb1 a0be d412 853e 7c0e e0be 2873 a4be
00000360: 0915 483e e0e6 9c3e 39af f6bc 03f6 0ebd
00000370: a6e4 e23d 512c a73e 26cd 803e ca25 fa3e
00000380: cdf9 e03e add8 0dbf 8c4a f73e d985 adbe
00000390: 1b39 a2be 95e9 85be eb87 11bf 9e55 4ebe
000003a0: 5bf8 b43e 2c4a 8cbd c625 983d bde0 323e
000003b0: 7de8 87bd 4878 2d3f 43b3 5a3e 7eab d6be
000003c0: 3913 d5be edb2 2b3f d429 e3bc 6f43 ec3e
000003d0: 44a8 3d3e 8960 293f c13a 523f ea2f cd3e
000003e0: 56f9 9ebc a02f d93e 0631 2c3f 6bb8 8b3f
000003f0: 59a4 c4be da30 99be 6c42 133f 9229 18bf

network_body._body_endoder.seq_layers.0.bias f4 [128]
0.0 0.0 0.0 0.0 0.0 0.0 0.0 0.0
0.0 0.0 0.0 0.0 0.0 0.0 0.0 0.0
0.0 0.0 0.0 0.0 0.0 0.0 0.0 0.0
0.0 0.0 0.0 0.0 0.0 0.0 0.0 0.0
0.0 0.0 0.0 0.0 0.0 0.0 0.0 0.0
0.0 0.0 0.0 0.0 0.0 0.0 0.0 0.0
0.0 0.0 0.0 0.0 0.0 0.0 0.0 0.0
0.0 0.0 0.0 0.0 0.0 0.0 0.0 0.0
0.0 0.0 0.0 0.0 0.0 0.0 0.0 0.0
0.0 0.0 0.0 0.0 0.0 0.0 0.0 0.0
0.0 0.0 0.0 0.0 0.0 0.0 0.0 0.0
0.0 0.0 0.0 0.0 0.0 0.0 0.0 0.0
0.0 0.0 0.0 0.0 0.0 0.0 0.0 0.0
0.0 0.0 0.0 0.0 0.0 0.0 0.0 0.0
0.0 0.0 0.0 0.0 0.0 0.0 0.0 0.0
0.0 0.0 0.0 0.0 0.0 0.0 0.0 0.0
00000000: 0000 0000 0000 0000 0000 0000 0000 0000
00000010: 0000 0000 0000 0000 0000 0000 0000 0000
00000020: 0000 0000 0000 0000 0000 0000 0000 0000
00000030: 0000 0000 0000 0000 0000 0000 0000 0000
00000040: 0000 0000 0000 0000 0000 0000 0000 0000
00000050: 0000 0000 0000 0000 0000 0000 0000 0000
00000060: 0000 0000 0000 0000 0000 0000 0000 0000
00000070: 0000 0000 0000 0000 0000 0000 0000 0000
00000080: 0000 0000 0000 0000 0000 0000 0000 0000
00000090: 0000 0000 0000 0000 0000 0000 0000 0000
000000a0: 0000 0000 0000 0000 0000 0000 0000 0000
000000b0: 0000 0000 0000 0000 0000 0000 0000 0000
000000c0: 0000 0000 0000 0000 0000 0000 0000 0000
000000d0: 0000 0000 0000 0000 0000 0000 0000 0000
000000e0: 0000 0000 0000 0000 0000 0000 0000 0000
000000f0: 0000 0000 0000 0000 0000 0000 0000 0000
00000100: 0000 0000 0000 0000 0000 0000 0000 0000
00000110: 0000 0000 0000 0000 0000 0000 0000 0000
00000120: 0000 0000 0000 0000 0000 0000 0000 0000
00000130: 0000 0000 0000 0000 0000 0000 0000 0000
00000140: 0000 0000 0000 0000 0000 0000 0000 0000
00000150: 0000 0000 0000 0000 0000 0000 0000 0000
00000160: 0000 0000 0000 0000 0000 0000 0000 0000
00000170: 0000 0000 0000 0000 0000 0000 0000 0000
00000180: 0000 0000 0000 0000 0000 0000 0000 0000
00000190: 0000 0000 0000 0000 0000 0000 0000 0000
000001a0: 0000 0000 0000 0000 0000 0000 0000 0000
000001b0: 0000 0000 0000 0000 0000 0000 0000 0000
000001c0: 0000 0000 0000 0000 0000 0000 0000 0000
000001d0: 0000 0000 0000 0000 0000 0000 0000 0000
000001e0: 0000 0000 0000 0000 0000 0000 0000 0000
000001f0: 0000 0000 0000 0000 0000 0000 0000 0000

network_body._body_endoder.seq_layers.2.weight f4 [128, 128]
0.0071474332 -0.07795554 -0.12342363 0.095299006 -0.18366268 0.026827838 -0.011419029 -0.09357612
0.05099022 0.013640987 -0.0757526 -0.1627981 -0.07547022 -0.026079772 0.027217083 -0.10796172
0.080161735 -0.01230581 -0.020323172 -0.08197294 -0.18574716 -0.06751175 0.059042227 0.027882315
0.051731788 -0.07628893 0.031899765 -0.07104369 0.032947227 -0.06446859 -0.092323326 -0.19821659
-0.000294454 -0.009593445 -0.2519143 -0.026427006 -0.048155576 0.0835749 0.030807763 -0.05764512
0.0042965794 -0.12083145 0.047094584 0.07306549 -0.0093174605 0.03157664 0.023607384 -0.05266056
-0.07254621 -0.05942379 -0.11915383 0.28775942 -0.032078803 0.04076328 0.120585695 0.080966346
0.055579152 -0.004030232 -0.00018766797 -0.053445734 -0.0700368 -0.083747596 0.039435986 -0.016487861
0.20450231 -0.07671582 -0.078910306 -0.214373 0.08810022 0.046333015 -0.1219696 -0.033896856
0.0026692532 0.026132187 0.10294077 -0.23871787 -0.06818655 -0.09307014 -0.067029454 -0.014544267
-0.07047754 -0.05874897 -0.075359374 0.09330229 0.21391757 0.055115845 -0.068424076 -0.08878825
0.009314684 0.13215284 0.0031484778 0.016533565 -0.2740873 -0.020825487 0.039482687 -0.14559548
-0.050358135 0.038270146 0.12884243 -0.072361805 -0.16420153 -0.15911448 0.12099136 0.24323577
-0.022521816 0.016533136 0.02637373 -0.0017034928 0.047488097 0.023963146 0.022616498 -0.017142868
-0.064865835 -0.04425881 -0.098037004 0.042887717 0.16437612 -0.11514609 -0.031457502 0.0069197994
0.11848185 -0.06578072 -0.07129652 0.21885416 0.09060182 -0.060591977 0.057099503 -0.043981783
0.0013938306 0.10327312 -0.079732865 -0.1339102 0.14942156 0.08647452 0.0048676175 -0.09167344
-0.12530842 0.012696023 0.013074869 0.0703511 -0.018953368 0.060589846 -0.09833886 0.13780686
-0.07846507 -0.12052247 0.012289762 0.1280863 0.05510071 0.143286 0.0151785705 0.07841613
-0.08846064 0.025954153 0.053077627 0.008037071 0.032606695 0.044585984 0.04258953 0.11981702
-0.17129065 0.122424774 0.15345575 -0.060178187 0.028777678 0.038494684 -0.034539066 -0.024600275
-0.07321446 -0.044839963 0.09171493 -0.10769606 -0.020141747 0.0025743921 -0.006367944 -0.031531323
-0.034841914 -0.13412224 -0.058462255 0.03772235 0.04609689 0.06653315 -0.098132096 -0.053338945
0.0007547936 0.085517555 -0.07936784 0.010494387 0.041251797 0.023931665 -0.06813674 0.06318116
0.031381015 0.024128538 0.058475196 0.02245636 0.10310914 0.07437677 -0.05074926 0.0718208
0.010077134 -0.08168272 0.0045051146 -0.013277584 0.1624666 -0.1924702 -0.26540676 0.031097488
0.076321475 0.019548723 0.006535096 0.0787624 0.17029414 0.019682439 0.042065315 -0.07489422
-0.07464387 0.070597164 -0.114471905 0.13362512 0.049608156 -0.10005008 -0.013182795 -0.11914624
-0.0640992 -0.088278204 0.180386 0.005787152 -0.08807244 0.019836983 -0.037602652 -0.04138856
-0.062075954 0.07313241 0.072672695 0.037386492 0.020845868 0.12864745 0.09983592 -0.19653529
-0.12323727 0.122603245 0.11189727 -0.08529987 0.03489033 0.18186432 0.13658059 0.1320892
-0.0069348193 0.059794914 -0.054976065 0.15259434 -0.02422962 0.026292987 -0.08724314 -0.057820335
00000000: 0435 ea3b 27a7 9fbd 87c5 fcbd 202c c33d
00000010: 1212 3cbe 0ec6 db3c e116 3bbc d6a4 bfbd
00000020: 1fdb 503d 727e 5f3c 2e24 9bbd 8cb4 26be
00000030: 2190 9abd 3fa5 d5bc 5cf6 de3c 091b ddbd
00000040: d62b a43d 4f9e 49bc c87c a6bc 6ee1 a7bd
00000050: 8134 3ebe 9a43 8abd 43d6 713d 7469 e43c
00000060: b6e4 533d 5f3d 9cbd 54a9 023d 5b7f 91bd
00000070: acf3 063d 1c08 84bd 0314 bdbd 4af9 4abe
00000080: f260 9ab9 d32d 1dbc e9fa 80be 737d d8bc
00000090: c83e 45bd 5129 ab3d 9060 fc3c 4a1d 6cbd
000000a0: 52ca 8c3b 7b76 f7bd 40e6 403d 5ca3 953d
000000b0: 43a8 18bc 8256 013d 4664 c13c 99b2 57bd
000000c0: 1b93 94bd 5c66 73bd ec06 f4bd 3455 933e
000000d0: 1065 03bd 66f7 263d a2f5 f63d afd1 a53d
000000e0: f7a6 633d 0910 84bb bdc8 44b9 eae9 5abd
000000f0: 746f 8fbd dc83 abbd a187 213d 8d11 87bc
00000100: 0e69 513e 2f1d 9dbd ba9b a1bd 9984 5bbe
00000110: e36d b43d b0c7 3d3d 33cb f9bd 6ed7 0abd
00000120: a3ee 2e3b 2b13 d63c 9cd2 d23d 7572 74be
00000130: 64a5 8bbd 8f9b bebd bd46 89bd 144b 6ebc
00000140: 8756 90bd c3a2 70bd 0456 9abd 4515 bf3d
00000150: 350d 5b3e 27c1 613d ec21 8cbd 9dd6 b5bd
00000160: 9e9c 183c 1353 073e b156 4e3b 6671 873c
00000170: 2c55 8cbe 369a aabc 99b8 213d fb16 15be
00000180: 5544 4ebd 28c1 1c3d 45ef 033e 6d32 94bd
00000190: 7224 28be e8ee 22be 51ca f73d cc12 793e
000001a0: ac7f b8bc 8070 873c b80d d83c bc47 dfba
000001b0: e182 423d 5c4e c43c 3c46 b93c 336f 8cbc
000001c0: 61d8 84bd ba48 35bd a0c7 c8bd 08ab 2f3d
000001d0: 3752 283e b7d1 ebbd 95d9 00bd 7cbf e23b
000001e0: 9da6 f23d 0bb8 86bd e903 92bd 4e1b 603e
000001f0: 728d b93d 4b2f 78bd 2be1 693d 3e26 34bd
00000200: 32b1 b63a dc80 d33d fc4a a3bd c11f 09be
00000210: f701 193e 8e19 b13d 8980 9f3b 49bf bbbd
00000220: da50 00be fb02 503c fa37 563c 3d14 903d
00000230: 1844 9bbc 0f2d 783d e265 c9bd 3e1d 0d3e
00000240: 4bb2 a0bd 7cd4 f6bd ff5a 493c 0e29 033e
00000250: 48b1 613d 91b9 123e 8aaf 783c a398 a03d
00000260: da2a b5bd ce9d d43c ed67 593d ebad 033c
00000270: 998e 053d cb9f 363d 5c72 2e3d a062 f53d
00000280: d166 2fbe d7b9 fa3d 8123 1d3e 677d 76bd
00000290: 2abf eb3c 9aac 1d3d d678 0dbd 8486 c9bc
000002a0: 76f1 95bd 1caa 37bd 0ad5 bb3d c08f dcbd
000002b0: 4e00 a5bc 22b7 283b 30aa d0bb fd26 01bd
000002c0: 65b6 0ebd 5757 09be 1e76 6fbd c082 1a3d
000002d0: 18d0 3c3d 8842 883d 7bf9 c8bd f079 5abd
000002e0: 57dd 453a d423 af3d 9b8b a2bd a6f0 2b3c
000002f0: a5f7 283d 570c c43c 468b 8bbd 2065 813d
00000300: 6189 003d 36a9 c53c b083 6f3d 66f6 b73c
00000310: e32a d33d d952 983d 75de 4fbd c916 933d
00000320: 901a 253c 4549 a7bd a49f 933b 398a 59bc
00000330: a55d 263e e816 45be 65e3 87be 29c0 fe3c
00000340: 6f4e 9c3d a524 a03c 5c24 d63b 2e4e a13d
00000350: 9661 2e3e 113d a13c ae4c 2c3d 2462 99bd
00000360: e3de 98bd 3f95 903d 3f70 eabd 06d5 083e
00000370: ec31 4b3d 0ee7 ccbd a6fc 57bc f202 f4bd
00000380: 7146 83bd 34cb b4bd 1cb7 383e 26a2 bd3b
00000390: 535f b4bd 2b81 a23c 3d05 1abd 0d87 29bd
000003a0: 5b43 7ebd 72c6 953d 6cd5 943d 9422 193d
000003b0: f4c4 aa3c 28bc 033e c676 cc3d 8c40 49be
000003c0: d263 fcbd 6917 fb3d 652a e53d b3b1 aebd
000003d0: 2ae9 0e3d a43a 3a3e c8db 0b3e 6442 073e
000003e0: 7b3d e3bb 83eb 743d 952e 61bd b141 1c3e
000003f0: 327d c6bc 6464 d73c 88ac b2bd 04d5 6cbd

network_body._body_endoder.seq_layers.2.bias f4 [128]
0.0 0.0 0.0 0.0 0.0 0.0 0.0 0.0
0.0 0.0 0.0 0.0 0.0 0.0 0.0 0.0
0.0 0.0 0.0 0.0 0.0 0.0 0.0 0.0
0.0 0.0 0.0 0.0 0.0 0.0 0.0 0.0
0.0 0.0 0.0 0.0 0.0 0.0 0.0 0.0
0.0 0.0 0.0 0.0 0.0 0.0 0.0 0.0
0.0 0.0 0.0 0.0 0.0 0.0 0.0 0.0
0.0 0.0 0.0 0.0 0.0 0.0 0.0 0.0
0.0 0.0 0.0 0.0 0.0 0.0 0.0 0.0
0.0 0.0 0.0 0.0 0.0 0.0 0.0 0.0
0.0 0.0 0.0 0.0 0.0 0.0 0.0 0.0
0.0 0.0 0.0 0.0 0.0 0.0 0.0 0.0
0.0 0.0 0.0 0.0 0.0 0.0 0.0 0.0
0.0 0.0 0.0 0.0 0.0 0.0 0.0 0.0
0.0 0.0 0.0 0.0 0.0 0.0 0.0 0.0
0.0 0.0 0.0 0.0 0.0 0.0 0.0 0.0
00000000: 0000 0000 0000 0000 0000 0000 0000 0000
00000010: 0000 0000 0000 0000 0000 0000 0000 0000
00000020: 0000 0000 0000 0000 0000 0000 0000 0000
00000030: 0000 0000 0000 0000 0000 0000 0000 0000
00000040: 0000 0000 0000 0000 0000 0000 0000 0000
00000050: 0000 0000 0000 0000 0000 0000 0000 0000
00000060: 0000 0000 0000 0000 0000 0000 0000 0000
00000070: 0000 0000 0000 0000 0000 0000 0000 0000
00000080: 0000 0000 0000 0000 0000 0000 0000 0000
00000090: 0000 0000 0000 0000 0000 0000 0000 0000
000000a0: 0000 0000 0000 0000 0000 0000 0000 0000
000000b0: 0000 0000 0000 0000 0000 0000 0000 0000
000000c0: 0000 0000 0000 0000 0000 0000 0000 0000
000000d0: 0000 0000 0000 0000 0000 0000 0000 0000
000000e0: 0000 0000 0000 0000 0000 0000 0000 0000
000000f0: 0000 0000 0000 0000 0000 0000 0000 0000
00000100: 0000 0000 0000 0000 0000 0000 0000 0000
00000110: 0000 0000 0000 0000 0000 0000 0000 0000
00000120: 0000 0000 0000 0000 0000 0000 0000 0000
00000130: 0000 0000 0000 0000 0000 0000 0000 0000
00000140: 0000 0000 0000 0000 0000 0000 0000 0000
00000150: 0000 0000 0000 0000 0000 0000 0000 0000
00000160: 0000 0000 0000 0000 0000 0000 0000 0000
00000170: 0000 0000 0000 0000 0000 0000 0000 0000
00000180: 0000 0000 0000 0000 0000 0000 0000 0000
00000190: 0000 0000 0000 0000 0000 0000 0000 0000
000001a0: 0000 0000 0000 0000 0000 0000 0000 0000
000001b0: 0000 0000 0000 0000 0000 0000 0000 0000
000001c0: 0000 0000 0000 0000 0000 0000 0000 0000
000001d0: 0000 0000 0000 0000 0000 0000 0000 0000
000001e0: 0000 0000 0000 0000 0000 0000 0000 0000
000001f0: 0000 0000 0000 0000 0000 0000 0000 0000

action_model._continuous_distribution.mu.weight f4 [1, 128]
0.0024080572 -0.009531665 0.013458586 0.0021160012 0.0063163512 -0.023743965 0.024554335 -0.0075510642
-0.014566603 -0.0039102286 -0.011667496 0.0012283352 -0.00040283107 0.008674939 -0.011470514 0.011462437
-0.0023746288 -0.009276105 0.0013821718 -0.03589279 -0.005828892 0.021564225 -0.024671061 0.0021113975
0.0010841285 0.026302913 -0.025360683 0.0005768062 0.011287289 -0.00687023 -0.0011431797 0.023301719
0.021943366 -0.0029280544 0.020046322 0.0039004341 0.006471436 -0.0134253 0.019330878 0.009402861
-0.04860128 -0.0066366545 0.036410045 0.010045519 0.0087233 -0.024213625 -0.01834432 0.017943012
0.023865335 0.004568638 -0.01892887 -0.01571157 0.014331074 0.010732119 0.040697765 0.016569272
0.012038346 0.019635804 0.014616865 0.003378639 0.006385342 -0.018321458 0.025321925 0.022896402
-0.01782576 0.00027151205 0.01569534 -0.013428357 -0.0034760293 0.043999687 -0.0015494566 -0.00031707762
0.024945814 0.01024384 0.009109123 -0.025345955 -0.008019967 -0.0076388926 -0.0022249632 0.004108164
-0.021780083 0.00039074788 -0.015377628 -0.015507283 -0.008020009 -0.008409596 -0.008966495 0.025980273
-0.006568079 0.022842081 0.0062672384 0.008187487 0.008698927 0.019718539 -0.008430013 -0.022779893
-0.022391526 -0.0032936372 0.018961342 0.015295222 0.011445973 0.011636878 -0.0030359607 0.0064063803
-0.016066449 -0.034473907 -0.014573266 -0.003480448 -0.010488361 0.019673795 -0.034050863 -0.013278211
0.015976442 0.013932012 -0.026326274 0.034437135 -0.019154059 -0.033069953 -0.020317523 0.002370604
-0.031636275 0.0063133496 -0.021849481 0.011318411 0.010451551 -0.008643878 0.016015826 -0.009820221
00000000: 7fd0 1d3b b32a 1cbc 6781 5c3c 9cac 0a3b
00000010: 65f9 ce3b b482 c2bc 2c26 c93c eb6e f7bb
00000020: c3a8 6ebc 6021 80bb 0629 3fbc 1700 a13a
00000030: 1233 d3b9 5521 0e3c d3ee 3bbc f2cc 3b3c
00000040: a99f 1bbb cefa 17bc fd29 b53a 5104 13bd
00000050: 4a00 bfbb 75a7 b03c f71a cabc 5f5f 0a3b
00000060: 5119 8e3a 3579 d73c 35c1 cfbc cf34 173a
00000070: 52ee 383c ab1f e1bb bfd6 95ba 3fe3 be3c
00000080: 93c2 b33c 9ae4 3fbb 2f38 a43c 6d9e 7f3b
00000090: 570e d43b caf5 5bbc ca5b 9e3c 750e 1a3c
000000a0: 2312 47bd 4b78 d9bb b322 153d f695 243c
000000b0: 2cec 0e3c a75b c6bc d446 96bc 39fd 923c
000000c0: 3c81 c33c 83b4 953b b810 9bbc 8db5 80bc
000000d0: e2cc 6a3c c5d5 2f3c b3b2 263d 48bc 873c
000000e0: 7c3c 453c 44db a03c 937b 6f3c 286c 5d3b
000000f0: 223c d13b e216 96bc ed6f cf3c 3c91 bb3c
00000100: 5407 92bc bb59 8e39 8393 803c 9d02 5cbc
00000110: 18ce 63bb 0439 343d 2317 cbba 703d a6b9
00000120: 2a5b cc3c c7d5 273c 6e3e 153c 52a2 cfbc
00000130: 2e66 03bc ad4f fabb b0d0 11bb c79d 863b
00000140: 256c b2bc 4bdd cc39 72f2 7bbc 4212 7ebc
00000150: 5b66 03bc 67c8 09bc 35e8 12bc 95d4 d43c
00000160: 0a39 d7bb 511f bb3c 685d cd3b cf24 063c
00000170: f285 0e3c c688 a13c 0a1e 0abc e69c babc
00000180: 6f6e b7bc 10da 57bb d154 9b3c d098 7a3c
00000190: e487 3b3c 9ba8 3e3c f8f6 46bb 9dec d13b
000001a0: c99d 83bc 8334 0dbd b5c4 6ebc 3a18 64bb
000001b0: 60d7 2bbc f02a a13c eb78 0bbd da8c 59bc
000001c0: 07e1 823c 1843 643c 33aa d7bc f40d 0d3d
000001d0: f9e8 9cbc 5c74 07bd ef70 a6bc 235c 1b3b
000001e0: 0a95 01bd 37e0 ce3b affd b2bc db70 393c
000001f0: fb3c 2b3c 0d9f 0dbc 9f33 833c fee4 20bc

network_body._body_endoder.seq_layers.0.weight f4 [128, 6]
-0.27720818 0.7367676 0.16932684 0.18635303 -0.088976756 0.21650454 0.02314613 -0.06309787
-0.66819847 0.22953558 -0.18465538 0.043003503 -0.09941119 0.5396424 -0.40488273 -0.19237955
-0.15660812 0.49888453 -0.17001258 -0.3083982 -0.5375517 -0.030541584 0.5058702 -0.13877243
0.2541118 -0.18734077 0.34737393 0.6746805 -0.66822815 -0.34567207 -0.025666308 -0.36902124
0.21465907 0.5143509 -0.046281114 -0.004202452 0.5433532 0.54164875 -0.57487714 -0.06120957
0.84270555 -0.1977515 0.15368158 0.3201983 0.35813212 -0.07048437 -0.17223981 0.06352
0.64869744 0.028558416 0.0409059 -0.414566 -0.50841415 -0.47974244 -0.21384135 0.6623499
0.41544056 0.297553 0.13094737 -0.72359324 -0.2661493 0.26577044 0.18934084 0.19262613
-0.20806426 -0.24840955 0.08773661 -0.35480863 -0.09801416 -0.23904379 0.34653175 0.02952697
0.3005973 -0.19865665 0.47704557 -0.3155556 -0.10271238 0.11003823 -0.5476364 -0.041613284
0.47500867 0.19870725 0.0008594909 0.1439592 -0.018251695 -0.5857015 -0.22006541 -0.66423845
0.06823541 0.88866997 -0.15494789 0.05816015 -0.36439317 0.014849739 0.05744086 -0.11146724
0.01753017 0.5809444 0.241629 -0.1032527 0.112459436 -0.44729903 -0.2832124 -0.112651065
0.21637736 -0.08680247 0.054676313 -0.61707294 -0.1731825 -0.15756619 -0.092492014 -0.3118582
0.5254 -0.13906217 -0.2288361 -0.058370374 0.12871768 0.1411079 -0.057586152 0.06006676
0.31971443 0.059296884 0.4207344 -0.053076062 0.2288313 -0.17484933 0.415722 -0.6595614
-0.50310624 -0.39406636 0.13492577 0.44080293 0.120133385 -0.90650785 -0.1328569 0.11155833
0.32953894 0.5265845 -0.38094512 -0.043061372 0.23414335 -0.6167187 0.13113576 -0.36293447
-0.045171164 0.009375173 -0.10836707 -0.53210855 0.8956085 0.053246763 -0.4637115 -0.55481595
-0.66335946 0.027300183 -0.11504977 -0.24545756 0.28325737 -0.27371967 -0.8694419 -0.12370614
0.61019254 0.26347095 -0.22553712 0.81957257 0.08686993 0.7697367 0.048368603 -0.3260264
-0.4048379 -0.06600244 0.108389504 0.21792954 0.44478846 0.6665173 -0.42564937 0.4002373
0.5741974 0.5851059 -0.64065886 0.08858712 -0.09992758 0.15817128 -0.47945958 0.4018693
0.30477816 -0.81328803 0.36466503 0.068874314 0.19669488 0.69271326 0.21803406 -0.41290462
0.26191252 -0.24361058 -0.6702385 -0.2723223 -0.13950764 -0.26507822 0.64831764 -0.3712667
0.48659047 -0.40742013 0.53092724 -0.72944546 0.20830394 -0.69916743 0.5478955 -0.1730573
0.08595293 -0.20741008 -0.102066174 -0.46276054 0.3273514 -0.44142532 0.046090294 0.110803455
-0.080697566 -0.16172643 0.11820601 -0.023372633 -0.15757668 -0.62115264 0.18915652 -0.44753328
-0.16578686 -0.37037688 0.18984747 -0.63844854 0.504526 -0.36104265 -0.06390075 0.07624643
-0.06567693 -0.37518343 -0.76388234 -0.042291857 0.19979577 0.097679846 -0.100560665 -0.04086447
-0.47719693 0.21414931 -0.0033212507 -0.07829397 0.63334507 -0.053948656 -0.030699955 -0.5461501
-0.026260246 0.057898145 0.6823749 0.10592144 0.30987912 0.6173405 -0.24975568 0.24400821
00000000: 3bee 8dbe cd9c 3c3f 0464 2d3e 54d3 3e3e
00000010: 7239 b6bd 5eb3 5d3e f49c bd3c 7539 81bd
00000020: 0e0f 2bbf 600b 6b3e 4d16 3dbe 7124 303d
00000030: 1898 cbbd 0126 0a3f ca4c cfbe 25ff 44be
00000040: e15d 20be cb6d ff3e c717 2ebe 5ee6 9dbe
00000050: fd9c 09bf 5832 fabc b680 013f 5c1a 0ebe
00000060: f11a 823e 42d6 3fbe ffda b13e dcb7 2c3f
00000070: 0011 2bbf eefb b0be 2642 d2bc 5af0 bcbe
00000080: 96cf 5b3e 80ac 033f 4491 3dbd b9b4 89bb
00000090: 3219 0b3f 7ea9 0a3f 262b 13bf e3b6 7abd
000000a0: 8dbb 573f 5f7f 4abe b45e 1d3e 08f1 a33e
000000b0: 185d b73e 1c5a 90bd a25f 30be c616 823d
000000c0: 0911 263f 57f3 e93c f28c 273d ff41 d4be
000000d0: 6e27 02bf cda0 f5be 3af9 5abe c38f 293f
000000e0: a0b4 d43e de58 983e 1117 063e 683d 39bf
000000f0: b944 88be 1013 883e 91e2 413e c93f 453e
00000100: cc0e 55be 135f 7ebe 40af b33d 7aa9 b5be
00000110: a6bb c8bd e5c7 74be 9c6c b13e 8be2 f13c
00000120: e4e7 993e a66c 4bbe 513f f43e 8190 a1be
00000130: de5a d2bd b95b e13d e631 0cbf b172 2abd
00000140: 5634 f33e ea79 4b3e 754f 613a 0a6a 133e
00000150: 9484 95bc 89f0 15bf d458 61be 880b 2abf
00000160: 02bf 8b3d e07f 633f a9aa 1ebe 5639 6e3d
00000170: be91 babe 524c 733c 1b47 6b3d f048 e4bd
00000180: 6e9b 8f3c c6b8 143f 986d 773e 2776 d3bd
00000190: 2251 e63d 6104 e5be 3701 91be 9ab5 e6bd
000001a0: 0792 5d3e 7ec5 b1bd 45f4 5f3d 7ef8 1dbf
000001b0: c156 31be 0859 21be 746c bdbd e1ab 9fbe
000001c0: 9d80 063f 5066 0ebe 0354 6abe c615 6fbd
000001d0: 91ce 033e 977e 103e 75df 6bbd 9008 763d
000001e0: 9cb1 a33e 4ae1 723d 806a d73e 4966 59bd
000001f0: c152 6a3e b40b 33be 84d9 d43e 04d9 28bf
00000200: 92cb 00bf 11c3 c9be fb29 0a3e ecb0 e13e
00000210: 7e08 f63d e610 68bf a40b 08be b278 e43d
00000220: 54b9 a83e 3ece 063f 3d0b c3be 1f61 30bd
00000230: 46c3 6f3e 47e1 1dbf 7448 063e 8cd2 b9be
00000240: 6605 39bd 539a 193c 8eef ddbd 4438 08bf
00000250: 9946 653f 4719 5a3d 986b edbe 6b08 0ebf
00000260: edd1 29bf a2a4 df3c 379f ebbd 3a59 7bbe
00000270: 1c07 913e fc24 8cbe bf93 5ebf a559 fdbd
00000280: 9435 1c3f aae5 863e 34f3 66be 82cf 513f
00000290: dde8 b13d 770d 453f 281e 463d efec a6be
000002a0: ea46 cfbe 4a2c 87bd 51fb dd3d ec28 5f3e
000002b0: 50bb e33e e1a0 2a3f b7ee d9be e7eb cc3e
000002c0: 9afe 123f 80c9 153f 3802 24bf 2a6d b53d
000002d0: d5a6 ccbd a7f7 213e ba7b f5be d0c1 cd3e
000002e0: e20b 9c3e a533 50bf 60b5 ba3e fa0d 8d3d
000002f0: 626a 493e a855 313f 5244 5f3e 3c68 d3be
00000300: 6619 863e 0d75 79be c094 2bbf d46d 8bbe
00000310: 17db 0ebe 55b8 87be 25f8 253f ab16 bebe
00000320: 6322 f93e 5f99 d0be d9ea 073f f0bc 3abf
00000330: a14d 553e a3fc 32bf e142 0c3f ef35 31be
00000340: 1708 b03d 4f63 54be 1208 d1bd f3ee ecbe
00000350: 9a9a a73e 8002 e2be 2dc9 3c3d ecec e23d
00000360: c444 a5bd 9d9b 25be fe15 f23d f777 bfbc
00000370: c85b 21be dc03 1fbf 3fb2 413e 1523 e5be
00000380: 08c4 29be 0aa2 bdbe 6067 423e 5d71 23bf
00000390: 9e28 013f 95da b8be 65de 82bd 1727 9c3d
000003a0: a081 86bd 0b18 c0be cb8d 43bf 3a3a 2dbd
000003b0: 4397 4c3e 5f0c c83d c0f2 cdbd 8161 27bd
000003c0: 2853 f4be f549 5b3e 57a9 59bb 9758 a0bd
000003d0: e722 223f 44f9 5cbd 797e fbbc 7ed0 0bbf
000003e0: ba1f d7bc 9b26 6d3d 1fb0 2e3f 57ed d83d
000003f0: 7aa8 9e3e 070a 1e3f f4bf 7fbe 4add 793e

network_body._body_endoder.seq_layers.0.bias f4 [128]
0.0 0.0 0.0 0.0 0.0 0.0 0.0 0.0
0.0 0.0 0.0 0.0 0.0 0.0 0.0 0.0
0.0 0.0 0.0 0.0 0.0 0.0 0.0 0.0
0.0 0.0 0.0 0.0 0.0 0.0 0.0 0.0
0.0 0.0 0.0 0.0 0.0 0.0 0.0 0.0
0.0 0.0 0.0 0.0 0.0 0.0 0.0 0.0
0.0 0.0 0.0 0.0 0.0 0.0 0.0 0.0
0.0 0.0 0.0 0.0 0.0 0.0 0.0 0.0
0.0 0.0 0.0 0.0 0.0 0.0 0.0 0.0
0.0 0.0 0.0 0.0 0.0 0.0 0.0 0.0
0.0 0.0 0.0 0.0 0.0 0.0 0.0 0.0
0.0 0.0 0.0 0.0 0.0 0.0 0.0 0.0
0.0 0.0 0.0 0.0 0.0 0.0 0.0 0.0
0.0 0.0 0.0 0.0 0.0 0.0 0.0 0.0
0.0 0.0 0.0 0.0 0.0 0.0 0.0 0.0
0.0 0.0 0.0 0.0 0.0 0.0 0.0 0.0
00000000: 0000 0000 0000 0000 0000 0000 0000 0000
00000010: 0000 0000 0000 0000 0000 0000 0000 0000
00000020: 0000 0000 0000 0000 0000 0000 0000 0000
00000030: 0000 0000 0000 0000 0000 0000 0000 0000
00000040: 0000 0000 0000 0000 0000 0000 0000 0000
00000050: 0000 0000 0000 0000 0000 0000 0000 0000
00000060: 0000 0000 0000 0000 0000 0000 0000 0000
00000070: 0000 0000 0000 0000 0000 0000 0000 0000
00000080: 0000 0000 0000 0000 0000 0000 0000 0000
00000090: 0000 0000 0000 0000 0000 0000 0000 0000
000000a0: 0000 0000 0000 0000 0000 0000 0000 0000
000000b0: 0000 0000 0000 0000 0000 0000 0000 0000
000000c0: 0000 0000 0000 0000 0000 0000 0000 0000
000000d0: 0000 0000 0000 0000 0000 0000 0000 0000
000000e0: 0000 0000 0000 0000 0000 0000 0000 0000
000000f0: 0000 0000 0000 0000 0000 0000 0000 0000
00000100: 0000 0000 0000 0000 0000 0000 0000 0000
00000110: 0000 0000 0000 0000 0000 0000 0000 0000
00000120: 0000 0000 0000 0000 0000 0000 0000 0000
00000130: 0000 0000 0000 0000 0000 0000 0000 0000
00000140: 0000 0000 0000 0000 0000 0000 0000 0000
00000150: 0000 0000 0000 0000 0000 0000 0000 0000
00000160: 0000 0000 0000 0000 0000 0000 0000 0000
00000170: 0000 0000 0000 0000 0000 0000 0000 0000
00000180: 0000 0000 0000 0000 0000 0000 0000 0000
00000190: 0000 0000 0000 0000 0000 0000 0000 0000
000001a0: 0000 0000 0000 0000 0000 0000 0000 0000
000001b0: 0000 0000 0000 0000 0000 0000 0000 0000
000001c0: 0000 0000 0000 0000 0000 0000 0000 0000
000001d0: 0000 0000 0000 0000 0000 0000 0000 0000
000001e0: 0000 0000 0000 0000 0000 0000 0000 0000
000001f0: 0000 0000 0000 0000 0000 0000 0000 0000

network_body._body_endoder.seq_layers.2.weight f4 [128, 128]
-0.010721086 0.00288215 -0.053091627 0.04834596 0.048688997 -0.11966518 0.008408523 -0.10863325
-0.035435487 0.07777042 -0.0059441486 0.051313676 -0.09814586 0.008394973 -0.15064804 -0.13330773
0.03286337 -0.019264877 -0.018676411 0.0629489 -0.09087131 0.1054013 0.022537742 -0.08314042
0.13901144 -0.13933492 -0.019295068 0.08602281 0.04359734 0.060220882 -0.013462724 0.12784505
-0.018749407 0.15301941 0.028116355 -0.1358055 0.06161628 0.064386554 -0.03566009 0.051135976
-0.05684793 -0.059170242 -0.042591702 -0.09291286 -0.075870335 -0.10522623 -0.037041675 0.011912058
-0.055602234 -0.024256852 0.06144973 0.093604386 -0.012837983 -0.018844986 -0.044465773 -0.057500206
-0.044570804 0.15673473 0.00016342454 0.02669961 0.058691904 0.03082107 0.087797515 0.05468469
-0.01044704 -0.052502263 0.16347033 0.26696604 0.018127711 -0.050980683 -0.061582953 0.05862601
0.008902082 -0.06532483 -0.14564443 0.03236307 -0.089778125 -0.07316488 0.08380277 0.1101143
-0.16169493 0.122978546 0.042016506 0.15224506 0.07526663 0.0672841 -0.027251815 0.17426294
-0.064936385 -0.071147375 -0.012663882 -0.05910468 -0.069234915 0.15851642 -0.06562204 -0.16176498
0.052383248 0.0935034 -0.00905578 -0.07236336 0.07413014 0.12027528 0.040624976 -0.11472238
0.047521926 -0.15638143 -0.031930074 0.011452165 -0.044202697 0.080722794 0.028644465 -0.19900206
-0.0019418816 0.32936156 -0.10975173 -0.0066572893 0.09352932 0.038854223 0.017970504 -0.015692575
0.16552937 -0.024026617 -0.0037691505 0.011168766 0.025197195 -0.035137955 0.11067683 -0.08294783
0.05096818 -0.07064053 -0.074112706 0.019850511 -0.04510954 0.0022185107 -0.12616111 -0.008184325
-0.034148894 0.029509708 0.066470034 -0.110341184 -0.08084751 -0.058643952 -0.19625075 -0.092806906
-0.07483757 0.35456142 0.098543815 -0.040243357 0.057125874 0.03202267 -0.027601784 0.21867631
-0.021687329 -0.09871128 -0.019970462 -0.050164543 -0.086153045 0.030912906 0.035583254 0.06150638
0.033897195 -0.0008708325 0.0911003 -0.07894715 0.1269694 -0.08443081 -0.115321204 0.026614027
-0.11115993 0.012874674 0.0053818105 0.07677502 -0.018570537 0.051303152 0.17310534 0.067432694
-0.052456513 -0.013303961 -0.11547902 -0.073129825 0.18967065 -0.063642465 -0.030571524 0.11614748
0.04613377 -0.006058107 0.17395267 0.16487712 -0.018035538 0.085805304 0.0052216607 0.02900348
-0.056418765 0.046014916 -0.0071261474 -0.04856677 0.13881 0.011021822 0.014359867 -0.071953215
-0.093493454 0.02711066 0.07252883 -0.07485796 0.02299555 -0.056084037 0.04023331 -0.038561333
-0.11812357 -0.047203537 -0.037231054 0.013312966 -0.015428533 -0.032461796 -0.0044294945 -0.046476226
-0.07196204 -0.054517932 -0.08087716 0.028626524 -0.0044028335 0.001785645 -0.0534372 0.0653449
0.09536746 -0.0013759 -0.11522179 0.10958514 0.05088142 0.06940352 0.009763719 -0.14449449
-0.07964909 0.09018649 0.07464033 0.006065757 -0.13401607 0.073025554 0.00074833457 0.0074006007
-0.019716332 0.12188336 -0.06724834 0.050027985 -0.093124785 -0.19011728 -0.10458726 -0.13335113
0.06540419 -0.07957651 0.044322446 -0.047826774 -0.09834855 -0.008995428 0.0049597383 -0.13678846
00000000: 7ea7 2fbc 74e2 3c3b 9b76 59bd 6a06 463d
00000010: 1d6e 473d 0513 f5bd e7c3 093c 1c7b debd
00000020: cd24 11bd 1946 9f3d 22c7 c2bb 4a2e 523d
00000030: b200 c9bd 128b 093c 7b43 1abe d281 08be
00000040: be9b 063d 60d1 9dbc 46ff 98bc 5aeb 803d
00000050: bd1a babd a3dc d73d 12a1 b83c 8645 aabd
00000060: 0459 0e3e d0ad 0ebe b110 9ebc ba2c b03d
00000070: 2093 323d 2caa 763d c292 5cbc d0e9 023e
00000080: 5b98 99bc 1fb1 1c3e 4554 e63c 9910 0bbe
00000090: 5a61 7c3d 19dd 833d 5110 12bd f573 513d
000000a0: 60d9 68bd 7f5c 72bd a374 2ebd 1949 bebd
000000b0: e861 9bbd da80 d7bd 03b9 17bd cb2a 433c
000000c0: 2bbf 63bd 4eb6 c6bc b6b2 7b3d a8b3 bf3d
000000d0: 6756 52bc cd60 9abc be21 36bd 5685 6bbd
000000e0: e08f 36bd 127f 203e f15c 2b39 24b9 da3c
000000f0: ec66 703d 787c fc3c 2fcf b33d 0efd 5f3d
00000100: 102a 2bbc 9d0c 57bd c464 273e c6af 883e
00000110: 9180 943c 1fd1 50bd 683e 7cbd d421 703d
00000120: 0ada 113c 06c9 85bd d023 15be 238f 043d
00000130: 98dd b7bd 78d7 95bd c9a0 ab3d 9b83 e13d
00000140: 5b93 25be 2ddc fb3d 8019 2c3d 21e6 1b3e
00000150: 6425 9a3d 3fcc 893d 333f dfbc fc71 323e
00000160: 5efd 84bd b7b5 91bd 2c7c 4fbc c017 72bd
00000170: 09cb 8dbd 2152 223e d964 86bd b8a5 25be
00000180: d18f 563d b67e bf3d b25e 14bc 3e33 94bd
00000190: 8bd1 973d e352 f63d 6066 263d 91f3 eabd
000001a0: 5aa6 423d 7422 20be 1cc9 02bd dda1 3b3c
000001b0: e30d 35bd fe51 a53d cca7 ea3c 32c7 4bbe
000001c0: bc86 feba 14a2 a83e 84c5 e0bd 6425 dabb
000001d0: 4d8c bf3d 9b25 1f3d e136 933c b78d 80bc
000001e0: 8880 293e 78d3 c4bc da03 77bb 33fd 363c
000001f0: 596a ce3c d1ec 0fbd 89aa e23d 8de0 a9bd
00000200: 03c4 503d fbab 90bd 67c8 97bd 8a9d a23c
00000210: c8c4 38bd 6f64 113b 6130 01be 8c17 06bc
00000220: b6df 0bbd 58be f13c 7121 883d 8ffa e1bd
00000230: 6193 a5bd a434 70bd f5f5 48be 8c11 bebd
00000240: 7144 99bd 1389 b53e 57d1 c93d 38d6 24bd
00000250: d2fc 693d 342a 033d 231d e2bc afec 5f3e
00000260: a0a9 b1bc 2429 cabd 1899 a3bc 5679 4dbd
00000270: 0271 b0bd 103d fd3c bfbf 113d 1dee 7b3d
00000280: c9d7 0a3d 9448 64ba cb92 ba3d 0baf a1bd
00000290: 4404 023e 0fea acbd 862d ecbd a905 da3c
000002a0: d1a7 e3bd 4cf0 523c e659 b03b 393c 9d3d
000002b0: 3d21 98bc 4123 523d 8742 313e 271a 8a3d
000002c0: a4dc 56bd dbf8 59bc 4480 ecbd 17c5 95bd
000002d0: 0639 423e fb56 82bd 2271 fabc bbde ed3d
000002e0: c4f6 3c3d 1683 c6bb a620 323e 8cd5 283e
000002f0: 44bf 93bc b1ba af3d 771a ab3b b598 ed3c
00000300: 5d17 67bd 237a 3c3d 7582 e9bb f3ed 46bd
00000310: 3524 0e3e df94 343c a645 6b3c 355c 93bd
00000320: 7f79 bfbd 2d17 de3c ff89 943d 214f 99bd
00000330: 2a61 bc3c 60b8 65bd afcb 243d 7df2 1dbd
00000340: c5ea f1bd 7f58 41bd 977f 18bd a01e 5a3c
00000350: f5c7 7cbc a9f6 04bd 4b25 91bb db5d 3ebd
00000360: d660 93bd 324e 5fbd eda2 a5bd 2c82 ea3c
00000370: a545 90bb 4e0c ea3a f7e0 5abd 8cd3 853d
00000380: 0450 c33d 8b57 b4ba 67f9 ebbd 2d6e e03d
00000390: 0969 503d 6f23 8e3d 01f8 1f3c 5df6 13be
000003a0: 101f a3bd b2b3 b83d 08dd 983d 42c3 c63b
000003b0: 823b 09be 6c8e 953d e22b 443a bd80 f23b
000003c0: 2584 a1bc fc9d f93d 7fb9 89bd 25ea 4c3d
000003d0: 35b8 bebd 1bae 42be d831 d6bd 338d 08be
000003e0: a2f2 853d 02f9 a2bd 748b 353d 02e6 43bd
000003f0: f76a c9bd 8f61 13bc 4d85 a23b 4612 0cbe

network_body._body_endoder.seq_layers.2.bias f4 [128]
0.0 0.0 0.0 0.0 0.0 0.0 0.0 0.0
0.0 0.0 0.0 0.0 0.0 0.0 0.0 0.0
0.0 0.0 0.0 0.0 0.0 0.0 0.0 0.0
0.0 0.0 0.0 0.0 0.0 0.0 0.0 0.0
0.0 0.0 0.0 0.0 0.0 0.0 0.0 0.0
0.0 0.0 0.0 0.0 0.0 0.0 0.0 0.0
0.0 0.0 0.0 0.0 0.0 0.0 0.0 0.0
0.0 0.0 0.0 0.0 0.0 0.0 0.0 0.0
0.0 0.0 0.0 0.0 0.0 0.0 0.0 0.0
0.0 0.0 0.0 0.0 0.0 0.0 0.0 0.0
0.0 0.0 0.0 0.0 0.0 0.0 0.0 0.0
0.0 0.0 0.0 0.0 0.0 0.0 0.0 0.0
0.0 0.0 0.0 0.0 0.0 0.0 0.0 0.0
0.0 0.0 0.0 0.0 0.0 0.0 0.0 0.0
0.0 0.0 0.0 0.0 0.0 0.0 0.0 0.0
0.0 0.0 0.0 0.0 0.0 0.0 0.0 0.0
00000000: 0000 0000 0000 0000 0000 0000 0000 0000
00000010: 0000 0000 0000 0000 0000 0000 0000 0000
00000020: 0000 0000 0000 0000 0000 0000 0000 0000
00000030: 0000 0000 0000 0000 0000 0000 0000 0000
00000040: 0000 0000 0000 0000 0000 0000 0000 0000
00000050: 0000 0000 0000 0000 0000 0000 0000 0000
00000060: 0000 0000 0000 0000 0000 0000 0000 0000
00000070: 0000 0000 0000 0000 0000 0000 0000 0000
00000080: 0000 0000 0000 0000 0000 0000 0000 0000
00000090: 0000 0000 0000 0000 0000 0000 0000 0000
000000a0: 0000 0000 0000 0000 0000 0000 0000 0000
000000b0: 0000 0000 0000 0000 0000 0000 0000 0000
000000c0: 0000 0000 0000 0000 0000 0000 0000 0000
000000d0: 0000 0000 0000 0000 0000 0000 0000 0000
000000e0: 0000 0000 0000 0000 0000 0000 0000 0000
000000f0: 0000 0000 0000 0000 0000 0000 0000 0000
00000100: 0000 0000 0000 0000 0000 0000 0000 0000
00000110: 0000 0000 0000 0000 0000 0000 0000 0000
00000120: 0000 0000 0000 0000 0000 0000 0000 0000
00000130: 0000 0000 0000 0000 0000 0000 0000 0000
00000140: 0000 0000 0000 0000 0000 0000 0000 0000
00000150: 0000 0000 0000 0000 0000 0000 0000 0000
00000160: 0000 0000 0000 0000 0000 0000 0000 0000
00000170: 0000 0000 0000 0000 0000 0000 0000 0000
00000180: 0000 0000 0000 0000 0000 0000 0000 0000
00000190: 0000 0000 0000 0000 0000 0000 0000 0000
000001a0: 0000 0000 0000 0000 0000 0000 0000 0000
000001b0: 0000 0000 0000 0000 0000 0000 0000 0000
000001c0: 0000 0000 0000 0000 0000 0000 0000 0000
000001d0: 0000 0000 0000 0000 0000 0000 0000 0000
000001e0: 0000 0000 0000 0000 0000 0000 0000 0000
000001f0: 0000 0000 0000 0000 0000 0000 0000 0000

value_heads.value_heads.extrinsic.weight f4 [1, 128]
0.13592008 -0.18770011 0.21289061 -0.12115361 0.012943597 -0.18334033 -0.15635106 -0.09894669
-0.019949982 0.13937734 -0.12799084 0.009242609 -0.06375085 -0.13464235 -0.11802516 0.04282358
-0.018487224 -0.15818246 0.028023228 -0.12001596 0.17141944 -0.21403868 -0.028667388 0.11389488
-0.016791668 0.08694615 -0.19080827 -0.12605564 0.043574188 0.022114811 0.09232727 -0.19749242
0.05162237 0.057069816 0.0934495 -0.065552905 -0.14922538 -0.06638732 -0.04076191 0.091100775
0.04704675 0.19357154 -0.02649157 -0.06053113 0.13201037 -0.09237655 -0.1990564 -0.047525022
0.020889994 -0.17492782 -0.009304055 -0.17696495 -0.14184007 0.04131048 0.118400775 0.13917996
0.091039 0.12050925 0.20103179 0.085345946 0.12606661 -0.11870657 -0.16986479 0.028507156
0.20648469 -0.037708744 -0.20953694 0.08376858 -0.042218484 0.21365531 -0.089782454 0.049135737
0.08533047 0.12598418 -0.15100294 0.04514737 -0.16635607 0.031314075 -0.068077 -0.03409265
-0.078831315 -0.15279374 -0.14306818 0.10953252 -0.064078465 -0.12138353 -0.21441054 -0.06793547
-0.19689524 0.05401475 0.044375986 0.15354073 0.010614871 0.19666173 0.12799591 -0.00034730742
0.047825664 0.06464988 0.1759777 -0.038242895 0.21520667 -0.16613993 -0.0198278 -0.18322581
-0.15234235 -0.19800451 0.19562064 -0.073229045 0.027245805 0.109728865 0.16791297 0.00030236752
-0.19754848 0.14263931 -0.20863512 -0.0028897808 -0.14468753 -0.1355229 -0.18093742 0.09384461
-0.024428716 -0.21562812 0.034509256 0.12294917 -0.114074156 -0.20060125 0.112263754 -0.062257808
00000000: a22e 0b3e 7534 40be ffff 593e 621f f8bd
00000010: 6111 543c 91bd 3bbe 7e1a 20be 90a4 cabd
00000020: 256e a3bc efb8 0e3e 0810 03be 506e 173c
00000030: ce8f 82bd afdf 09be 2db7 f1bd c767 2f3d
00000040: 8572 97bc 95fa 21be f890 e53c edca f5bd
00000050: 9488 2f3e f52c 5bbe dfd7 eabc b841 e93d
00000060: ae8e 89bc d310 b23d 3e63 43be bb14 01be
00000070: d97a 323d 1f2a b53c 1416 bd3d 743b 4abe
00000080: fa71 533d 0ac2 693d 7462 bf3d 9a40 86bd
00000090: 8ace 18be 13f6 87bd f6f5 26bd 0b93 ba3d
000000a0: 18b4 403d 9e37 463e d904 d9bc 7def 77bd
000000b0: ba2d 073e eb2f bdbd 71d5 4bbe 99a9 42bd
000000c0: 7e21 ab3c 4720 33be 0970 18bc 4d36 35be
000000d0: 863e 11be 2e35 293d 1b7c f23d 3185 0e3e
000000e0: a872 ba3d 8ecd f63d 47db 4d3e dbc9 ae3d
000000f0: 9b17 013e 6e1c f3bd 09f1 2dbe d787 e93c
00000100: b970 533e 7c74 1abd da90 56be dc8e ab3d
00000110: 4aed 2cbd 75c8 5a3e dddf b7bd 8e42 493d
00000120: bec1 ae3d ff01 013e 84a0 1abe 73ec 383d
00000130: 3f59 2abe 3043 003d f46b 8bbd bca4 0bbd
00000140: 5072 a1bd f675 1cbe 7780 12be 9652 e03d
00000150: 923b 83bd ee97 f8bd 708e 5bbe c021 8bbd
00000160: e89e 49be 923e 5d3d 98c3 353d c839 1d3e
00000170: ffe9 2d3c b161 493e 5c11 033e d016 b6b9
00000180: d8e4 433d 2867 843d 8033 343e 95a4 1cbd
00000190: 235f 5c3e 9620 2abe e96d a2bc 8c9f 3bbe
000001a0: a2ff 1bbe b2c1 4abe c750 483e 1cf9 95bd
000001b0: 9832 df3c 87b9 e03d 61f1 2b3e 1587 9e39
000001c0: 264a 4abe 0a10 123e 72a4 55be 7a62 3dbb
000001d0: f828 14be 84c6 0abe a947 39be 9a31 c03d
000001e0: bb1e c8bc 9ecd 5cbe 9459 0d3d c6cc fb3d
000001f0: b69f e9bd 6a6a 4dbe 8aea e53d 0b02 7fbd
