Shortcut Run/results/LEVEL1/Move/Move-4970.onnx (onnx, 71941 bytes, 5 tensors)

network_body._body_endoder.seq_layers.0.weight f4 [128, 6]
0.17533065 0.44973025 0.391617 0.58504134 -0.29244354 -0.7551572 0.34815437 -0.24176313
0.13189383 -0.5670959 -0.07840225 0.31519192 -0.63606215 -0.28565946 -0.190085 0.2838797
0.45738235 0.2496362 -1.1503755 0.8920713 0.55466986 -0.011449184 -0.31326157 -0.47685444
-0.11419679 -0.32004264 -0.17992388 -0.2980559 0.15972173 -0.49099436 0.19446358 0.4167022
-0.65877485 0.5694301 0.23535675 0.1999235 -0.14060241 -0.2193452 -0.9033121 -0.6271463
0.0021206958 0.013398337 0.36561123 0.079415165 0.018353757 0.16200766 0.013728871 0.044010997
0.3999453 -0.015611735 -0.5813642 0.47030708 0.5386694 0.048211303 -0.18681486 0.001955623
0.33486065 -0.33441073 0.25793839 -0.85940987 0.36249667 0.00042670057 -0.2663376 0.16064996
-0.2603124 0.0677541 0.29319528 -0.34213462 0.41265675 0.17692418 0.09643535 0.10946277
-0.21686462 0.47303322 -0.34555808 -0.16424282 -0.045597613 0.3928043 0.83173424 0.09586439
0.025488008 0.6811305 -0.7393542 0.3661222 0.3656527 0.11247418 0.50752544 0.9898566
-0.85535246 0.5730175 -0.576378 -0.37104407 -0.17092995 0.21307543 -0.5377816 -0.5604292
0.30725425 -0.30144352 -0.48355147 0.04439213 0.1734753 -0.51630867 0.23362981 0.059066255
0.24382809 -0.0058138757 -0.061172392 -0.2302081 0.31910408 -0.17956991 0.116082706 -0.15166165
-0.23935513 -0.69440943 -0.16021252 -0.23612173 -0.34892923 0.024968944 -0.67855245 -0.024779681
0.487636 0.10759541 -0.4679785 -0.20718172 -0.3926659 0.4876028 -0.5501608 -0.39213812
-0.2901625 -0.09602707 0.26988092 -0.91812295 -0.14848372 0.03604739 -0.0028445688 0.21805017
0.84234756 0.61992866 0.2759991 0.44746172 0.026957808 -0.56067854 -0.107667245 0.3118935
-0.21083607 -0.20000866 0.9472469 -0.24750856 0.10150468 0.029132206 0.7953403 0.09687622
-0.46113166 -0.39225036 0.32455966 0.45010805 0.41974232 -0.31925786 -0.67368764 0.044265248
0.53722525 -0.5783423 0.415605 -0.067948855 0.24052244 -0.15754095 -0.0062026014 -0.3087278
-0.0781366 0.10205145 0.56975883 0.23899035 0.052205663 0.14083831 -0.19635342 -0.15065323
-0.31994545 0.17125861 0.30608538 -0.097924426 -0.67822045 0.107366644 -0.47871616 -0.36560485
0.111477025 -0.18830906 0.15883255 -0.4830922 -0.12708133 -0.13471699 0.026817754 0.40499404
0.48387614 -0.3495031 0.16047032 0.24751413 0.0017822875 -0.12474012 0.42201206 0.10265046
0.7944162 -0.042666133 0.04099638 0.05417339 0.33788618 0.11648113 -0.04401028 -0.07085259
-0.92822754 0.2787609 0.09222486 0.19188517 -0.39612174 0.05964904 -0.6298184 0.9034718
0.7745959 -0.23720211 -0.002434073 -0.857015 -0.06575113 0.087155394 0.4116033 -0.42280027
0.08489569 -0.17935063 -0.71660584 0.4520592 -0.1416695 -0.20761214 0.6021597 -0.41173947
-0.07335158 0.23347521 0.35601294 -0.36034545 0.507154 -0.2948284 -0.3866958 -0.71889687
-0.038678527 -0.069416426 -0.19059289 -0.0969375 -0.23897985 -0.18334238 0.15112737 0.1768058
0.8278291 -0.082840875 -0.031699467 0.251799 -0.3806974 -0.6564274 -0.2141095 0.40090454
00000000: e189 333e 0b43 e63e 0682 c83e 45c5 153f
00000010: 29bb 95be fb51 41bf 4a41 b23e c190 77be
00000020: 2d0f 073e 322d 11bf 5c91 a0bd d660 a13e
00000030: f8d4 22bf f541 92be a4a5 42be ae58 913e
00000040: 052e ea3e a2a0 7f3e 813f 93bf c95e 643f
00000050: d8fe 0d3f 5c95 3bbc d263 a0be 4426 f4be
00000060: 02e0 e9bd a1dc a3be f73d 38be c89a 98be
00000070: 188e 233e 9d63 fbbe 7621 473e fe59 d53e
00000080: 78a5 28bf 2cc6 113f 5c01 713e bfb8 4c3e
00000090: 14fa 0fbe 079c 60be 763f 67bf a98c 20bf
000000a0: 5ffb 0a3b b384 5b3c 6531 bb3e 6ba4 a23d
000000b0: 9e5a 963c 56e5 253e 0fef 603c e044 343d
000000c0: a1c5 cc3e 5dc8 7fbc 49d4 14bf 17cc f03e
000000d0: 3de6 093f 3779 453d 654c 3fbe e929 003b
000000e0: db72 ab3e e237 abbe 8010 843e 4902 5cbf
000000f0: 2a99 b93e c8b6 df39 675d 88be 6c81 243e
00000100: ab47 85be a9c2 8a3d b11d 963e 452c afbe
00000110: bf47 d33e 9d2b 353e e67f c53d 042e e03d
00000120: c211 5ebe 6931 f23e fdec b0be 452f 28be
00000130: 90c4 3abd a51d c93e 89ec 543f 8d54 c43d
00000140: 3acc d03c 925e 2e3f 5146 3dbf 5e74 bb3e
00000150: d536 bb3e dd58 e63d 30ed 013f 3e67 7d3f
00000160: 61f8 5abf 46b1 123f 828d 13bf 7df9 bdbe
00000170: 4308 2fbe 7230 5a3e 0eac 09bf 4a78 0fbf
00000180: 6e50 9d3e ce56 9abe 0f94 f7be 86d4 353d
00000190: 82a3 313e ce2c 04bf a73c 6f3e 75ef 713d
000001a0: 12ae 793e 5382 bebb e78f 7abd acbb 6bbe
000001b0: 9c61 a33e 2de1 37be c5bc ed3d 314d 1bbe
000001c0: 8319 75be d1c4 31bf c00e 24be e5c9 71be
000001d0: daa6 b2be ac8b cc3c 9db5 2dbf c2fe cabc
000001e0: 6dab f93e fb5a dc3d e19a efbe 7227 54be
000001f0: 810b c9be 13a7 f93e 57d7 0cbf 54c6 c8be
00000200: 2e90 94be d7a9 c4bd d52d 8a3e 1b0a 6bbf
00000210: 1e0c 18be 6ea6 133d f26b 3abb 8b48 5f3e
00000220: 17a4 573f a5b3 1e3f c14f 8d3e b419 e53e
00000230: 9fd6 dc3c a188 0fbf a580 dcbd 81b0 9f3e
00000240: 69e5 57be 12cf 4cbe c67e 723f e272 7dbe
00000250: b0e1 cf3d aaa6 ee3c 6c9b 4b3f 0a67 c63d
00000260: 7319 ecbe 0ad5 c8be af2c a63e 9074 e63e
00000270: 77e8 d63e c475 a3be cb76 2cbf 7a4f 353d
00000280: 9887 093f 3e0e 14bf 2eca d43e c528 8bbd
00000290: 844b 763e 6a52 21be 313f cbbb 9211 9ebe
000002a0: 1506 a0bd 5a00 d13d b7db 113f e3b9 743e
000002b0: 9bd5 553d eb37 103e df10 49be d744 1abe
000002c0: e4cf a3be 6b5e 2f3e 39b7 9c3e 9a8c c8bd
000002d0: db9f 2dbf 0be3 db3d 491a f5be 8f30 bbbe
000002e0: 114e e43d 17d4 40be 00a5 223e dc57 f7be
000002f0: 9c21 02be 40f3 09be e8b0 db3c 615b cf3e
00000300: 9dbe f73e 12f2 b2be 5552 243e 5874 7d3e
00000310: a59b e93a bf77 ffbd f711 d83e 683a d23d
00000320: dc5e 4b3f afc2 2ebd d2eb 273d ebe4 5d3d
00000330: 6bff ac3e a98d ee3d 2044 34bd 2a1b 91bd
00000340: 52a0 6dbf c0b9 8e3e 63e0 bc3d 8c7d 443e
00000350: 78d0 cabe 8d52 743d c73b 21bf ee49 673f
00000360: eb4b 463f 1ce5 72be f884 1fbb 5665 5bbf
00000370: 87a8 86bd 877e b23d abbd d23e 4779 d8be
00000380: cbdd ad3d b1a7 37be 7b73 37bf 4e74 e73e
00000390: cf11 11be 4798 54be 2327 1a3f 84cf d2be
000003a0: 5a39 96bd 2014 6f3e 5447 b63e 337f b8be
000003b0: d8d4 013f bff3 96be fefc c5be a009 38bf
000003c0: 606d 1ebd 332a 8ebd c82a 43be 2b87 c6bd
000003d0: 22b7 74be 1bbe 3bbe 22c1 1a3e 940c 353e
000003e0: 9cec 533f 7aa8 a9bd 4dd7 01bd cceb 803e
000003f0: c5ea c2be a00b 28bf 853f 5bbe 5c43 cd3e

network_body._body_endoder.seq_layers.0.bias f4 [128]
0.0 0.0 0.0 0.0 0.0 0.0 0.0 0.0
0.0 0.0 0.0 0.0 0.0 0.0 0.0 0.0
0.0 0.0 0.0 0.0 0.0 0.0 0.0 0.0
0.0 0.0 0.0 0.0 0.0 0.0 0.0 0.0
0.0 0.0 0.0 0.0 0.0 0.0 0.0 0.0
0.0 0.0 0.0 0.0 0.0 0.0 0.0 0.0
0.0 0.0 0.0 0.0 0.0 0.0 0.0 0.0
0.0 0.0 0.0 0.0 0.0 0.0 0.0 0.0
0.0 0.0 0.0 0.0 0.0 0.0 0.0 0.0
0.0 0.0 0.0 0.0 0.0 0.0 0.0 0.0
0.0 0.0 0.0 0.0 0.0 0.0 0.0 0.0
0.0 0.0 0.0 0.0 0.0 0.0 0.0 0.0
0.0 0.0 0.0 0.0 0.0 0.0 0.0 0.0
0.0 0.0 0.0 0.0 0.0 0.0 0.0 0.0
0.0 0.0 0.0 0.0 0.0 0.0 0.0 0.0
0.0 0.0 0.0 0.0 0.0 0.0 0.0 0.0
00000000: 0000 0000 0000 0000 0000 0000 0000 0000
00000010: 0000 0000 0000 0000 0000 0000 0000 0000
00000020: 0000 0000 0000 0000 0000 0000 0000 0000
00000030: 0000 0000 0000 0000 0000 0000 0000 0000
00000040: 0000 0000 0000 0000 0000 0000 0000 0000
00000050: 0000 0000 0000 0000 0000 0000 0000 0000
00000060: 0000 0000 0000 0000 0000 0000 0000 0000
00000070: 0000 0000 0000 0000 0000 0000 0000 0000
00000080: 0000 0000 0000 0000 0000 0000 0000 0000
00000090: 0000 0000 0000 0000 0000 0000 0000 0000
000000a0: 0000 0000 0000 0000 0000 0000 0000 0000
000000b0: 0000 0000 0000 0000 0000 0000 0000 0000
000000c0: 0000 0000 0000 0000 0000 0000 0000 0000
000000d0: 0000 0000 0000 0000 0000 0000 0000 0000
000000e0: 0000 0000 0000 0000 0000 0000 0000 0000
000000f0: 0000 0000 0000 0000 0000 0000 0000 0000
00000100: 0000 0000 0000 0000 0000 0000 0000 0000
00000110: 0000 0000 0000 0000 0000 0000 0000 0000
00000120: 0000 0000 0000 0000 0000 0000 0000 0000
00000130: 0000 0000 0000 0000 0000 0000 0000 0000
00000140: 0000 0000 0000 0000 0000 0000 0000 0000
00000150: 0000 0000 0000 0000 0000 0000 0000 0000
00000160: 0000 0000 0000 0000 0000 0000 0000 0000
00000170: 0000 0000 0000 0000 0000 0000 0000 0000
00000180: 0000 0000 0000 0000 0000 0000 0000 0000
00000190: 0000 0000 0000 0000 0000 0000 0000 0000
000001a0: 0000 0000 0000 0000 0000 0000 0000 0000
000001b0: 0000 0000 0000 0000 0000 0000 0000 0000
000001c0: 0000 0000 0000 0000 0000 0000 0000 0000
000001d0: 0000 0000 0000 0000 0000 0000 0000 0000
000001e0: 0000 0000 0000 0000 0000 0000 0000 0000
000001f0: 0000 0000 0000 0000 0000 0000 0000 0000

network_body._body_endoder.seq_layers.2.weight f4 [128, 128]
-0.037887134 0.0539192 -0.04793916 0.014696003 -0.08575622 0.027217228 0.048006266 -0.03413862
0.047004808 -0.113566354 0.0026090103 -0.09415303 -0.05905088 -0.094890706 -0.018457608 0.029176122
-0.09979848 -0.07718211 0.009861899 0.052511904 -0.01726613 -0.12430044 0.021289326 0.10745569
0.12279497 -0.056176476 -0.02615076 0.14961089 0.067003675 0.2227977 -0.06372824 -0.081257835
-0.05582045 0.029243337 0.039721332 -0.027229466 0.06387317 -0.021181913 -0.013646539 0.011891519
0.010988453 -0.025322925 -0.027765859 0.1511945 0.1805988 0.0031112938 0.06315947 -0.0052863443
-0.0011673613 0.03683685 0.15657337 -0.053570043 -0.0037193461 0.15756123 -0.03311075 0.04349592
0.10396506 -0.10736164 -0.12824109 -0.014275377 -0.061347988 -0.02049748 0.1556269 0.07767449
-0.0146224825 -0.09168855 0.009743526 -0.15658404 -0.118917964 -0.056278393 -0.011008119 -0.06999048
0.058115102 -0.08769556 0.10222727 0.06677956 0.057838704 -0.005768086 0.016003046 0.048477005
0.019997971 -0.07430814 -0.11250103 -0.019998668 0.033134274 -0.06947827 -0.006255221 -0.01796208
-0.14018646 0.16132195 -0.058510758 -0.0359332 -0.043482352 0.1286347 -0.01434203 0.0512315
0.18085225 0.026585102 0.049743004 0.062380426 0.019532928 -0.07020209 -0.07406509 0.019510565
0.07405674 0.06055503 -0.06384274 0.07384374 -0.036183007 -0.05691229 0.02444586 -0.06882521
-0.11566263 0.020645902 -0.11407015 -0.069565624 -0.052188504 0.13690914 -0.050733563 0.09312943
0.032719508 -0.15315467 0.061223175 -0.09940391 0.005733507 0.026850846 -0.09206939 0.05662952
-0.07407058 0.018954858 -0.023278492 0.0003836742 -0.08116944 0.12596783 0.043452673 0.0006069817
0.04334104 0.032312233 -0.034054637 -0.06704456 -0.11839924 0.013563386 -0.05810963 0.014248364
-0.00803563 -0.0070200763 0.042929597 -0.031405814 0.044768818 -0.0034111047 0.022644753 0.023392364
0.08598681 0.048910737 0.06844793 -0.07872753 0.07423877 -0.0376292 -0.15682328 -0.00093849306
-0.10452875 0.015413412 0.10046706 -0.032195866 0.020742025 0.004704351 0.09020845 0.13470085
-0.014512819 0.018784227 0.051602926 0.107129745 -0.041377522 0.005350867 0.20888452 0.024508234
-0.14393282 -0.09743654 -0.0210833 -0.042113107 -0.18215142 -0.07749364 -0.014780711 -0.04835089
0.030999597 -0.018580712 0.108468264 0.058650475 0.02389665 0.12898271 0.017648669 0.08632916
-0.014582408 -0.12496646 0.009830814 -0.05254957 0.052431695 0.031394888 0.06276728 -0.009247461
-0.07785752 -0.027861418 0.1018777 -0.13097149 -0.064814106 0.0072652968 0.11843478 -0.10302654
0.018346243 0.016559755 -0.027719429 0.04899103 -0.13913098 -0.020560175 -0.07051083 0.04441471
0.093238354 0.057627663 0.016202379 -0.1562673 -0.04149546 0.025658626 -0.029120276 0.071888626
0.06437383 -0.037092377 -0.082839005 0.10105718 0.08614584 0.0279502 0.09148111 -0.06901797
-0.15523084 0.014995258 -0.041237548 0.07898861 -0.03619108 0.010481131 -0.074100405 0.17906606
0.06747158 -0.025689136 0.025120817 0.044104896 -0.015837153 -0.049522895 -0.091188006 0.051446535
0.06319176 -0.036172 0.061185516 -0.23320399 0.032750394 0.072332546 0.020160649 0.08020977
00000000: 8a2f 1bbd 61da 5c3d da5b 44bd 81c7 703c
00000010: f5a0 afbd aaf6 de3c 38a2 443d f0d4 0bbd
00000020: 1d88 403d 7a95 e8bd eefb 2a3b 4ed3 c0bd
00000030: 56df 71bd 0f56 c2bd 6934 97bc c302 ef3c
00000040: 2563 ccbd a711 9ebd cd93 213c b916 573d
00000050: b371 8dbc 3b91 febd f466 ae3c bb11 dc3d
00000060: ee7b fb3d 4e19 66bd 1e3a d6bc 9933 193e
00000070: 3939 893d 1525 643e f483 82bd 826a a6bd
00000080: fca3 64bd b98f ef3c d6b2 223d 5410 dfbc
00000090: f0cf 823d b185 adbc bc95 5fbc a5d4 423c
000000a0: ea08 343c 0672 cfbc 3a75 e3bc bbd2 1a3e
000000b0: e4ee 383e d9e6 4b3b c159 813d 1239 adbb
000000c0: 2502 99ba 3de2 163d c554 203e 436c 5bbd
000000d0: 46c0 73bb bb57 213e 239f 07bd c728 323d
000000e0: a2eb d43d 6be0 dbbd a251 03be 45e3 69bc
000000f0: 0748 7bbd 55ea a7bc a85c 1f3e ce13 9f3d
00000100: 2393 6fbc 35c7 bbbd 4fa3 1f3c 9157 20be
00000110: 438b f3bd 2c84 66bd 665b 34bc 2b57 8fbd
00000120: 1a0a 6e3d bb99 b3bd 885c d13d b9c3 883d
00000130: 47e8 6c3d 3602 bdbb d218 833c d38f 463d
00000140: c9d2 a33c de2e 98bd f166 e6bd 3fd4 a3bc
00000150: ceb7 073d a04a 8ebd 99f8 ccbb 3625 93bc
00000160: 0a8d 0fbe 9531 253e faa8 6fbd b12e 13bd
00000170: 8d1a 32bd d1b8 033e d5fa 6abc 1fd8 513d
00000180: 5531 393e 00c9 d93c 52bf 4b3d 9e82 7f3d
00000190: 8503 a03c 1dc6 8fbd 70af 97bd 9fd4 9f3c
000001a0: 0fab 973d 8d08 783d fcbf 82bd 633b 973d
000001b0: a234 14bd dd1c 69bd af42 c83c 3bf4 8cbd
000001c0: 87e0 ecbd 9821 a93c 9c9d e9bd 6c78 8ebd
000001d0: 9dc3 55bd e931 0c3e ffcd 4fbd a5ba be3d
000001e0: e404 063d 94d4 1cbe 27c5 7a3d 4794 cbbd
000001f0: 25e0 bb3b 4ef6 db3c e08e bcbd 5bf4 673d
00000200: 51b2 97bd 3847 9b3c 89b2 bebc e127 c939
00000210: 2a3c a6bd b6fd 003e 6efb 313d da1d 1f3a
00000220: 6086 313d d559 043d e07c 0bbd a94e 89bd
00000230: 4d7b f2bd f738 5e3c 5d04 6ebd f871 693c
00000240: e0a7 03bc ab08 e6bb f2d6 2f3d 62a3 00bd
00000250: 825f 373d d78c 5fbb 7d81 b93c 58a1 bf3c
00000260: da19 b03d a056 483d 6e2e 8c3d e63b a1bd
00000270: 7f0a 983d 1321 1abd 4896 20be 3405 76ba
00000280: 2b13 d6bd 8988 7c3c adc1 cd3d d0df 03bd
00000290: 2eeb a93c f526 9a3b 35bf b83d 05ef 093e
000002a0: 2dc7 6dbc 61e1 993c 975d 533d d766 db3d
000002b0: 7a7b 29bd 5356 af3b d3e5 553e 7ec5 c83c
000002c0: 2063 13be cf8c c7bd e2b6 acbc cb7e 2cbd
000002d0: e785 3abe fcb4 9ebd cc2a 72bc 950b 46bd
000002e0: def2 fd3c 9436 98bc 9c24 de3d 7b3b 703d
000002f0: e8c2 c33c 0b14 043e f193 903c 58cd b03d
00000300: 0deb 6ebc 6aee ffbd 6c11 213c 383e 57bd
00000310: 9ec2 563d ed97 003d 228c 803d aa82 17bc
00000320: c373 9fbd a13d e4bc 41a5 d03d 641d 06be
00000330: 42bd 84bd ba11 ee3b ef8d f23d 94ff d2bd
00000340: dc4a 963c 53a8 873c db13 e3bc d1aa 483d
00000350: 5a78 0ebe d06d a8bc fb67 90bd 33ec 353d
00000360: c0f3 be3d fc0a 6c3d daba 843c 8904 20be
00000370: 25f7 29bd 0a32 d23c a58d eebc 583a 933d
00000380: 6dd6 833d 2dee 17bd 7fa7 a9bd 11f7 ce3d
00000390: 3b6d b03d d1f7 e43c 735a bb3d 4b59 8dbd
000003a0: d5f4 1ebe acae 753c b4e8 28bd c8c4 a13d
000003b0: 193d 14bd 0db9 2b3c f4c1 97bd 185d 373e
000003c0: 8a2e 8a3d 0672 d2bc 2cca cd3c 56a7 343d
000003d0: ebbc 81bc 85d8 4abd c7c0 babd 9ab9 523d
000003e0: ae6a 813d 1729 14bd aa9d 7a3d 07cd 6ebe
000003f0: 4725 063d 1623 943d f227 a53c 0545 a43d

network_body._body_endoder.seq_layers.2.bias f4 [128]
0.0 0.0 0.0 0.0 0.0 0.0 0.0 0.0
0.0 0.0 0.0 0.0 0.0 0.0 0.0 0.0
0.0 0.0 0.0 0.0 0.0 0.0 0.0 0.0
0.0 0.0 0.0 0.0 0.0 0.0 0.0 0.0
0.0 0.0 0.0 0.0 0.0 0.0 0.0 0.0
0.0 0.0 0.0 0.0 0.0 0.0 0.0 0.0
0.0 0.0 0.0 0.0 0.0 0.0 0.0 0.0
0.0 0.0 0.0 0.0 0.0 0.0 0.0 0.0
0.0 0.0 0.0 0.0 0.0 0.0 0.0 0.0
0.0 0.0 0.0 0.0 0.0 0.0 0.0 0.0
0.0 0.0 0.0 0.0 0.0 0.0 0.0 0.0
0.0 0.0 0.0 0.0 0.0 0.0 0.0 0.0
0.0 0.0 0.0 0.0 0.0 0.0 0.0 0.0
0.0 0.0 0.0 0.0 0.0 0.0 0.0 0.0
0.0 0.0 0.0 0.0 0.0 0.0 0.0 0.0
0.0 0.0 0.0 0.0 0.0 0.0 0.0 0.0
00000000: 0000 0000 0000 0000 0000 0000 0000 0000
00000010: 0000 0000 0000 0000 0000 0000 0000 0000
00000020: 0000 0000 0000 0000 0000 0000 0000 0000
00000030: 0000 0000 0000 0000 0000 0000 0000 0000
00000040: 0000 0000 0000 0000 0000 0000 0000 0000
00000050: 0000 0000 0000 0000 0000 0000 0000 0000
00000060: 0000 0000 0000 0000 0000 0000 0000 0000
00000070: 0000 0000 0000 0000 0000 0000 0000 0000
00000080: 0000 0000 0000 0000 0000 0000 0000 0000
00000090: 0000 0000 0000 0000 0000 0000 0000 0000
000000a0: 0000 0000 0000 0000 0000 0000 0000 0000
000000b0: 0000 0000 0000 0000 0000 0000 0000 0000
000000c0: 0000 0000 0000 0000 0000 0000 0000 0000
000000d0: 0000 0000 0000 0000 0000 0000 0000 0000
000000e0: 0000 0000 0000 0000 0000 0000 0000 0000
000000f0: 0000 0000 0000 0000 0000 0000 0000 0000
00000100: 0000 0000 0000 0000 0000 0000 0000 0000
00000110: 0000 0000 0000 0000 0000 0000 0000 0000
00000120: 0000 0000 0000 0000 0000 0000 0000 0000
00000130: 0000 0000 0000 0000 0000 0000 0000 0000
00000140: 0000 0000 0000 0000 0000 0000 0000 0000
00000150: 0000 0000 0000 0000 0000 0000 0000 0000
00000160: 0000 0000 0000 0000 0000 0000 0000 0000
00000170: 0000 0000 0000 0000 0000 0000 0000 0000
00000180: 0000 0000 0000 0000 0000 0000 0000 0000
00000190: 0000 0000 0000 0000 0000 0000 0000 0000
000001a0: 0000 0000 0000 0000 0000 0000 0000 0000
000001b0: 0000 0000 0000 0000 0000 0000 0000 0000
000001c0: 0000 0000 0000 0000 0000 0000 0000 0000
000001d0: 0000 0000 0000 0000 0000 0000 0000 0000
000001e0: 0000 0000 0000 0000 0000 0000 0000 0000
000001f0: 0000 0000 0000 0000 0000 0000 0000 0000

action_model._continuous_distribution.mu.weight f4 [1, 128]
-0.015298675 -0.00023723405 0.018341543 0.0001383417 -0.005296727 0.019328572 0.016443618 -0.016415551
-0.001220101 0.037435945 0.0023608922 -0.00048616008 0.005571769 -0.006127474 0.013587638 -0.024743745
-0.014900865 -0.021554971 0.010605991 -0.0033865056 0.0074363574 -0.005728915 -0.02367134 -0.006339813
0.030192796 -0.018410286 0.002792047 -0.012697512 0.014224027 0.0056660273 -0.015600177 -0.0023654425
0.005222108 -0.011355969 0.005691113 0.0025312826 0.004878284 0.016135212 -0.018268775 -0.007019896
-0.026053926 0.012164916 -0.012404116 -0.004682466 0.0154665755 -0.029572412 0.02996608 0.018662987
0.016189655 0.0062806145 0.0015436154 0.014489179 -0.023300717 0.015368804 -0.022232499 -0.00059004675
0.014368041 0.0038599365 -0.0072213598 0.0016699386 -0.002205721 -0.019615915 0.012392147 0.024447495
0.009131173 -0.0003407719 -0.011814008 -0.009527358 0.010445946 0.033640396 0.008718862 0.04148941
-0.0021818588 -0.01124929 0.043005057 -0.021506375 -0.00090437056 -0.0029234833 0.004984846 0.005946869
-0.015895344 0.013972135 -0.004543346 -0.015745712 0.02036711 0.00038156653 0.009706022 -0.028677786
0.006295948 0.014760122 0.027549772 -0.020728625 0.010429791 0.0047775256 0.018823152 -0.017746663
-0.01288884 0.012374216 0.007890482 -0.0074874656 0.024120728 0.025291389 0.010635613 0.006069929
0.00125266 0.0051391767 0.01561144 -0.014067367 -0.029864708 -0.01343617 0.010053697 0.0061807153
0.012479389 0.004861888 -0.042928226 -0.013290538 -0.0063586533 -0.012700218 0.020513343 -0.014900547
0.004033148 0.034195974 -0.0046818117 -0.024359677 -0.025176749 0.0104338 -0.052183952 0.01208372
00000000: 4ba7 7abc 08c2 78b9 0141 963c d10f 1139
00000010: 2b90 adbb f456 9e3c c4b4 863c e879 86bc
00000020: cceb 9fba 6f56 193d 33b9 1a3b 4de3 feb9
00000030: 6393 b63b fac8 c8bb af9e 5e3c 65b3 cabc
00000040: c222 74bc 0d94 b0bc c0c4 2d3c 23f0 5dbb
00000050: b0ac f33b 9fb9 bbbb 66ea c1bc 35be cfbb
00000060: e256 f73c 2bd1 96bc c7fa 363b 3a09 50bc
00000070: e50b 693c 15aa b93b e397 7fbc 8a05 1bbb
00000080: 381e ab3b 630e 3abc 847c ba3b e0e3 253b
00000090: 03da 9f3b fe2d 843c 66a8 95bc 2807 e6bb
000000a0: 0b6f d5bc 5b4f 473c a23a 4bbc 5f6f 99bb
000000b0: 8567 7d3c d841 f2bc 6d7b f53c 1fe3 983c
000000c0: 2ba0 843c 9dcd cd3b 2353 ca3a 0564 6d3c
000000d0: 25e1 bebc 70cd 7b3c ee20 b6bc 5ead 1aba
000000e0: ef67 6b3c fdf6 7c3b 28a1 ecbb d7e1 da3a
000000f0: dc8d 10bb 8eb1 a0bc 6f08 4b3c 1d46 c83c
00000100: ea9a 153c a1a9 b2b9 8a8f 41bc a318 1cbc
00000110: 7925 2b3c 83ca 093d 8fd9 0e3c cdf0 293d
00000120: 84fd 0ebb f14e 38bc 1226 303d 232e b0bc
00000130: 4813 6dba e997 3fbb eb57 a33b f4dd c23b
00000140: f436 82bc 62eb 643c 59e0 94bb 27fd 80bc
00000150: edd8 a63c fe0c c839 0206 1f3c aded eabc
00000160: 3d4e ce3b 70d4 713c 0fb0 e13c 14cf a9bc
00000170: b7e1 2a3c ca8c 9c3b 0333 9a3c 7361 91bc
00000180: b72b 53bc 39bd 4a3c 1547 013c 6a59 f5bb
00000190: d598 c53c e32f cf3c ff40 2e3c 41e6 c63b
000001a0: 4b30 a43a 8a66 a83b 20c7 7f3c d07a 66bc
000001b0: d5a6 f4bc 6223 5cbc 43b8 243c 9987 ca3b
000001c0: 5a76 4c3c 7950 9f3b 82d5 2fbd 8fc0 59bc
000001d0: 405c d0bb 9314 50bc 990b a83c 6d21 74bc
000001e0: 7f28 843b 1411 0c3d e269 99bb f28d c7bc
000001f0: 783f cebc 87f2 2a3c d7be 55bd ccfa 453c
