Shortcut Run/results/LEVEL1/Move/Move-7312.pt (torch, 149007 bytes, 10 tensors)

network_body._body_endoder.seq_layers.0.weight f4 [128, 6]
00000000: 43b8 873e 3d29 babd 4201 d8bd 0e00 d73e
00000010: e5b3 95be ee27 703f 54fe 0cbf bfde 3e3f
00000020: 4480 9e3d 8c34 89be 5adf 05bf 85a3 89be
00000030: a90d 24be 3f03 4e3e 6fed ae3e 2829 ae3e
00000040: 9632 1dbf 8f60 4bbf 1469 f4bd c284 9abe
00000050: 39a1 aa3e 193f 81bb 85ed b0bd 2aef 86be
00000060: 1b89 8a3e 472f 14bf 2a86 a1bd b685 8bbd
00000070: 4b38 81be 54e4 5a3f 40f0 f1be a1be 193e
00000080: ea22 3abe 4d31 983e 94c9 2dbe b4e9 593e
00000090: 36da 9a3e 64a6 a83e cda1 a43e 70e3 333e
000000a0: d6c0 ba3e dc30 9a3e 476c 033e 05df 913c
000000b0: 547e 3c3e 43ea 7a3d 6e5b e83e 920b c43d
000000c0: a0ef f6bc 4f73 28bf 3f27 d8be 6d0a 443f
000000d0: 0883 30be 92db 173f 7944 c33e a37a 81be
000000e0: ba40 3dbf ef65 d93e d60f 3ebf 2088 e9be
000000f0: 6b4e 183f c2b6 c7be 0f7a d5be c10c 34bf
00000100: 3be5 003e 42bb 143f 3205 cebe 97eb 3dbf
00000110: 8ba5 04bf 421c 2e3f 4dbb 803e f6f8 28bf
00000120: 6e36 fc3e ee98 84be f9b5 253e abd2 123e
00000130: 1118 c83e 2cf2 c2be 30ba 99bd ac1d 4fbf
00000140: 3dd5 1f3f 5b2a b2be 0a8b ab3e 2b23 89bf
00000150: 51ab 8cb9 e0ef 26bf e4bb a93d 54ab d9bc
00000160: 55b2 603e 1f56 e03e b2d7 2e3e 0c6a 6e3e
00000170: 0270 aa3e d3d8 1b3f c645 4e3f 4508 563e
00000180: 6a69 8b3e 0606 c9be 4044 adbd 400e 17bf
00000190: 05c4 3cbf 41b0 64be 4f8c 2cbf 3ced 813e
000001a0: 5612 ec3e accb 2c3e 796d b13e d515 653e
000001b0: b964 fdbd 044d 253e f4cf 5a3e 75fb 6bbd
000001c0: 9a36 883e 1eaa a43d 9b01 313f 796c e6bd
000001d0: 8341 93be cb66 b0be f38d 96be 460f 843e
000001e0: 4f1a 073f 1a54 843f 855f e33e 3413 2bbf
000001f0: 6f1c 153e 941b 78bd 9ca6 cb3e 60f2 d53e
00000200: 5c7e 80be 08c0 983e dc8f 73bd 3dd2 1f3f
00000210: fe53 6bbe 687b 833d 6ec7 723e 4690 5e3e
00000220: 2ce7 3c3e ed7e 8abe 8ca0 91bd 36d3 86be
00000230: 0921 c2be 7655 3bbe 571f 95be 2881 29bf
00000240: c4c5 343e 0d9c 19bf c4f5 9fbe fde2 f13e
00000250: e51f 8fbe ce08 2bbe 3d54 0f3f c899 06bf
00000260: 0a8f c5bd ac49 163f 029c dbbe 8252 c8bd
00000270: d134 15bf 78d1 413e a22a c2be 4be6 053f
00000280: e4dd 2cbf aec9 1c3f fb5b fcbd 2aa3 933d
00000290: c068 953e ebe7 21be 7095 fdbd dbc6 7dbe
000002a0: 8698 09bd 291a 103f 8057 27bd 471c aebc
000002b0: 8f4f 92bf 95f3 0fbe 9750 3cbd be9d a4bc
000002c0: cdc6 9ebd 24d7 7b3e 6227 70be 58e3 f9bd
000002d0: 6402 02be 2b7e bfbd 4b88 ba3e c675 aa3d
000002e0: fa0b 013f 3c87 08be 4c43 153e 46f8 013e
000002f0: f7ef 94be e479 a63e 325b 94be ee4c 1d3e
00000300: a2e1 693e 4ab7 32bf 35c9 65bf c09a d0bc
00000310: f1ea 613e be3b d33e 195c b0be a0ee 26be
00000320: d05d 4b3f df02 0b3f a43d 0cbe 52ba f0be
00000330: 9549 ffbe 972b c23e 4e3c f73d edad a53f
00000340: d9ca 66bd eaa6 39bf 3a97 90bd 759f 853e
00000350: e9c3 ed3e 57fe 7bbe 546b c53e 7dda c53d
00000360: 523e 8ebe 9987 4b3e b97b 023d 93f0 b9be
00000370: 6c7f e5be a798 593e caba 02bf 3ab2 a63e
00000380: ac12 593e 4175 9bbe 864c d63d b10b 2cbf
00000390: f12a 01bf 76f8 c53e e649 7b3e 8e67 f9be
000003a0: ce62 2dbd f032 a4be f1a4 9fbe d3e8 46be
000003b0: e516 0f3f 689f c03e 47e2 a5bd 9bdc b23e
000003c0: 9587 ad3e 59e2 183e 39bc 9dbe 9e56 c33d
000003d0: d3ad e7be c8e7 253f e56e 963e 04d8 98be
000003e0: 9ac3 96be c2ac 59be 919a 7dbd dd76 c5bd
000003f0: 8813 abbd 8836 05bf 87a4 ee3e ca25 d03d
0.26507768 -0.09089897 -0.10547115 0.4199223 -0.2923881 0.9381093 -0.55075574 0.74558634
0.077393085 -0.26797903 -0.5229393 -0.26882568 -0.16020836 0.20118426 0.34165522 0.34015775
-0.61405313 -0.7944421 -0.119341046 -0.3017941 0.33326128 -0.0039442894 -0.08639053 -0.26354343
0.27057728 -0.5788464 -0.07886918 -0.06812613 -0.2523826 0.8550465 -0.4725361 0.15014125
-0.18177381 0.29725114 -0.16971427 0.21280557 0.30244607 0.32939446 0.32154694 0.1756723
0.36475247 0.30115402 0.12834273 0.01780654 0.18407565 0.061258566 0.45382255 0.09572519
-0.030143559 -0.65800947 -0.42217442 0.7657841 -0.17237484 0.5931941 0.38138178 -0.25288877
-0.7392689 0.42460582 -0.74242914 -0.45611668 0.59494656 -0.3900662 -0.41694686 -0.7033196
0.12587444 0.5809823 -0.4023834 -0.74187607 -0.518151 0.6801187 0.251429 -0.66004884
0.49260277 -0.25897926 0.16182698 0.14338176 0.3908086 -0.38075387 -0.075062156 -0.8090465
0.6243475 -0.3479794 0.33504516 -1.0713857 -0.00026830522 -0.6520977 0.082877904 -0.026570953
0.21943028 0.43815705 0.17074469 0.23282641 0.3328858 0.6087772 0.80575216 0.20901592
0.27228862 -0.39262408 -0.08460283 -0.5900612 -0.737366 -0.2233286 -0.67401594 0.25376308
0.4610774 0.1687457 0.34653834 0.2237161 -0.12372727 0.1614266 0.2136839 -0.057612855
0.26604158 0.0804026 0.69143075 -0.11251158 -0.2876092 -0.34453425 -0.29405174 0.25792903
0.5277452 1.0338166 0.44408813 -0.66826177 0.14561628 -0.060573176 0.3977555 0.4178648
-0.25096405 0.29834008 -0.059463367 0.62430173 -0.22981259 0.06420022 0.23708889 0.21734723
0.1844756 -0.27049962 -0.071107 -0.26333016 -0.3791583 -0.1829432 -0.29125473 -0.662127
0.17653567 -0.6000374 -0.31242192 0.4724349 -0.2795402 -0.16702577 0.5598791 -0.525784
-0.09646423 0.58706164 -0.42892462 -0.09781362 -0.58283716 0.18927562 -0.3792315 0.52304524
-0.6752608 0.6124524 -0.123222314 0.072088555 0.2918148 -0.15811126 -0.123820186 -0.24782889
-0.033592723 0.5628992 -0.04085493 -0.021253718 -1.1430529 -0.14057763 -0.045975294 -0.020094749
-0.07752762 0.24593788 -0.23452523 -0.122015655 -0.12696224 -0.093502365 0.36432108 0.08323245
0.504089 -0.13332838 0.14576453 0.12692365 -0.2908933 0.3251487 -0.28975827 0.15361378
0.22839978 -0.69810927 -0.8976014 -0.025464416 0.2206228 0.41256517 -0.34445265 -0.16301966
0.7944002 0.54301256 -0.13695389 -0.4701715 -0.49860826 0.3792388 0.12072049 1.2943703
-0.056345794 -0.72520316 -0.07060094 0.2609822 0.4643853 -0.24608742 0.38558447 0.09660814
-0.27781922 0.19875945 0.031856272 -0.36316356 -0.44823778 0.21249638 -0.5106627 0.3255785
0.21198529 -0.30362895 0.104638144 -0.6720534 -0.5045615 0.38666123 0.24539909 -0.48711818
-0.042330556 -0.32070112 -0.31180528 -0.19424753 0.5589431 0.37621617 -0.080997996 0.34933934
0.33892503 0.14930095 -0.30807665 0.09538005 -0.45249805 0.64806795 0.2938148 -0.29852307
-0.29446107 -0.21257308 -0.061914984 -0.09641812 -0.08353335 -0.52036333 0.466099 0.10163458

network_body._body_endoder.seq_layers.0.bias f4 [128]
00000000: 0000 0000 0000 0000 0000 0000 0000 0000
00000010: 0000 0000 0000 0000 0000 0000 0000 0000
00000020: 0000 0000 0000 0000 0000 0000 0000 0000
00000030: 0000 0000 0000 0000 0000 0000 0000 0000
00000040: 0000 0000 0000 0000 0000 0000 0000 0000
00000050: 0000 0000 0000 0000 0000 0000 0000 0000
00000060: 0000 0000 0000 0000 0000 0000 0000 0000
00000070: 0000 0000 0000 0000 0000 0000 0000 0000
00000080: 0000 0000 0000 0000 0000 0000 0000 0000
00000090: 0000 0000 0000 0000 0000 0000 0000 0000
000000a0: 0000 0000 0000 0000 0000 0000 0000 0000
000000b0: 0000 0000 0000 0000 0000 0000 0000 0000
000000c0: 0000 0000 0000 0000 0000 0000 0000 0000
000000d0: 0000 0000 0000 0000 0000 0000 0000 0000
000000e0: 0000 0000 0000 0000 0000 0000 0000 0000
000000f0: 0000 0000 0000 0000 0000 0000 0000 0000
00000100: 0000 0000 0000 0000 0000 0000 0000 0000
00000110: 0000 0000 0000 0000 0000 0000 0000 0000
00000120: 0000 0000 0000 0000 0000 0000 0000 0000
00000130: 0000 0000 0000 0000 0000 0000 0000 0000
00000140: 0000 0000 0000 0000 0000 0000 0000 0000
00000150: 0000 0000 0000 0000 0000 0000 0000 0000
00000160: 0000 0000 0000 0000 0000 0000 0000 0000
00000170: 0000 0000 0000 0000 0000 0000 0000 0000
00000180: 0000 0000 0000 0000 0000 0000 0000 0000
00000190: 0000 0000 0000 0000 0000 0000 0000 0000
000001a0: 0000 0000 0000 0000 0000 0000 0000 0000
000001b0: 0000 0000 0000 0000 0000 0000 0000 0000
000001c0: 0000 0000 0000 0000 0000 0000 0000 0000
000001d0: 0000 0000 0000 0000 0000 0000 0000 0000
000001e0: 0000 0000 0000 0000 0000 0000 0000 0000
000001f0: 0000 0000 0000 0000 0000 0000 0000 0000
0.0 0.0 0.0 0.0 0.0 0.0 0.0 0.0
0.0 0.0 0.0 0.0 0.0 0.0 0.0 0.0
0.0 0.0 0.0 0.0 0.0 0.0 0.0 0.0
0.0 0.0 0.0 0.0 0.0 0.0 0.0 0.0
0.0 0.0 0.0 0.0 0.0 0.0 0.0 0.0
0.0 0.0 0.0 0.0 0.0 0.0 0.0 0.0
0.0 0.0 0.0 0.0 0.0 0.0 0.0 0.0
0.0 0.0 0.0 0.0 0.0 0.0 0.0 0.0
0.0 0.0 0.0 0.0 0.0 0.0 0.0 0.0
0.0 0.0 0.0 0.0 0.0 0.0 0.0 0.0
0.0 0.0 0.0 0.0 0.0 0.0 0.0 0.0
0.0 0.0 0.0 0.0 0.0 0.0 0.0 0.0
0.0 0.0 0.0 0.0 0.0 0.0 0.0 0.0
0.0 0.0 0.0 0.0 0.0 0.0 0.0 0.0
0.0 0.0 0.0 0.0 0.0 0.0 0.0 0.0
0.0 0.0 0.0 0.0 0.0 0.0 0.0 0.0

network_body._body_endoder.seq_layers.2.weight f4 [128, 128]
00000000: 309e 223d 532d 7cbd 8ebc 02be 25b7 313d
00000010: 761a ddbd 6c37 55bd d09e 52bd d8d8 9a3e
00000020: e634 453e 4fbc ff3d 94ed 903d 5687 f73c
00000030: a5a3 283e d1b2 92bd 63eb 09be 31a0 2e3d
00000040: 42cc d63d ce5a d0ba c013 2c3d 8c63 87bd
00000050: 9128 1abd d5e3 b1bd 3873 453d 6865 8abd
00000060: 97e2 0ebe be27 be3d ed8d 683d 7f1d 0e3e
00000070: aa13 7e3d 5e0f 243b 51eb 62bd 0c96 d3bd
00000080: 7d7a 163d 058b 073e eb31 54bd c086 febd
00000090: a7a5 083d 4ce8 d4bd 4e48 02be 3365 45be
000000a0: 091c 83bd 74fa c63c 5998 ecbc e9f6 483c
000000b0: d126 dcbd 3533 b3bd d4d6 613d feaf 03be
000000c0: feca 513d 424e a93c 5cd2 ca3b f9bf d83c
000000d0: bf7e a7bd d01b da3d c937 9e3d 1721 f43c
000000e0: c210 91bd 229e af3d 6f6e 59bd 8b1b 373e
000000f0: 25ab 6ebd dfe4 61bd 3b05 7e3d 9353 133c
00000100: 8cbe 5cbd 27fa 653d dfc5 c13d 134d d83c
00000110: 966f 8eb9 f4f7 25bd 814d d63c b02b d2bc
00000120: 79f3 2cbe 69f6 12be 5baf 6a3d 7e98 7b3d
00000130: 40e9 403e 151f aa3d b838 21be e1dd 233e
00000140: ce65 333d f9e6 10be 27e7 f6bd eeae c63c
00000150: 2bc8 f93d bf9c 07bd 7d2b b23d ac32 01bd
00000160: 0f20 7abd 2f88 14bd 805e 323c adf8 4d3d
00000170: 8e1d eebd c290 503d 424d f3bc bae4 db3d
00000180: 2c48 233d 66e0 8d3d 9454 b8bd f2f1 263e
00000190: d9de 89bc 8cab ec3c 1b7e 43be c626 db3c
000001a0: 05db 023d 5eb3 83bd 6530 8a3d 5411 17be
000001b0: 014f 8838 8c72 2fbe b6bd 043c a751 95bb
000001c0: 97bf 4ebd 3457 2f3d 8fb0 89bd 4708 e9bd
000001d0: 220c 0f3e e659 8e3d 848f 76bb 10ee a3bd
000001e0: ad61 8dbb 8194 00bd 3a50 563e 112a 5e3d
000001f0: 53f6 3bbe c30a a6bd f048 81bd 37dc 703d
00000200: 0d10 3a3e 4433 77bd 6e89 513d c59e 1c3d
00000210: 37e9 f63d e544 f23c 4849 19bd 5c8f 47bd
00000220: cccc 04be 8f36 7ebd 0e26 c63d 1fd9 403d
00000230: 5dd7 8c3c b6bb 1e3d a3f9 47bd 4560 07be
00000240: 07d8 b93d e660 ae3c d6b9 263d d065 7abe
00000250: b887 7dbd 9e1a 4a3c b39a c9bc 8c0f 523d
00000260: 97af bdb8 ff83 233d b350 b9bc b280 a6bc
00000270: 33d2 653d 76a6 a1bd ee52 253e 3b0d 353c
00000280: a9fa d6bd 4a44 003c f69b 4cbd 5f7a 0dbe
00000290: f56d 18bd b5c8 72bd cf4f b43c 70fc f8bc
000002a0: dd05 7e3d b693 c33a 0125 f83c 8534 333c
000002b0: 95f8 f4bd bfb4 e53d 9660 843d ce33 acbb
000002c0: da16 ec3c 74fe 1a3c 87de e83c c6cc b93b
000002d0: e136 113e bd41 00be e106 38bd 423f 2f3e
000002e0: c9ed 6c3e 4d2d 653d c136 21bd fb72 0b3e
000002f0: 5a58 31be a495 81bd 4077 0abd 083b b03d
00000300: e9cf 6fbd 7e6e 20be 3fb3 9bbd 53ee 76bd
00000310: 5aaa 3a3d b4e9 b6bd 0818 a03d 6c23 0c3d
00000320: f200 cd3d 9122 e63d 30ce 913d 89a6 be3d
00000330: 38a7 ba3d 334d ea3c 76cd e6bd efd0 353d
00000340: 0e0c c9bd ae49 bc3d b5e0 7fbd cd0c 94bc
00000350: c47a 31bc 2062 e5bd 4b7e 283c 651d b6bd
00000360: 4653 a8bc b9f9 f03c a928 e83d c267 183d
00000370: dae7 523c 2af8 b23d 16fe b0bd e0bd f33d
00000380: 4851 17bb 9e52 43bc 9f66 863b 7d55 20bd
00000390: 1013 533d 6a00 323e df1a b6bd 3de5 5abd
000003a0: 6e8c ecbd 5cfa 843c 956f a63d 977d bb3d
000003b0: a583 34bd f31d e7bd da4f 34bd 2294 c4bc
000003c0: 957b 68be 66c7 143d a1f4 dbbc 598f 5abd
000003d0: 81fb cc3b b6f4 3a3d a774 ba3c e3f0 02bb
000003e0: 152b 7bbc 8a2c 843d fd66 cf3c 33a8 893c
000003f0: b959 183d eb8f 1bbc 72cf 943d a89f 10bb
0.03970164 -0.061566662 -0.1276724 0.04338755 -0.10796063 -0.052054808 -0.051420987 0.30243564
0.1925846 0.12487089 0.070765644 0.0302159 0.16468675 -0.07163013 -0.13468699 0.04263324
0.10488178 -0.0015896203 0.042011023 -0.06610784 -0.037636343 -0.08686034 0.048205584 -0.06757623
-0.13953625 0.09284924 0.056775976 0.1387844 0.06203047 0.0025033574 -0.055400196 -0.103313535
0.036737908 0.13236625 -0.051805418 -0.12428045 0.033361103 -0.103958696 -0.12722895 -0.19276886
-0.06401832 0.024289347 -0.028881239 0.012265899 -0.10749591 -0.08750001 0.055136517 -0.12860104
0.05121898 0.020667199 0.0061896276 0.026458727 -0.08178472 0.10649836 0.07725484 0.029800935
-0.070832744 0.08575083 -0.053083833 0.178816 -0.058268685 -0.05514991 0.062016707 0.008992094
-0.053892657 0.056146767 0.09461569 0.02640394 -0.0002716749 -0.04051967 0.026160004 -0.025655597
-0.16889752 -0.1435181 0.05729614 0.061424725 0.18838978 0.0830671 -0.15744293 0.16002609
0.04379826 -0.14150609 -0.120558076 0.024253335 0.12196382 -0.03310847 0.08699701 -0.031542465
-0.06106573 -0.036262687 0.010886788 0.050285984 -0.11626731 0.0509193 -0.029699925 0.107369855
0.03986375 0.06927566 -0.09000507 0.16303232 -0.016829895 0.028890394 -0.19091074 0.026751887
0.031947155 -0.06430696 0.06747512 -0.14752704 6.499701e-05 -0.1713354 0.008101871 -0.004556853
-0.050475683 0.042807773 -0.06723129 -0.11378532 0.13969472 0.069507405 -0.0037622163 -0.08004391
-0.0043146224 -0.031391624 0.20929042 0.054239336 -0.18355684 -0.081075214 -0.0631274 0.058803763
0.18170185 -0.060351625 0.051156454 0.038237352 0.12056201 0.029573867 -0.037423402 -0.048720703
-0.12968749 -0.06206375 0.09675227 0.047082063 0.017192537 0.038753234 -0.048822057 -0.13220318
0.09074407 0.02128644 0.04070457 -0.24452901 -0.06189701 0.012335448 -0.0246099 0.051284358
-9.0449284e-05 0.039920803 -0.022621488 -0.020325039 0.056108665 -0.07893078 0.16144916 0.011050518
-0.104970284 0.007828781 -0.049953423 -0.13816212 -0.03721424 -0.05927344 0.022010712 -0.03039381
0.06201731 0.0014921341 0.030291082 0.010937815 -0.11961476 0.11216115 0.06463735 -0.005255199
0.02881949 0.00946008 0.028426422 0.005670163 0.14181091 -0.12525077 -0.044928435 0.17113975
0.23137583 0.055951405 -0.039358858 0.1361808 -0.1731886 -0.0632737 -0.033805132 0.08605009
-0.058547888 -0.1566715 -0.07602548 -0.060285877 0.045572616 -0.08931294 0.078170836 0.03421347
0.10009946 0.11237062 0.07119405 0.09309108 0.09113926 0.028601265 -0.11269657 0.044388708
-0.098167524 0.09193741 -0.062470157 -0.01807251 -0.010832492 -0.112003565 0.010284017 -0.08892325
-0.02054752 0.029415952 0.1133588 0.037208326 0.0128726605 0.0873874 -0.08642213 0.1190145
-0.002308922 -0.011921553 0.004101589 -0.039144028 0.05153185 0.1738297 -0.08891844 -0.053441275
-0.11550222 0.016232662 0.08126751 0.09154814 -0.04407086 -0.11285009 -0.044021465 -0.023996416
-0.22703393 0.036322974 -0.026850047 -0.053359363 0.0062555675 0.04564353 0.022760702 -0.0019980005
-0.015330096 0.06453808 0.025317663 0.016803836 0.03719494 -0.009494762 0.072661296 -0.0022067819

network_body._body_endoder.seq_layers.2.bias f4 [128]
00000000: 0000 0000 0000 0000 0000 0000 0000 0000
00000010: 0000 0000 0000 0000 0000 0000 0000 0000
00000020: 0000 0000 0000 0000 0000 0000 0000 0000
00000030: 0000 0000 0000 0000 0000 0000 0000 0000
00000040: 0000 0000 0000 0000 0000 0000 0000 0000
00000050: 0000 0000 0000 0000 0000 0000 0000 0000
00000060: 0000 0000 0000 0000 0000 0000 0000 0000
00000070: 0000 0000 0000 0000 0000 0000 0000 0000
00000080: 0000 0000 0000 0000 0000 0000 0000 0000
00000090: 0000 0000 0000 0000 0000 0000 0000 0000
000000a0: 0000 0000 0000 0000 0000 0000 0000 0000
000000b0: 0000 0000 0000 0000 0000 0000 0000 0000
000000c0: 0000 0000 0000 0000 0000 0000 0000 0000
000000d0: 0000 0000 0000 0000 0000 0000 0000 0000
000000e0: 0000 0000 0000 0000 0000 0000 0000 0000
000000f0: 0000 0000 0000 0000 0000 0000 0000 0000
00000100: 0000 0000 0000 0000 0000 0000 0000 0000
00000110: 0000 0000 0000 0000 0000 0000 0000 0000
00000120: 0000 0000 0000 0000 0000 0000 0000 0000
00000130: 0000 0000 0000 0000 0000 0000 0000 0000
00000140: 0000 0000 0000 0000 0000 0000 0000 0000
00000150: 0000 0000 0000 0000 0000 0000 0000 0000
00000160: 0000 0000 0000 0000 0000 0000 0000 0000
00000170: 0000 0000 0000 0000 0000 0000 0000 0000
00000180: 0000 0000 0000 0000 0000 0000 0000 0000
00000190: 0000 0000 0000 0000 0000 0000 0000 0000
000001a0: 0000 0000 0000 0000 0000 0000 0000 0000
000001b0: 0000 0000 0000 0000 0000 0000 0000 0000
000001c0: 0000 0000 0000 0000 0000 0000 0000 0000
000001d0: 0000 0000 0000 0000 0000 0000 0000 0000
000001e0: 0000 0000 0000 0000 0000 0000 0000 0000
000001f0: 0000 0000 0000 0000 0000 0000 0000 0000
0.0 0.0 0.0 0.0 0.0 0.0 0.0 0.0
0.0 0.0 0.0 0.0 0.0 0.0 0.0 0.0
0.0 0.0 0.0 0.0 0.0 0.0 0.0 0.0
0.0 0.0 0.0 0.0 0.0 0.0 0.0 0.0
0.0 0.0 0.0 0.0 0.0 0.0 0.0 0.0
0.0 0.0 0.0 0.0 0.0 0.0 0.0 0.0
0.0 0.0 0.0 0.0 0.0 0.0 0.0 0.0
0.0 0.0 0.0 0.0 0.0 0.0 0.0 0.0
0.0 0.0 0.0 0.0 0.0 0.0 0.0 0.0
0.0 0.0 0.0 0.0 0.0 0.0 0.0 0.0
0.0 0.0 0.0 0.0 0.0 0.0 0.0 0.0
0.0 0.0 0.0 0.0 0.0 0.0 0.0 0.0
0.0 0.0 0.0 0.0 0.0 0.0 0.0 0.0
0.0 0.0 0.0 0.0 0.0 0.0 0.0 0.0
0.0 0.0 0.0 0.0 0.0 0.0 0.0 0.0
0.0 0.0 0.0 0.0 0.0 0.0 0.0 0.0

action_model._continuous_distribution.mu.weight f4 [1, 128]
00000000: f3ec 3abc c876 a2ba 884d dc3a 081f 74bc
00000010: b3be 503c d4d5 313c 8f35 adbc 968c 8a3a
00000020: 1112 c63b bf26 9d3c b3c2 a0bc 154b cdbc
00000030: 15c3 52bc a8e6 ae3b 58ff 4cbc b741 c9ba
00000040: aa99 e4bc 7764 883b 2f05 4b3c db84 c9bb
00000050: 282a 64ba abd9 a53c cff4 d03c 473d 13bb
00000060: 58f6 38ba a3e3 7a3c 9eee 863c 9f94 863b
00000070: 4511 f43b 8b10 43bc 11cb 09ba 7f81 54bc
00000080: 171f c1bc b79a 1c3d e8a9 b6bb 0fb4 413c
00000090: 8cc3 8ebc 4850 153c ff02 2e3b e7d6 05bb
000000a0: 69a2 8bbc e13e a1bc 577a 533c 1713 293c
000000b0: d79f 8bbb 3d12 f4ba 0543 a63c fcd2 18bc
000000c0: 2333 beba b3e8 97bb 5d3f 5bbb 9289 2c3c
000000d0: d455 8a3a de51 8f38 7a18 5c3b 1f59 20bb
000000e0: 304d dcbb ab4f de3b 6700 55bc 3760 1ebc
000000f0: 2552 6cbc 6bfb d0ba 422c 7fbc 602c 313c
00000100: ad66 6e3c 85e6 d5b9 77af d6bb 2fb9 d43b
00000110: d87a 22bc 6499 073c 4bdb f6bc 70ca f1bb
00000120: 9eaf 383b dda7 ed3b c0a2 08bb 15b6 23bc
00000130: 5491 993c 1437 943c c091 eb3c d4dd c0bc
00000140: 13aa b6bb ab57 b93b e950 1d3c b50b 12bc
00000150: aa56 02bc db90 08bc 1a60 26b9 9f55 053d
00000160: ab99 4a3c 3702 e43c 4f80 c23b 2c2b 8e3c
00000170: 3334 86bc 40f9 4a3c c2aa 17bc 4277 bb3b
00000180: 7da3 1a3c f862 8dbc cc8e 3f3c 7387 f73b
00000190: e316 40bc 4331 b13c d5a8 15bc a5f1 cfb9
000001a0: 01b7 9a3c 9851 e23c d4b2 20ba 21b2 b53a
000001b0: a7a8 83bb f409 493c 02a3 893c fa72 bbbb
000001c0: 2fa2 933c 1c94 b93c af51 c6ba dda8 b73a
000001d0: d0e1 3cbc b067 16bc 54e7 ab3b fa1c e5bb
000001e0: 9a5c 383b 0e4a 31bc e59d bd3c 12da debb
000001f0: f81b 12bc cabf d4bb a21b afbc f67b b53b
-0.011409032 -0.0012395019 0.0016807774 -0.014899977 0.012740779 0.010854203 -0.021143703 0.0010570462
0.006044634 0.019183515 -0.01962409 -0.025060216 -0.012863894 0.005337555 -0.012512051 -0.0015354668
-0.027905304 0.004162367 0.012391373 -0.006149871 -0.00087037915 0.020245394 0.025507359 -0.0022466944
-0.0007055751 0.015313062 0.016471203 0.0041070725 0.0074483478 -0.0119058 -0.00052563945 -0.012970327
-0.023574395 0.038233485 -0.0055744536 0.0118227145 -0.017427228 0.009113379 0.0026552079 -0.0020422281
-0.017045217 -0.019683303 0.012907586 0.010319493 -0.0042609978 -0.0018621158 0.02029563 -0.009327646
-0.001451109 -0.004635894 -0.0033454516 0.010530846 0.0010554143 6.83402e-05 0.0033583925 -0.0024467183
-0.0067230687 0.0067843995 -0.013000584 -0.009666494 -0.014423882 -0.0015944069 -0.015574517 0.0108138025
0.014550847 -0.00040798276 -0.0065516788 0.006491802 -0.009916984 0.008276317 -0.030133864 -0.0073788688
0.0028180848 0.007252677 -0.002084896 -0.009992142 0.018746056 0.01809267 0.028756022 -0.023543276
-0.0055744736 0.005656203 0.00960181 -0.008913924 -0.007955233 -0.0083353175 -0.00015866794 0.032552358
0.012365739 0.027833087 0.0059357057 0.01735457 -0.016382312 0.012388527 -0.00925702 0.0057210037
0.009438393 -0.017259106 0.01169176 0.0075539886 -0.011724207 0.021629935 -0.009134491 -0.00039662156
0.018886091 0.027626798 -0.0006130163 0.0013862291 -0.0040179077 0.012270439 0.016801361 -0.0057204934
0.018021671 0.022653632 -0.0015130545 0.0014012117 -0.011528447 -0.009179994 0.0052460823 -0.0069919797
0.0028131367 -0.010820879 0.023146579 -0.0068008984 -0.008917801 -0.0064925896 -0.021375481 0.005538459

network_body._body_endoder.seq_layers.0.weight f4 [128, 6]
00000000: 9a53 36bf e38f a23e 12c1 42be 815a d93e
00000010: 5512 1d3c 5f9a 7f3e 09db 093f 14fe a7be
00000020: f91c f0bd 8d77 26be d355 503f 4dce b6be
00000030: 8968 323f 666a 27bf 97ae acbe 764f 9dbe
00000040: 72fb f1bd b887 c4bd 527e 06bf 2deb a5be
00000050: ea95 7e3e d95a 363e af7f 29bf 93ef 4abe
00000060: b03b b9be cdb1 4cbf f5a3 0bbd e82e 33be
00000070: f099 8ebc 748f e4be b2d3 ccbe 4229 48be
00000080: 31db 3f3e 01c3 223f 7df7 4ebf 316b 623e
00000090: 5829 35be 89ac 773f 97dc 503e d99e c23d
000000a0: fb89 dd3c b5c1 de3e 32ba fa3e 6f58 8cbd
000000b0: 7b89 ea3d b522 88be 54e5 f43d 718b 303e
000000c0: c729 6a3f 2679 9a3f 7384 893e 414b b5be
000000d0: d5f9 1f3d 7cf2 70be c800 d0be 8240 963d
000000e0: 704a 2c3e 0f37 03bd 0d2d 4c3d de51 173e
000000f0: dcaa d0bc 34d6 70be 9b98 5c3e 9633 f0be
00000100: abe4 053e 75f8 76bf 3d30 273f 7200 573f
00000110: 25a6 323e ab46 d8be 03f6 b1be a094 0a3e
00000120: 7371 95be 077f a73e 4d5b 7dbe c93d 18be
00000130: 2a6c 913e f418 d93e e5dc 68be 0346 303e
00000140: 662d cfbb 3f92 04bf 5828 10be d31b 97be
00000150: 89c7 34bf f97d 84be 3652 2ebe 7830 043e
00000160: 7319 87be de57 a83e 1d3e 833e c69c 563e
00000170: 620b 5fbc d2b5 c53e fbb0 62be 41e0 333e
00000180: f197 96bc 35c0 41bf 4e31 83bf 0f7e 253f
00000190: d92e 16bf 7926 8d3e d72b 803e d5de 903e
000001a0: 81d5 8a3e 6d4c 39bf 1532 3b3f 52f8 283e
000001b0: 8132 d5be 4e61 2d3e c02d a0bc e5fb 84bd
000001c0: cb94 6d3e 6324 3bbe 3289 1c3e eae9 fbbd
000001d0: dfa7 adbe cec1 dabe 3c2b e93d 4755 ad3d
000001e0: 03c9 84bc 44cb 453d 441f f5be 0206 653e
000001f0: f043 c0be d2a4 b1be 5a9f 6d3e fd8d 45bf
00000200: 3f57 78be 8efb ce3c 8167 583f 5253 cc3e
00000210: a967 5ebd 616b 863e 9250 67be db12 6f3f
00000220: 0582 bcbe 11c0 d2be 58ab 9d3a 2397 e83c
00000230: 2541 d53e 78fa a3be 89d3 1c3f d4b9 b4be
00000240: 4439 153e 1237 fabe 5e3d 92be 4451 083e
00000250: feee c83e f948 8d3b 126e 41be 2635 88be
00000260: c199 823e a4be 283e 96f4 873e 5441 adbd
00000270: 04cd fc3e a369 2dbe 609d ccbd 90c3 ac3f
00000280: 9a9c d8be 761d 7a3e 8939 40be 7591 60be
00000290: e4d0 10bf bd8f a13e 5673 febe c8fe 253f
000002a0: 71eb debd 3c66 97be 169d 223e 1830 473e
000002b0: 5cb5 aa3d 55de 783e 1dea 423f f5a1 f9bd
000002c0: d2d0 74be a7c2 bf3c 1a3b 153e f4bc 2fbf
000002d0: aa8e 00bd 4e49 b8be 413f 8a3e dcb6 b1be
000002e0: 546c 46bf 304e fdbd 98be 7bbc d35f 643f
000002f0: 7f89 043e 748e 443f 8173 813e 6c1a 00be
00000300: 4975 a7be 2786 233b 0e91 17bf 9b74 dbbe
00000310: 7f14 e23e f30c bfbe a08c b0be 4ede 2f3f
00000320: 2aad 063d 326c 933e 90c0 70bf 6f27 c9be
00000330: bcd5 c4be 26b5 1bbe 0541 c73d 71be 83be
00000340: 373b debe 4122 04bf e60a 303e 01d8 b13c
00000350: 9d9f d6be dd23 09bf b245 443e 7e45 083f
00000360: e288 543e 5657 36bf 7942 b2bd 7767 30bf
00000370: a5f5 28bf 9d66 653f 871e 213f eb36 6a3e
00000380: 59c6 e73e 1f51 2a3e ea7e 0abf 8a52 5e3f
00000390: 6a66 093f f217 933c 924b 673c 1a40 8d3d
000003a0: 54d1 aabe c67c 45bf d84d c23e 9d2c 46be
000003b0: 752f 913e cdca 22be 282f e73e 5346 fa3c
000003c0: 672c 3cbf 9ba7 0c3e 3f46 bbbe 2c66 41bf
000003d0: d2f4 15be 3afa a4be 27ce 54bc e3dc cd3e
000003e0: 1de7 20bf 0a76 703e c780 adbd 112a 91bf
000003f0: 9872 f0be acad 913d 1b2a 07be 40b9 a33d
-0.71221316 0.31750402 -0.19018963 0.42451862 0.00958689 0.24961232 0.53849846 -0.32811034
-0.11724276 -0.16256543 0.8138096 -0.3570427 0.6969076 -0.65396726 -0.3372695 -0.30724686
-0.118155375 -0.09596199 -0.525365 -0.32405987 0.24861875 0.17808093 -0.66210455 -0.19817953
-0.3617835 -0.799588 -0.03409191 -0.17498362 -0.017407387 -0.44640696 -0.4000526 -0.19546989
0.18735959 0.635788 -0.8084639 0.22111203 -0.17691553 0.9674764 0.20396648 0.09502954
0.027043333 0.43507162 0.4897018 -0.06852805 0.114520036 -0.2658898 0.11957803 0.17240693
0.9147 1.2068222 0.26858863 -0.35408977 0.039056618 -0.2353 -0.40625596 0.07336523
0.1682527 -0.03203493 0.04984765 0.14777324 -0.025472097 -0.23519212 0.2154259 -0.46914357
0.13075511 -0.96472865 0.6530798 0.83985054 0.17446192 -0.42241415 -0.34758005 0.13533258
-0.29188117 0.32714102 -0.2474186 -0.14867319 0.28402835 0.4240185 -0.22740515 0.17214207
-0.0063225506 -0.51785654 -0.1407789 -0.29513416 -0.70616966 -0.2587736 -0.17023548 0.12909114
-0.26386604 0.32879537 0.25633326 0.20958242 -0.013613554 0.3861528 -0.22137825 0.17566015
-0.018382998 -0.7568391 -1.0249422 0.64645475 -0.58665234 0.27568415 0.25033447 0.28295007
0.27116016 -0.7238224 0.73123294 0.16500977 -0.41640094 0.1693165 -0.019553065 -0.064933576
0.23201291 -0.18275599 0.15286711 -0.12300475 -0.33917138 -0.42725986 0.113851994 0.08463531
-0.016209131 0.048289552 -0.47875416 0.22365573 -0.37551832 -0.3469606 0.23205319 -0.7716978
-0.24252032 0.025266435 0.84532934 0.39907318 -0.054298077 0.262538 -0.22589329 0.93388146
-0.36817947 -0.4116216 0.0012029214 0.02839238 0.41651264 -0.3202703 0.6126028 -0.35298026
0.14572626 -0.4887014 -0.28562444 0.1331225 0.39244837 0.0043116775 -0.18889645 -0.2660305
0.2550793 0.16478974 0.26553792 -0.08459726 0.49375165 -0.16934828 -0.099909544 1.3497181
-0.42306978 0.24425301 -0.18771948 -0.21930487 -0.5656874 0.31554976 -0.4969737 0.6484189
-0.10884751 -0.29570186 0.15880236 0.1945194 0.08335373 0.24303563 0.7613848 -0.12189094
-0.23907784 0.023408247 0.14573327 -0.68647695 -0.031386055 -0.35993427 0.27001384 -0.34709823
-0.77509046 -0.12368429 -0.015365265 0.89208716 0.12943076 0.76779866 0.25283435 -0.12510079
-0.3270667 0.0024951787 -0.5920571 -0.428624 0.44156262 -0.37314567 -0.34482288 0.68698585
0.032879986 0.28793484 -0.9404383 -0.39287898 -0.38444316 -0.15205821 0.09729198 -0.25731233
-0.43404552 -0.5161477 0.17191657 0.021709444 -0.4191865 -0.5357035 0.19167212 0.53231037
0.20755342 -0.71227014 -0.08704085 -0.68907875 -0.65999824 0.896097 0.62937206 0.22872512
0.45268515 0.16632508 -0.54099905 0.86844695 0.53671896 0.017955754 0.014117138 0.06896992
-0.3336283 -0.77143514 0.37950015 -0.19352956 0.2835652 -0.15897675 0.45153165 0.030551111
-0.7350525 0.13735811 -0.3657703 -0.75546527 -0.14644173 -0.32222158 -0.012988604 0.40207586
-0.6285265 0.23482528 -0.08471828 -1.1340963 -0.46962428 0.071132034 -0.13199656 0.07994318

network_body._body_endoder.seq_layers.0.bias f4 [128]
00000000: 0000 0000 0000 0000 0000 0000 0000 0000
00000010: 0000 0000 0000 0000 0000 0000 0000 0000
00000020: 0000 0000 0000 0000 0000 0000 0000 0000
00000030: 0000 0000 0000 0000 0000 0000 0000 0000
00000040: 0000 0000 0000 0000 0000 0000 0000 0000
00000050: 0000 0000 0000 0000 0000 0000 0000 0000
00000060: 0000 0000 0000 0000 0000 0000 0000 0000
00000070: 0000 0000 0000 0000 0000 0000 0000 0000
00000080: 0000 0000 0000 0000 0000 0000 0000 0000
00000090: 0000 0000 0000 0000 0000 0000 0000 0000
000000a0: 0000 0000 0000 0000 0000 0000 0000 0000
000000b0: 0000 0000 0000 0000 0000 0000 0000 0000
000000c0: 0000 0000 0000 0000 0000 0000 0000 0000
000000d0: 0000 0000 0000 0000 0000 0000 0000 0000
000000e0: 0000 0000 0000 0000 0000 0000 0000 0000
000000f0: 0000 0000 0000 0000 0000 0000 0000 0000
00000100: 0000 0000 0000 0000 0000 0000 0000 0000
00000110: 0000 0000 0000 0000 0000 0000 0000 0000
00000120: 0000 0000 0000 0000 0000 0000 0000 0000
00000130: 0000 0000 0000 0000 0000 0000 0000 0000
00000140: 0000 0000 0000 0000 0000 0000 0000 0000
00000150: 0000 0000 0000 0000 0000 0000 0000 0000
00000160: 0000 0000 0000 0000 0000 0000 0000 0000
00000170: 0000 0000 0000 0000 0000 0000 0000 0000
00000180: 0000 0000 0000 0000 0000 0000 0000 0000
00000190: 0000 0000 0000 0000 0000 0000 0000 0000
000001a0: 0000 0000 0000 0000 0000 0000 0000 0000
000001b0: 0000 0000 0000 0000 0000 0000 0000 0000
000001c0: 0000 0000 0000 0000 0000 0000 0000 0000
000001d0: 0000 0000 0000 0000 0000 0000 0000 0000
000001e0: 0000 0000 0000 0000 0000 0000 0000 0000
000001f0: 0000 0000 0000 0000 0000 0000 0000 0000
0.0 0.0 0.0 0.0 0.0 0.0 0.0 0.0
0.0 0.0 0.0 0.0 0.0 0.0 0.0 0.0
0.0 0.0 0.0 0.0 0.0 0.0 0.0 0.0
0.0 0.0 0.0 0.0 0.0 0.0 0.0 0.0
0.0 0.0 0.0 0.0 0.0 0.0 0.0 0.0
0.0 0.0 0.0 0.0 0.0 0.0 0.0 0.0
0.0 0.0 0.0 0.0 0.0 0.0 0.0 0.0
0.0 0.0 0.0 0.0 0.0 0.0 0.0 0.0
0.0 0.0 0.0 0.0 0.0 0.0 0.0 0.0
0.0 0.0 0.0 0.0 0.0 0.0 0.0 0.0
0.0 0.0 0.0 0.0 0.0 0.0 0.0 0.0
0.0 0.0 0.0 0.0 0.0 0.0 0.0 0.0
0.0 0.0 0.0 0.0 0.0 0.0 0.0 0.0
0.0 0.0 0.0 0.0 0.0 0.0 0.0 0.0
0.0 0.0 0.0 0.0 0.0 0.0 0.0 0.0
0.0 0.0 0.0 0.0 0.0 0.0 0.0 0.0

network_body._body_endoder.seq_layers.2.weight f4 [128, 128]
00000000: 63d3 173d 93a9 d3bd 306a a63d 3fa1 eebc
00000010: 6061 0a3e c5c2 e43d 45b2 00be b581 c2bd
00000020: 5201 df3c a152 0c3e 56b4 83bd 9546 67bd
00000030: d799 74bb 7da3 493c b295 903d 5405 523d
00000040: b6e0 dc3d b85a 1dbd 39d3 32be 7cd6 06be
00000050: 7adf ae3d fba2 d7bc cb7b ef3d 4d8f 8fbd
00000060: 64e8 11bd e4a4 203e f7b5 e7bd 7f9b 60bd
00000070: 35d4 523d 0887 31bd ddba c6bd 0ae6 033d
00000080: b320 1b3d f4b6 aabd dd51 413d b3fd c73d
00000090: 21fe 65bd 0f4b 02bb dee1 403e 3b12 a83d
000000a0: 5726 86bb 4fc1 20bd c32d c3bd 53e1 223d
000000b0: e65c ff39 12d5 9fbd e527 b5bd b0b8 efb8
000000c0: 7e0a b73d 1aea f93c db78 1fbe 280e dc3d
000000d0: 0d6b 97bd c426 3b3d 623f 9ebb cd5c a73c
000000e0: 3ac9 ae3c c9a3 39bd ea4a 983c 707e 48bb
000000f0: 0de9 483a 39be d23d 45b4 33bc 47d3 413c
00000100: 6ce6 00bd 75d2 ad3d 781c cf3c 3673 bdbd
00000110: a321 f23c fd69 113e 1763 75bd 769e ab3a
00000120: e675 4abd 52c4 2cbe cd6d f93c f20a 843d
00000130: 590c fa3d 3d21 ef3d 81b9 d93c 4efc f93d
00000140: 2c64 0e3e 7864 36bc 7555 91be e61c 65bc
00000150: be58 1d3d 2f5d 0fbe fbf9 a33c 5d08 07bc
00000160: 46e2 debc 7f95 9e3d 7fc8 b2bd cad5 d93d
00000170: 3a42 303d 3582 593e ea92 3f3c 07b8 22bd
00000180: f63e 0c3e 6c83 31be 0f08 4dbd 3761 96bd
00000190: 03f5 6f3d f82d 80bb 4ba2 d13b 36be 08bc
000001a0: 086f cbbd 2f07 4fbb 05cc 9c3d c1f5 39be
000001b0: 2218 b0bc 22f2 18bc ec52 aabd 8f2b 9b3b
000001c0: adda c03c 2814 19be 9168 0bbd a2d2 563d
000001d0: 796c 2a3d 71a4 7b3d e30c 88bd 6374 64bc
000001e0: ce4b 2cb9 f94f 3c3e 97fc 12bd b0ab 95bd
000001f0: 2845 6abd 795f a2bd c5bf ef3d 19f8 d3bc
00000200: 34aa a7bd 6023 79bd c6f6 c9bd 1e78 783d
00000210: 881b 9f3d 74cf b43d b9fc 49bd 17ae 72be
00000220: ecee c0bd 5bf8 a4bd 4de2 0ebe b8c5 033e
00000230: 8188 0ebe 0d3c d4bd c226 dc3d bf05 0cbe
00000240: 4a26 c8bd 6aa5 f5bd f9b9 963d d323 da3d
00000250: a92a 313d 72d3 2e3e 26b3 85bd 4d53 113e
00000260: d7eb 5abd 708a 5dbd 8b92 873d 3ad8 013d
00000270: c1ca 3ebd a512 25bd eb76 a3bc ecac 893a
00000280: 3154 cebc beab c5bd c582 063d db9d 623b
00000290: 4a4c 06bd 28f0 6f3d b954 cfbd 96d4 a03c
000002a0: 22df a53c 6464 0ebd 007e 263a 1b60 efbc
000002b0: de19 2d3d d443 033c 5868 0ebc 9a53 55be
000002c0: 3e44 383e 58ea 0e3e a13e a33d a37a 5abc
000002d0: b164 33bd a36e 1d3d 3437 dbbd d560 503d
000002e0: 8808 b7bc 7df4 30bd 3be7 2bbd 443f c43d
000002f0: dec8 a33b 4062 16be 020b ecbc 088f d83d
00000300: be5a 8abc 7361 39bd eb93 cb3d c48b 90bd
00000310: 200d de3d 2a84 d5bd bb7d b5bd 1b23 99bd
00000320: ae91 b43d 6dd4 0fbe d3f5 613d 6c39 1b3c
00000330: 4d23 bc3d 0054 dcbd 322e 20be 10fa d23c
00000340: ab99 28be cb3c 23be 711e 28be 2887 083d
00000350: 9ec2 c2bd a91f 0ebd 829c c33d 5d97 083d
00000360: 2b69 3d3d de76 e33d eb60 90bd 354d 9abc
00000370: efff a53b 845e e3bd cc19 a13d 3821 183e
00000380: d4e7 ebbd 0227 cb3d f88c 84bd e88b a1bd
00000390: 6016 e5bd ce49 3e3c feca 87bd 424e 173e
000003a0: 5c97 88bd a7e7 c6bc 4ed0 f23d 1b9f 74bd
000003b0: cd02 86bc e1fe 4ebd 7913 1dbc aefe 1e3c
000003c0: bc6d babc 191d 973c 806e 18be 94fd d13d
000003d0: a954 72bd 0706 f3bd b690 eabd 56a5 2bbc
000003e0: 5323 d53d 6606 303d 3319 153e bf07 033e
000003f0: ced6 76bd 250a b0bd d322 233d 5393 48be
0.03706683 -0.10335078 0.081257224 -0.029129623 0.13513708 0.11169962 -0.12568004 -0.09497396
0.02722231 0.13703395 -0.06430881 -0.056463797 -0.003732314 0.012307045 0.07059802 0.051274613
0.10785048 -0.038416594 -0.17463388 -0.13167757 0.085387185 -0.026322832 0.116935335 -0.07009754
-0.035622016 0.15687901 -0.11314004 -0.054835793 0.051471908 -0.043341666 -0.0970361 0.032201804
0.03787298 -0.08335677 0.04719721 0.09765186 -0.05615056 -0.0019881164 0.18836161 0.08206602
-0.004093926 -0.039246853 -0.09530213 0.039765667 0.00048706605 -0.07804312 -0.088455 -0.00011430809
0.08937548 0.030507136 -0.15573446 0.107448876 -0.07393465 0.045691267 -0.004829333 0.020429993
0.021336187 -0.045322213 0.01859041 -0.003059294 0.0007664122 0.10290188 -0.010968273 0.011830158
-0.031469747 0.08487407 0.02528213 -0.0925049 0.029557055 0.14200588 -0.059908953 0.001309349
-0.049428843 -0.16871765 0.030447865 0.064474 0.122093864 0.116762616 0.026577713 0.122063264
0.139054 -0.011132352 -0.2838551 -0.013983941 0.03841471 -0.1400039 0.02001666 -0.00824174
-0.027207505 0.07743358 -0.08729648 0.1063648 0.04303191 0.21241076 0.011692742 -0.039726283
0.13695893 -0.1733529 -0.050056513 -0.07342761 0.05858327 -0.00391173 0.0063975207 -0.008346131
-0.09933287 -0.0031589975 0.07656101 -0.18160154 -0.021495882 -0.009335073 -0.08316597 0.004735417
0.023541773 -0.14949095 -0.03403527 0.05244697 0.041607354 0.06143612 -0.06643083 -0.013943764
-0.00016431438 0.18389882 -0.03588542 -0.073081374 -0.05719486 -0.07928366 0.11706499 -0.025875138
-0.081867605 -0.06082475 -0.098615214 0.060661428 0.07768923 0.08828631 -0.04931328 -0.23699223
-0.09420571 -0.080551825 -0.13953514 0.12868392 -0.1391926 -0.10363016 0.1074958 -0.13674067
-0.09772928 -0.11994441 0.0735969 0.10651364 0.043253575 0.17072847 -0.065283105 0.14191933
-0.05344757 -0.054087102 0.06619748 0.03170035 -0.04658008 -0.040300984 -0.019954165 0.0010503805
-0.02518663 -0.09651898 0.032839555 0.0034578952 -0.0327876 0.05857864 -0.101235814 0.019632619
0.020248 -0.03476371 0.0006351173 -0.029220631 0.042260997 0.008011777 -0.00869187 -0.20832673
0.17994782 0.13956583 0.0797093 -0.013334903 -0.0437972 0.03843559 -0.107038885 0.050873596
-0.022342935 -0.043201912 -0.041968565 0.095823795 0.0049983105 -0.14685917 -0.028813843 0.10574156
-0.016888972 -0.04525895 0.099403225 -0.07057908 0.10842347 -0.10425599 -0.08861872 -0.07477399
0.08816849 -0.14045878 0.055166077 0.00947414 0.091864206 -0.10758209 -0.15642622 0.025754005
-0.1646487 -0.1594116 -0.16417862 0.03333202 -0.095097765 -0.034698162 0.09551336 0.033347476
0.046242874 0.111066565 -0.07049736 -0.018835643 0.00506591 -0.11102012 0.078662485 0.14856422
-0.11518827 0.099195495 -0.064722 -0.07888013 -0.11185908 0.011614276 -0.066305146 0.14775947
-0.066694945 -0.024280382 0.11856137 -0.059722047 -0.016358757 -0.05053604 -0.009587162 0.009704275
-0.022757404 0.018446492 -0.14885902 0.10253444 -0.05916277 -0.11866384 -0.11453383 -0.010476431
0.10407128 0.042974852 0.14560394 0.12795924 -0.060263447 -0.08595685 0.039828133 -0.1958745

network_body._body_endoder.seq_layers.2.bias f4 [128]
00000000: 0000 0000 0000 0000 0000 0000 0000 0000
00000010: 0000 0000 0000 0000 0000 0000 0000 0000
00000020: 0000 0000 0000 0000 0000 0000 0000 0000
00000030: 0000 0000 0000 0000 0000 0000 0000 0000
00000040: 0000 0000 0000 0000 0000 0000 0000 0000
00000050: 0000 0000 0000 0000 0000 0000 0000 0000
00000060: 0000 0000 0000 0000 0000 0000 0000 0000
00000070: 0000 0000 0000 0000 0000 0000 0000 0000
00000080: 0000 0000 0000 0000 0000 0000 0000 0000
00000090: 0000 0000 0000 0000 0000 0000 0000 0000
000000a0: 0000 0000 0000 0000 0000 0000 0000 0000
000000b0: 0000 0000 0000 0000 0000 0000 0000 0000
000000c0: 0000 0000 0000 0000 0000 0000 0000 0000
000000d0: 0000 0000 0000 0000 0000 0000 0000 0000
000000e0: 0000 0000 0000 0000 0000 0000 0000 0000
000000f0: 0000 0000 0000 0000 0000 0000 0000 0000
00000100: 0000 0000 0000 0000 0000 0000 0000 0000
00000110: 0000 0000 0000 0000 0000 0000 0000 0000
00000120: 0000 0000 0000 0000 0000 0000 0000 0000
00000130: 0000 0000 0000 0000 0000 0000 0000 0000
00000140: 0000 0000 0000 0000 0000 0000 0000 0000
00000150: 0000 0000 0000 0000 0000 0000 0000 0000
00000160: 0000 0000 0000 0000 0000 0000 0000 0000
00000170: 0000 0000 0000 0000 0000 0000 0000 0000
00000180: 0000 0000 0000 0000 0000 0000 0000 0000
00000190: 0000 0000 0000 0000 0000 0000 0000 0000
000001a0: 0000 0000 0000 0000 0000 0000 0000 0000
000001b0: 0000 0000 0000 0000 0000 0000 0000 0000
000001c0: 0000 0000 0000 0000 0000 0000 0000 0000
000001d0: 0000 0000 0000 0000 0000 0000 0000 0000
000001e0: 0000 0000 0000 0000 0000 0000 0000 0000
000001f0: 0000 0000 0000 0000 0000 0000 0000 0000
0.0 0.0 0.0 0.0 0.0 0.0 0.0 0.0
0.0 0.0 0.0 0.0 0.0 0.0 0.0 0.0
0.0 0.0 0.0 0.0 0.0 0.0 0.0 0.0
0.0 0.0 0.0 0.0 0.0 0.0 0.0 0.0
0.0 0.0 0.0 0.0 0.0 0.0 0.0 0.0
0.0 0.0 0.0 0.0 0.0 0.0 0.0 0.0
0.0 0.0 0.0 0.0 0.0 0.0 0.0 0.0
0.0 0.0 0.0 0.0 0.0 0.0 0.0 0.0
0.0 0.0 0.0 0.0 0.0 0.0 0.0 0.0
0.0 0.0 0.0 0.0 0.0 0.0 0.0 0.0
0.0 0.0 0.0 0.0 0.0 0.0 0.0 0.0
0.0 0.0 0.0 0.0 0.0 0.0 0.0 0.0
0.0 0.0 0.0 0.0 0.0 0.0 0.0 0.0
0.0 0.0 0.0 0.0 0.0 0.0 0.0 0.0
0.0 0.0 0.0 0.0 0.0 0.0 0.0 0.0
0.0 0.0 0.0 0.0 0.0 0.0 0.0 0.0

value_heads.value_heads.extrinsic.weight f4 [1, 128]
00000000: 371f 2c3e d058 cbbc 2016 cdbd 5bf7 38be
00000010: e28d 323b 55d3 30be ad68 983d de9e 56be
00000020: 3df5 68bc dea4 5abd 7e8e a93d 125e 3cbe
00000030: 08f0 d1bd c30d 3dbd 2268 1bbe 7b6b 3fbe
00000040: 4ac2 90bd 8979 2e3e dffe 2bbe 3847 e93d
00000050: bd62 d6bd 88a7 0abd 5112 f8bd c0e5 033e
00000060: 4d49 0abe 69f0 16be b3bd 543e 4387 1e3e
00000070: 62e1 8f3d 6a47 d2bc d243 3dbe 8e29 a5bc
00000080: 1068 2f3e 940e 033e 6044 0039 a0c0 07be
00000090: 0714 4e3e 8a7e 05be 3cae fabd 0137 d6bc
000000a0: 2dde 13be ec8a 2ebd 9371 16be 5b80 20be
000000b0: c7f1 473e f188 2e3d 996b 13bd 5e46 efbd
000000c0: 2218 62bd e891 39be fbd0 dd3d f669 003e
000000d0: 6a9d c13d 62e4 f73d 7c0f e13d d517 d23d
000000e0: b600 20bd 991e f03d 13af 0bbe 89e5 1fbe
000000f0: 02e5 9a3d 4210 683d ff4c 063e a31a 94bd
00000100: c09b 4bbe 416c 593e 36e7 a93d 1b05 533e
00000110: 3c31 2c3e f4fb 70bd 1ea3 3d3e 0a7a 4f3e
00000120: a161 1bbe 6745 9abc ce60 4ebe 64db 32be
00000130: db4c 013e 70cf ae3d d589 7cbd 36aa c33d
00000140: eb5c 22be 3700 1e3e ec91 143e 028f b33d
00000150: e828 25be f0e9 173e 932e 16be 8639 183e
00000160: 3bb7 4e3e e253 d9bd 8143 ddbc 7dd5 36bd
00000170: 783f cb3a 3ca0 2e3c fd26 dfbd e6d1 ac3c
00000180: e076 cf3d 7693 973d 4463 8b3d 9e05 0d3e
00000190: 72d1 263d 8b8d fb3d ff8a d8bd 1fe3 38bd
000001a0: d5af ffbd 0ba8 45bd 960c 2bbe 0370 96bd
000001b0: 4755 1bbb 891a 4fbe 79b4 d83d ddc6 86bd
000001c0: 71e5 0fbd 7a29 a4bd 421b 05be 9325 2bbd
000001d0: 587c 0b3e 5363 233e c804 f93d e800 063e
000001e0: be63 343e b721 11bd da8f 85bd 328c 123e
000001f0: 4179 7cbd 593c 323e 96c7 32bd e253 993c
0.16808783 -0.024822623 -0.10013986 -0.18063109 0.0027245213 -0.17268117 0.0744184 -0.2095904
-0.014218626 -0.053379886 0.08279131 -0.1839526 -0.102508605 -0.046155702 -0.15176442 -0.18693344
-0.07068308 0.1703855 -0.16796444 0.11390537 -0.104680516 -0.033851177 -0.121128686 0.12880611
-0.13504525 -0.14740147 0.2077549 0.15481286 0.0702541 -0.025668819 -0.18482903 -0.020161416
0.1712954 0.1279853 0.00012232503 -0.13257074 0.20124827 -0.13036552 -0.12240264 -0.026149275
-0.14440222 -0.042612955 -0.14691763 -0.15673964 0.19525824 0.042611066 -0.035991285 -0.11683343
-0.055198796 -0.18122065 0.108308755 0.12540421 0.094538525 0.121041074 0.109892815 0.10258452
-0.039063178 0.11724586 -0.13641004 -0.15614904 0.07563211 0.05665613 0.13115309 -0.07231643
-0.19883633 0.21232702 0.08296053 0.20607416 0.16815656 -0.05883403 0.18519256 0.20261398
-0.15173961 -0.018831922 -0.20154116 -0.17466503 0.12626974 0.08535659 -0.061654884 0.095539495
-0.15855758 0.1542977 0.1450879 0.08767511 -0.16128886 0.14835334 -0.14666204 0.14865693
0.20187084 -0.106117025 -0.027009727 -0.044637192 0.0015506586 0.01065832 -0.10896108 0.021096181
0.101300955 0.07401173 0.06806043 0.13771674 0.040727086 0.122828566 -0.105733864 -0.045138475
-0.12484709 -0.04825596 -0.1670402 -0.07345583 -0.0023701952 -0.20224966 0.105812974 -0.06580899
-0.03513092 -0.080157235 -0.1299868 -0.04178388 0.13621652 0.15955858 0.12159115 0.13086283
0.17616174 -0.035432544 -0.06521578 0.14311293 -0.061639074 0.17405833 -0.04364737 0.018716756
