Shortcut Run/results/LEVEL1/Move/Move-400.pt (torch, 149007 bytes, 10 tensors)

network_body._body_endoder.seq_layers.0.weight f4 [128, 6]
00000000: bd03 713f 8b87 223f 2e0f 13be b752 073f
00000010: 568b 81bd 5a1e 21be aabd 0dbf 3209 fcbe
00000020: 86ea b83e cae6 d83d 6933 a6bd 255c 34bd
00000030: 7b8e 153f d2c9 523e e88a 643f 22ac 793e
00000040: 964e 0dbf 254e 833f a691 083d a89d 0b3e
00000050: 6fd4 393f c0f5 c23e 1883 f13e 77e7 29bf
00000060: 2af2 07bd 435f d23e f108 c2bc 49fc 873f
00000070: e639 51bf 562d 24bf e227 f13e d77f 84be
00000080: 7529 383e a61c 39bf 240c 4cbf 8814 573e
00000090: b04b 093f 8812 a1be 71c4 c03d 2c45 b1be
000000a0: a064 1cbf 1448 a63e 594f 18bf 847b 873e
000000b0: a6bb dbbd 26c6 583e 67d6 03be 46d7 fd3d
000000c0: 1abf 733e 9566 9b3e 34f8 373e e194 39be
000000d0: 8f64 513d b870 6c3e 53f2 0bbe 41d7 f9be
000000e0: c02f bf3e 961a b13e 23aa 82be 364f fbbe
000000f0: f5d5 21bf 34a1 0ebf f06d c53a 2b89 c6bd
00000100: d7ec 32be 87e8 733d 7b48 16bf d4ec 1dbe
00000110: 3125 b13e d768 5fbf fef5 2f3f 9c2b 0ebf
00000120: 5ab6 aa3e f224 693e bddc f3bd 852a 41bf
00000130: b1ff 843e d6cb 5cbe 25f2 a33d 6b49 c8be
00000140: c971 b23e f48f 4bbf 73b3 64bf 2468 e03d
00000150: ad14 58bf 8e4c 84be 9f7d 1abe 328c 903e
00000160: 61a1 d93e 22de 523f ba93 75bf d1b1 afbe
00000170: f152 173c ee04 e03e f78a 42be 22ff ffbd
00000180: 647e c5bc aac3 18bf 1d05 c9bd 29ee e23e
00000190: 9e5a 4e3e 1217 d2bd 544c a63d 804b 5f3e
000001a0: 41d8 3bbf 0493 9abd 535a 5d3f 4ffe a63e
000001b0: 966c 3cbf d0a5 b8be 92ec 1e3f af68 ff3a
000001c0: f51e a0bd d61f 83be 1621 f23d 7b6a 423e
000001d0: dcc6 aabe 4a20 e53d 9979 573e cabb bbbe
000001e0: cc42 823e 2cbd 2d3e ab8f 4a3e ed5e a53e
000001f0: 473e e6bd b540 21bf 0149 57be 8259 15be
00000200: f407 1ebe 2fda 123f af93 29bd cd67 dabe
00000210: 189e db3e e4a9 74be 40c1 e33e be91 5a3f
00000220: 1a17 993e 96fc b93d 496a 0d3e 0b97 293f
00000230: 8014 5b3e 1499 adbe c303 b53c dcca 203e
00000240: 0f08 c3bd 6133 2d3f 7c19 283f 5d53 d9bd
00000250: 0903 7dbc 17ce 953e d3d4 ce3c c151 49bf
00000260: 2f34 633e 67ae a13e e766 073f ec90 483e
00000270: e982 b4be 1227 bf3e c665 4dbf 3f23 b63d
00000280: b42d 303e be8e 403f 599f f13e 3551 f3be
00000290: bbaa 95be 6b03 08be cb87 e93e 87f0 dcbd
000002a0: f8f4 87be 8722 d2be 90ad 64be 7cd4 0d3e
000002b0: 47f0 553e fe52 353f 8948 413f 3edc 04bf
000002c0: 13b5 60be 835a 97bd efd0 563e 937c 843f
000002d0: 61bb 32be 5426 cdbe e65e 0ebf 1eee 963e
000002e0: 7680 f73e 3910 3abd 3e7d 39bf 5db0 67bd
000002f0: 85f2 abbc 36de b4bf cfe2 7a3d fce4 2ebf
00000300: 7690 57bf 1757 29bd 3352 2dbf 841c ef3e
00000310: 5d10 8b3e acd7 ba3e f50e 49be add5 08bf
00000320: b4c3 d23d f3ad d9be 46b2 13bd 54b5 13be
00000330: 3443 c5be a33c 153e 7ef1 163d 6065 383f
00000340: 60d4 57be 9cef 403f 46b8 373f e789 8dbf
00000350: a843 2e3f ec08 ec3d f162 9c3d ef27 cbbe
00000360: 7683 2f3f 4174 08be edbe 253f ce54 a1bd
00000370: 75a0 42bd b757 67bf b592 46be e588 00be
00000380: 3da7 10bf e5b0 7d3d 1020 febe e2f1 3fbe
00000390: 1789 aa3f b7bd cfbe 131e b2be 54ac 2f3e
000003a0: d67f ec3d 290b 38be 7706 9fbe d519 4ebe
000003b0: 80f0 113f 42e0 96be 0175 30bf 2718 9ebd
000003c0: e911 dbbd 1f5a 563f ee52 4a3e 4b95 8b3f
000003d0: 5cc1 8b3e 9442 c7be b936 17bf 46e4 543e
000003e0: eac6 22bf 4af3 d4bc 893f 053e fdf7 613d
000003f0: ef6a 353f 6811 9cbd 84b5 813e ce97 60bc
0.9414633 0.6348807 -0.1436126 0.5286059 -0.06325404 -0.15734234 -0.5536753 -0.49225765
0.36116427 0.105908945 -0.081152745 -0.04403319 0.5842053 0.20584801 0.89274454 0.2438207
-0.5519804 1.0258223 0.033342026 0.1363436 0.7258977 0.38078117 0.4717033 -0.6636881
-0.03318993 0.41088304 -0.023685904 1.0623866 -0.8172897 -0.6413168 0.4710074 -0.25878784
0.17984565 -0.7230934 -0.79706025 0.21003926 0.53631115 -0.3145945 0.09412468 -0.34623086
-0.6109104 0.32476866 -0.59496075 0.26461422 -0.107291505 0.21169338 -0.12874757 0.12394576
0.23803368 0.303517 0.17965776 -0.18123199 0.05112129 0.23089874 -0.13666658 -0.48797038
0.37341118 0.34590596 -0.2552043 -0.4908387 -0.632171 -0.55714726 0.0015062671 -0.096941315
-0.1747316 0.059547927 -0.58704346 -0.15422374 0.34598687 -0.8726935 0.6873473 -0.5553529
0.33342248 0.22768 -0.11907337 -0.75455505 0.25976327 -0.21562132 0.0800517 -0.39118513
0.34852436 -0.7951653 -0.8933632 0.10957363 -0.8440655 -0.25839657 -0.15086983 0.2823196
0.42505935 0.823702 -0.9592854 -0.3431535 0.009236083 0.4375376 -0.18998323 -0.124998346
-0.02410812 -0.5967356 -0.098154284 0.44322327 0.20151755 -0.102583066 0.08120027 0.21806145
-0.7337685 -0.07547572 0.8646595 0.32615897 -0.7360319 -0.36064005 0.6207973 0.0019486154
-0.078184046 -0.25610226 0.11822717 0.18985932 -0.33354843 0.11187799 0.2104248 -0.3666671
0.25441587 0.16966695 0.19781367 0.32298985 -0.11242347 -0.6298936 -0.21023943 -0.14584926
-0.15432721 0.5736417 -0.041400608 -0.4265732 0.42894053 -0.23892933 0.44483376 0.85378635
0.29900438 0.0908138 0.13810076 0.662461 0.21394539 -0.33905852 0.02209652 0.15702385
-0.095230214 0.67656523 0.65663886 -0.106116034 -0.015442618 0.29258797 0.025247967 -0.7864037
0.22187875 0.3157837 0.5289139 0.19586533 -0.35256127 0.37334496 -0.8023342 0.088934414
0.17204934 0.7521781 0.47191885 -0.47522894 -0.2923182 -0.13282554 0.45611414 -0.107880645
-0.26554084 -0.41041967 -0.22331834 0.13850588 0.2089244 0.7082976 0.75501305 -0.5189856
-0.21944074 -0.073903106 0.2097814 1.0350517 -0.17454292 -0.40068305 -0.55613554 0.29478544
0.48340195 -0.045425627 -0.7245673 -0.056564678 -0.020989666 -1.4130313 0.061251458 -0.6831815
-0.84204805 -0.04134282 -0.6770355 0.46701443 0.27160922 0.3649267 -0.19634612 -0.53451043
0.10291234 -0.42515525 -0.036058687 -0.1442464 -0.38527834 0.14573912 0.0368514 0.72029686
-0.21077108 0.75365615 0.71765554 -1.105771 0.68071985 0.11525139 0.07636059 -0.39678904
0.6855997 -0.13325597 0.64744455 -0.07877503 -0.047516305 -0.9036822 -0.19391902 -0.12552221
-0.56505185 0.061936278 -0.49633837 -0.18744615 1.3323087 -0.40574428 -0.3478857 0.17155582
0.1154782 -0.17973007 -0.3105962 -0.20127042 0.570076 -0.2946797 -0.68928534 -0.077194504
-0.106967755 0.83731264 0.19758198 1.0904936 0.2729596 -0.38917983 -0.59067875 0.20790204
-0.6358477 -0.025994916 0.13012518 0.05516814 0.7086629 -0.076205075 0.25333798 -0.013708068

network_body._body_endoder.seq_layers.0.bias f4 [128]
00000000: 0000 0000 0000 0000 0000 0000 0000 0000
00000010: 0000 0000 0000 0000 0000 0000 0000 0000
00000020: 0000 0000 0000 0000 0000 0000 0000 0000
00000030: 0000 0000 0000 0000 0000 0000 0000 0000
00000040: 0000 0000 0000 0000 0000 0000 0000 0000
00000050: 0000 0000 0000 0000 0000 0000 0000 0000
00000060: 0000 0000 0000 0000 0000 0000 0000 0000
00000070: 0000 0000 0000 0000 0000 0000 0000 0000
00000080: 0000 0000 0000 0000 0000 0000 0000 0000
00000090: 0000 0000 0000 0000 0000 0000 0000 0000
000000a0: 0000 0000 0000 0000 0000 0000 0000 0000
000000b0: 0000 0000 0000 0000 0000 0000 0000 0000
000000c0: 0000 0000 0000 0000 0000 0000 0000 0000
000000d0: 0000 0000 0000 0000 0000 0000 0000 0000
000000e0: 0000 0000 0000 0000 0000 0000 0000 0000
000000f0: 0000 0000 0000 0000 0000 0000 0000 0000
00000100: 0000 0000 0000 0000 0000 0000 0000 0000
00000110: 0000 0000 0000 0000 0000 0000 0000 0000
00000120: 0000 0000 0000 0000 0000 0000 0000 0000
00000130: 0000 0000 0000 0000 0000 0000 0000 0000
00000140: 0000 0000 0000 0000 0000 0000 0000 0000
00000150: 0000 0000 0000 0000 0000 0000 0000 0000
00000160: 0000 0000 0000 0000 0000 0000 0000 0000
00000170: 0000 0000 0000 0000 0000 0000 0000 0000
00000180: 0000 0000 0000 0000 0000 0000 0000 0000
00000190: 0000 0000 0000 0000 0000 0000 0000 0000
000001a0: 0000 0000 0000 0000 0000 0000 0000 0000
000001b0: 0000 0000 0000 0000 0000 0000 0000 0000
000001c0: 0000 0000 0000 0000 0000 0000 0000 0000
000001d0: 0000 0000 0000 0000 0000 0000 0000 0000
000001e0: 0000 0000 0000 0000 0000 0000 0000 0000
000001f0: 0000 0000 0000 0000 0000 0000 0000 0000
0.0 0.0 0.0 0.0 0.0 0.0 0.0 0.0
0.0 0.0 0.0 0.0 0.0 0.0 0.0 0.0
0.0 0.0 0.0 0.0 0.0 0.0 0.0 0.0
0.0 0.0 0.0 0.0 0.0 0.0 0.0 0.0
0.0 0.0 0.0 0.0 0.0 0.0 0.0 0.0
0.0 0.0 0.0 0.0 0.0 0.0 0.0 0.0
0.0 0.0 0.0 0.0 0.0 0.0 0.0 0.0
0.0 0.0 0.0 0.0 0.0 0.0 0.0 0.0
0.0 0.0 0.0 0.0 0.0 0.0 0.0 0.0
0.0 0.0 0.0 0.0 0.0 0.0 0.0 0.0
0.0 0.0 0.0 0.0 0.0 0.0 0.0 0.0
0.0 0.0 0.0 0.0 0.0 0.0 0.0 0.0
0.0 0.0 0.0 0.0 0.0 0.0 0.0 0.0
0.0 0.0 0.0 0.0 0.0 0.0 0.0 0.0
0.0 0.0 0.0 0.0 0.0 0.0 0.0 0.0
0.0 0.0 0.0 0.0 0.0 0.0 0.0 0.0

network_body._body_endoder.seq_layers.2.weight f4 [128, 128]
00000000: e660 073c 6096 933c a353 f03d f8dc 533d
00000010: 4b17 05be b830 6f3d b84f c6bd eff4 70bc
00000020: facf 85bd 886e cebc 4b23 19be 0dcc 70ba
00000030: 96ca 39bc 062b 81bd 690e af3c 5f38 38bd
00000040: 27ce abbd ad0c d3bd 3315 1bbd a71f be3d
00000050: a7ba 0cbd 2c09 cc3d b632 c03d 1cf9 823d
00000060: a8a2 0cbd 00b7 c23d 1ab6 573d 05ab c5bd
00000070: 71fa 8abd c96e ba3d 5d87 fe3d 1e1f 06be
00000080: 1ef5 1d3e 363a 843c 6549 1ebe 6deb 5ebc
00000090: fb00 573e 3a3f 493c 6e29 9d3d ae9c 09bd
000000a0: bd70 da3d 87d2 0bbe c7e7 4e3d d666 153c
000000b0: 6266 22bc c309 1bbd 9fd2 403c 9cd8 6d3d
000000c0: f37b fc3d d8fe 7cbd c35e 053d 32c2 cabb
000000d0: 1f22 173d 1d3c 35be 02c7 30bd 9ab0 b03d
000000e0: 1ce5 e53d ea59 2bbe 02c7 873c 6eb0 35bd
000000f0: 8855 603d 2fa2 c5bd e43b 54bd 6913 453e
00000100: 4461 903c a335 853d fba4 c53d 5bc8 173d
00000110: c4f9 1c3e 1123 82bd 1a80 bbbc 9b6a 433c
00000120: 2322 a3bd 69a3 d33b d13c 07be 177d 193c
00000130: d102 243e b6a7 9b3d 10ae efbd 6dcf 0d3e
00000140: 6b00 8b3d ddb1 7c3d 464a a63d ac76 cdbd
00000150: bbb7 a13c 67f3 40be a548 17be 8a82 dfbc
00000160: 2f64 9fbd 590e 82bd ec62 193e 8447 49bd
00000170: 7b40 28bd 3400 05bd 8a46 b93c 5146 c6bd
00000180: 3028 233e f58f 5c3b 4040 14bd 3846 b43d
00000190: e9a9 ef3d 13b6 d13d b084 9fbc 73ed f63c
000001a0: e26f c93c 3a07 61bd 9a2a 08bd f9f9 bb3c
000001b0: 5bc8 30bd 4cf2 0f3c 1949 7c3d f6ea 82bd
000001c0: 7e52 2bbd 8a25 50bb 273e b3bd 33d0 ac3c
000001d0: c069 d93d 10ee 913a f4fd 4ebd 7359 08bd
000001e0: c12c 8ebd a5e7 293e 48aa bbbd 57e6 8ebc
000001f0: c839 e73d c7ad 0ebc 5678 7c3c 056e 363d
00000200: bef0 76be 60aa ca3d 9992 cfbc 1e8e c93d
00000210: 1029 103d 553e 113e 4ba8 e93b bd57 65bd
00000220: 514f 4ebc 2764 503d ed1f 0f3d 9bd9 4e3d
00000230: d5d6 4cbd 585e 85bd 19b5 413d 7dc2 0e3e
00000240: a1a6 dc3d db4a d0bb ef42 033d 4fef 1e3d
00000250: fd05 9dbd 6180 b8bd 9b22 fd3d 6fb9 323e
00000260: 365a f93d a47e c6bd 6467 48bd a6e9 05bd
00000270: c4bd 90bc 31e2 13bb ffbc 2a3c d1d0 febb
00000280: 187d a63d f9a4 6bbe 2907 53be bbfc 52bc
00000290: 1afe 0ebd a831 40bd 5692 d13b 31aa cb3c
000002a0: b61e 0d3d 5da1 89bc 0ded 4cbd a3bd 07be
000002b0: 0d37 62bc 1031 4c3d dcde f33c 07a9 a9bb
000002c0: cdb3 d43d 98e5 a83d 9f5b 8b3b 8ff7 07bc
000002d0: 9fad 18be f860 3dbd 7889 32be e67c ccbd
000002e0: 2416 1f3d 1e61 bdbd 6bb3 f0bd 707f 97bd
000002f0: d82c eabd f8a0 81bd 8cb2 9ebc c324 12be
00000300: ee8f 0c3e c94e ae3c dce8 333d 95b0 a1bd
00000310: 6d24 af3d fe85 553b dd2e b43d 5796 903c
00000320: 98d1 5abd 76b5 dabd 5a29 f83d a2c8 ffbb
00000330: 3505 253e eb16 443d dad4 f93d 3802 063d
00000340: c46c 743d ca83 133e 514e 623d d641 ecbd
00000350: c3a5 3a3d 183f 2d3e 80f8 19be 6963 dc3d
00000360: 282a a3bd 1b0a 223e f954 2cbe ec0d c83d
00000370: 9176 033e ff54 9b3d 3a26 73bd 86e8 b2bd
00000380: c692 a43d 70b6 edbd 5c73 023e 7a10 2f3e
00000390: 5917 0dbe 4f31 9fbd 93af fcbd 9aae b03c
000003a0: 8fac e33d 0cc2 00bb 05b4 f2bd ee8d 39bd
000003b0: a71f 1c3e 2a5b 583b 91f2 93bd 8a06 983c
000003c0: 28a1 77b9 8443 fcbd 91f8 fbbc 954d 08be
000003d0: d9bf a8bd cb26 013e 70d4 d63b 121a 1a3e
000003e0: 9d08 823d c4ac 083d 99d5 013d 5681 3f3e
000003f0: 8597 1d3e 9637 fc3d c554 0abc 2281 333c
0.0082628485 0.01801604 0.117347024 0.051724404 -0.12997167 0.05839607 -0.09683174 -0.014706834
-0.06533809 -0.02519919 -0.1495487 -0.00091856794 -0.011339804 -0.06307034 0.021369176 -0.044975635
-0.0838893 -0.10305152 -0.037862014 0.09283381 -0.034357693 0.09962687 0.09384672 0.0639517
-0.03433481 0.09507561 0.0526639 -0.0965176 -0.06786049 0.09103162 0.12428162 -0.13097808
0.15425536 0.016141038 -0.15457685 -0.013605935 0.20996468 0.012283141 0.07673918 -0.033596687
0.10666034 -0.13654529 0.05051401 0.009118756 -0.009912105 -0.037851106 0.011768966 0.058067903
0.12328329 -0.061766475 0.032561075 -0.0061877007 0.036897775 -0.17698713 -0.04315854 0.08627434
0.1122534 -0.16733518 0.016574387 -0.04435771 0.05476907 -0.09650075 -0.05181493 0.19245686
0.017624505 0.06504371 0.09650608 0.03705631 0.15329653 -0.06354345 -0.022888232 0.011927272
-0.079654954 0.006458689 -0.13206793 0.009368203 0.160167 0.07600348 -0.11703122 0.13848658
0.06787189 0.06169306 0.08119635 -0.100324005 0.01974093 -0.1884285 -0.14773805 -0.027283926
-0.077827804 -0.06350393 0.14979142 -0.04914047 -0.04107712 -0.032470897 0.022616643 -0.096813805
0.15933299 0.003365514 -0.036194086 0.08802456 0.1170233 0.10239806 -0.01947245 0.030142521
0.024589483 -0.054938532 -0.033243753 0.022946345 -0.043159824 0.008785795 0.06159315 -0.063924715
-0.041826718 -0.0031760656 -0.08752089 0.02109537 0.10615873 0.001113357 -0.050535157 -0.03328843
-0.0694213 0.16592272 -0.09163338 -0.017443819 0.11290318 -0.008708424 0.01540955 0.044538517
-0.24115273 0.09895778 -0.025338458 0.0984156 0.03519541 0.14183934 0.007130658 -0.055991877
-0.012592153 0.050876763 0.034942556 0.050500493 -0.050009567 -0.06512135 0.04729185 0.13941379
0.107739694 -0.0063565797 0.032046255 0.03880244 -0.07667158 -0.09008861 0.12360116 0.1745355
0.121754095 -0.096921235 -0.048926726 -0.032693528 -0.017668612 -0.002256524 0.010421037 -0.0077763577
0.081293285 -0.23012151 -0.206082 -0.012877638 -0.0349103 -0.046922356 0.0063956184 0.024861427
0.034453116 -0.016800577 -0.050030757 -0.13255934 -0.01380707 0.049851477 0.029769354 -0.0051776203
0.10385857 0.082469165 0.0042528654 -0.008298769 -0.14909981 -0.046235055 -0.17435253 -0.0998476
0.038839474 -0.09247039 -0.11752971 -0.07397354 -0.114343345 -0.063295305 -0.019372247 -0.14271836
0.1372678 0.021277802 0.043923244 -0.078950085 0.085518695 0.0032581086 0.08798001 0.017649813
-0.05342254 -0.10679142 0.12117262 -0.0078058997 0.16115268 0.04787342 0.12198801 0.03271696
0.05967404 0.14405742 0.05525047 -0.11535995 0.04556824 0.169186 -0.15036201 0.107611485
-0.07967025 0.15824167 -0.1682929 0.097682804 0.12838198 0.07584571 -0.059362628 -0.087357566
0.08035807 -0.11607063 0.12739319 0.17096129 -0.13778438 -0.07773077 -0.123381756 0.021567632
0.11116897 -0.001964691 -0.11850742 -0.04530137 0.1524645 0.0033013322 -0.07224 0.018557806
-0.00023615791 -0.12317565 -0.030758174 -0.13310845 -0.08239717 0.12612455 0.0065560862 0.15049008
0.06349299 0.033367887 0.031697843 0.18701681 0.15389831 0.1231529 -0.008443062 0.010956081

network_body._body_endoder.seq_layers.2.bias f4 [128]
00000000: 0000 0000 0000 0000 0000 0000 0000 0000
00000010: 0000 0000 0000 0000 0000 0000 0000 0000
00000020: 0000 0000 0000 0000 0000 0000 0000 0000
00000030: 0000 0000 0000 0000 0000 0000 0000 0000
00000040: 0000 0000 0000 0000 0000 0000 0000 0000
00000050: 0000 0000 0000 0000 0000 0000 0000 0000
00000060: 0000 0000 0000 0000 0000 0000 0000 0000
00000070: 0000 0000 0000 0000 0000 0000 0000 0000
00000080: 0000 0000 0000 0000 0000 0000 0000 0000
00000090: 0000 0000 0000 0000 0000 0000 0000 0000
000000a0: 0000 0000 0000 0000 0000 0000 0000 0000
000000b0: 0000 0000 0000 0000 0000 0000 0000 0000
000000c0: 0000 0000 0000 0000 0000 0000 0000 0000
000000d0: 0000 0000 0000 0000 0000 0000 0000 0000
000000e0: 0000 0000 0000 0000 0000 0000 0000 0000
000000f0: 0000 0000 0000 0000 0000 0000 0000 0000
00000100: 0000 0000 0000 0000 0000 0000 0000 0000
00000110: 0000 0000 0000 0000 0000 0000 0000 0000
00000120: 0000 0000 0000 0000 0000 0000 0000 0000
00000130: 0000 0000 0000 0000 0000 0000 0000 0000
00000140: 0000 0000 0000 0000 0000 0000 0000 0000
00000150: 0000 0000 0000 0000 0000 0000 0000 0000
00000160: 0000 0000 0000 0000 0000 0000 0000 0000
00000170: 0000 0000 0000 0000 0000 0000 0000 0000
00000180: 0000 0000 0000 0000 0000 0000 0000 0000
00000190: 0000 0000 0000 0000 0000 0000 0000 0000
000001a0: 0000 0000 0000 0000 0000 0000 0000 0000
000001b0: 0000 0000 0000 0000 0000 0000 0000 0000
000001c0: 0000 0000 0000 0000 0000 0000 0000 0000
000001d0: 0000 0000 0000 0000 0000 0000 0000 0000
000001e0: 0000 0000 0000 0000 0000 0000 0000 0000
000001f0: 0000 0000 0000 0000 0000 0000 0000 0000
0.0 0.0 0.0 0.0 0.0 0.0 0.0 0.0
0.0 0.0 0.0 0.0 0.0 0.0 0.0 0.0
0.0 0.0 0.0 0.0 0.0 0.0 0.0 0.0
0.0 0.0 0.0 0.0 0.0 0.0 0.0 0.0
0.0 0.0 0.0 0.0 0.0 0.0 0.0 0.0
0.0 0.0 0.0 0.0 0.0 0.0 0.0 0.0
0.0 0.0 0.0 0.0 0.0 0.0 0.0 0.0
0.0 0.0 0.0 0.0 0.0 0.0 0.0 0.0
0.0 0.0 0.0 0.0 0.0 0.0 0.0 0.0
0.0 0.0 0.0 0.0 0.0 0.0 0.0 0.0
0.0 0.0 0.0 0.0 0.0 0.0 0.0 0.0
0.0 0.0 0.0 0.0 0.0 0.0 0.0 0.0
0.0 0.0 0.0 0.0 0.0 0.0 0.0 0.0
0.0 0.0 0.0 0.0 0.0 0.0 0.0 0.0
0.0 0.0 0.0 0.0 0.0 0.0 0.0 0.0
0.0 0.0 0.0 0.0 0.0 0.0 0.0 0.0

action_model._continuous_distribution.mu.weight f4 [1, 128]
00000000: 5735 9b3c 5f62 ee3c f2be 09bd d895 8abb
00000010: fa98 efbb 2356 dfb9 43d1 91bc 174d 85bb
00000020: 9fc8 8ebb 9d7b 0fba 93f7 47bc 5fe2 be3c
00000030: efa5 2f3c f3e3 3cbc a441 a1bc 2ba7 813c
00000040: ce25 c5bc 1f87 363d db2b d63b 5f04 93bc
00000050: 970f 303c e79d 55bc 3f91 833a 932b d8bc
00000060: 1834 59bc 93b5 e33b 6ddc 6e3b 135a 153d
00000070: 92f4 e63b 2fad 813c 34f6 943c 9074 053c
00000080: ec6d 9cba 30c2 e1bc 09f5 abbb 12df ddbb
00000090: 0f5a 333d b74a c93b 9ffc 11bd 63c5 f23b
000000a0: 70d2 daba d79d f33b eb3f 1e3c 32b8 98bc
000000b0: 873e a9bc 6f0c 6cbc fee6 923c 3934 173d
000000c0: 4998 233c 9e75 8abc 9f5e 8abc 4753 67bc
000000d0: 4683 c73b c0ac 9cbc 3383 123d 3d3e 8f3c
000000e0: bac0 4bbc 8a7f 753c cd4c dc3c 1f3e 9c3c
000000f0: f8d9 c7bc ec15 043c 6532 27bd 85c9 843b
00000100: 4628 103c 0232 63bc 936a aebc 90c7 733c
00000110: 1926 083c d73f 9f3c af17 83bc 48bf 773c
00000120: 13dc 933c 97d2 1ebc ff0c 1b3d 2e11 803c
00000130: 5d65 7d3a cb48 a2bc 7b6c c63b 900f f13c
00000140: 02c4 74bb 6ba3 8e3c 48b1 e73a d7a7 b23c
00000150: 0435 a9bc 449e 0f3b 58e3 ee3b 8bb7 c2bb
00000160: e318 2bba d4c5 973b 0f67 1e3d f0fe 103c
00000170: 3bb8 a7bb bf5c 3f3b 025c e23b 87e3 f2bc
00000180: a85e 37bc 4fc8 aabb b21a 6cbc a492 a439
00000190: 87c7 513c a398 373c 4726 c6bb 84c2 8fbb
000001a0: 0057 da3b 6f23 13bb 58a0 7abc 867c b03b
000001b0: c22d 1cbb d753 363c 8583 273c 8f6d ca3c
000001c0: 5575 5cbb d2b1 76bc 6dd7 d039 408a 75bc
000001d0: a22b fd3b 22ec d9bb 154d fe3a 17a0 2f3c
000001e0: ea0a 0dbc f38e abbb 379a d13a d533 a43c
000001f0: fb49 f43b 927e 473c d30e e3bb de2e 083d
0.018946333 0.029099641 -0.033629365 -0.0042292885 -0.0073119374 -0.0004259805 -0.01779998 -0.0040680277
-0.004357412 -0.0005473437 -0.012205022 0.023301302 0.010720714 -0.011528957 -0.01968462 0.015826782
-0.024065878 0.044562455 0.0065359897 -0.01794642 0.010745904 -0.013038135 0.0010037794 -0.026387965
-0.013257049 0.0069491356 0.0036447302 0.036462855 0.007048198 0.01582965 0.018183805 0.008145466
-0.0011934615 -0.027558416 -0.0052477163 -0.006770977 0.04378706 0.00614294 -0.03564131 0.0074087842
-0.0016694795 0.0074345875 0.009658794 -0.018642519 -0.020659698 -0.014407261 0.017932411 0.036915038
0.009985038 -0.016901787 -0.016890822 -0.014118976 0.006088647 -0.019125342 0.035769653 0.017485732
-0.012436086 0.014984021 0.02689209 0.01907259 -0.024395928 0.008061867 -0.040819544 0.0040523433
0.008798664 -0.013866903 -0.021291053 0.014879122 0.008309864 0.01943962 -0.016002504 0.015121289
0.018049276 -0.009693763 0.03785419 0.015633192 0.00096662884 -0.019810101 0.0060554123 0.029426366
-0.0037348275 0.017411908 0.0017676735 0.021808548 -0.020655163 0.0021914402 0.007290285 -0.00594229
-0.0006526841 0.0046317372 0.038672503 0.008849844 -0.0051183975 0.0029199568 0.006907941 -0.02964951
-0.011192001 -0.005211867 -0.0144106615 0.00031389773 0.012803919 0.011205825 -0.0060470435 -0.0043872017
0.0066632032 -0.002245154 -0.015297018 0.005385938 -0.0023830985 0.011128387 0.010224228 0.024710445
-0.0033639271 -0.015057044 0.00039833356 -0.014986575 0.0077261487 -0.0066504637 0.0019401634 0.010719321
-0.008608559 -0.0052355467 0.0015991394 0.020044247 0.007455108 0.012176173 -0.0069292574 0.03324782

network_body._body_endoder.seq_layers.0.weight f4 [128, 6]
00000000: 9841 343e 2a8b 8e3e fc2e 9ebf 2505 efbe
00000010: 7358 86be da79 6abf fc6e de3e c668 613e
00000020: 32a1 7fbe 41c0 383e 59a4 233f a10d 38bf
00000030: 48bd ad3e 52e3 a1bd 2c22 0bbe 4120 aabd
00000040: 812b cb3d 47d9 2a3f 23f1 f33d 6954 ac3e
00000050: 56dd a23c e5de 413f be25 203f 2065 90be
00000060: f39a 20bf 096a a9bd f2cb c6be bec4 2abd
00000070: 36db e43d 9b4f e7be 4412 333f 0135 823e
00000080: 43f4 40be 336c 493f 2388 db3c e9ca 453c
00000090: a193 2a3e c846 6d3e 8133 523d 8b9c 913d
000000a0: e1f8 59bd 04a2 4cbf a2f2 9dbe c10e 793c
000000b0: ddb0 013f e773 37bf b6bc 05bf 3afe dcbe
000000c0: 6d7d 1fbe c0ea d0bd 99eb 4ebf a4bb fdbd
000000d0: cdca cfbe a95d 4c3e 3e1c dfbe ad34 c23e
000000e0: a363 953d b60d d1bc 7f17 1d3f 72ba 293f
000000f0: fda3 523e cf7f a13e 1b62 09bf adcc b5be
00000100: 1055 173f 95c4 88be 5fa4 d4be 0599 4ebe
00000110: 57fe 0b3e 9c7d f5bc df0b f0be 6b59 f23e
00000120: fdc7 e1be 1dad bd3e 7b53 0ebe 5e79 c43e
00000130: 1323 f03d c701 ea3e 2fa5 a4bd c745 3dbe
00000140: 35b8 51bf 4577 333c f390 4cbf 68c1 423c
00000150: 1faf 5c3f 8016 4c3d 04ca b73e 2183 20bf
00000160: 3c83 e8be 2fe3 3d3f b6b9 273d 67bd f1be
00000170: c5e8 7cbf e036 a03e 94dd 2b3f 3f81 d93d
00000180: 3ab7 db3d 12fd df3e 125c 043f 808d 023f
00000190: b855 963e 3abf 103f 11cd 773e a531 12be
000001a0: e4dc 84bd 8d96 71be 773f d83e d442 053f
000001b0: 9b43 243f 55f5 603e 3e4b 7ebe 1e0b 753e
000001c0: 66ea a1be 2ac7 683e 1d07 013f 1a65 bebe
000001d0: 03c2 08bc 2487 ad3e 1e19 cfbe cbbd adbd
000001e0: 4e8c 823d 109c 39be 7111 5a3e b03c 2ebf
000001f0: 6cec 7d3d 5017 853e efc6 56be 8a1b 95bc
00000200: 97cc 6b3e d369 0ebe 05d4 a2be 2612 4cbe
00000210: 641e b3be ab04 f4be 0835 e73e a734 4ebf
00000220: 1220 de3d 0fe5 a83e 71eb 0cbf bd29 a03e
00000230: a059 0fbe 1c27 203c c7bd 2bbe 04d0 f6be
00000240: 8eaa ffbe c870 e53d c9fd c8bd f9d6 753e
00000250: 9f80 00bf 619a 82be 94a9 633e b7d2 27bf
00000260: 7ef5 9e3c f316 5e3e ae25 463f 78cc 9fbe
00000270: aa6f d33e 2762 023f 04c9 65bf cbfe 013f
00000280: cbdc 01be 14f6 06bf 86ee 84be c9ac 4ebf
00000290: 3879 f2bd f443 a43d dc11 593e 722d 233e
000002a0: 6d80 cabd 7da4 78be 52f5 c9be 28d4 483f
000002b0: 2b6f 9f3e 6176 e93d 6a23 873d 86f5 243f
000002c0: e0b3 20bf 3fe4 f8be 4e17 02be 4330 2c3f
000002d0: 4157 14be 28e7 913d 73ed 89be bca0 0abf
000002e0: e029 d5bd 4167 a93e 3338 51ba 070e e43e
000002f0: 056c 053d edb0 eb3e d8e6 e9be 0904 a8be
00000300: 33ce fdbe 652b a9be 7202 aa3c c826 883d
00000310: 0cc2 843e ce81 3ebd dbbc 8e3d c1e1 6b3e
00000320: b2a5 3a3d d241 0cbf 418d 47be 0041 60be
00000330: 03ab 94be 51db b5be e09b 43be 6d03 37bf
00000340: 3d37 b03d bf9f f03d ef2a a83e b999 0bbf
00000350: fdee 143f eb63 d7be db4f 873e 7dac 853d
00000360: 7e96 51bf 4534 7f3d 50f2 6ebe 9788 11be
00000370: 20f6 aabe 088a eb3e 3319 eebe 638e 103f
00000380: e4c1 afbe 0636 853e 274d 8e3e aa3b a2bd
00000390: 89ea 993e 9f04 e13c 076d 52be a0d1 e8bd
000003a0: 4f03 9bbb 2ab3 e8bd 27aa 84be 9c3b 083f
000003b0: fb35 a5bd ed47 623e 5eb4 f33d d10a 1ebf
000003c0: e4aa d23d a200 34bf fab9 79be 0196 853e
000003d0: c172 99be 4333 95bd 6d4e 69be 02d1 1b3f
000003e0: f240 a03e 45ba f23e 137b 4bbe 9d6c d8bb
000003f0: 69f4 373d dbfb 473e 27a3 18bd 9468 95bd
0.17603147 0.2784055 -1.2358088 -0.46683612 -0.26239356 -0.9159218 0.4344405 0.22012624
-0.24963835 0.18042089 0.6392265 -0.71895796 0.33933473 -0.07904686 -0.13587254 -0.08306933
0.09920407 0.6673779 0.119112276 0.3365815 0.019880932 0.75730735 0.6255759 -0.28202152
-0.62736434 -0.08272178 -0.38827473 -0.041691534 0.11174624 -0.45177922 0.69949746 0.25431064
-0.18843178 0.78680724 0.026798313 0.012072303 0.16657878 0.23171532 0.05131865 0.07109936
-0.053215865 -0.79934716 -0.30849177 0.0152012715 0.50660497 -0.7166123 -0.52241075 -0.4316271
-0.1557519 -0.10201025 -0.80828243 -0.12389305 -0.40584412 0.19957604 -0.43576235 0.37930813
0.07294395 -0.025519233 0.6136398 0.6630012 0.20570369 0.31542823 -0.5366532 -0.35507718
0.5911417 -0.2671248 -0.41531655 -0.2017556 0.13671242 -0.029967122 -0.46884057 0.47333845
-0.4409789 0.37046137 -0.13899033 0.38373846 0.1172544 0.4570448 -0.08039319 -0.18483649
-0.819217 0.010953729 -0.79908675 0.011886932 0.86204714 0.049826145 0.35896313 -0.62700087
-0.45412624 0.7417478 0.040948592 -0.47214815 -0.9879268 0.31291866 0.67134976 0.10620355
0.10728307 0.43747765 0.5170299 0.5099716 0.29362273 0.5654179 0.2419932 -0.1427675
-0.06487444 -0.23592587 0.4223592 0.52055097 0.6416566 0.21968587 -0.2483339 0.23930022
-0.31624144 0.22732225 0.5040148 -0.3718651 -0.008347037 0.33892167 -0.4044885 -0.08483466
0.06374417 -0.1812594 0.21295716 -0.6806135 0.061993048 0.2599435 -0.20974325 -0.018201608
0.23027264 -0.13907556 -0.31802383 -0.19928798 -0.34984124 -0.4765981 0.45157647 -0.8054909
0.10845961 0.32987258 -0.55046755 0.31281844 -0.13999033 0.009774949 -0.16771613 -0.48205578
-0.4993481 0.11203152 -0.09814031 0.24007787 -0.5019626 -0.25508407 0.22232658 -0.655559
0.01940417 0.21688442 0.77401245 -0.31210685 0.4129613 0.5093102 -0.8975985 0.5077941
-0.12681882 -0.52719235 -0.2596323 -0.807324 -0.11839527 0.080207735 0.21198219 0.15935305
-0.098877765 -0.24281497 -0.39444977 0.78448725 0.31139502 0.11399532 0.065985516 0.6443714
-0.6277447 -0.48611638 -0.12704203 0.6726114 -0.1448641 0.07124168 -0.26938972 -0.5415151
-0.10408378 0.3308659 -0.00079810916 0.44541952 0.03257372 0.4603342 -0.45683932 -0.3281558
-0.4957138 -0.3304092 0.02075312 0.06648022 0.25929296 -0.04651051 0.06969615 0.23035337
0.045568176 -0.54787934 -0.19487478 -0.21899796 -0.29036722 -0.35518888 -0.1910243 -0.714896
0.08604286 0.11749219 0.32845256 -0.5453144 0.5817717 -0.4206842 0.26428112 0.0652704
-0.8187026 0.062305707 -0.23334622 -0.14212261 -0.33390903 0.46003747 -0.465036 0.56467265
-0.34327614 0.2601778 0.27793238 -0.07921536 0.3006175 0.027468024 -0.20549403 -0.11368108
-0.004730619 -0.11362298 -0.25911066 0.53215957 -0.080669366 0.2209775 0.11899637 -0.61735255
0.10286501 -0.70313466 -0.2438735 0.26091006 -0.29970363 -0.07285168 -0.22783823 0.60865796
0.3129955 0.47407737 -0.19871168 -0.0066047446 0.044910822 0.19529669 -0.03726497 -0.07295337

network_body._body_endoder.seq_layers.0.bias f4 [128]
00000000: 0000 0000 0000 0000 0000 0000 0000 0000
00000010: 0000 0000 0000 0000 0000 0000 0000 0000
00000020: 0000 0000 0000 0000 0000 0000 0000 0000
00000030: 0000 0000 0000 0000 0000 0000 0000 0000
00000040: 0000 0000 0000 0000 0000 0000 0000 0000
00000050: 0000 0000 0000 0000 0000 0000 0000 0000
00000060: 0000 0000 0000 0000 0000 0000 0000 0000
00000070: 0000 0000 0000 0000 0000 0000 0000 0000
00000080: 0000 0000 0000 0000 0000 0000 0000 0000
00000090: 0000 0000 0000 0000 0000 0000 0000 0000
000000a0: 0000 0000 0000 0000 0000 0000 0000 0000
000000b0: 0000 0000 0000 0000 0000 0000 0000 0000
000000c0: 0000 0000 0000 0000 0000 0000 0000 0000
000000d0: 0000 0000 0000 0000 0000 0000 0000 0000
000000e0: 0000 0000 0000 0000 0000 0000 0000 0000
000000f0: 0000 0000 0000 0000 0000 0000 0000 0000
00000100: 0000 0000 0000 0000 0000 0000 0000 0000
00000110: 0000 0000 0000 0000 0000 0000 0000 0000
00000120: 0000 0000 0000 0000 0000 0000 0000 0000
00000130: 0000 0000 0000 0000 0000 0000 0000 0000
00000140: 0000 0000 0000 0000 0000 0000 0000 0000
00000150: 0000 0000 0000 0000 0000 0000 0000 0000
00000160: 0000 0000 0000 0000 0000 0000 0000 0000
00000170: 0000 0000 0000 0000 0000 0000 0000 0000
00000180: 0000 0000 0000 0000 0000 0000 0000 0000
00000190: 0000 0000 0000 0000 0000 0000 0000 0000
000001a0: 0000 0000 0000 0000 0000 0000 0000 0000
000001b0: 0000 0000 0000 0000 0000 0000 0000 0000
000001c0: 0000 0000 0000 0000 0000 0000 0000 0000
000001d0: 0000 0000 0000 0000 0000 0000 0000 0000
000001e0: 0000 0000 0000 0000 0000 0000 0000 0000
000001f0: 0000 0000 0000 0000 0000 0000 0000 0000
0.0 0.0 0.0 0.0 0.0 0.0 0.0 0.0
0.0 0.0 0.0 0.0 0.0 0.0 0.0 0.0
0.0 0.0 0.0 0.0 0.0 0.0 0.0 0.0
0.0 0.0 0.0 0.0 0.0 0.0 0.0 0.0
0.0 0.0 0.0 0.0 0.0 0.0 0.0 0.0
0.0 0.0 0.0 0.0 0.0 0.0 0.0 0.0
0.0 0.0 0.0 0.0 0.0 0.0 0.0 0.0
0.0 0.0 0.0 0.0 0.0 0.0 0.0 0.0
0.0 0.0 0.0 0.0 0.0 0.0 0.0 0.0
0.0 0.0 0.0 0.0 0.0 0.0 0.0 0.0
0.0 0.0 0.0 0.0 0.0 0.0 0.0 0.0
0.0 0.0 0.0 0.0 0.0 0.0 0.0 0.0
0.0 0.0 0.0 0.0 0.0 0.0 0.0 0.0
0.0 0.0 0.0 0.0 0.0 0.0 0.0 0.0
0.0 0.0 0.0 0.0 0.0 0.0 0.0 0.0
0.0 0.0 0.0 0.0 0.0 0.0 0.0 0.0

network_body._body_endoder.seq_layers.2.weight f4 [128, 128]
00000000: b30b a33d db49 363e 4b85 b33d 21eb 8d3d
00000010: d555 bc3d d3a5 7ebc abe5 903d ff98 64be
00000020: 392c 643d 3ffc 28bd 1096 39bd cc9a 963d
00000030: 1726 14be d88b 3dbe cf6a ae3d b5be e73d
00000040: 7599 d33a eb17 1ebe 6fca 1c3e 3a70 e83c
00000050: 1763 f93c 3801 493d c9cb 01bd c79a 943d
00000060: 11c8 e43d 3be4 b53c 9a25 d4b9 ed31 d7bd
00000070: 6bda 36be ce06 e13d 85ed 0e3e b789 f0bc
00000080: 2dad fbbc 7e2e 14bd e7b0 8bbd d598 8bbc
00000090: 6744 3dbe 7a62 1a3d dc98 b23d e57d 26bd
000000a0: 6d67 e2bd 7b90 efba d194 e6bd d840 003e
000000b0: b56f 153a 2c6f 3a3d 8e0a b5bd 0818 80b9
000000c0: 6a11 74bd 65ed 0b3e 9e17 3dbc b1ee 903d
000000d0: ad57 073e 3a25 56bc f677 1cbc be50 aebc
000000e0: f7a3 c53a b760 7fbd ec5c 483d 2e13 133d
000000f0: d7ca a5bc 3cce ec3c b639 d9bd 04c9 83bd
00000100: be32 17bd c8f9 35bc 28da 843d e556 ed3c
00000110: 405a b13c 06f8 dabb 8bf3 a83c e54a 1abe
00000120: 5cd8 02be baec b9bd 1700 ccbd 770b 2e3d
00000130: b14f 16ba 4f2d c33d 342d a4bd 9382 edbc
00000140: 73a2 93bc 24cf 283d b1c0 70bd df3e 38be
00000150: 1d7b c9bb e3fe 46bd 67fc c9bc 84e9 04be
00000160: 2342 59be b326 65bb e7d7 c1bc 1ef6 ad3d
00000170: 93f0 583e f49a 03be a886 5a3c 5000 c63d
00000180: 3ab8 673d e9ce 803d 0669 9b3d a7b2 57bc
00000190: 4e59 62bd 7e9b 29bd 18e4 50bd 399b 2bbd
000001a0: f17d 74bd 8820 7ebd 0736 bc3d b9b5 91bc
000001b0: e888 013c 05b8 cdbd 0d25 193d 3c22 9f3d
000001c0: 4022 24be 7021 e1bd 95b4 113d afb6 98bb
000001d0: 2fac b53d 30a6 a13d 7ed7 843d 8a21 9c3d
000001e0: 0c06 6f3d 0779 0ebe 17d4 34bd 1c15 64ba
000001f0: f459 11be 79b9 9d3c c215 03bd 0029 a53c
00000200: e756 03bc 9dd7 f2bd 0b53 d13d ed7a ef3d
00000210: 88c4 a83d 9ee8 be3b a10c bbbd 2d49 7f3d
00000220: 9e97 55bd 7678 903c d6cd 3c3d c2f0 a43c
00000230: 0d2a 763d 8941 02bd d458 8ebd 2654 10be
00000240: 97a9 dc3c 5980 57bd a4ef c739 a83e 233d
00000250: 7ece 4a3c d979 a73d 22d7 e3bd df7d 363d
00000260: b7e9 453c 7760 87bd dac1 593c e9ff 31bc
00000270: ba46 f43d 020d c8bd 24f1 e0bd 3319 3bbe
00000280: 3583 13bd 32b7 213e 3503 3fbe 9100 03bd
00000290: d8e1 5fbd d90a 563e 890f 933c 158a e3bd
000002a0: 662b 6f3d 447c efbd b948 00bd e44f 7ebb
000002b0: 8c6c 03be 6eed f83d 3d9c 0d3d 71c5 bfbd
000002c0: 81ca b4bb dd91 be3c 10cb 84bd e9b8 02bc
000002d0: 74ac 213e 4f05 60bd 4234 88bd fc4f c2bd
000002e0: 200f 433e 0505 4a3c aba7 03bb bd3a b83d
000002f0: a99e d6bd 8441 533d 4ec0 703d ab7b 303d
00000300: 4709 553e 1d65 083e 8e4c f8bd 5644 c93d
00000310: a003 c13c 3209 a0bd a02a 353d d7b6 a43d
00000320: 2b4b f5bd d6a9 6abc d4ef 83bd d0ea e9bc
00000330: 4ef7 063e b4af aa3d b752 273d 1d93 cd3c
00000340: e4b1 483d 5a98 9d3d fcaf a13d c9bb 153c
00000350: 435f ebbd bf9c 3abd 8605 f0bc b37b dfbc
00000360: 4727 17bd cc03 99bd 9c83 a23d e0af 1bbc
00000370: 44da 41be 5acc c2bd 727f 883e 47df 533a
00000380: a834 62be e357 213e 943f 94bc 0a39 fc3b
00000390: d62c 68bc 9cd0 2dbe f1d1 c63d 9434 87bd
000003a0: b1e4 093d 0e54 d6bc f287 213d ec02 13bd
000003b0: 176b d93c 1184 55bd 3a72 1cbe 0f2e 963d
000003c0: 7226 fb3c 42e9 253d 3b1a 16bc 36ab a33d
000003d0: da9f 7a3c 30eb 95bd e2ab aabd f7d0 d4bd
000003e0: 3674 98bc 1ef0 b6bd e869 783c 6c3d dcbd
000003f0: 0f9f f43b 49df 613d 9018 be3c ea73 44bd
0.07961216 0.17801611 0.08765658 0.06929613 0.09196059 -0.015542465 0.07075056 -0.22323988
0.055706237 -0.041256186 -0.045309126 0.07353744 -0.14467655 -0.18510377 0.08516466 0.11315671
0.0016143756 -0.15438811 0.15311597 0.028373826 0.030442758 0.049073428 -0.031688485 0.07256084
0.11170972 0.022203555 -0.00040463806 -0.105075695 -0.17856757 0.10987626 0.13957794 -0.029362543
-0.030722225 -0.03617715 -0.06820851 -0.01704065 -0.18483125 0.03769157 0.08720562 -0.040647406
-0.11054883 -0.0018277311 -0.11258853 0.12524736 0.00057005446 0.045516178 -0.08839904 -0.00024431967
-0.05958692 0.13664778 -0.011541275 0.07076777 0.1321704 -0.013070399 -0.009550085 -0.021278735
0.0015078773 -0.062348094 0.048916742 0.035906963 -0.020238323 0.028906934 -0.106067106 -0.06434825
-0.036913626 -0.011106916 0.064869225 0.028972099 0.02164948 -0.0066823987 0.020623943 -0.15067632
-0.12777847 -0.09078355 -0.09960955 0.042491402 -0.0005733921 0.09530126 -0.08016434 -0.028992927
-0.018021798 0.04121317 -0.058777515 -0.17992733 -0.0061487094 -0.048582923 -0.024656488 -0.12979704
-0.21216635 -0.0034965693 -0.02366252 0.08494209 0.21185522 -0.12852079 0.013337769 0.09668028
0.056572177 0.06289465 0.07588391 -0.013165153 -0.05526095 -0.041408055 -0.050998777 -0.04189608
-0.05969042 -0.062042743 0.091899924 -0.017786847 0.007906176 -0.100448646 0.03738885 0.077702016
-0.1602869 -0.10992706 0.035572607 -0.0046604495 0.08870732 0.07893026 0.064864144 0.076235846
0.058355376 -0.13913356 -0.044147577 -0.00087006553 -0.1419447 0.01925348 -0.03200317 0.020161152
-0.008016325 -0.11857531 0.10220917 0.11693368 0.0824061 0.00582607 -0.09133268 0.062325645
-0.052146547 0.017635565 0.046094738 0.020134334 0.060098697 -0.03180078 -0.06950536 -0.140946
0.026936335 -0.052612636 0.00038134784 0.039854676 0.012378333 0.081775375 -0.11125018 0.044553634
0.012079648 -0.06610196 0.013290847 -0.010864236 0.119275525 -0.09768106 -0.10983494 -0.18271331
-0.0360138 0.1579254 -0.18653567 -0.031982962 -0.05465874 0.20902576 0.017951744 -0.111103214
0.058390997 -0.11693624 -0.031319354 -0.0038804943 -0.12834376 0.12154661 0.03457283 -0.09363831
-0.0055173044 0.023262912 -0.064840436 -0.007978656 0.15788442 -0.054692563 -0.066505924 -0.09487912
0.19048738 0.012330298 -0.0020088952 0.089955784 -0.10479481 0.051576152 0.058777146 0.04308669
0.2080432 0.13319822 -0.12123977 0.09827487 0.023561299 -0.07814254 0.044230103 0.080426864
-0.11977228 -0.014322719 -0.06442228 -0.02855435 0.13180277 0.08334294 0.040850367 0.025094563
0.048997775 0.076950744 0.078948945 0.00913901 -0.11492779 -0.04555964 -0.029299509 -0.027280664
-0.036902692 -0.07471427 0.07935259 -0.009502381 -0.18930918 -0.09511633 0.26659733 0.0008082282
-0.220904 0.15756182 -0.018096723 0.0076972293 -0.014170846 -0.1697411 0.09708012 -0.06601825
0.033665363 -0.026163127 0.03943629 -0.03589146 0.026540322 -0.0521279 -0.15277949 0.07333004
0.03065798 0.040505655 -0.009161527 0.0799164 0.015296901 -0.07320249 -0.08333565 -0.103914194
-0.018610101 -0.089325175 0.015161969 -0.10753903 0.0074652503 0.055144582 0.023205072 -0.047962107

network_body._body_endoder.seq_layers.2.bias f4 [128]
00000000: 0000 0000 0000 0000 0000 0000 0000 0000
00000010: 0000 0000 0000 0000 0000 0000 0000 0000
00000020: 0000 0000 0000 0000 0000 0000 0000 0000
00000030: 0000 0000 0000 0000 0000 0000 0000 0000
00000040: 0000 0000 0000 0000 0000 0000 0000 0000
00000050: 0000 0000 0000 0000 0000 0000 0000 0000
00000060: 0000 0000 0000 0000 0000 0000 0000 0000
00000070: 0000 0000 0000 0000 0000 0000 0000 0000
00000080: 0000 0000 0000 0000 0000 0000 0000 0000
00000090: 0000 0000 0000 0000 0000 0000 0000 0000
000000a0: 0000 0000 0000 0000 0000 0000 0000 0000
000000b0: 0000 0000 0000 0000 0000 0000 0000 0000
000000c0: 0000 0000 0000 0000 0000 0000 0000 0000
000000d0: 0000 0000 0000 0000 0000 0000 0000 0000
000000e0: 0000 0000 0000 0000 0000 0000 0000 0000
000000f0: 0000 0000 0000 0000 0000 0000 0000 0000
00000100: 0000 0000 0000 0000 0000 0000 0000 0000
00000110: 0000 0000 0000 0000 0000 0000 0000 0000
00000120: 0000 0000 0000 0000 0000 0000 0000 0000
00000130: 0000 0000 0000 0000 0000 0000 0000 0000
00000140: 0000 0000 0000 0000 0000 0000 0000 0000
00000150: 0000 0000 0000 0000 0000 0000 0000 0000
00000160: 0000 0000 0000 0000 0000 0000 0000 0000
00000170: 0000 0000 0000 0000 0000 0000 0000 0000
00000180: 0000 0000 0000 0000 0000 0000 0000 0000
00000190: 0000 0000 0000 0000 0000 0000 0000 0000
000001a0: 0000 0000 0000 0000 0000 0000 0000 0000
000001b0: 0000 0000 0000 0000 0000 0000 0000 0000
000001c0: 0000 0000 0000 0000 0000 0000 0000 0000
000001d0: 0000 0000 0000 0000 0000 0000 0000 0000
000001e0: 0000 0000 0000 0000 0000 0000 0000 0000
000001f0: 0000 0000 0000 0000 0000 0000 0000 0000
0.0 0.0 0.0 0.0 0.0 0.0 0.0 0.0
0.0 0.0 0.0 0.0 0.0 0.0 0.0 0.0
0.0 0.0 0.0 0.0 0.0 0.0 0.0 0.0
0.0 0.0 0.0 0.0 0.0 0.0 0.0 0.0
0.0 0.0 0.0 0.0 0.0 0.0 0.0 0.0
0.0 0.0 0.0 0.0 0.0 0.0 0.0 0.0
0.0 0.0 0.0 0.0 0.0 0.0 0.0 0.0
0.0 0.0 0.0 0.0 0.0 0.0 0.0 0.0
0.0 0.0 0.0 0.0 0.0 0.0 0.0 0.0
0.0 0.0 0.0 0.0 0.0 0.0 0.0 0.0
0.0 0.0 0.0 0.0 0.0 0.0 0.0 0.0
0.0 0.0 0.0 0.0 0.0 0.0 0.0 0.0
0.0 0.0 0.0 0.0 0.0 0.0 0.0 0.0
0.0 0.0 0.0 0.0 0.0 0.0 0.0 0.0
0.0 0.0 0.0 0.0 0.0 0.0 0.0 0.0
0.0 0.0 0.0 0.0 0.0 0.0 0.0 0.0

value_heads.value_heads.extrinsic.weight f4 [1, 128]
00000000: 2dce 573e 5506 283d cac0 27be 89d9 fcbc
00000010: a466 3bbd 694c 45be 6038 1bbe f254 633d
00000020: a783 243d 2153 3ebe c917 593e 5aeb 573d
00000030: 717a ce3c 9536 bf3c 25ff c83d a44c 5abe
00000040: 3777 213d 25df c83d 513f 47bd a001 c6bd
00000050: 22de dabd 146e 883d 22aa 363e 4d6c 13be
00000060: 62c3 4e3e 5014 213e 1eae be3d b3ec c5bd
00000070: c493 583e 8c49 063e b500 e5bd 5eac 24be
00000080: b526 b33d 9fe3 84bc 28ee 14be fab1 5bbe
00000090: 687f 37bb 9505 5d3c 60e3 363c 3e5a 3abd
000000a0: a734 0cbe 99c7 8a3d e663 ef3c c1ed bbbd
000000b0: 0bbe a73d a7fc 1a3e 16e5 4a3e e85a 65bd
000000c0: 731a d2bb 123d d3bd 368a b8bc 36c6 7b3d
000000d0: 435d 9a3b 0da0 4d3e 3ddc 2ebe 4bb2 24bc
000000e0: 5744 bebd ec12 46bd ef62 eabd 8dd1 29be
000000f0: 3f93 93bd 8792 7cbd 3b44 58bd 4a0c 22be
00000100: 8c85 15bd 3159 1e3e 3857 79bd 4e4d 703c
00000110: 877b 31bd 1fb6 9e3d 0e28 93bd 5d12 223e
00000120: 5c1c 443e d8f6 3a3e 0faa 14be 0789 9dbb
00000130: 780a 3cbe 962b 9b3d 72ab 2bbe b3b7 c13d
00000140: edad 073e fd58 32be 9716 5b3e 747d 0c3e
00000150: ce61 133e af0f 10bd 06fb 54be 775a 50be
00000160: 4323 1ebe 793c ac3d 0135 06bd 7571 083e
00000170: 687b 403e 07f3 1bbe d6e1 773d cf71 533e
00000180: b57f 3fbe 3f45 433e 2ad0 a33d 756c f23d
00000190: f856 94bd ed3b 83bd 0d15 8abd 4a66 803d
000001a0: b2d4 ae3d ce63 f23d cb69 013e be9f 23be
000001b0: 6600 333d 7e9b 59be 3b1f 32be d2fb 0cbe
000001c0: 23d4 533e f42c 3ebe 43d0 babd 4fd5 f7bd
000001d0: b660 d03c eef0 bf3d 868d 933d 6d2a 74bd
000001e0: 32c6 283e b61f ff3d 2a23 9dbd 0644 1b3c
000001f0: 4631 f0bd 2d93 053c 3b03 0dbd 00d9 3a3c
0.21074744 0.041021664 -0.16382137 -0.030865448 -0.045752183 -0.1926743 -0.15158224 0.055500932
0.040164616 -0.18586399 0.2120048 0.052714683 0.025204869 0.023341456 0.0981429 -0.21318299
0.039420333 0.098081864 -0.048644368 -0.09668279 -0.106869 0.06661621 0.17838338 -0.14396782
0.2019172 0.15730405 0.09310554 -0.096642874 0.21150118 0.13113993 -0.111817755 -0.16081378
0.08747617 -0.01622182 -0.14543974 -0.21454611 -0.0027999524 0.0134901 0.011162609 -0.045496218
-0.1369196 0.067763515 0.02922244 -0.09176207 0.08190545 0.15135442 0.19813952 -0.055994898
-0.0064118444 -0.103143826 -0.022526842 0.061468326 0.0047108247 0.20080586 -0.17076202 -0.010052274
-0.092903785 -0.04835789 -0.11444651 -0.16583844 -0.07205819 -0.061663177 -0.052799445 -0.15825
-0.036504313 0.15463711 -0.060874194 0.014666868 -0.043330695 0.077495806 -0.07185374 0.15827318
0.19151443 0.18258226 -0.14517997 -0.0048075947 -0.18363369 0.07576673 -0.1676462 0.09458866
0.13249941 -0.17416759 0.21395336 0.13719732 0.14392778 -0.035171207 -0.20798883 -0.2034701
-0.15443139 0.08409972 -0.032765392 0.1332453 0.18797076 -0.15229426 0.06051811 0.20648883
-0.1870106 0.19069384 0.079986885 0.11837093 -0.072431505 -0.06407914 -0.06742296 0.0626951
0.08536662 0.118354425 0.12638013 -0.15978906 0.04370155 -0.21250722 -0.17394726 -0.13767937
0.20686392 -0.18571836 -0.09121754 -0.12101232 0.02543674 0.093721256 0.07204728 -0.059610773
0.16481856 0.1245722 -0.07672723 0.009476667 -0.11728148 0.008152765 -0.03442691 0.011404276
