Shortcut Run/results/LEVEL1/Move/Move-4970.pt (torch, 149007 bytes, 10 tensors)

network_body._body_endoder.seq_layers.0.weight f4 [128, 6]
000000 e1 89 33 3e 0b 43 e6 3e 06 82 c8 3e 45 c5 15 3f
       0.17533065 0.44973025 0.391617 0.58504134
000010 29 bb 95 be fb 51 41 bf 4a 41 b2 3e c1 90 77 be
       -0.29244354 -0.7551572 0.34815437 -0.24176313
000020 2d 0f 07 3e 32 2d 11 bf 5c 91 a0 bd d6 60 a1 3e
       0.13189383 -0.5670959 -0.07840225 0.31519192
000030 f8 d4 22 bf f5 41 92 be a4 a5 42 be ae 58 91 3e
       -0.63606215 -0.28565946 -0.190085 0.2838797
000040 05 2e ea 3e a2 a0 7f 3e 81 3f 93 bf c9 5e 64 3f
       0.45738235 0.2496362 -1.1503755 0.8920713
000050 d8 fe 0d 3f 5c 95 3b bc d2 63 a0 be 44 26 f4 be
       0.55466986 -0.011449184 -0.31326157 -0.47685444
000060 02 e0 e9 bd a1 dc a3 be f7 3d 38 be c8 9a 98 be
       -0.11419679 -0.32004264 -0.17992388 -0.2980559
000070 18 8e 23 3e 9d 63 fb be 76 21 47 3e fe 59 d5 3e
       0.15972173 -0.49099436 0.19446358 0.4167022
000080 78 a5 28 bf 2c c6 11 3f 5c 01 71 3e bf b8 4c 3e
       -0.65877485 0.5694301 0.23535675 0.1999235
000090 14 fa 0f be 07 9c 60 be 76 3f 67 bf a9 8c 20 bf
       -0.14060241 -0.2193452 -0.9033121 -0.6271463
0000a0 5f fb 0a 3b b3 84 5b 3c 65 31 bb 3e 6b a4 a2 3d
       0.0021206958 0.013398337 0.36561123 0.079415165
0000b0 9e 5a 96 3c 56 e5 25 3e 0f ef 60 3c e0 44 34 3d
       0.018353757 0.16200766 0.013728871 0.044010997
0000c0 a1 c5 cc 3e 5d c8 7f bc 49 d4 14 bf 17 cc f0 3e
       0.3999453 -0.015611735 -0.5813642 0.47030708
0000d0 3d e6 09 3f 37 79 45 3d 65 4c 3f be e9 29 00 3b
       0.5386694 0.048211303 -0.18681486 0.001955623
0000e0 db 72 ab 3e e2 37 ab be 80 10 84 3e 49 02 5c bf
       0.33486065 -0.33441073 0.25793839 -0.85940987
0000f0 2a 99 b9 3e c8 b6 df 39 67 5d 88 be 6c 81 24 3e
       0.36249667 0.00042670057 -0.2663376 0.16064996
000100 ab 47 85 be a9 c2 8a 3d b1 1d 96 3e 45 2c af be
       -0.2603124 0.0677541 0.29319528 -0.34213462
000110 bf 47 d3 3e 9d 2b 35 3e e6 7f c5 3d 04 2e e0 3d
       0.41265675 0.17692418 0.09643535 0.10946277
000120 c2 11 5e be 69 31 f2 3e fd ec b0 be 45 2f 28 be
       -0.21686462 0.47303322 -0.34555808 -0.16424282
000130 90 c4 3a bd a5 1d c9 3e 89 ec 54 3f 8d 54 c4 3d
       -0.045597613 0.3928043 0.83173424 0.09586439
000140 3a cc d0 3c 92 5e 2e 3f 51 46 3d bf 5e 74 bb 3e
       0.025488008 0.6811305 -0.7393542 0.3661222
000150 d5 36 bb 3e dd 58 e6 3d 30 ed 01 3f 3e 67 7d 3f
       0.3656527 0.11247418 0.50752544 0.9898566
000160 61 f8 5a bf 46 b1 12 3f 82 8d 13 bf 7d f9 bd be
       -0.85535246 0.5730175 -0.576378 -0.37104407
000170 43 08 2f be 72 30 5a 3e 0e ac 09 bf 4a 78 0f bf
       -0.17092995 0.21307543 -0.5377816 -0.5604292
000180 6e 50 9d 3e ce 56 9a be 0f 94 f7 be 86 d4 35 3d
       0.30725425 -0.30144352 -0.48355147 0.04439213
000190 82 a3 31 3e ce 2c 04 bf a7 3c 6f 3e 75 ef 71 3d
       0.1734753 -0.51630867 0.23362981 0.059066255
0001a0 12 ae 79 3e 53 82 be bb e7 8f 7a bd ac bb 6b be
       0.24382809 -0.0058138757 -0.061172392 -0.2302081
0001b0 9c 61 a3 3e 2d e1 37 be c5 bc ed 3d 31 4d 1b be
       0.31910408 -0.17956991 0.116082706 -0.15166165
0001c0 83 19 75 be d1 c4 31 bf c0 0e 24 be e5 c9 71 be
       -0.23935513 -0.69440943 -0.16021252 -0.23612173
0001d0 da a6 b2 be ac 8b cc 3c 9d b5 2d bf c2 fe ca bc
       -0.34892923 0.024968944 -0.67855245 -0.024779681
0001e0 6d ab f9 3e fb 5a dc 3d e1 9a ef be 72 27 54 be
       0.487636 0.10759541 -0.4679785 -0.20718172
0001f0 81 0b c9 be 13 a7 f9 3e 57 d7 0c bf 54 c6 c8 be
       -0.3926659 0.4876028 -0.5501608 -0.39213812
000200 2e 90 94 be d7 a9 c4 bd d5 2d 8a 3e 1b 0a 6b bf
       -0.2901625 -0.09602707 0.26988092 -0.91812295
000210 1e 0c 18 be 6e a6 13 3d f2 6b 3a bb 8b 48 5f 3e
       -0.14848372 0.03604739 -0.0028445688 0.21805017
000220 17 a4 57 3f a5 b3 1e 3f c1 4f 8d 3e b4 19 e5 3e
       0.84234756 0.61992866 0.2759991 0.44746172
000230 9f d6 dc 3c a1 88 0f bf a5 80 dc bd 81 b0 9f 3e
       0.026957808 -0.56067854 -0.107667245 0.3118935
000240 69 e5 57 be 12 cf 4c be c6 7e 72 3f e2 72 7d be
       -0.21083607 -0.20000866 0.9472469 -0.24750856
000250 b0 e1 cf 3d aa a6 ee 3c 6c 9b 4b 3f 0a 67 c6 3d
       0.10150468 0.029132206 0.7953403 0.09687622
000260 73 19 ec be 0a d5 c8 be af 2c a6 3e 90 74 e6 3e
       -0.46113166 -0.39225036 0.32455966 0.45010805
000270 77 e8 d6 3e c4 75 a3 be cb 76 2c bf 7a 4f 35 3d
       0.41974232 -0.31925786 -0.67368764 0.044265248
000280 98 87 09 3f 3e 0e 14 bf 2e ca d4 3e c5 28 8b bd
       0.53722525 -0.5783423 0.415605 -0.067948855
000290 84 4b 76 3e 6a 52 21 be 31 3f cb bb 92 11 9e be
       0.24052244 -0.15754095 -0.0062026014 -0.3087278
0002a0 15 06 a0 bd 5a 00 d1 3d b7 db 11 3f e3 b9 74 3e
       -0.0781366 0.10205145 0.56975883 0.23899035
0002b0 9b d5 55 3d eb 37 10 3e df 10 49 be d7 44 1a be
       0.052205663 0.14083831 -0.19635342 -0.15065323
0002c0 e4 cf a3 be 6b 5e 2f 3e 39 b7 9c 3e 9a 8c c8 bd
       -0.31994545 0.17125861 0.30608538 -0.097924426
0002d0 db 9f 2d bf 0b e3 db 3d 49 1a f5 be 8f 30 bb be
       -0.67822045 0.107366644 -0.47871616 -0.36560485
0002e0 11 4e e4 3d 17 d4 40 be 00 a5 22 3e dc 57 f7 be
       0.111477025 -0.18830906 0.15883255 -0.4830922
0002f0 9c 21 02 be 40 f3 09 be e8 b0 db 3c 61 5b cf 3e
       -0.12708133 -0.13471699 0.026817754 0.40499404
000300 9d be f7 3e 12 f2 b2 be 55 52 24 3e 58 74 7d 3e
       0.48387614 -0.3495031 0.16047032 0.24751413
000310 a5 9b e9 3a bf 77 ff bd f7 11 d8 3e 68 3a d2 3d
       0.0017822875 -0.12474012 0.42201206 0.10265046
000320 dc 5e 4b 3f af c2 2e bd d2 eb 27 3d eb e4 5d 3d
       0.7944162 -0.042666133 0.04099638 0.05417339
000330 6b ff ac 3e a9 8d ee 3d 20 44 34 bd 2a 1b 91 bd
       0.33788618 0.11648113 -0.04401028 -0.07085259
000340 52 a0 6d bf c0 b9 8e 3e 63 e0 bc 3d 8c 7d 44 3e
       -0.92822754 0.2787609 0.09222486 0.19188517
000350 78 d0 ca be 8d 52 74 3d c7 3b 21 bf ee 49 67 3f
       -0.39612174 0.05964904 -0.6298184 0.9034718
000360 eb 4b 46 3f 1c e5 72 be f8 84 1f bb 56 65 5b bf
       0.7745959 -0.23720211 -0.002434073 -0.857015
000370 87 a8 86 bd 87 7e b2 3d ab bd d2 3e 47 79 d8 be
       -0.06575113 0.087155394 0.4116033 -0.42280027
000380 cb dd ad 3d b1 a7 37 be 7b 73 37 bf 4e 74 e7 3e
       0.08489569 -0.17935063 -0.71660584 0.4520592
000390 cf 11 11 be 47 98 54 be 23 27 1a 3f 84 cf d2 be
       -0.1416695 -0.20761214 0.6021597 -0.41173947
0003a0 5a 39 96 bd 20 14 6f 3e 54 47 b6 3e 33 7f b8 be
       -0.07335158 0.23347521 0.35601294 -0.36034545
0003b0 d8 d4 01 3f bf f3 96 be fe fc c5 be a0 09 38 bf
       0.507154 -0.2948284 -0.3866958 -0.71889687
0003c0 60 6d 1e bd 33 2a 8e bd c8 2a 43 be 2b 87 c6 bd
       -0.038678527 -0.069416426 -0.19059289 -0.0969375
0003d0 22 b7 74 be 1b be 3b be 22 c1 1a 3e 94 0c 35 3e
       -0.23897985 -0.18334238 0.15112737 0.1768058
0003e0 9c ec 53 3f 7a a8 a9 bd 4d d7 01 bd cc eb 80 3e
       0.8278291 -0.082840875 -0.031699467 0.251799
0003f0 c5 ea c2 be a0 0b 28 bf 85 3f 5b be 5c 43 cd 3e
       -0.3806974 -0.6564274 -0.2141095 0.40090454

network_body._body_endoder.seq_layers.0.bias f4 [128]
000000 00 00 00 00 00 00 00 00 00 00 00 00 00 00 00 00
       0.0 0.0 0.0 0.0
000010 00 00 00 00 00 00 00 00 00 00 00 00 00 00 00 00
       0.0 0.0 0.0 0.0
000020 00 00 00 00 00 00 00 00 00 00 00 00 00 00 00 00
       0.0 0.0 0.0 0.0
000030 00 00 00 00 00 00 00 00 00 00 00 00 00 00 00 00
       0.0 0.0 0.0 0.0
000040 00 00 00 00 00 00 00 00 00 00 00 00 00 00 00 00
       0.0 0.0 0.0 0.0
000050 00 00 00 00 00 00 00 00 00 00 00 00 00 00 00 00
       0.0 0.0 0.0 0.0
000060 00 00 00 00 00 00 00 00 00 00 00 00 00 00 00 00
       0.0 0.0 0.0 0.0
000070 00 00 00 00 00 00 00 00 00 00 00 00 00 00 00 00
       0.0 0.0 0.0 0.0
000080 00 00 00 00 00 00 00 00 00 00 00 00 00 00 00 00
       0.0 0.0 0.0 0.0
000090 00 00 00 00 00 00 00 00 00 00 00 00 00 00 00 00
       0.0 0.0 0.0 0.0
0000a0 00 00 00 00 00 00 00 00 00 00 00 00 00 00 00 00
       0.0 0.0 0.0 0.0
0000b0 00 00 00 00 00 00 00 00 00 00 00 00 00 00 00 00
       0.0 0.0 0.0 0.0
0000c0 00 00 00 00 00 00 00 00 00 00 00 00 00 00 00 00
       0.0 0.0 0.0 0.0
0000d0 00 00 00 00 00 00 00 00 00 00 00 00 00 00 00 00
       0.0 0.0 0.0 0.0
0000e0 00 00 00 00 00 00 00 00 00 00 00 00 00 00 00 00
       0.0 0.0 0.0 0.0
0000f0 00 00 00 00 00 00 00 00 00 00 00 00 00 00 00 00
       0.0 0.0 0.0 0.0
000100 00 00 00 00 00 00 00 00 00 00 00 00 00 00 00 00
       0.0 0.0 0.0 0.0
000110 00 00 00 00 00 00 00 00 00 00 00 00 00 00 00 00
       0.0 0.0 0.0 0.0
000120 00 00 00 00 00 00 00 00 00 00 00 00 00 00 00 00
       0.0 0.0 0.0 0.0
000130 00 00 00 00 00 00 00 00 00 00 00 00 00 00 00 00
       0.0 0.0 0.0 0.0
000140 00 00 00 00 00 00 00 00 00 00 00 00 00 00 00 00
       0.0 0.0 0.0 0.0
000150 00 00 00 00 00 00 00 00 00 00 00 00 00 00 00 00
       0.0 0.0 0.0 0.0
000160 00 00 00 00 00 00 00 00 00 00 00 00 00 00 00 00
       0.0 0.0 0.0 0.0
000170 00 00 00 00 00 00 00 00 00 00 00 00 00 00 00 00
       0.0 0.0 0.0 0.0
000180 00 00 00 00 00 00 00 00 00 00 00 00 00 00 00 00
       0.0 0.0 0.0 0.0
000190 00 00 00 00 00 00 00 00 00 00 00 00 00 00 00 00
       0.0 0.0 0.0 0.0
0001a0 00 00 00 00 00 00 00 00 00 00 00 00 00 00 00 00
       0.0 0.0 0.0 0.0
0001b0 00 00 00 00 00 00 00 00 00 00 00 00 00 00 00 00
       0.0 0.0 0.0 0.0
0001c0 00 00 00 00 00 00 00 00 00 00 00 00 00 00 00 00
       0.0 0.0 0.0 0.0
0001d0 00 00 00 00 00 00 00 00 00 00 00 00 00 00 00 00
       0.0 0.0 0.0 0.0
0001e0 00 00 00 00 00 00 00 00 00 00 00 00 00 00 00 00
       0.0 0.0 0.0 0.0
0001f0 00 00 00 00 00 00 00 00 00 00 00 00 00 00 00 00
       0.0 0.0 0.0 0.0

network_body._body_endoder.seq_layers.2.weight f4 [128, 128]
000000 8a 2f 1b bd 61 da 5c 3d da 5b 44 bd 81 c7 70 3c
       -0.037887134 0.0539192 -0.04793916 0.014696003
000010 f5 a0 af bd aa f6 de 3c 38 a2 44 3d f0 d4 0b bd
       -0.08575622 0.027217228 0.048006266 -0.03413862
000020 1d 88 40 3d 7a 95 e8 bd ee fb 2a 3b 4e d3 c0 bd
       0.047004808 -0.113566354 0.0026090103 -0.09415303
000030 56 df 71 bd 0f 56 c2 bd 69 34 97 bc c3 02 ef 3c
       -0.05905088 -0.094890706 -0.018457608 0.029176122
000040 25 63 cc bd a7 11 9e bd cd 93 21 3c b9 16 57 3d
       -0.09979848 -0.07718211 0.009861899 0.052511904
000050 b3 71 8d bc 3b 91 fe bd f4 66 ae 3c bb 11 dc 3d
       -0.01726613 -0.12430044 0.021289326 0.10745569
000060 ee 7b fb 3d 4e 19 66 bd 1e 3a d6 bc 99 33 19 3e
       0.12279497 -0.056176476 -0.02615076 0.14961089
000070 39 39 89 3d 15 25 64 3e f4 83 82 bd 82 6a a6 bd
       0.067003675 0.2227977 -0.06372824 -0.081257835
000080 fc a3 64 bd b9 8f ef 3c d6 b2 22 3d 54 10 df bc
       -0.05582045 0.029243337 0.039721332 -0.027229466
000090 f0 cf 82 3d b1 85 ad bc bc 95 5f bc a5 d4 42 3c
       0.06387317 -0.021181913 -0.013646539 0.011891519
0000a0 ea 08 34 3c 06 72 cf bc 3a 75 e3 bc bb d2 1a 3e
       0.010988453 -0.025322925 -0.027765859 0.1511945
0000b0 e4 ee 38 3e d9 e6 4b 3b c1 59 81 3d 12 39 ad bb
       0.1805988 0.0031112938 0.06315947 -0.0052863443
0000c0 25 02 99 ba 3d e2 16 3d c5 54 20 3e 43 6c 5b bd
       -0.0011673613 0.03683685 0.15657337 -0.053570043
0000d0 46 c0 73 bb bb 57 21 3e 23 9f 07 bd c7 28 32 3d
       -0.0037193461 0.15756123 -0.03311075 0.04349592
0000e0 a2 eb d4 3d 6b e0 db bd a2 51 03 be 45 e3 69 bc
       0.10396506 -0.10736164 -0.12824109 -0.014275377
0000f0 07 48 7b bd 55 ea a7 bc a8 5c 1f 3e ce 13 9f 3d
       -0.061347988 -0.02049748 0.1556269 0.07767449
000100 23 93 6f bc 35 c7 bb bd 4f a3 1f 3c 91 57 20 be
       -0.0146224825 -0.09168855 0.009743526 -0.15658404
000110 43 8b f3 bd 2c 84 66 bd 66 5b 34 bc 2b 57 8f bd
       -0.118917964 -0.056278393 -0.011008119 -0.06999048
000120 1a 0a 6e 3d bb 99 b3 bd 88 5c d1 3d b9 c3 88 3d
       0.058115102 -0.08769556 0.10222727 0.06677956
000130 47 e8 6c 3d 36 02 bd bb d2 18 83 3c d3 8f 46 3d
       0.057838704 -0.005768086 0.016003046 0.048477005
000140 c9 d2 a3 3c de 2e 98 bd f1 66 e6 bd 3f d4 a3 bc
       0.019997971 -0.07430814 -0.11250103 -0.019998668
000150 ce b7 07 3d a0 4a 8e bd 99 f8 cc bb 36 25 93 bc
       0.033134274 -0.06947827 -0.006255221 -0.01796208
000160 0a 8d 0f be 95 31 25 3e fa a8 6f bd b1 2e 13 bd
       -0.14018646 0.16132195 -0.058510758 -0.0359332
000170 8d 1a 32 bd d1 b8 03 3e d5 fa 6a bc 1f d8 51 3d
       -0.043482352 0.1286347 -0.01434203 0.0512315
000180 55 31 39 3e 00 c9 d9 3c 52 bf 4b 3d 9e 82 7f 3d
       0.18085225 0.026585102 0.049743004 0.062380426
000190 85 03 a0 3c 1d c6 8f bd 70 af 97 bd 9f d4 9f 3c
       0.019532928 -0.07020209 -0.07406509 0.019510565
0001a0 0f ab 97 3d 8d 08 78 3d fc bf 82 bd 63 3b 97 3d
       0.07405674 0.06055503 -0.06384274 0.07384374
0001b0 a2 34 14 bd dd 1c 69 bd af 42 c8 3c 3b f4 8c bd
       -0.036183007 -0.05691229 0.02444586 -0.06882521
0001c0 87 e0 ec bd 98 21 a9 3c 9c 9d e9 bd 6c 78 8e bd
       -0.11566263 0.020645902 -0.11407015 -0.069565624
0001d0 9d c3 55 bd e9 31 0c 3e ff cd 4f bd a5 ba be 3d
       -0.052188504 0.13690914 -0.050733563 0.09312943
0001e0 e4 04 06 3d 94 d4 1c be 27 c5 7a 3d 47 94 cb bd
       0.032719508 -0.15315467 0.061223175 -0.09940391
0001f0 25 e0 bb 3b 4e f6 db 3c e0 8e bc bd 5b f4 67 3d
       0.005733507 0.026850846 -0.09206939 0.05662952
000200 51 b2 97 bd 38 47 9b 3c 89 b2 be bc e1 27 c9 39
       -0.07407058 0.018954858 -0.023278492 0.0003836742
000210 2a 3c a6 bd b6 fd 00 3e 6e fb 31 3d da 1d 1f 3a
       -0.08116944 0.12596783 0.043452673 0.0006069817
000220 60 86 31 3d d5 59 04 3d e0 7c 0b bd a9 4e 89 bd
       0.04334104 0.032312233 -0.034054637 -0.06704456
000230 4d 7b f2 bd f7 38 5e 3c 5d 04 6e bd f8 71 69 3c
       -0.11839924 0.013563386 -0.05810963 0.014248364
000240 e0 a7 03 bc ab 08 e6 bb f2 d6 2f 3d 62 a3 00 bd
       -0.00803563 -0.0070200763 0.042929597 -0.031405814
000250 82 5f 37 3d d7 8c 5f bb 7d 81 b9 3c 58 a1 bf 3c
       0.044768818 -0.0034111047 0.022644753 0.023392364
000260 da 19 b0 3d a0 56 48 3d 6e 2e 8c 3d e6 3b a1 bd
       0.08598681 0.048910737 0.06844793 -0.07872753
000270 7f 0a 98 3d 13 21 1a bd 48 96 20 be 34 05 76 ba
       0.07423877 -0.0376292 -0.15682328 -0.00093849306
000280 2b 13 d6 bd 89 88 7c 3c ad c1 cd 3d d0 df 03 bd
       -0.10452875 0.015413412 0.10046706 -0.032195866
000290 2e eb a9 3c f5 26 9a 3b 35 bf b8 3d 05 ef 09 3e
       0.020742025 0.004704351 0.09020845 0.13470085
0002a0 2d c7 6d bc 61 e1 99 3c 97 5d 53 3d d7 66 db 3d
       -0.014512819 0.018784227 0.051602926 0.107129745
0002b0 7a 7b 29 bd 53 56 af 3b d3 e5 55 3e 7e c5 c8 3c
       -0.041377522 0.005350867 0.20888452 0.024508234
0002c0 20 63 13 be cf 8c c7 bd e2 b6 ac bc cb 7e 2c bd
       -0.14393282 -0.09743654 -0.0210833 -0.042113107
0002d0 e7 85 3a be fc b4 9e bd cc 2a 72 bc 95 0b 46 bd
       -0.18215142 -0.07749364 -0.014780711 -0.04835089
0002e0 de f2 fd 3c 94 36 98 bc 9c 24 de 3d 7b 3b 70 3d
       0.030999597 -0.018580712 0.108468264 0.058650475
0002f0 e8 c2 c3 3c 0b 14 04 3e f1 93 90 3c 58 cd b0 3d
       0.02389665 0.12898271 0.017648669 0.08632916
000300 0d eb 6e bc 6a ee ff bd 6c 11 21 3c 38 3e 57 bd
       -0.014582408 -0.12496646 0.009830814 -0.05254957
000310 9e c2 56 3d ed 97 00 3d 22 8c 80 3d aa 82 17 bc
       0.052431695 0.031394888 0.06276728 -0.009247461
000320 c3 73 9f bd a1 3d e4 bc 41 a5 d0 3d 64 1d 06 be
       -0.07785752 -0.027861418 0.1018777 -0.13097149
000330 42 bd 84 bd ba 11 ee 3b ef 8d f2 3d 94 ff d2 bd
       -0.064814106 0.0072652968 0.11843478 -0.10302654
000340 dc 4a 96 3c 53 a8 87 3c db 13 e3 bc d1 aa 48 3d
       0.018346243 0.016559755 -0.027719429 0.04899103
000350 5a 78 0e be d0 6d a8 bc fb 67 90 bd 33 ec 35 3d
       -0.13913098 -0.020560175 -0.07051083 0.04441471
000360 c0 f3 be 3d fc 0a 6c 3d da ba 84 3c 89 04 20 be
       0.093238354 0.057627663 0.016202379 -0.1562673
000370 25 f7 29 bd 0a 32 d2 3c a5 8d ee bc 58 3a 93 3d
       -0.04149546 0.025658626 -0.029120276 0.071888626
000380 6d d6 83 3d 2d ee 17 bd 7f a7 a9 bd 11 f7 ce 3d
       0.06437383 -0.037092377 -0.082839005 0.10105718
000390 3b 6d b0 3d d1 f7 e4 3c 73 5a bb 3d 4b 59 8d bd
       0.08614584 0.0279502 0.09148111 -0.06901797
0003a0 d5 f4 1e be ac ae 75 3c b4 e8 28 bd c8 c4 a1 3d
       -0.15523084 0.014995258 -0.041237548 0.07898861
0003b0 19 3d 14 bd 0d b9 2b 3c f4 c1 97 bd 18 5d 37 3e
       -0.03619108 0.010481131 -0.074100405 0.17906606
0003c0 8a 2e 8a 3d 06 72 d2 bc 2c ca cd 3c 56 a7 34 3d
       0.06747158 -0.025689136 0.025120817 0.044104896
0003d0 eb bc 81 bc 85 d8 4a bd c7 c0 ba bd 9a b9 52 3d
       -0.015837153 -0.049522895 -0.091188006 0.051446535
0003e0 ae 6a 81 3d 17 29 14 bd aa 9d 7a 3d 07 cd 6e be
       0.06319176 -0.036172 0.061185516 -0.23320399
0003f0 47 25 06 3d 16 23 94 3d f2 27 a5 3c 05 45 a4 3d
       0.032750394 0.072332546 0.020160649 0.08020977

network_body._body_endoder.seq_layers.2.bias f4 [128]
000000 00 00 00 00 00 00 00 00 00 00 00 00 00 00 00 00
       0.0 0.0 0.0 0.0
000010 00 00 00 00 00 00 00 00 00 00 00 00 00 00 00 00
       0.0 0.0 0.0 0.0
000020 00 00 00 00 00 00 00 00 00 00 00 00 00 00 00 00
       0.0 0.0 0.0 0.0
000030 00 00 00 00 00 00 00 00 00 00 00 00 00 00 00 00
       0.0 0.0 0.0 0.0
000040 00 00 00 00 00 00 00 00 00 00 00 00 00 00 00 00
       0.0 0.0 0.0 0.0
000050 00 00 00 00 00 00 00 00 00 00 00 00 00 00 00 00
       0.0 0.0 0.0 0.0
000060 00 00 00 00 00 00 00 00 00 00 00 00 00 00 00 00
       0.0 0.0 0.0 0.0
000070 00 00 00 00 00 00 00 00 00 00 00 00 00 00 00 00
       0.0 0.0 0.0 0.0
000080 00 00 00 00 00 00 00 00 00 00 00 00 00 00 00 00
       0.0 0.0 0.0 0.0
000090 00 00 00 00 00 00 00 00 00 00 00 00 00 00 00 00
       0.0 0.0 0.0 0.0
0000a0 00 00 00 00 00 00 00 00 00 00 00 00 00 00 00 00
       0.0 0.0 0.0 0.0
0000b0 00 00 00 00 00 00 00 00 00 00 00 00 00 00 00 00
       0.0 0.0 0.0 0.0
0000c0 00 00 00 00 00 00 00 00 00 00 00 00 00 00 00 00
       0.0 0.0 0.0 0.0
0000d0 00 00 00 00 00 00 00 00 00 00 00 00 00 00 00 00
       0.0 0.0 0.0 0.0
0000e0 00 00 00 00 00 00 00 00 00 00 00 00 00 00 00 00
       0.0 0.0 0.0 0.0
0000f0 00 00 00 00 00 00 00 00 00 00 00 00 00 00 00 00
       0.0 0.0 0.0 0.0
000100 00 00 00 00 00 00 00 00 00 00 00 00 00 00 00 00
       0.0 0.0 0.0 0.0
000110 00 00 00 00 00 00 00 00 00 00 00 00 00 00 00 00
       0.0 0.0 0.0 0.0
000120 00 00 00 00 00 00 00 00 00 00 00 00 00 00 00 00
       0.0 0.0 0.0 0.0
000130 00 00 00 00 00 00 00 00 00 00 00 00 00 00 00 00
       0.0 0.0 0.0 0.0
000140 00 00 00 00 00 00 00 00 00 00 00 00 00 00 00 00
       0.0 0.0 0.0 0.0
000150 00 00 00 00 00 00 00 00 00 00 00 00 00 00 00 00
       0.0 0.0 0.0 0.0
000160 00 00 00 00 00 00 00 00 00 00 00 00 00 00 00 00
       0.0 0.0 0.0 0.0
000170 00 00 00 00 00 00 00 00 00 00 00 00 00 00 00 00
       0.0 0.0 0.0 0.0
000180 00 00 00 00 00 00 00 00 00 00 00 00 00 00 00 00
       0.0 0.0 0.0 0.0
000190 00 00 00 00 00 00 00 00 00 00 00 00 00 00 00 00
       0.0 0.0 0.0 0.0
0001a0 00 00 00 00 00 00 00 00 00 00 00 00 00 00 00 00
       0.0 0.0 0.0 0.0
0001b0 00 00 00 00 00 00 00 00 00 00 00 00 00 00 00 00
       0.0 0.0 0.0 0.0
0001c0 00 00 00 00 00 00 00 00 00 00 00 00 00 00 00 00
       0.0 0.0 0.0 0.0
0001d0 00 00 00 00 00 00 00 00 00 00 00 00 00 00 00 00
       0.0 0.0 0.0 0.0
0001e0 00 00 00 00 00 00 00 00 00 00 00 00 00 00 00 00
       0.0 0.0 0.0 0.0
0001f0 00 00 00 00 00 00 00 00 00 00 00 00 00 00 00 00
       0.0 0.0 0.0 0.0

action_model._continuous_distribution.mu.weight f4 [1, 128]
000000 4b a7 7a bc 08 c2 78 b9 01 41 96 3c d1 0f 11 39
       -0.015298675 -0.00023723405 0.018341543 0.0001383417
000010 2b 90 ad bb f4 56 9e 3c c4 b4 86 3c e8 79 86 bc
       -0.005296727 0.019328572 0.016443618 -0.016415551
000020 cc eb 9f ba 6f 56 19 3d 33 b9 1a 3b 4d e3 fe b9
       -0.001220101 0.037435945 0.0023608922 -0.00048616008
000030 63 93 b6 3b fa c8 c8 bb af 9e 5e 3c 65 b3 ca bc
       0.005571769 -0.006127474 0.013587638 -0.024743745
000040 c2 22 74 bc 0d 94 b0 bc c0 c4 2d 3c 23 f0 5d bb
       -0.014900865 -0.021554971 0.010605991 -0.0033865056
000050 b0 ac f3 3b 9f b9 bb bb 66 ea c1 bc 35 be cf bb
       0.0074363574 -0.005728915 -0.02367134 -0.006339813
000060 e2 56 f7 3c 2b d1 96 bc c7 fa 36 3b 3a 09 50 bc
       0.030192796 -0.018410286 0.002792047 -0.012697512
000070 e5 0b 69 3c 15 aa b9 3b e3 97 7f bc 8a 05 1b bb
       0.014224027 0.0056660273 -0.015600177 -0.0023654425
000080 38 1e ab 3b 63 0e 3a bc 84 7c ba 3b e0 e3 25 3b
       0.005222108 -0.011355969 0.005691113 0.0025312826
000090 03 da 9f 3b fe 2d 84 3c 66 a8 95 bc 28 07 e6 bb
       0.004878284 0.016135212 -0.018268775 -0.007019896
0000a0 0b 6f d5 bc 5b 4f 47 3c a2 3a 4b bc 5f 6f 99 bb
       -0.026053926 0.012164916 -0.012404116 -0.004682466
0000b0 85 67 7d 3c d8 41 f2 bc 6d 7b f5 3c 1f e3 98 3c
       0.0154665755 -0.029572412 0.02996608 0.018662987
0000c0 2b a0 84 3c 9d cd cd 3b 23 53 ca 3a 05 64 6d 3c
       0.016189655 0.0062806145 0.0015436154 0.014489179
0000d0 25 e1 be bc 70 cd 7b 3c ee 20 b6 bc 5e ad 1a ba
       -0.023300717 0.015368804 -0.022232499 -0.00059004675
0000e0 ef 67 6b 3c fd f6 7c 3b 28 a1 ec bb d7 e1 da 3a
       0.014368041 0.0038599365 -0.0072213598 0.0016699386
0000f0 dc 8d 10 bb 8e b1 a0 bc 6f 08 4b 3c 1d 46 c8 3c
       -0.002205721 -0.019615915 0.012392147 0.024447495
000100 ea 9a 15 3c a1 a9 b2 b9 8a 8f 41 bc a3 18 1c bc
       0.009131173 -0.0003407719 -0.011814008 -0.009527358
000110 79 25 2b 3c 83 ca 09 3d 8f d9 0e 3c cd f0 29 3d
       0.010445946 0.033640396 0.008718862 0.04148941
000120 84 fd 0e bb f1 4e 38 bc 12 26 30 3d 23 2e b0 bc
       -0.0021818588 -0.01124929 0.043005057 -0.021506375
000130 48 13 6d ba e9 97 3f bb eb 57 a3 3b f4 dd c2 3b
       -0.00090437056 -0.0029234833 0.004984846 0.005946869
000140 f4 36 82 bc 62 eb 64 3c 59 e0 94 bb 27 fd 80 bc
       -0.015895344 0.013972135 -0.004543346 -0.015745712
000150 ed d8 a6 3c fe 0c c8 39 02 06 1f 3c ad ed ea bc
       0.02036711 0.00038156653 0.009706022 -0.028677786
000160 3d 4e ce 3b 70 d4 71 3c 0f b0 e1 3c 14 cf a9 bc
       0.006295948 0.014760122 0.027549772 -0.020728625
000170 b7 e1 2a 3c ca 8c 9c 3b 03 33 9a 3c 73 61 91 bc
       0.010429791 0.0047775256 0.018823152 -0.017746663
000180 b7 2b 53 bc 39 bd 4a 3c 15 47 01 3c 6a 59 f5 bb
       -0.01288884 0.012374216 0.007890482 -0.0074874656
000190 d5 98 c5 3c e3 2f cf 3c ff 40 2e 3c 41 e6 c6 3b
       0.024120728 0.025291389 0.010635613 0.006069929
0001a0 4b 30 a4 3a 8a 66 a8 3b 20 c7 7f 3c d0 7a 66 bc
       0.00125266 0.0051391767 0.01561144 -0.014067367
0001b0 d5 a6 f4 bc 62 23 5c bc 43 b8 24 3c 99 87 ca 3b
       -0.029864708 -0.01343617 0.010053697 0.0061807153
0001c0 5a 76 4c 3c 79 50 9f 3b 82 d5 2f bd 8f c0 59 bc
       0.012479389 0.004861888 -0.042928226 -0.013290538
0001d0 40 5c d0 bb 93 14 50 bc 99 0b a8 3c 6d 21 74 bc
       -0.0063586533 -0.012700218 0.020513343 -0.014900547
0001e0 7f 28 84 3b 14 11 0c 3d e2 69 99 bb f2 8d c7 bc
       0.004033148 0.034195974 -0.0046818117 -0.024359677
0001f0 78 3f ce bc 87 f2 2a 3c d7 be 55 bd cc fa 45 3c
       -0.025176749 0.0104338 -0.052183952 0.01208372

network_body._body_endoder.seq_layers.0.weight f4 [128, 6]
000000 5e 34 1c 3e 15 32 ed be e2 00 bc 3e f1 87 ef bc
       0.15254351 -0.46327272 0.36719424 -0.029239627
000010 b9 cc ac 3e e6 d1 4a bf 74 11 8f 3e 20 4c ab bd
       0.3374994 -0.7922653 0.27943003 -0.08364129
000020 c5 fe e9 3e 8c 14 2f 3e f4 b1 a3 be a5 f5 b2 ba
       0.45702186 0.17097682 -0.31971705 -0.001365353
000030 b1 ab 0a 3f 94 77 5f be 3c 2e a6 bd df e8 09 be
       0.5416823 -0.21822959 -0.08114287 -0.1346774
000040 e3 e8 91 bd 4d dc 3f bf a0 31 38 bf 58 6d 8e bd
       -0.07124498 -0.7494553 -0.7195072 -0.069544494
000050 49 20 9f 3d 41 9c b7 bc d1 63 f0 bd 9e a3 a9 3e
       0.0776983 -0.022413375 -0.117377885 0.33132643
000060 66 cc a8 be 5d 40 48 be fc d4 f9 3e 4b a8 bd be
       -0.32968444 -0.19555803 0.48795307 -0.3704246
000070 a3 62 a9 be 46 50 22 3d 39 a4 30 be f8 b4 6d be
       -0.33083066 0.039627336 -0.17250146 -0.23213565
000080 1e 06 93 3e a6 1a 2f 3f 80 fe 82 bf 36 63 16 3c
       0.28715605 0.6840004 -1.0233917 0.009178927
000090 ff 6b fc 3e 34 23 09 bf cd 6b 5e bc bd 29 30 be
       0.49301144 -0.5356934 -0.013575506 -0.17203422
0000a0 a3 a7 ae 3e 7e 23 34 bf a0 45 21 be af 1b d9 bd
       0.34112272 -0.70366657 -0.15749216 -0.10600983
0000b0 77 54 ff 3e c3 0d 15 bf da dd 5f 3e 94 71 dc be
       0.4986913 -0.58224124 0.21861973 -0.43055403
0000c0 f5 50 95 be 34 82 0c 3e cf 7e 82 be 0a 1a ff be
       -0.29163328 0.13721544 -0.25487372 -0.49824554
0000d0 09 49 0b be 9c cd 6d be c8 b7 04 3f e1 f4 d8 3d
       -0.1360208 -0.23222965 0.5184293 0.10593582
0000e0 c9 82 1f be 4f 41 1e 3f 47 dd f2 be 04 f2 8c 3e
       -0.15577234 0.61818403 -0.47434446 0.27528393
0000f0 6c 64 fb 3e 27 cd e2 3e 94 0e 08 be 1b 1e c1 3e
       0.49100053 0.44297144 -0.13286811 0.3771828
000100 d5 f9 af 3a 0b 2f 7e 3e 3f e5 aa 3e 0c 5b 00 bc
       0.0013425896 0.24822633 0.33378026 -0.007834207
000110 fd b0 08 bf 39 a8 99 3e c2 8a 02 bf 5b 91 14 bf
       -0.5339506 0.30011156 -0.5099298 -0.58034295
000120 98 0e f5 3d 3c f8 ae 3e 94 25 d7 3d be e2 64 3e
       0.11965674 0.34173763 0.10505214 0.2235212
000130 e6 d3 5b be eb c5 17 be 73 b7 10 3f 68 e4 08 3f
       -0.21467552 -0.14821593 0.5652992 0.5347352
000140 d8 f4 11 3f f1 89 5a 3f 67 89 8e 3e 19 1b 03 bf
       0.57014227 0.8536673 0.27839205 -0.5121322
000150 73 66 fc bd b6 d8 1f 3d 11 d3 68 be 06 5b 67 bf
       -0.12324228 0.03902503 -0.22736765 -0.90373266
000160 37 ff a4 3e 9e d8 78 bf bc 6c 0d 3d df d8 01 bf
       0.32225963 -0.9720553 0.034527525 -0.50721544
000170 3f 07 0e 3e 8c c2 3a bf 37 ab d7 3e 9b 19 86 be
       0.13869952 -0.72953105 0.42122814 -0.2619141
000180 73 a9 52 bf ee eb 9c 3e c1 63 1d 3f b0 76 63 3e
       -0.8228981 0.3064875 0.6148034 0.22213244
000190 78 14 34 3d 32 5c 6a bf 36 e2 22 3f 41 72 a3 be
       0.043964833 -0.9154693 0.6362642 -0.31923106
0001a0 29 59 6f 3e 1c ec bf be c6 31 e6 3d 04 50 23 3e
       0.23373856 -0.37484825 0.11239962 0.15948492
0001b0 64 83 26 3e ec e3 96 be 09 6f 02 be c5 e8 0a be
       0.16261059 -0.29470766 -0.12737669 -0.13565357
0001c0 12 ef 4f bd fe 10 04 3f b2 48 83 3e 2d e7 9c be
       -0.050765105 0.5158843 0.256414 -0.30645123
0001d0 bd e1 32 bf b5 e5 c2 3d bc 5a 78 be b1 48 18 bd
       -0.698757 0.095164694 -0.24253362 -0.0371787
0001e0 0d 12 12 bd d7 c9 0c 3f e6 86 8f be 31 2c fe be
       -0.035661746 0.54995483 -0.28032607 -0.4964309
0001f0 4b 40 6b bd c3 31 ed 3d ef 6d 85 be 7a f6 75 bc
       -0.05743436 0.11581757 -0.26060435 -0.015012378
000200 0c ec 61 3e 1f 45 5b bd 04 a1 52 3f 78 aa b9 3e
       0.22062701 -0.053532716 0.8227694 0.3626287
000210 98 da 68 be 7d 35 74 3e b5 d0 bb be bf d0 e7 3e
       -0.22739637 0.23848529 -0.36682668 0.45276448
000220 88 22 fe be 99 b3 c8 3e f2 fc 68 3e f9 56 b5 be
       -0.4963572 0.39199522 0.22752741 -0.35417917
000230 6c e2 02 bd 5a e6 0c 3e aa a9 54 3d 11 cf 22 3e
       -0.031954214 0.13759747 0.051919617 0.15899302
000240 fc f6 2c bf 74 6c c8 be 0d a9 52 3f 28 a9 fd bc
       -0.6756437 -0.39145243 0.822892 -0.030964449
000250 63 a7 fb 3d a4 73 34 3e a1 97 cb 3e c0 1d c5 be
       0.12287786 0.17622238 0.3976412 -0.3849926
000260 10 f6 83 3e 30 8e 4d 3f 86 66 75 3e c1 90 0e 3f
       0.25773668 0.80295086 0.23964891 0.55689627
000270 29 14 47 be a8 50 c6 bd b9 e7 dc 3e f6 48 f6 3e
       -0.19441284 -0.09683353 0.4314554 0.4810254
000280 a9 b5 1c bf 13 99 4d 3e f2 ed 19 bf 93 95 1a be
       -0.6121469 0.20077924 -0.601287 -0.1509612
000290 2c a1 1f 3d ac 64 b5 bc 72 34 a0 3e c9 5c 40 3f
       0.038972065 -0.02214273 0.31290013 0.7514158
0002a0 05 d4 9a 3d 4d e1 04 3f 0e 72 b0 be e0 10 50 be
       0.07559971 0.5190628 -0.34462017 -0.20318937
0002b0 06 c3 1c 3f 16 5e 27 bf ad 8e d7 3e 89 2b 8b be
       0.6123508 -0.6537794 0.4210104 -0.27181652
0002c0 31 3e 00 3f 97 f8 cc 3e d0 db 0a bf 33 90 53 3e
       0.50094897 0.4003341 -0.5424166 0.20660476
0002d0 b4 28 18 3f 29 83 37 bd de 39 3a be 0a 7f 7e bf
       0.5943711 -0.04480282 -0.18186137 -0.99412596
0002e0 e7 31 76 be b8 27 1b 3e 57 a1 5b 3e 76 0e 5d bd
       -0.24042474 0.1515187 0.21448265 -0.05396887
0002f0 c7 c6 9f be 03 72 97 be 09 14 7b be 86 73 4c bf
       -0.31206343 -0.29579172 -0.24519362 -0.79863775
000300 1a ef cc 3e 43 3d b5 be 7d c0 35 be fc 2b 95 3d
       0.4002617 -0.353983 -0.1774921 0.0728378
000310 96 71 7e be b3 fc e9 3d 84 8d 9f be de b6 62 be
       -0.24848017 0.11425152 -0.31162655 -0.22140071
000320 0d 8f 0f 3f f5 54 bf be 58 ad 9f bd f9 4a b0 be
       0.56077653 -0.37369505 -0.077967346 -0.344322
000330 dd 93 21 be 46 eb c3 3d ee e3 ee 3e 7c ed 07 3e
       -0.15779062 0.09566359 0.46658272 0.13274187
000340 1b ec da be 33 c3 f9 be c9 7f 84 3f d8 19 ec be
       -0.4275826 -0.48781738 1.0351497 -0.46113467
000350 fb 49 a2 3e 91 d2 99 be e3 4b 71 be 39 99 b0 bd
       0.31697068 -0.30043462 -0.23564105 -0.08622975
000360 be 6e 4c 3f 59 20 60 be e6 98 ea bd 1d 5f 87 3f
       0.7985648 -0.2188734 -0.11454944 1.0575901
000370 ac 65 dd be 43 5e b2 be 0b f3 e3 3e 69 8e 6d 3f
       -0.43241632 -0.3483754 0.44521365 0.92795426
000380 37 b5 f5 3e 79 d0 e2 bc 3a 67 b4 3d 3c ee 39 3e
       0.47989818 -0.027687298 0.088087514 0.18157285
000390 89 b6 94 bf 7b a3 09 bf 2c d1 8f 3f d8 83 d4 3c
       -1.1618205 -0.53765076 1.1235709 0.025941774
0003a0 66 11 1a 3d bb e3 70 be e7 c9 e0 be 0c 11 ef 3e
       0.03761425 -0.23524372 -0.4390404 0.46692693
0003b0 7a 55 1c be 08 e0 7c 3f 1e ac a5 3d 56 eb c7 3e
       -0.15266982 0.98779345 0.080894694 0.39046735
0003c0 92 e2 5b be 7e c6 61 3e 4a d8 62 bd bf c2 77 be
       -0.21473148 0.22048375 -0.05538205 -0.24195383
0003d0 d6 24 e0 3d 0f bf 3a 3e dc 2d 74 be 3a a6 46 3e
       0.10944526 0.18236946 -0.23845619 0.19399348
0003e0 e0 0f d9 3e 15 80 d2 3e a9 97 10 3f f9 65 11 bf
       0.42394924 0.41113344 0.56481415 -0.5679622
0003f0 fb 59 e4 bd 77 7e 2f 3f 20 1f c6 3d 9f 36 6e 3d
       -0.11149975 0.68552345 0.096739054 0.05815756

network_body._body_endoder.seq_layers.0.bias f4 [128]
000000 00 00 00 00 00 00 00 00 00 00 00 00 00 00 00 00
       0.0 0.0 0.0 0.0
000010 00 00 00 00 00 00 00 00 00 00 00 00 00 00 00 00
       0.0 0.0 0.0 0.0
000020 00 00 00 00 00 00 00 00 00 00 00 00 00 00 00 00
       0.0 0.0 0.0 0.0
000030 00 00 00 00 00 00 00 00 00 00 00 00 00 00 00 00
       0.0 0.0 0.0 0.0
000040 00 00 00 00 00 00 00 00 00 00 00 00 00 00 00 00
       0.0 0.0 0.0 0.0
000050 00 00 00 00 00 00 00 00 00 00 00 00 00 00 00 00
       0.0 0.0 0.0 0.0
000060 00 00 00 00 00 00 00 00 00 00 00 00 00 00 00 00
       0.0 0.0 0.0 0.0
000070 00 00 00 00 00 00 00 00 00 00 00 00 00 00 00 00
       0.0 0.0 0.0 0.0
000080 00 00 00 00 00 00 00 00 00 00 00 00 00 00 00 00
       0.0 0.0 0.0 0.0
000090 00 00 00 00 00 00 00 00 00 00 00 00 00 00 00 00
       0.0 0.0 0.0 0.0
0000a0 00 00 00 00 00 00 00 00 00 00 00 00 00 00 00 00
       0.0 0.0 0.0 0.0
0000b0 00 00 00 00 00 00 00 00 00 00 00 00 00 00 00 00
       0.0 0.0 0.0 0.0
0000c0 00 00 00 00 00 00 00 00 00 00 00 00 00 00 00 00
       0.0 0.0 0.0 0.0
0000d0 00 00 00 00 00 00 00 00 00 00 00 00 00 00 00 00
       0.0 0.0 0.0 0.0
0000e0 00 00 00 00 00 00 00 00 00 00 00 00 00 00 00 00
       0.0 0.0 0.0 0.0
0000f0 00 00 00 00 00 00 00 00 00 00 00 00 00 00 00 00
       0.0 0.0 0.0 0.0
000100 00 00 00 00 00 00 00 00 00 00 00 00 00 00 00 00
       0.0 0.0 0.0 0.0
000110 00 00 00 00 00 00 00 00 00 00 00 00 00 00 00 00
       0.0 0.0 0.0 0.0
000120 00 00 00 00 00 00 00 00 00 00 00 00 00 00 00 00
       0.0 0.0 0.0 0.0
000130 00 00 00 00 00 00 00 00 00 00 00 00 00 00 00 00
       0.0 0.0 0.0 0.0
000140 00 00 00 00 00 00 00 00 00 00 00 00 00 00 00 00
       0.0 0.0 0.0 0.0
000150 00 00 00 00 00 00 00 00 00 00 00 00 00 00 00 00
       0.0 0.0 0.0 0.0
000160 00 00 00 00 00 00 00 00 00 00 00 00 00 00 00 00
       0.0 0.0 0.0 0.0
000170 00 00 00 00 00 00 00 00 00 00 00 00 00 00 00 00
       0.0 0.0 0.0 0.0
000180 00 00 00 00 00 00 00 00 00 00 00 00 00 00 00 00
       0.0 0.0 0.0 0.0
000190 00 00 00 00 00 00 00 00 00 00 00 00 00 00 00 00
       0.0 0.0 0.0 0.0
0001a0 00 00 00 00 00 00 00 00 00 00 00 00 00 00 00 00
       0.0 0.0 0.0 0.0
0001b0 00 00 00 00 00 00 00 00 00 00 00 00 00 00 00 00
       0.0 0.0 0.0 0.0
0001c0 00 00 00 00 00 00 00 00 00 00 00 00 00 00 00 00
       0.0 0.0 0.0 0.0
0001d0 00 00 00 00 00 00 00 00 00 00 00 00 00 00 00 00
       0.0 0.0 0.0 0.0
0001e0 00 00 00 00 00 00 00 00 00 00 00 00 00 00 00 00
       0.0 0.0 0.0 0.0
0001f0 00 00 00 00 00 00 00 00 00 00 00 00 00 00 00 00
       0.0 0.0 0.0 0.0

network_body._body_endoder.seq_layers.2.weight f4 [128, 128]
000000 a6 84 89 bd 79 18 3b bc 72 bb 2e 3c af 21 9b 3d
       -0.06714754 -0.011419409 0.010664808 0.07574784
000010 aa cf ae 3d 4c 40 75 3c 25 ac 6b bd c1 d3 e6 bc
       0.085357025 0.014968943 -0.057537217 -0.028177144
000020 02 3b 46 3d be 14 35 bc 6e 0b 26 3c c2 50 61 bd
       0.048396118 -0.011052309 0.010134561 -0.055008657
000030 83 0f 62 3d 28 28 21 3d d7 f1 92 bd 07 82 c3 bd
       0.055190574 0.039344937 -0.071750335 -0.09546285
000040 b4 74 15 3e fe 07 8b bb 2d ab b5 bd 00 b6 d4 ba
       0.145953 -0.004242896 -0.0887054 -0.0016228557
000050 b0 f9 4e 3b 51 9e 1a bd 34 64 f0 3d 16 b3 93 bc
       0.003158193 -0.03774864 0.11737862 -0.01802973
000060 0a bb 57 3d d0 d3 76 3d b6 90 a9 3b b9 45 f1 3d
       0.05266861 0.060260594 0.0051747216 0.11780877
000070 53 de aa bd d0 7d c8 bb ec 6b f2 3c bd 5e e7 bd
       -0.08343186 -0.0061185136 0.029592477 -0.11297367
000080 10 0c c6 bd d5 e1 4a 3d d8 6a cb bc d4 13 d4 bd
       -0.096702695 0.049531776 -0.02483122 -0.103553444
000090 ab 37 f7 bd 69 d1 82 3d b9 7d 20 bd 55 72 d3 bd
       -0.12071165 0.06387598 -0.0391824 -0.103245415
0000a0 3b 3c 22 bd d0 13 27 bd d6 b8 13 bd 89 0e dc bd
       -0.03960822 -0.04079038 -0.036064945 -0.1074496
0000b0 16 ca fe bb 29 eb 1d 3e da 6d a4 3d 5c d8 d3 bc
       -0.0077755554 0.15421738 0.08028765 -0.025860004
0000c0 d7 a4 ab 3d 0b fd 8e 3d b5 59 a0 bd 56 fe d4 bd
       0.0838105 0.06981858 -0.0782961 -0.10400073
0000d0 25 84 ad bb 62 ad 1b bd 07 fc 4b 3d 96 6b 0b 3e
       -0.005295294 -0.038007148 0.0498009 0.1361526
0000e0 11 81 28 3d d4 08 86 bd 68 c6 86 3e fc 3b 6d 3d
       0.041138712 -0.065446526 0.26323247 0.057918534
0000f0 a0 e1 56 be a3 fc 80 bc ee b8 56 3c 8c 10 a4 3d
       -0.20984507 -0.015745467 0.013105614 0.080109686
000100 40 ae 0c bd 19 fd ab 3d a1 36 9f 3d 69 70 f6 ba
       -0.034345865 0.08397884 0.077740915 -0.0018801811
000110 52 61 9c 3d 7e aa 0e 3d 67 08 c7 bc a5 d4 c7 3c
       0.0763575 0.034830563 -0.024295999 0.024393389
000120 88 c1 06 3e 70 54 ed bd 80 b6 a5 3d 6c b2 af 3d
       0.13159764 -0.11588371 0.0809145 0.08578953
000130 7d fd 2e be 69 60 0d bd e5 35 76 bb 9d e0 e6 3d
       -0.17088886 -0.034515772 -0.0037568745 0.1127331
000140 d2 b9 d3 3d a0 69 3a bc 85 b5 eb 3c b5 0b c1 bd
       0.10338177 -0.011377722 0.028773079 -0.09426061
000150 ed 87 9a bc c1 56 17 bd 4b c1 0d 3e aa 02 fa 3d
       -0.018863643 -0.03694797 0.13843267 0.122075394
000160 11 0d 7c 3d 57 ef 66 3c 3e df 92 3d 92 64 4f bd
       0.0615359 0.014095149 0.07171486 -0.05063302
000170 6d 28 24 3d c6 2b a5 bd da e0 f9 bd f0 96 09 be
       0.040077616 -0.0806499 -0.1220109 -0.13436484
000180 af b0 93 3d 4a 2a fd bc dc 02 5a 3e 8f c5 32 bd
       0.07211434 -0.030903954 0.21290153 -0.043645438
000190 ee d3 ce 3d 15 c6 0c 3d b5 09 62 3d 83 a3 19 3e
       0.10099016 0.034368593 0.05518504 0.15003781
0001a0 4f 66 84 3d de e4 6d bd e3 67 f9 3c fa 93 85 bc
       0.06464826 -0.058079593 0.030445045 -0.016305912
0001b0 a0 3e 68 3d fc 57 16 bd 44 e2 3d 3c c8 5a a1 bd
       0.05670035 -0.036705002 0.01158959 -0.07878643
0001c0 12 ba d4 3d 2d 6c 8a 3c d2 bf bf 3d 91 d8 58 bd
       0.103870526 0.016897285 0.09362759 -0.05294091
0001d0 fa 24 19 3e d7 ec 03 be b8 71 87 3d 26 b1 e4 3d
       0.14955512 -0.12883316 0.06613487 0.11166601
0001e0 1c 64 a2 bc a5 0e c7 bd 3f 26 f3 bd 66 ec 3e 3e
       -0.019823126 -0.0971959 -0.11872529 0.18644866
0001f0 a0 2a 1c 3d d1 35 11 be a2 fe b2 bd e5 ce 01 3e
       0.038126588 -0.14180686 -0.087399736 0.1267658
000200 61 78 f6 3a ca 12 3e 3d de 3f 2a 3d 35 13 d8 3c
       0.0018804186 0.046404637 0.041564815 0.026376346
000210 98 e4 23 3d ca 62 8e bd 4f b8 3f 3c 0e 68 3b bc
       0.040012926 -0.06952436 0.011701657 -0.011438383
000220 d4 37 e5 bc 89 b5 9d bc 97 d6 9a 3d 67 7c 40 3e
       -0.027980722 -0.019251602 0.07560461 0.18797456
000230 f2 cc ad 3c 8b 23 c7 3b 97 e2 25 3c fc 8f b0 3c
       0.02121589 0.006077235 0.010124824 0.021553032
000240 28 e5 56 bd e1 83 bf bc 51 5c 2b 3e 26 e6 77 bd
       -0.052464634 -0.023378314 0.16734435 -0.06052222
000250 ad c5 3b 3e 25 c0 75 3e 24 20 f3 bd dc c4 44 3c
       0.18337126 0.23999079 -0.11871365 0.012009826
000260 90 db 84 3c c1 cc fb 3b b6 4d 74 3d c2 06 a2 3d
       0.016217977 0.0076843207 0.059644423 0.07911445
000270 1b 87 6a 3d c2 29 76 bd c8 70 15 bd 92 6f e2 bd
       0.057257753 -0.060098417 -0.03648451 -0.110564366
000280 e9 29 ec bc f3 88 13 bd 1a c8 87 bd 10 7e 75 bc
       -0.028828578 -0.036019277 -0.06629963 -0.014983669
000290 49 4b f7 bd 7f c0 2d 3d 68 26 1a 3e 85 10 a8 bd
       -0.120749064 0.042419907 0.15053713 -0.08206276
0002a0 8f cb 25 3e 5c fc c7 3d f2 19 ae 3c 1b ed 49 bd
       0.16190933 0.097649306 0.021252606 -0.049298387
0002b0 2c 94 11 bc df ac aa 3d f6 04 74 3c 21 93 a2 bd
       -0.008885425 0.08333754 0.014893761 -0.07938219
0002c0 69 43 bd bd 3c 96 f4 3d 9d ab 84 bb 56 81 94 bb
       -0.09241373 0.119427174 -0.004048778 -0.0045320196
0002d0 d6 30 43 be 12 67 ea 3c dd f2 3a 3d de 7a 41 be
       -0.19061598 0.0286136 0.04564177 -0.18894526
0002e0 5f 4f 55 be 03 e3 a8 bd 2b b2 05 bc 00 7a d6 bd
       -0.20831059 -0.08246424 -0.008160154 -0.104724884
0002f0 23 08 0f 3c 9d 1e 80 bc a6 38 43 bd 59 2e 31 3e
       0.008729967 -0.015639598 -0.047661446 0.17302836
000300 b2 15 d7 3c fe f8 0f 3e cf 09 2f bd ab 06 60 bc
       0.026255462 0.14059827 -0.042733964 -0.013673465
000310 63 41 23 3d 76 57 07 3e 1c 7f 8b 3d a2 ab 9a 3d
       0.03985728 0.13216957 0.068113536 0.075522676
000320 91 6f 37 bd fd 3a 66 bd 7b 0a 38 3e 5b 90 36 3d
       -0.044784132 -0.0562086 0.17972748 0.04457126
000330 f7 cb d4 3d 79 66 45 3d 66 5e 1d 3e 13 6f b5 bd
       0.10390466 0.04819343 0.15368041 -0.08859076
000340 fd ab 99 3c bb fd 5b bd 7c b3 68 3d 57 c4 07 3d
       0.018758768 -0.053708773 0.056811795 0.03314623
000350 c2 46 dc 3d 06 20 47 bd 2c 23 13 3c bd b6 02 3d
       0.107556835 -0.048614524 0.008980554 0.031912554
000360 90 26 83 bc 85 db e3 3c 5b da e5 3d a6 1b 39 3e
       -0.016009599 0.027814636 0.112232886 0.18076953
000370 ab 30 fe 3b 0c d6 b5 3c 33 10 bf bd f3 7c 38 bc
       0.0077572665 0.022196792 -0.09329262 -0.011260259
000380 d3 66 2a 3d a8 a2 b6 3c 05 89 bf 3d 51 50 2d 3e
       0.041601967 0.022294357 0.09352306 0.1692517
000390 07 2c 6a 3d c9 4d b0 3a 2e 39 8c bd 4f 75 78 bc
       0.057170894 0.0013450916 -0.06846844 -0.015164687
0003a0 0e 02 0c bd 41 10 4b 3d 4b 06 b2 bd 13 57 a9 3d
       -0.034181647 0.049576048 -0.086926065 0.08268561
0003b0 3c a1 af bd c5 f6 0d bd 03 96 f2 3c b1 8e 94 bb
       -0.08575675 -0.034659166 0.029612547 -0.0045336117
0003c0 cf 88 25 3e f6 f1 ea 3d c6 14 d7 3d ac 8f 08 be
       0.1616547 0.11471932 0.10502009 -0.13336056
0003d0 eb 6b 1b be dd f0 f5 bc 87 52 60 3d f4 6e c3 3d
       -0.15177886 -0.03002208 0.054766204 0.09542647
0003e0 a4 12 08 bc 21 7d d8 3c 39 79 52 3d 08 c5 be bd
       -0.0083052255 0.026426854 0.05138514 -0.093149245
0003f0 68 97 eb 3c 9a bc 0d bd d2 6d 03 bd 42 54 3a bd
       0.02875872 -0.034603693 -0.032087155 -0.04549051

network_body._body_endoder.seq_layers.2.bias f4 [128]
000000 00 00 00 00 00 00 00 00 00 00 00 00 00 00 00 00
       0.0 0.0 0.0 0.0
000010 00 00 00 00 00 00 00 00 00 00 00 00 00 00 00 00
       0.0 0.0 0.0 0.0
000020 00 00 00 00 00 00 00 00 00 00 00 00 00 00 00 00
       0.0 0.0 0.0 0.0
000030 00 00 00 00 00 00 00 00 00 00 00 00 00 00 00 00
       0.0 0.0 0.0 0.0
000040 00 00 00 00 00 00 00 00 00 00 00 00 00 00 00 00
       0.0 0.0 0.0 0.0
000050 00 00 00 00 00 00 00 00 00 00 00 00 00 00 00 00
       0.0 0.0 0.0 0.0
000060 00 00 00 00 00 00 00 00 00 00 00 00 00 00 00 00
       0.0 0.0 0.0 0.0
000070 00 00 00 00 00 00 00 00 00 00 00 00 00 00 00 00
       0.0 0.0 0.0 0.0
000080 00 00 00 00 00 00 00 00 00 00 00 00 00 00 00 00
       0.0 0.0 0.0 0.0
000090 00 00 00 00 00 00 00 00 00 00 00 00 00 00 00 00
       0.0 0.0 0.0 0.0
0000a0 00 00 00 00 00 00 00 00 00 00 00 00 00 00 00 00
       0.0 0.0 0.0 0.0
0000b0 00 00 00 00 00 00 00 00 00 00 00 00 00 00 00 00
       0.0 0.0 0.0 0.0
0000c0 00 00 00 00 00 00 00 00 00 00 00 00 00 00 00 00
       0.0 0.0 0.0 0.0
0000d0 00 00 00 00 00 00 00 00 00 00 00 00 00 00 00 00
       0.0 0.0 0.0 0.0
0000e0 00 00 00 00 00 00 00 00 00 00 00 00 00 00 00 00
       0.0 0.0 0.0 0.0
0000f0 00 00 00 00 00 00 00 00 00 00 00 00 00 00 00 00
       0.0 0.0 0.0 0.0
000100 00 00 00 00 00 00 00 00 00 00 00 00 00 00 00 00
       0.0 0.0 0.0 0.0
000110 00 00 00 00 00 00 00 00 00 00 00 00 00 00 00 00
       0.0 0.0 0.0 0.0
000120 00 00 00 00 00 00 00 00 00 00 00 00 00 00 00 00
       0.0 0.0 0.0 0.0
000130 00 00 00 00 00 00 00 00 00 00 00 00 00 00 00 00
       0.0 0.0 0.0 0.0
000140 00 00 00 00 00 00 00 00 00 00 00 00 00 00 00 00
       0.0 0.0 0.0 0.0
000150 00 00 00 00 00 00 00 00 00 00 00 00 00 00 00 00
       0.0 0.0 0.0 0.0
000160 00 00 00 00 00 00 00 00 00 00 00 00 00 00 00 00
       0.0 0.0 0.0 0.0
000170 00 00 00 00 00 00 00 00 00 00 00 00 00 00 00 00
       0.0 0.0 0.0 0.0
000180 00 00 00 00 00 00 00 00 00 00 00 00 00 00 00 00
       0.0 0.0 0.0 0.0
000190 00 00 00 00 00 00 00 00 00 00 00 00 00 00 00 00
       0.0 0.0 0.0 0.0
0001a0 00 00 00 00 00 00 00 00 00 00 00 00 00 00 00 00
       0.0 0.0 0.0 0.0
0001b0 00 00 00 00 00 00 00 00 00 00 00 00 00 00 00 00
       0.0 0.0 0.0 0.0
0001c0 00 00 00 00 00 00 00 00 00 00 00 00 00 00 00 00
       0.0 0.0 0.0 0.0
0001d0 00 00 00 00 00 00 00 00 00 00 00 00 00 00 00 00
       0.0 0.0 0.0 0.0
0001e0 00 00 00 00 00 00 00 00 00 00 00 00 00 00 00 00
       0.0 0.0 0.0 0.0
0001f0 00 00 00 00 00 00 00 00 00 00 00 00 00 00 00 00
       0.0 0.0 0.0 0.0

value_heads.value_heads.extrinsic.weight f4 [1, 128]
000000 d8 1d 51 be 11 e5 4f bd cc f7 90 3d cf 76 df bd
       -0.2042154 -0.050755564 0.070785135 -0.10911333
000010 68 5d d3 bd 9f f1 8b bd d8 ac d9 bd 8b c0 3a 3e
       -0.1032055 -0.06833195 -0.106286705 0.18237512
000020 90 97 27 3e df 1c 4c 3e d1 3d 32 bc 06 f2 e0 bd
       0.1636641 0.19932888 -0.010878996 -0.10983662
000030 e7 eb 20 3e 02 d4 33 be 30 33 b3 bb 12 8f 81 bd
       0.1571499 -0.17561343 -0.0054687485 -0.063261166
000040 f5 f2 00 3e 1c 20 35 be ac 75 97 bd be 48 1b 3e
       0.12592681 -0.1768803 -0.07395491 0.15164468
000050 98 b1 80 bd 3a 5b 25 bd 9e da 8f bd 75 ef 4c 3e
       -0.06283873 -0.040370204 -0.0702412 0.2001322
000060 9e 52 86 3d 97 1f 35 be 71 48 47 bc bf 20 0b be
       0.06558727 -0.17687832 -0.0121632675 -0.1358671
000070 8e a3 12 bc fa 91 15 be 24 8f 5b be 28 bb b1 bd
       -0.008950127 -0.14606467 -0.21441323 -0.08678275
000080 97 54 41 3e db d3 37 bd e5 5d 4d 3d 34 1d 9b bc
       0.18879925 -0.044879775 0.050138373 -0.018934824
000090 45 49 48 be 4b 19 c1 3d 39 d9 59 bd 7b 12 1a be
       -0.195592 0.094286524 -0.053185675 -0.15046112
0000a0 45 a2 13 be fc e4 49 be 69 65 13 be b7 50 3a be
       -0.1441737 -0.19716257 -0.14394154 -0.18194853
0000b0 82 df 4c 3e 34 eb e7 3d 64 f6 38 be 2f 0c 31 3e
       0.20007136 0.11324158 -0.1806274 0.17289804
0000c0 ca 12 39 be 07 c6 f7 3d 59 c6 52 be 01 08 44 3e
       -0.18073574 0.120983176 -0.20583476 0.19143678
0000d0 0d 9a eb 3d 46 a5 c9 bc fd 8b 18 3d 58 b0 4c be
       0.11503992 -0.024614941 0.03724288 -0.19989145
0000e0 17 e9 80 3d 7e 38 51 be 99 49 93 bd 76 cd c5 3d
       0.06294458 -0.20431706 -0.07191772 0.09658329
0000f0 48 6e 74 bd 30 67 52 be 62 60 b6 3d d5 4a 55 3e
       -0.059675485 -0.20547175 0.08905102 0.20829327
000100 7b 15 55 3e 61 d7 53 3e 87 65 0e be e9 a6 40 3d
       0.20808975 0.2068763 -0.13905917 0.047034178
000110 e9 92 24 be f6 1c 52 3e 59 b9 04 be a4 24 3f 3e
       -0.16071667 0.2051886 -0.1296133 0.18666321
000120 72 b5 75 3b 7b 40 a5 3d 65 d0 61 3c ff b6 23 be
       0.0037492183 0.08068939 0.013782595 -0.15987776
000130 db c8 10 3e 3a 90 78 3d 3d 6e 96 3d 25 f1 6a bd
       0.1413912 0.06068442 0.07345245 -0.05735888
000140 5c f8 80 bd db 7e 4a be 76 85 4f bd d5 44 5b be
       -0.06297371 -0.19774954 -0.050664388 -0.21412976
000150 90 9e 49 3e 73 77 1b be 48 65 0a bd 6e fd 10 bd
       0.19689393 -0.15182285 -0.033787996 -0.03539794
000160 af ef 09 be 7a e9 34 3e 40 42 3d 3e ae e2 ca 3d
       -0.13470338 0.17667189 0.18482304 0.09906517
000170 b4 02 8b 3c 97 60 0d 3d cd ea 43 3d ce 9b 22 be
       0.016969062 0.034515943 0.047831345 -0.15879747
000180 58 41 24 3e 2a a2 49 be 7b 9f 51 be 47 08 18 be
       0.16040552 -0.19690767 -0.20470993 -0.14846908
000190 2a e7 01 3e 12 99 24 3e 86 b6 1b 3e 8a d9 bd 3d
       0.12685838 0.16074017 0.15206346 0.09270008
0001a0 36 02 8f 3d 36 d8 15 be c4 2d 39 be 7a 5c 5e bd
       0.069828436 -0.14633259 -0.18083864 -0.05428741
0001b0 24 ba b3 3c dd a8 13 be 0e ce e4 bd 5e 86 19 be
       0.021939345 -0.14419885 -0.11172114 -0.14992663
0001c0 1c b3 6e 3b 13 96 d8 bc dd 24 d0 bc 64 a1 7f bc
       0.0036422675 -0.026438748 -0.025408203 -0.015602443
0001d0 b3 8d 59 3e 04 61 88 3c 3f 33 2d 3d 02 3a e7 bd
       0.2124546 0.016647823 0.0422852 -0.11290361
0001e0 33 f2 30 be 68 29 b1 bd b8 cc 85 bd 1c 31 2c be
       -0.17279892 -0.08650476 -0.06533188 -0.16815609
0001f0 80 49 e0 bd 65 cc 28 3d 60 3f 4b be 31 e5 c4 3d
       -0.10951519 0.04121055 -0.19848394 0.09614027
