Shortcut Run/results/LEVEL1/Move/Move-171105.onnx (onnx, 73131 bytes, 6 tensors)

network_body._body_endoder.seq_layers.0.weight f4 [128, 6]
0	0x3f816071	1.0107557
1	0xbf353fb0	-0.70800304
2	0xbf2f94ed	-0.6858662
3	0xbf13ae52	-0.57687867
4	0x3e916fd6	0.28405637
5	0x3c4ca0e0	0.012489527
6	0x3d830009	0.06396491
7	0x3e95d15b	0.29261288
8	0x3d778f72	0.060439534
9	0x3e9f4e58	0.3111446
10	0xbe2d20db	-0.16907065
11	0x3ea4c3e6	0.3218071
12	0x3cb055e9	0.02152534
13	0xbe172ea1	-0.14763881
14	0x3f11a6f4	0.56895375
15	0x3ee07b16	0.43843907
16	0x3e574e2e	0.21025917
17	0xbef62854	-0.48077643
18	0x3df8958b	0.12137898
19	0xbeb12b94	-0.3460356
20	0x3e36e0fe	0.17859265
21	0xbd4d31c8	-0.050096303
22	0xbe485175	-0.19562323
23	0xbe118c8a	-0.14213768
24	0xbdbbdc26	-0.09172849
25	0x3edd5250	0.43226862
26	0x3f41f7d3	0.75768775
27	0xbe641235	-0.2227257
28	0xbdacb4a5	-0.08432893
29	0xbe4d4bfc	-0.20048517
30	0x3e4f5541	0.20247366
31	0xbf624e71	-0.8840094
32	0x3f06e95c	0.5269983
33	0xbe7c1f52	-0.24621323
34	0x3eb8d65b	0.3610104
35	0x3e5b40ec	0.21411484
36	0x3f580282	0.84378827
37	0x3dd5725b	0.10422202
38	0xbedd242a	-0.43191653
39	0xbf69facc	-0.9139831
40	0x3daacd0c	0.08339891
41	0xbeb7b8be	-0.35883135
42	0xbf02f863	-0.5116026
43	0x3caa2045	0.02076734
44	0xbe72546a	-0.23665014
45	0xbe3cd789	-0.18441595
46	0x3e9bbe3c	0.30418575
47	0x3ededa0c	0.43525732
48	0x3f03fba9	0.5155588
49	0x3e4bccde	0.1990237
50	0x3e16ac74	0.14714223
51	0xbf2cc40d	-0.6748665
52	0xbee20749	-0.44146183
53	0xbe1625f1	-0.14662911
54	0x3bf4cf5f	0.0074710096
55	0xbe9c0b56	-0.304774
56	0x3ea702b1	0.3261924
57	0x3e8d39e2	0.27583224
58	0xbe11c75d	-0.14236207
59	0x3e45c158	0.19312036
60	0xbd432293	-0.047640394
61	0x3bbf3f98	0.0058364384
62	0xbe6b0e48	-0.22954667
63	0x3df02d41	0.117273815
64	0x3ca1ae38	0.019736394
65	0x3f107be6	0.56439054
66	0x3e1f93b9	0.15583695
67	0xbe911c5e	-0.28341955
68	0xbf046d6f	-0.5172948
69	0x3ed48de5	0.41514507
70	0x3e6b455e	0.2297568
71	0x3da85e7b	0.08221146
72	0xbe29bb50	-0.1657536
73	0xbed2fbfa	-0.41207868
74	0xbe16070b	-0.14651124
75	0x3e4c1374	0.19929296
76	0x3f06a52d	0.5259579
77	0xbf28dd5f	-0.65962785
78	0xbe777110	-0.24164224
79	0x3eed8405	0.46389785
80	0xbe78ab9d	-0.24284215
81	0xbed99d38	-0.4250276
82	0xbf37f031	-0.7185088
83	0xbd7699b7	-0.060205188
84	0xbec5c241	-0.38624766
85	0xbe4b5657	-0.19857155
86	0x3ee8429b	0.45363316
87	0xbe2b6a61	-0.16739799
88	0x3e83038e	0.2558865
89	0xbe9c0190	-0.30469942
90	0x3eb4eef7	0.35338566
91	0x3ea2ccad	0.3179678
92	0x3f0342ba	0.5127369
93	0x3e1e6daf	0.15471528
94	0xbec73f69	-0.38915566
95	0x3db6da21	0.089283235
96	0x3e1e98ec	0.15488023
97	0x3da51e48	0.08062416
98	0xbdb6f101	-0.089326866
99	0xbf1e6710	-0.6187601
100	0xbf551719	-0.8323837
101	0xbdc51053	-0.09622254
102	0x3e849ec9	0.25902393
103	0xbf02350f	-0.5086221
104	0xbef4a2c0	-0.47780418
105	0xbf1bc4d1	-0.60847193
106	0x3e09cd0a	0.13457122
107	0x3e7f7b73	0.24949436
108	0x3ea496e5	0.32146373
109	0xbf12d139	-0.573505
110	0xbe99c212	-0.30030876
111	0xbf496502	-0.7866975
112	0xbc87abb3	-0.016561365
113	0x3e618b51	0.22025801
114	0x3e79c677	0.24392115
115	0xbd4b6a57	-0.04966196
116	0x3f303ffc	0.6884763
117	0x3cee1293	0.029061591
118	0x3e70f403	0.23530583
119	0x3db92717	0.09040659
120	0xbe82fa80	-0.2558174
121	0x3f11fff8	0.570312
122	0x3e076734	0.13222963
123	0xbdc911f2	-0.09817876
124	0xbf2bfb33	-0.67180175
125	0xbf11bde4	-0.56930375
126	0x3da01481	0.07816411
127	0x3f3410d6	0.7033819
128	0xbc03590a	-0.008016834
129	0x3ea50ad7	0.32234833
130	0x3f57f497	0.8435759
131	0x3f069da1	0.5258427
132	0x3e7b4724	0.24538857
133	0xbe082c81	-0.13298227
134	0xbd634366	-0.055484198
135	0xbe1bbce6	-0.15208778
136	0x3f374cf2	0.71601784
137	0xbe1f251b	-0.15541498
138	0xbb90db37	-0.0044206637
139	0x3e8972e4	0.26845467
140	0xbe57436b	-0.21021812
141	0xbe317b23	-0.17332129
142	0xbed48c49	-0.4151328
143	0x3f175584	0.5911486
144	0x3eed1f67	0.4631302
145	0xbe16e83f	-0.14737032
146	0x3d8e5d94	0.06951442
147	0x3c3de6ba	0.011590654
148	0xbed82f45	-0.42223564
149	0x3e15e18c	0.1463682
150	0x3ec57bed	0.3857111
151	0xbee53506	-0.44767016
152	0xbebc3b59	-0.3676403
153	0xbd9f03dc	-0.07764408
154	0x3f055918	0.5208907
155	0x3e851c22	0.25998026
156	0xbee92b9f	-0.45541093
157	0xbdba70d8	-0.091035545
158	0x3f40431e	0.7510241
159	0xbed1b373	-0.4095722
160	0x3e0e602d	0.13903876
161	0x3f6557a4	0.89586854
162	0xbe89c87f	-0.2691078
163	0xbc5eced0	-0.013599113
164	0xbf5e6bbe	-0.8688315
165	0x3cc675d5	0.024226109
166	0x3d0189c5	0.031625528
167	0x3e2df024	0.16986138
168	0xbf80b148	-1.0054102
169	0x3dbbae93	0.09164157
170	0xbf08a2be	-0.53373325
171	0xbc861e2e	-0.016371813
172	0x3abb5338	0.0014291769
173	0xbeb1f8f2	-0.34760243
174	0x3e6c4f30	0.23077083
175	0x3e4b21b2	0.19837072
176	0xbf5f6c79	-0.8727489
177	0xbd352e17	-0.044233408
178	0xbe927071	-0.2860141
179	0xbef4b935	-0.47797552
180	0x3f141ee4	0.57859635
181	0x3e1b34f1	0.15156914
182	0xbea02179	-0.31275538
183	0xbd0accef	-0.033886846
184	0x3d233a6e	0.039850645
185	0xbe766d31	-0.2406509
186	0x3f52132a	0.8206049
187	0xbea0e73f	-0.31426427
188	0x3c8822f1	0.016618224
189	0xbeff281e	-0.49835294
190	0x3df88e3a	0.121365026
191	0x3d9dc98e	0.07704459
192	0xbcf6a138	-0.030106172
193	0x3f969cce	1.1766603
194	0xbe77d971	-0.24204041
195	0x3ec1557c	0.37760532
196	0xbe1bfe04	-0.15233618
197	0xbe3e768e	-0.18599913
198	0x3e176fe5	0.14788778
199	0x3e6d1ce6	0.23155555
200	0xbe7bab8d	-0.2457716
201	0x3f4eb749	0.8074842
202	0x3de74b7c	0.112936944
203	0xbe234428	-0.15943968
204	0xbe6f10ce	-0.23346254
205	0xbd66a175	-0.05630632
206	0xbe51d74c	-0.20492285
207	0xbe6f7f1a	-0.23388329
208	0x3ee7864e	0.45219654
209	0x3f0fad29	0.56123596
210	0x3e8713af	0.26382205
211	0x3ea41790	0.32049227
212	0xbf6e424b	-0.93069905
213	0xbdf1d9eb	-0.11809143
214	0xbe03d768	-0.1287514
215	0xbf19b109	-0.6003576
216	0xbec7b471	-0.39004853
217	0xbdc56001	-0.09637452
218	0xbe78a426	-0.24281368
219	0xbec6d4cd	-0.3883423
220	0x3e91656c	0.2839769
221	0xbd987484	-0.074440986
222	0x3cbad619	0.022807168
223	0x3ec46fb8	0.38366485
224	0xbea93b3f	-0.33053014
225	0xbf3faffc	-0.74877906
226	0xbecff49a	-0.40616304
227	0x3d8e04b6	0.06934492
228	0x3dc652dc	0.09683773
229	0x3dedd5cd	0.11613045
230	0xbe51124d	-0.20417137
231	0xbdc3e385	-0.0956488
232	0x3e09ae5f	0.13445424
233	0xbe9d6634	-0.30742037
234	0xbeb8d72e	-0.3610167
235	0xbf87c199	-1.0605956
236	0xbdc94ed1	-0.09829486
237	0xbd84e562	-0.06489064
238	0x3d0da5eb	0.03458206
239	0x3f318ac4	0.69352365
240	0x3cfaa733	0.030597305
241	0xbee30dbb	-0.44346413
242	0x3e700bac	0.23441952
243	0x3f04824d	0.51761323
244	0xbed169bf	-0.4090099
245	0xbecf35cc	-0.4047073
246	0x3e528285	0.20557602
247	0xbf2ae6e7	-0.6675858
248	0x3f1852f1	0.5950156
249	0xbe95c245	-0.29249778
250	0xbe84c324	-0.2593013
251	0xbe5045cb	-0.20339124
252	0x3d308166	0.043092154
253	0xbee4613c	-0.44605434
254	0xb89cd466	-7.478222e-05
255	0xbd7adb13	-0.06124408

network_body._body_endoder.seq_layers.0.bias f4 [128]
0	0x3af18f40	0.0018429533
1	0x3b9ddf74	0.0048178975
2	0x11242bd7	1.2950828e-28
3	0xb245ce11	-1.1513763e-08
4	0x9cbc802b	-1.2473927e-21
5	0xba8731e5	-0.0010314552
6	0x3d0a16f6	0.033713304
7	0xb9b6052e	-0.00034717604
8	0x2d81c2ed	1.4752167e-11
9	0xbb8fc569	-0.004387547
10	0x3af46627	0.0018646166
11	0xbad6f662	-0.0016400332
12	0xa2fa3669	-6.7820245e-18
13	0xbbcd6b39	-0.0062688855
14	0xa5617d82	-1.9558163e-16
15	0x343fc108	1.7858486e-07
16	0x3bed08db	0.0072337217
17	0xb98b6bdf	-0.00026592516
18	0x3b37f8aa	0.00280718
19	0x2e2d1427	3.9353545e-11
20	0x1bf6b1da	4.081222e-22
21	0x3afe7b5c	0.0019415426
22	0xbbf4dedc	-0.007472856
23	0x3971968b	0.00023039633
24	0xbb292528	-0.00258095
25	0xbbcb5291	-0.006204911
26	0x3ac0c2dc	0.001470651
27	0xb8049910	-3.1613803e-05
28	0x3b183439	0.0023224487
29	0xbb3f3e53	-0.0029181435
30	0x3d1df8e3	0.038567435
31	0xba7d685f	-0.00096667366
32	0xbb0afc79	-0.0021207614
33	0x3ab17c65	0.0013541101
34	0xbbcfbbc0	-0.00633952
35	0x3b5d5e8a	0.0033778274
36	0x3aa4d5f2	0.0012575968
37	0xba29f15c	-0.0006482804
38	0x3b6e3f27	0.003635356
39	0x3b12d182	0.0022402708
40	0x20a19018	2.7369814e-19
41	0x998bfc1e	-1.4474092e-23
42	0xb3a235bd	-7.553488e-08
43	0x25f070a1	4.1709684e-16
44	0xba12d08d	-0.00056005345
45	0xbbc90491	-0.0061345776
46	0xbb4e1f46	-0.0031451746
47	0x3a648b23	0.0008718243
48	0x3b281dba	0.0025652484
49	0xbabcc98e	-0.001440333
50	0xbc3bbc54	-0.011458475
51	0xb8685a2c	-5.539709e-05
52	0x9ddb5bbd	-5.8063672e-21
53	0x3772ff6f	1.4483797e-05
54	0x39b38ca3	0.00034246323
55	0xbb588af8	-0.0033041816
56	0xbb0bcdc9	-0.0021332374
57	0xbb17d4be	-0.0023167576
58	0x3b388b22	0.0028159101
59	0xbc334045	-0.010940616
60	0x3ad64664	0.0016347882
61	0xba0165ad	-0.00049361103
62	0xafbfd2ab	-3.4892386e-10
63	0x3a329d89	0.00068136357
64	0xbafe75c4	-0.0019413759
65	0x3c38c1f5	0.011276712
66	0x91162858	-1.1845345e-28
67	0x00000000	0.0
68	0x95a9e881	-6.862538e-26
69	0x0ba5ff1a	6.393952e-32
70	0xbbd74565	-0.006569552
71	0xbb9dd214	-0.004816303
72	0x3889b03e	6.565497e-05
73	0x3b1779f1	0.0023113454
74	0x00000000	0.0
75	0x3b162453	0.0022909835
76	0x942941e6	-8.545316e-27
77	0x3ae093a1	0.0017133841
78	0xb233cfcf	-1.04664215e-08
79	0xba29fde8	-0.00064846734
80	0xbc67eee4	-0.014156077
81	0x00000000	0.0
82	0xbb4c6f5a	-0.00311943
83	0xa8a4590c	-1.8246276e-14
84	0xbb25226e	-0.0025197524
85	0x3bc7bee8	0.006095756
86	0xbb6ebe33	-0.0036429286
87	0xba6c2222	-0.0009007772
88	0xbb905b74	-0.0044054333
89	0x39a998cd	0.00032348037
90	0xbb5f4bbb	-0.0034072238
91	0x23f8e175	2.6983699e-17
92	0x3b7f716c	0.0038977517
93	0x25d4b1a1	3.6896504e-16
94	0xb612dbe0	-2.188368e-06
95	0x00000000	0.0
96	0xbadb8a78	-0.0016749641
97	0x3cde0db6	0.027106147
98	0x39b7489a	0.00034958572
99	0x3b0266d3	0.0019897714
100	0x3a610032	0.0008583098
101	0xbb746b98	-0.0037295576
102	0x3a8c8a0f	0.0010722297
103	0x39d4c265	0.00040580626
104	0x3aecf99e	0.0018079763
105	0x98687d69	-3.0048613e-24
106	0x00000000	0.0
107	0xbb3ef563	-0.002913796
108	0x3586b1d6	1.0035535e-06
109	0xbaf26282	-0.0018492492
110	0xbc285522	-0.0102742035
111	0xbaa76b69	-0.00127731
112	0x0aa7987d	1.6138875e-32
113	0xbb0c3863	-0.0021395914
114	0xad891674	-1.5585068e-11
115	0xbb420439	-0.0029604568
116	0x060e7538	2.679335e-35
117	0x23d0a720	2.2622185e-17
118	0x3af7f85d	0.0018918623
119	0x3b7c3b3d	0.0038487457
120	0xb9167ddf	-0.00014352005
121	0x19caa7a5	2.0954022e-23
122	0x27cfbe25	5.7660197e-15
123	0x3083611e	9.559107e-10
124	0x3a13f942	0.0005644747
125	0x3c1d1534	0.009587575
126	0xbb603155	-0.0034209092
127	0x352347be	6.082663e-07

network_body._body_endoder.seq_layers.2.weight f4 [128, 128]
0	0x3d8ff9c1	0.07030059
1	0xbda60bf2	-0.08107747
2	0x3d8f8f0f	0.07009708
3	0xbd9ebccf	-0.07750856
4	0xbda2a1b3	-0.07940998
5	0x3cd72ce4	0.026266523
6	0x3cb61003	0.022224432
7	0x3b0639d0	0.0020481236
8	0x3d976250	0.073917985
9	0x3d6eb2dd	0.058276046
10	0x3d4df594	0.05028303
11	0xbcc3a9cd	-0.023884678
12	0x3dea4b00	0.11440086
13	0x3dd77f98	0.105223835
14	0x3d07671b	0.033057313
15	0x3bd79dcf	0.0065800915
16	0xbd9dceeb	-0.07705482
17	0xbe7d6e47	-0.24749099
18	0x3e07b8e0	0.13254118
19	0xbda2fe6b	-0.079586826
20	0x3b93aa2d	0.0045063705
21	0xbce9b2c4	-0.028527625
22	0x3ceb0ef6	0.028693657
23	0xbdc1b2f7	-0.09457963
24	0xbd2d5421	-0.04231656
25	0xbd53b5b9	-0.051686976
26	0xbcdb2892	-0.026752744
27	0x3d99a880	0.07502842
28	0x3c61314f	0.013744666
29	0x3d52059b	0.051274877
30	0xb8b868a3	-8.793294e-05
31	0x3b0a2d81	0.0021084251
32	0x3c3832e5	0.011242603
33	0xbccf7418	-0.025323913
34	0xbe4b7d72	-0.19872072
35	0xbd399a0c	-0.045312926
36	0x3db3f6f8	0.0878734
37	0xbdcdea2c	-0.1005443
38	0x3d896384	0.06708434
39	0xbc2f42ae	-0.01069705
40	0x3d38296c	0.044961378
41	0xbd8fde7b	-0.07024857
42	0x3c996833	0.018726444
43	0x3ccef7ff	0.025264738
44	0x3d2a040a	0.04150776
45	0x3d9b2c12	0.07576765
46	0xbdcd5da6	-0.10027628
47	0xbd0eb693	-0.034842085
48	0x3c371ac8	0.011175819
49	0xb8f37f4b	-0.00011610853
50	0x3d9d9ea5	0.07696275
51	0x3d3e8d5f	0.04652154
52	0x3dd62f6a	0.10458262
53	0x3d860579	0.065440126
54	0xbdbfd83a	-0.09367414
55	0xbd829a5c	-0.06377098
56	0xbdd7d9e8	-0.10539609
57	0xbdcc9b89	-0.099906035
58	0xbd933132	-0.07187118
59	0x3d6e9b36	0.05825349
60	0x3e10a693	0.14126043
61	0x3cb08b17	0.021550698
62	0xbc0a90c2	-0.0084573645
63	0x3e14fc7a	0.14549437
64	0xbdfa9a52	-0.122364655
65	0xbdf6a489	-0.12043101
66	0xbe599211	-0.21247126
67	0xbcc95ea3	-0.02458126
68	0x3bed857f	0.00724858
69	0xbcb16aca	-0.021657366
70	0xbd60c84d	-0.05487852
71	0xbcabd90b	-0.020977518
72	0x3e2ba945	0.1676379
73	0xbde03227	-0.10947066
74	0xbe122321	-0.14271213
75	0x3c96dcdb	0.018415859
76	0x3d918750	0.07105887
77	0xbd0fbb77	-0.03509089
78	0xbe49dfed	-0.19714327
79	0xbe3c1ec2	-0.18371108
80	0x3c2cb9c4	0.010542337
81	0xbd231583	-0.039815437
82	0x3e6044a2	0.21901181
83	0x3dbc8301	0.092046745
84	0xbe3bbbf2	-0.18333414
85	0x3c784cb8	0.01515501
86	0x3dcbfc45	0.09960226
87	0x3e01b262	0.12665704
88	0x3ce613b1	0.028085561
89	0x3df2b4ae	0.11850868
90	0x3d9ebcbf	0.07750844
91	0xbe34275c	-0.1759314
92	0xbd8e2f2f	-0.06942593
93	0x3df48949	0.119402476
94	0x3d9f33b8	0.077735364
95	0xbdbeff6d	-0.09326062
96	0xbcbdfaf8	-0.02319096
97	0x3d136fad	0.035995174
98	0x3d6210b6	0.055191718
99	0xbb695274	-0.0035602124
100	0xbd6ee97e	-0.058328144
101	0x3d78c806	0.060737632
102	0x3e220263	0.15821223
103	0xbc8a5dc3	-0.016890412
104	0x3db4ea94	0.08833805
105	0xbd8f035b	-0.06983062
106	0x3d5241ca	0.051332273
107	0x3d1700d0	0.03686601
108	0x3d38ebd0	0.045146763
109	0xbd00df79	-0.03146312
110	0x3e0e2aa1	0.13883449
111	0xbce71566	-0.028208446
112	0xbc83c9c6	-0.016087424
113	0x3dc1bf4f	0.09460317
114	0xbcb767e9	-0.022388415
115	0xbb9988d5	-0.004685501
116	0x3cc8a9b9	0.024494993
117	0xbd749c1f	-0.0597192
118	0xbe1801d6	-0.1484445
119	0x3dc1a8f5	0.09456054
120	0xbdc27f0a	-0.09496887
121	0x3e29c17e	0.16577718
122	0x3bc60b9e	0.0060438653
123	0xbd821f74	-0.063536555
124	0x3deb16c2	0.1147895
125	0x3c451527	0.012028969
126	0x3dd6afea	0.10482772
127	0xbdac7e19	-0.08422489
128	0xbd6f1ded	-0.05837815
129	0x3dba8ec4	0.09109262
130	0xbe064e02	-0.13115695
131	0xbdfca9de	-0.12337087
132	0xbdee7e17	-0.116451435
133	0x3e5cfe89	0.21581472
134	0x3dba7c97	0.09105795
135	0xbc888a9d	-0.016667658
136	0x3cf5a1bb	0.029984346
137	0xbd0ddc79	-0.034634087
138	0xbc96da73	-0.018414712
139	0x3da62b60	0.08113742
140	0xbd761ae0	-0.060084224
141	0x38675a50	5.5158802e-05
142	0xbd4c4782	-0.049872883
143	0x3c5a8efe	0.013339756
144	0xbd891484	-0.06693366
145	0x3de84c7f	0.113427155
146	0xbc19ee3b	-0.0093951775
147	0xbe0e25b5	-0.13881572
148	0x3d90ecf6	0.07076447
149	0x3e09eef7	0.13470064
150	0xbc4c83f2	-0.01248263
151	0x3c595b59	0.013266408
152	0xbe08a46c	-0.13343972
153	0x3bf58efe	0.0074938526
154	0xbd9a4a2f	-0.07533681
155	0x3d0525cf	0.03250676
156	0x3e7a4c50	0.24443173
157	0x3d20183f	0.039085623
158	0x3c738537	0.014863304
159	0x3d95d773	0.07316484
160	0x3d4aaad0	0.049479306
161	0xbd70decc	-0.058806226
162	0x3d2adef0	0.041716516
163	0xbd9c7a5a	-0.07640524
164	0xbdad6ea5	-0.084683694
165	0x3e2a067d	0.16604038
166	0x3dff51fa	0.12466808
167	0x3ce50e5f	0.027960954
168	0x3cea5e26	0.028609347
169	0xbbb09fea	-0.005390157
170	0xbd168dfd	-0.036756504
171	0xbd2c29ce	-0.042032056
172	0xbd145018	-0.036209196
173	0xbd857015	-0.065155186
174	0x3e1d7b2c	0.15379018
175	0xbda0a018	-0.078430355
176	0xbd240cbe	-0.040051214
177	0x3dffabbf	0.1248393
178	0x3e3fd881	0.18734933
179	0xbd4489a1	-0.047982816
180	0x3de5b904	0.112169296
181	0x3dc4f5e7	0.09617215
182	0xbcd7ebe9	-0.026357608
183	0xbb8284c7	-0.0039831134
184	0x3db43050	0.087982774
185	0x3d5bd542	0.053670175
186	0x3e51cdc8	0.20488656
187	0x3db1a0b1	0.086732276
188	0x3d122325	0.035678048
189	0x3d54a3a3	0.05191387
190	0xbd53157b	-0.051534157
191	0x3cdb1f46	0.02674831
192	0xbd9d354b	-0.076761805
193	0x3e1053fd	0.14094539
194	0xbdbb49a2	-0.09144904
195	0xbdc32b44	-0.09529737
196	0xbe208346	-0.15675077
197	0xbe3f4bc7	-0.1868125
198	0x3e13775c	0.14401
199	0x3de87b74	0.11351672
200	0xbce5260c	-0.027972244
201	0xbe148368	-0.14503253
202	0x3d89f43d	0.06736038
203	0x390d897e	0.00013498028
204	0xbdb37fc4	-0.08764604
205	0xbd4f348f	-0.050587233
206	0x3bd5c2bf	0.0065234597
207	0x3d0e07ea	0.034675516
208	0xbe475fcf	-0.19470142
209	0xbd81759b	-0.063212596
210	0xbbd705d9	-0.0065619764
211	0x3cf4031e	0.029786643
212	0xbd8bf8db	-0.06834575
213	0x3c29313b	0.010326679
214	0xbe2bf64e	-0.16793177
215	0x3dd95d5e	0.106135115
216	0x3d3d9062	0.046280272
217	0x3d822b13	0.06355872
218	0x3cd06186	0.025437128
219	0x3dde6519	0.108591266
220	0xbddd0c63	-0.10793378
221	0x3b890b52	0.0041822577
222	0xbda7bb62	-0.08190037
223	0x3cf4bb36	0.029874425
224	0xbd97fece	-0.07421647
225	0xbd4a4429	-0.04938141
226	0x3db678f7	0.08909791
227	0x3d585ac1	0.052820925
228	0xbe320f08	-0.17388546
229	0x3de36132	0.11102523
230	0x3dd0fe68	0.10204774
231	0xbd8344e8	-0.06409627
232	0xbd39a36a	-0.04532186
233	0x3c964d21	0.018347325
234	0xbdb1e9fe	-0.086872086
235	0x3ddcb33b	0.10776373
236	0x3e24fd52	0.16112259
237	0xbd153f5a	-0.03643737
238	0xbdf4ad38	-0.11947101
239	0x3dd226a4	0.10261276
240	0xbe1af707	-0.15133296
241	0x3d4273bf	0.047473665
242	0x3db29e88	0.08721644
243	0x3dd705d4	0.104991585
244	0x3d12fab5	0.035883624
245	0x3bcc221e	0.006229653
246	0xbc9a9440	-0.01886952
247	0xbd96ba8e	-0.07359801
248	0xbdc4af66	-0.09603767
249	0x3e15ec70	0.14640975
250	0x3da733f3	0.081642054
251	0x3db5c448	0.08875328
252	0xbb9ec042	-0.0048446963
253	0x3cdf8e26	0.027289461
254	0x3d4f88eb	0.050667685
255	0xbceba629	-0.028765755

network_body._body_endoder.seq_layers.2.bias f4 [128]
0	0xbaf2611f	-0.0018492079
1	0xbb006d3b	-0.0019596356
2	0xb63a549c	-2.776541e-06
3	0xba5c8400	-0.00084120035
4	0x3a062c7f	0.0005118325
5	0x3a3ce989	0.00072064303
6	0x3975ba3d	0.000234344
7	0x372d0749	1.03133e-05
8	0xbb325c2a	-0.0027215579
9	0xbb1cdb1e	-0.0023934315
10	0x9cf4ee80	-1.6208216e-21
11	0x39bd06ec	0.00036054046
12	0xbaf7c888	-0.0018904367
13	0x3a505688	0.00079474645
14	0xb8df5b8e	-0.00010650522
15	0x3b3094fe	0.0026944275
16	0xbb5a48cf	-0.0033307557
17	0xa5602e22	-1.9444533e-16
18	0xbaf01bd1	-0.0018318837
19	0xbaa86552	-0.0012847579
20	0xbb14f820	-0.0022730902
21	0xa8193c82	-8.506327e-15
22	0x263ef2b7	6.624843e-16
23	0xb8f6e555	-0.000117729105
24	0xbbeb8251	-0.007187166
25	0xa454b401	-4.612264e-17
26	0xbbabb852	-0.0052404786
27	0xbb6aad80	-0.003580898
28	0xb90ffa0a	-0.0001373069
29	0xbad1bf36	-0.001600242
30	0x22ca4af2	5.483156e-18
31	0x3a131aa3	0.0005611574
32	0x3bad66f6	0.005291815
33	0x1fda9ef7	9.2589577e-20
34	0x398fae19	0.00027404798
35	0xbbdba831	-0.0067033996
36	0x2dfcf85f	2.8759382e-11
37	0x17a5eac0	1.0722134e-24
38	0xbba80945	-0.005128058
39	0xbb14a623	-0.0022682033
40	0xbb9ad946	-0.004725608
41	0x2914a72a	3.3007593e-14
42	0x39d25871	0.00040120215
43	0xb968db3c	-0.00022206915
44	0xba5c014a	-0.0008392526
45	0xbad7a658	-0.0016452773
46	0x39e42f27	0.0004352268
47	0x34bb118b	3.4844228e-07
48	0xba968430	-0.0011483487
49	0xb9d983ad	-0.0004148757
50	0xba2f38b8	-0.0006684172
51	0x17c0a37e	1.244898e-24
52	0xbbbec537	-0.0058218497
53	0xbb8686ac	-0.0041054096
54	0x3a334df4	0.0006839924
55	0xba8fd943	-0.0010974783
56	0x3b0aaee1	0.0021161365
57	0x39f143f0	0.0004601772
58	0xb9aa2a85	-0.00032456606
59	0x2396bd50	1.634321e-17
60	0x39d83494	0.00041237904
61	0xbbc52e66	-0.006017494
62	0xa7115489	-2.0168619e-15
63	0x399952b4	0.00029244053
64	0xb9341967	-0.00017175601
65	0xb99beac8	-0.0002973883
66	0xbb0c7d0e	-0.0021436843
67	0xbb913ad7	-0.004432063
68	0xba08a7af	-0.0005212975
69	0xbaa72485	-0.0012751973
70	0x3a206472	0.0006118483
71	0xba5ad504	-0.0008347782
72	0xb9896dad	-0.0002621239
73	0x95f75403	-9.989505e-26
74	0xbb7f6e1d	-0.0038975545
75	0xbb09c578	-0.0021022242
76	0x9b1c8cec	-1.2949552e-22
77	0xbaafce9e	-0.0013413017
78	0xbb2c397b	-0.0026279378
79	0xbb250b92	-0.0025183898
80	0xb9df6b5e	-0.0004261387
81	0xbb914e33	-0.004434371
82	0xbb1aef45	-0.002364115
83	0xbbbdf11b	-0.0057965643
84	0xb393c803	-6.881603e-08
85	0x3a8bd8e7	0.00106695
86	0xb33078a8	-4.108793e-08
87	0xba480747	-0.0007630479
88	0x38192f56	3.6522128e-05
89	0xa929d8f8	-3.771373e-14
90	0xba0f2873	-0.00054610445
91	0xbb1fbabc	-0.0024372777
92	0xb8e64660	-0.00010980363
93	0xb73b8c25	-1.11786985e-05
94	0xb9cc1850	-0.00038928026
95	0xba634a88	-0.0008670469
96	0xbc19e06b	-0.009391884
97	0xaacf37e9	-3.6809382e-13
98	0xba0212d7	-0.0004961914
99	0xba974b74	-0.0011542873
100	0xb8efd115	-0.00011435353
101	0xbb4d2cce	-0.0031307223
102	0xbb1bfd4d	-0.0023802102
103	0x34afc369	3.273847e-07
104	0xb81deb7f	-3.765104e-05
105	0xaeb633d2	-8.285607e-11
106	0xbabbae7e	-0.001431897
107	0x355e522a	8.282101e-07
108	0xba69b0d6	-0.0008914595
109	0xada08d24	-1.8252573e-11
110	0x26c26705	1.3489378e-15
111	0xbb45d358	-0.0030185785
112	0xbaa56047	-0.0012617194
113	0x3a7499ca	0.00093307777
114	0xbbcdbec7	-0.006278846
115	0x3b145900	0.0022636056
116	0x3a2bbb45	0.00065510377
117	0xbb062e22	-0.0020474275
118	0xbb96ca7c	-0.0046017747
119	0xbb6d5a16	-0.0036217025
120	0xba6198c1	-0.0008605831
121	0xa0967412	-2.5487797e-19
122	0xba5d5255	-0.00084427494
123	0xbc019e72	-0.007911311
124	0xbb329433	-0.0027248978
125	0x2b4d97bc	7.3041204e-13
126	0xbb5f315b	-0.0034056518
127	0xb7407bec	-1.1472945e-05

action_model._discrete_distribution.branches.0.weight f4 [3, 128]
0	0x3b7a9a04	0.0038238773
1	0xbc3596a1	-0.011083276
2	0x3bd9f486	0.006651464
3	0x3c00ad07	0.007853753
4	0xbce7873f	-0.028262733
5	0x3cd9b300	0.026574612
6	0x3c018407	0.007905013
7	0x3b49e375	0.003080574
8	0x3c07798f	0.008268728
9	0xbc036bd5	-0.008021315
10	0xbc441077	-0.011966816
11	0x3c1959f6	0.009359827
12	0xbb48ccc9	-0.003063964
13	0x3bb1cc80	0.0054259896
14	0xbaddc0e9	-0.0016918454
15	0xbc1bcaaf	-0.009508773
16	0x3a9d54f1	0.0012003464
17	0x3bfb3c8a	0.007667129
18	0xbc18dcc9	-0.009329983
19	0xbc92b6b6	-0.017909389
20	0xbcc4e6ec	-0.024035893
21	0x3c8ad448	0.016946927
22	0xbaaab193	-0.0013022892
23	0xbc3f00a7	-0.01165787
24	0xbb5ee443	-0.0034010566
25	0xbb825d4e	-0.003978408
26	0x3be7aace	0.007069922
27	0xb8f542d9	-0.00011694962
28	0x3be7f0df	0.0070782746
29	0x3c379e83	0.011207226
30	0x3b577878	0.0032878201
31	0x3c85b468	0.016321376
32	0x3bdd4280	0.006752312
33	0x3a10796f	0.0005511259
34	0x3c397cfc	0.0113213025
35	0x3b0543c9	0.0020334593
36	0xbc1e58a8	-0.009664692
37	0x3acd1323	0.0015645962
38	0xbc3001b2	-0.010742592
39	0x3b704de3	0.0036667518
40	0xbc29c588	-0.0103620365
41	0xbc7dd65d	-0.015493003
42	0x3c174a39	0.009234005
43	0xbb98c3b6	-0.0046620024
44	0x3a14e334	0.0005679608
45	0x3b49039e	0.0030672322
46	0x3b6fdf9d	0.003660179
47	0x380ffc03	3.432856e-05
48	0xba5efb89	-0.00085061096
49	0x3be58423	0.0070042773
50	0x3cd85420	0.026407301
51	0x3a6360d2	0.000867379
52	0x3c1821db	0.0092854155
53	0x3c27aaa6	0.010233557
54	0xbaa4b89c	-0.0012567225
55	0x3bef5efb	0.0073050237
56	0x3b13f5ec	0.0022577
57	0x3c94b94f	0.018154768
58	0x3c17d64d	0.009267402
59	0x3ac33657	0.0014893514
60	0x3c10c6c5	0.008836453
61	0xb78e4d60	-1.696375e-05
62	0x39413692	0.00018426243
63	0x3cc17a43	0.02361787
64	0xba2243b1	-0.00061898964
65	0x3bd9597b	0.0066329814
66	0x3aa0a778	0.0012256941
67	0x3a9bec63	0.001189601
68	0x3b7c7e32	0.0038527367
69	0xbc2d1583	-0.010564211
70	0xbc48dd4e	-0.012259794
71	0x3bea82f5	0.0071567246
72	0xbc889f10	-0.01667741
73	0x3baee637	0.0053375023
74	0xbcbb6ddd	-0.022879535
75	0xbc11fb1e	-0.008909969
76	0x3992ccd7	0.00027999908
77	0x3a80660a	0.0009796035
78	0x3bbf3150	0.005834736
79	0x3bb1b7ad	0.005423507
80	0xbbc6a683	-0.00606233
81	0xbaaddb57	-0.0013264221
82	0x3b9a6f66	0.0047129868
83	0x3c4fa6a4	0.012674008
84	0xbb900c07	-0.004395965
85	0x3aeca87a	0.0018055581
86	0x3b91d08d	0.00444991
87	0xbba4f287	-0.0050337943
88	0x3c0ef3d3	0.008725124
89	0xbc9aa7f0	-0.018878907
90	0x3c1e41d2	0.0096592475
91	0xbc160038	-0.009155326
92	0xbd1c06cf	-0.03809243
93	0xb9cc4e14	-0.00038968085
94	0xbaf0e727	-0.0018379436
95	0xbc31b757	-0.010846934
96	0xbb3e219a	-0.0029011727
97	0xbadf2ee5	-0.0017027525
98	0x3c02bc3e	0.007979451
99	0x3ab2d0aa	0.0013642509
100	0x3bd8ce23	0.0066163703
101	0x3b0684f8	0.0020526033
102	0xbbe40a31	-0.0069592227
103	0x3b9b2157	0.004734199
104	0x3bbb32ab	0.005712827
105	0xbb61ffe5	-0.00344848
106	0xba8b86ca	-0.0010645029
107	0xbc27758b	-0.0102208955
108	0x3beb8c0f	0.007188327
109	0xbbd77a65	-0.00657587
110	0x3bf850b5	0.0075779804
111	0x3c4b9895	0.012426515
112	0xbad3349e	-0.0016113704
113	0x3cce197a	0.025158633
114	0xba4bc088	-0.0007772525
115	0xbcfe8652	-0.031069908
116	0xbc03be9e	-0.008041052
117	0x3c78fb01	0.015196563
118	0x3a52e659	0.0008045189
119	0xbc29abf9	-0.010355943
120	0x3a097541	0.00052436074
121	0x3b7d0aaa	0.0038611093
122	0xbb351a7a	-0.002763419
123	0x398deec7	0.0002707152
124	0x3aad7414	0.0013233447
125	0xbbe35a68	-0.0069382675
126	0xb8d69a76	-0.00010233086
127	0xbba52d95	-0.005040834
128	0x3c441951	0.0119689265
129	0x3ba60600	0.005066633
130	0xbc260ff3	-0.0101356385
131	0xbaa5d35d	-0.0012651492
132	0x3bd1f4e5	0.0064073675
133	0xb9d87b8e	-0.00041290786
134	0xbc2c24d7	-0.01050683
135	0xbb577464	-0.003287577
136	0x3b9d6663	0.004803465
137	0xbc7440b7	-0.014908007
138	0x3bd164ad	0.0063901753
139	0xbbb82558	-0.005619686
140	0x3b587a05	0.0033031714
141	0x3b670d98	0.0035255905
142	0xbb8984b9	-0.00419673
143	0xbb41bfdc	-0.002956382
144	0xbb045111	-0.002018992
145	0x3bebe947	0.0071994397
146	0xbbff79c9	-0.0077965003
147	0x3b4ff92c	0.0031734211
148	0xbbfcd709	-0.007716064
149	0xbbacc63b	-0.0052726544
150	0x3c73be6a	0.014876941
151	0x3c08b387	0.008343584
152	0xbb940a24	-0.0045178104
153	0x3bd6a118	0.0065499656
154	0x3c4038cd	0.011732292
155	0x3b8065ec	0.0039184
156	0xbb1c284a	-0.0023827725
157	0x3a0bb088	0.00053287344
158	0x3b49de52	0.003080268
159	0xbb8da33f	-0.004322439
160	0xbbb34a7e	-0.0054715266
161	0x3bf8bde0	0.0075909942
162	0xbb6b74ce	-0.0035927775
163	0x3b5dcfe3	0.0033845834
164	0x3b9150e0	0.00443469
165	0x3b363c05	0.002780677
166	0xbc033c2b	-0.008009951
167	0xbae303d7	-0.001731987
168	0xbb57fccb	-0.0032957073
169	0xbb9fe428	-0.0048794933
170	0xbbe468ad	-0.006970486
171	0xbc5fffdb	-0.013671841
172	0xbc0cf363	-0.00860295
173	0xbc345e31	-0.011008785
174	0xbbce57d8	-0.006297093
175	0xbb351608	-0.002763154
176	0xbbc3cd10	-0.005975373
177	0xbb424d1d	-0.0029648014
178	0x3c2c8bcb	0.010531376
179	0x3bb2ae3c	0.0054528993
180	0x3c32ad0d	0.010905516
181	0x3c305270	0.010761842
182	0xbbb35e2e	-0.0054738736
183	0xbc1862a1	-0.009300859
184	0xbcfa247d	-0.030534977
185	0xb747a8df	-1.1900643e-05
186	0xbc928cff	-0.017889498
187	0xbc2856d6	-0.01027461
188	0xbbebb5a4	-0.007193284
189	0xbb0a67fe	-0.0021119113
190	0xbc2f616d	-0.01070438
191	0x3c13b271	0.009014712
192	0x3bbb1f37	0.005710508
193	0xbc8c37d4	-0.017116465
194	0x3a0889a6	0.00052084995
195	0x3bb99cf2	0.0056644613
196	0xbb1bf319	-0.002379602
197	0x3b4d6558	0.0031340923
198	0xbc570781	-0.013124348
199	0xbb86b04e	-0.0041103726
200	0xbbf50f6b	-0.0074786446
201	0xbaa348b1	-0.0012457577
202	0x3c465d91	0.012107269
203	0x3c1bf3b0	0.009518549
204	0xbbd571a3	-0.0065137907
205	0x3bac4814	0.005257616
206	0x3c34e037	0.011039785
207	0xbc679840	-0.01413542
208	0xbadcd03b	-0.0016846725
209	0xb883d2e8	-6.285851e-05
210	0x3c1fd050	0.009754255
211	0x3c4f2251	0.012642459
212	0x3a8b8bd9	0.0010646536
213	0xbc58c837	-0.013231329
214	0xbbd5c3ac	-0.00652357
215	0x3c8c4eb3	0.01712737
216	0xbc3618e6	-0.011114335
217	0xba07071b	-0.00051509
218	0x3ba31bec	0.004977694
219	0x3b4ec03d	0.0031547688
220	0x39f65e95	0.00046991245
221	0x3c0bef6c	0.008540969
222	0x3bae3eca	0.0053175436
223	0xbbd0363d	-0.006354122
224	0xbba93b2a	-0.0051645236
225	0xbca14a5b	-0.019688776
226	0xbaa3a2b3	-0.0012484401
227	0xbc7761eb	-0.015099029
228	0xbb548b81	-0.0032431784
229	0x3c2f0cd4	0.010684211
230	0xbb21c700	-0.0024685264
231	0xbc7a111a	-0.015262866
232	0xbc043ddd	-0.00807139
233	0x3ca5f08f	0.020256309
234	0x3c058089	0.008148321
235	0xbaf096f9	-0.001835554
236	0x3c350063	0.0110474555
237	0xbb562ac3	-0.0032679297
238	0xbbde09d5	-0.0067760744
239	0x3ba8cbc9	0.005151246
240	0xbb8847ec	-0.0041589644
241	0xbc223900	-0.009901285
242	0x3b268e8f	0.0025414561
243	0xbaa6e048	-0.0012731636
244	0xbbe69f80	-0.007038057
245	0x3b8ba901	0.00426209
246	0x3c290bb6	0.0103177335
247	0xbaee86ff	-0.0018198191
248	0x3c5f2751	0.013620214
249	0xbbee713f	-0.0072766836
250	0x3adeff06	0.0017013259
251	0xbaea1af4	-0.0017860816
252	0x3a0ed622	0.00054487784
253	0x3a2334b1	0.0006225808
254	0xbbf53b0d	-0.007483846
255	0xbbbcb704	-0.005759122

action_model._discrete_distribution.branches.0.bias f4 [3]
0	0x3a966b1d	0.0011476014
1	0xba8ad848	-0.0010593021
2	0x3b808fea	0.003923406
