Shortcut Run/results/LEVEL1/Move/Move-412374.pt (torch, 439879 bytes, 33 tensors)

network_body._body_endoder.seq_layers.0.weight f4 [128, 6]
0	0x3f818c85	1.0121008
1	0xbf347259	-0.7048698
2	0xbf2eb66d	-0.6824711
3	0xbf14843b	-0.5801427
4	0x3e8fc3f3	0.28079185
5	0x3c172445	0.009224956
6	0x3d9eaf1e	0.07748245
7	0x3e8c348f	0.2738385
8	0x3d8321b7	0.06402915
9	0x3e9d2688	0.3069346
10	0xbe317054	-0.17328006
11	0x3ea29c16	0.3175971
12	0x3cb055e9	0.02152534
13	0xbe172ea1	-0.14763881
14	0x3f11a6f4	0.56895375
15	0x3ee07b16	0.43843907
16	0x3e574e2e	0.21025917
17	0xbef62854	-0.48077643
18	0x3df8958b	0.12137898
19	0xbeb12b94	-0.3460356
20	0x3e36e0fe	0.17859265
21	0xbd4d31c8	-0.050096303
22	0xbe485175	-0.19562323
23	0xbe118c87	-0.14213763
24	0xbdbbdc26	-0.09172849
25	0x3edd5250	0.43226862
26	0x3f41f7d3	0.75768775
27	0xbe641235	-0.2227257
28	0xbdacb4a5	-0.08432893
29	0xbe4d4bfc	-0.20048517
30	0x3e507c5f	0.20359944
31	0xbf623940	-0.88368607
32	0x3f06e7cf	0.5269746
33	0xbe7c36b0	-0.24630237
34	0x3eb8d363	0.36098775
35	0x3e5b25a5	0.21401079
36	0x3f5a3be7	0.85247654
37	0x3de451a8	0.11148387
38	0xbee0640b	-0.43826327
39	0xbf686871	-0.90784365
40	0x3db75f07	0.08953672
41	0xbeb49409	-0.35269192
42	0xbf055520	-0.52083015
43	0x3ccbe0a2	0.024887387
44	0xbe7343f9	-0.23756398
45	0xbe3b9d8e	-0.18321821
46	0x3e9c5b35	0.30538335
47	0x3edf7703	0.43645486
48	0x3f03fba9	0.5155588
49	0x3e4bccde	0.1990237
50	0x3e16ac74	0.14714223
51	0xbf2cc40d	-0.6748665
52	0xbee20749	-0.44146183
53	0xbe1625f1	-0.14662911
54	0x393dc7b0	0.00018098834
55	0xbe97c130	-0.29639578
56	0x3ea5d954	0.3239237
57	0x3e8e9164	0.278453
58	0xbe0f1895	-0.13974221
59	0x3e48705d	0.19574113
60	0xbd23aaab	-0.039957684
61	0xbb703e1c	-0.0036658114
62	0xbe6e4734	-0.2326935
63	0x3df52f81	0.11971951
64	0x3cb5b6e9	0.022181945
65	0x3f111c37	0.5668368
66	0x3e232902	0.15933612
67	0xbe93bdaa	-0.2885564
68	0xbf041869	-0.51599747
69	0x3ed3e6d5	0.41387048
70	0x3e69f75a	0.22848263
71	0x3da5c256	0.08093707
72	0xbe29bb50	-0.1657536
73	0xbed2fbfa	-0.41207868
74	0xbe16070b	-0.14651124
75	0x3e4c1374	0.19929296
76	0x3f06a52d	0.5259579
77	0xbf28dd5f	-0.65962785
78	0xbe682c38	-0.22673118
79	0x3ee74deb	0.45176634
80	0xbe7a25c3	-0.24428467
81	0xbed9b7b4	-0.42522967
82	0xbf37fd6a	-0.71871054
83	0xbd776d6c	-0.060407087
84	0xbec5c241	-0.38624766
85	0xbe4b5657	-0.19857155
86	0x3ee8429b	0.45363316
87	0xbe2b6a61	-0.16739799
88	0x3e83038e	0.2558865
89	0xbe9c0190	-0.30469942
90	0x3eb4ef01	0.35338596
91	0x3ea2ccad	0.3179678
92	0x3f0342dc	0.51273894
93	0x3e1e6da5	0.15471514
94	0xbec73f69	-0.38915566
95	0x3db6d80c	0.089279264
96	0x3e0cee92	0.13762882
97	0x3dacc31e	0.08435653
98	0xbdc00eae	-0.093778
99	0xbf1d2476	-0.6138376
100	0xbf53d998	-0.82753897
101	0xbdbaf8b0	-0.091294646
102	0x3e7d1e96	0.24718699
103	0xbefe088c	-0.49615896
104	0xbef3af36	-0.47594613
105	0xbf1bf984	-0.60927606
106	0x3e08fa3d	0.13376708
107	0x3e7ea8a9	0.24869026
108	0x3eac2020	0.3361826
109	0xbf165afa	-0.5873257
110	0xbe982a20	-0.2971964
111	0xbf4a5055	-0.79028827
112	0xbca51556	-0.020151775
113	0x3e5dde0c	0.21666735
114	0x3e79c677	0.24392115
115	0xbd4b6a57	-0.04966196
116	0x3f303ffc	0.6884763
117	0x3cee1293	0.029061591
118	0x3e70f403	0.23530583
119	0x3db92717	0.09040659
120	0xbe82fa80	-0.2558174
121	0x3f11fff8	0.570312
122	0x3e076734	0.13222963
123	0xbdc911f2	-0.09817876
124	0xbf2bfb33	-0.67180175
125	0xbf11bde4	-0.56930375
126	0x3d86b4a8	0.06577426
127	0x3f378c4e	0.7169846
128	0xbba024c3	-0.004887195
129	0x3ea3e1c9	0.32008198
130	0x3f57601b	0.8413102
131	0x3f060922	0.52357686
132	0x3e7d44ef	0.24733327
133	0xbe08675f	-0.13320683
134	0xbd60728c	-0.05479674
135	0xbe1c7ff4	-0.15283185
136	0x3f37248f	0.7154016
137	0xbe1feadc	-0.15616935
138	0xbc75a7b0	-0.014993593
139	0x3e8e98a3	0.27850828
140	0xbe558ee5	-0.20855291
141	0xbe322c3d	-0.17399688
142	0xbed4e4d8	-0.41580844
143	0x3f172947	0.5904736
144	0x3eea7e60	0.4579954
145	0xbe16bf49	-0.14721407
146	0x3d86978c	0.06571874
147	0x3c7b6460	0.0153437555
148	0xbed64361	-0.4184828
149	0x3e19b961	0.15012123
150	0x3ec96411	0.39334157
151	0xbeeb7697	-0.45988914
152	0xbebdf523	-0.37101087
153	0xbd9940c6	-0.07483058
154	0x3f06116f	0.5237035
155	0x3e868cf4	0.26279414
156	0xbee0465c	-0.4380368
157	0xbdcd4e89	-0.10024745
158	0x3f402539	0.750568
159	0xbed1f9b5	-0.41010824
160	0x3e0dd3ac	0.13850278
161	0x3f653487	0.89533275
162	0xbe9025fe	-0.28153986
163	0xbb08504d	-0.0020799816
164	0xbf5e7d54	-0.86909986
165	0x3cd2bce9	0.025724845
166	0x3d07ad32	0.033124156
167	0x3e2f7915	0.17136033
168	0xbf812c57	-1.0091656
169	0x3db79898	0.08964652
170	0xbf08691c	-0.53285384
171	0xbc89e561	-0.01683301
172	0x3a7dc34e	0.0009680287
173	0xbeb23561	-0.3480635
174	0x3e6a2b0e	0.22867987
175	0x3e4da630	0.20082927
176	0xbf60bcb3	-0.8778793
177	0xbd22e117	-0.039765444
178	0xbe9026e8	-0.28154683
179	0xbef26f8d	-0.47350731
180	0x3f13f462	0.57794774
181	0x3e1eda98	0.15513074
182	0xbea2252a	-0.3166898
183	0xbcf56464	-0.029955097
184	0x3d3354fb	0.043782216
185	0xbe726692	-0.2367194
186	0x3f5235a3	0.82113093
187	0xbe9fe19e	-0.3122682
188	0x3c5a0a60	0.013308138
189	0xbefd8454	-0.4951502
190	0x3dff1d85	0.12456802
191	0x3da458e1	0.08024765
192	0xbc3dd7f7	-0.011587135
193	0x3f948128	1.1601915
194	0xbe7b52d8	-0.24543321
195	0x3ec2b6be	0.38030046
196	0xbe193b81	-0.14964105
197	0xbe3bb404	-0.1833039
198	0x3e1c248a	0.15248314
199	0x3e6f9b71	0.2339914
200	0xbe780223	-0.24219565
201	0x3f4dd52f	0.8040342
202	0x3de03a5f	0.109486334
203	0xbe26cccb	-0.1628906
204	0xbe734f0b	-0.23760621
205	0xbd4026ad	-0.046911884
206	0xbe52e18e	-0.20593855
207	0xbe6eaca3	-0.23308043
208	0x3ee7ef86	0.4529993
209	0x3f0fe1b9	0.562038
210	0x3e83703d	0.2567157
211	0x3ea5a69b	0.32353672
212	0xbf6f7acf	-0.93546766
213	0xbde82b22	-0.11336352
214	0xbdfdfffa	-0.12402339
215	0xbf187b1f	-0.5956287
216	0xbecf1b05	-0.40450302
217	0xbda4570f	-0.080244176
218	0xbe775f53	-0.24157457
219	0xbec6a19a	-0.38795167
220	0x3e9198a4	0.28436768
221	0xbd97a7a5	-0.074050225
222	0x3ce1c04d	0.027557516
223	0x3ec013d2	0.37515122
224	0xbea9c899	-0.33160856
225	0xbf3f87c6	-0.7481655
226	0xbecfa42e	-0.40554947
227	0x3d8f4658	0.06995839
228	0x3dbe319c	0.09286806
229	0x3ded5194	0.115878254
230	0xbe503865	-0.20334013
231	0xbdc506cd	-0.09620438
232	0x3e095580	0.13411522
233	0xbe9db223	-0.3079997
234	0xbeb56ba2	-0.3543368
235	0xbf88ad4f	-1.067789
236	0xbdc947d5	-0.09828154
237	0xbd86060c	-0.06544122
238	0x3d0b6492	0.03403146
239	0x3f3166ae	0.692973
240	0x3cfaa733	0.030597305
241	0xbee30dbb	-0.44346413
242	0x3e700bac	0.23441952
243	0x3f04824d	0.51761323
244	0xbed169bf	-0.4090099
245	0xbecf35cc	-0.4047073
246	0x3e528285	0.20557602
247	0xbf2ae6e7	-0.6675858
248	0x3f1852f1	0.5950156
249	0xbe95c245	-0.29249778
250	0xbe84c324	-0.2593013
251	0xbe5045cb	-0.20339124
252	0x3d30812d	0.04309194
253	0xbee4613c	-0.44605434
254	0xb8bdc25b	-9.048424e-05
255	0xbd7ad9b2	-0.061242767

network_body._body_endoder.seq_layers.0.bias f4 [128]
0	0xbaba5441	-0.0014215783
1	0x3a1f64a1	0.00060803635
2	0x119c7b8c	2.4688602e-28
3	0xb23d96c8	-1.1035532e-08
4	0x9d5a80b8	-2.8918606e-21
5	0xba8c3d75	-0.0010699468
6	0x3d233bed	0.03985207
7	0x3a5eed42	0.0008503982
8	0x2d950f2f	1.6946082e-11
9	0xbae7a40a	-0.0017672789
10	0x3b8d3d04	0.004310252
11	0xbb3efeb8	-0.0029143523
12	0xa30a60e3	-7.5015116e-18
13	0xbbd40968	-0.006470848
14	0x267b040c	8.7088603e-16
15	0x3414943a	1.3837499e-07
16	0x3c4694a4	0.0121204
17	0xba8c40ed	-0.0010700502
18	0xba4d5db5	-0.0007834093
19	0x2ecb62d2	9.248925e-11
20	0x9f83dddd	-5.58477e-20
21	0xb9aa5d1f	-0.00032494307
22	0xbc058d43	-0.008151355
23	0xb9e96ae9	-0.00044520877
24	0x3a999e3b	0.001172013
25	0xbb5e4572	-0.0033915904
26	0x3a750a0f	0.0009347507
27	0x3ac04b10	0.0014670808
28	0x3af3f5bc	0.0018612663
29	0x3acb17a9	0.0015494722
30	0x3d2e1380	0.042499065
31	0x3b129003	0.002236367
32	0x3a168916	0.00057424733
33	0xbb0966a0	-0.002096571
34	0xbbb56d98	-0.0055367462
35	0x3c04ce4d	0.008105827
36	0x3ad80c85	0.0016483223
37	0xb811ffdc	-3.480898e-05
38	0x3b52158d	0.0032056302
39	0x3add770f	0.0016896444
40	0x9f789e91	-5.2647206e-20
41	0x99909c59	-1.49524e-23
42	0x33e9c5e8	1.0885907e-07
43	0x28b30355	1.9874437e-14
44	0xbaa4deca	-0.0012578603
45	0xbc95574a	-0.0182301
46	0xba3cdee4	-0.0007204844
47	0xbaa048e1	-0.0012228751
48	0x3b1b5cfd	0.0023706548
49	0xbada762c	-0.0016667298
50	0xbc336cd8	-0.010951243
51	0xbac6056a	-0.0015107815
52	0x9e00e3bb	-6.823357e-21
53	0xbafd030b	-0.0019303275
54	0x3b9b26d1	0.004734852
55	0x39bc53ed	0.00035920684
56	0xbb1c8c36	-0.0023887283
57	0xbb6eff9e	-0.0036468278
58	0x3c626dda	0.013820136
59	0xbc6406f8	-0.013917677
60	0x3af24105	0.0018482512
61	0x3a99337b	0.0011688316
62	0xb56bda2e	-8.7861815e-07
63	0xbadf5921	-0.0017040112
64	0xbb8c4727	-0.004280943
65	0x3bdf227a	0.00680953
66	0x96b4de76	-2.922096e-25
67	0x00000000	0.0
68	0x95ecddf5	-9.566983e-26
69	0x0dad84d1	1.0693923e-30
70	0xbb3333d4	-0.0027344124
71	0xbb8f61c2	-0.0043756673
72	0x388b4a85	6.641917e-05
73	0x3c6be978	0.014398925
74	0x00000000	0.0
75	0xbb41de40	-0.0029581934
76	0x184ba618	2.632099e-24
77	0x39af39c8	0.00033421651
78	0xb22388c5	-9.5189465e-09
79	0xb9487e00	-0.00019120425
80	0xbb40d684	-0.0029424736
81	0x00000000	0.0
82	0xbb8a48f6	-0.0042201234
83	0xa90c707d	-3.1183813e-14
84	0xbc3d035b	-0.011536445
85	0x3b954f04	0.0045565385
86	0x3a139cbc	0.000563096
87	0xbb80cb28	-0.003930468
88	0xbb638fe7	-0.0034723224
89	0xbb81c258	-0.003959935
90	0xbbe6062d	-0.007019779
91	0x281261fe	8.125877e-15
92	0x3c23983f	0.009985029
93	0x26a99165	1.176614e-15
94	0xb71561d9	-8.903874e-06
95	0x00000000	0.0
96	0x39c09b7b	0.00036736936
97	0x3cf506f9	0.029910551
98	0x3c8bb8ed	0.017055953
99	0x3ae3a04d	0.0017366499
100	0x3af02f3e	0.0018324626
101	0xbb7dcbfd	-0.0038726323
102	0xba4f08cd	-0.0007897735
103	0xbb2d827c	-0.002647548
104	0x3c09bd26	0.008406913
105	0x9b3f1dc2	-1.5808765e-22
106	0x00000000	0.0
107	0xbb0d1753	-0.0021528795
108	0x3586d6a9	1.0046252e-06
109	0xbb9399d5	-0.004504422
110	0x3c769bf7	0.015051833
111	0x3be6223d	0.0070231245
112	0x0a82b22e	1.2585568e-32
113	0xba4fd41e	-0.0007928031
114	0xb28d58a9	-1.6454878e-08
115	0xbba0ac51	-0.004903354
116	0x064bcdc4	3.833123e-35
117	0x248151ac	5.608319e-17
118	0xbb332e77	-0.0027340928
119	0x3b0e72e0	0.0021735951
120	0xb914c68d	-0.00014188346
121	0x1b6b9e2b	1.9489851e-22
122	0x27d9e76e	6.0480516e-15
123	0x30a38654	1.1897989e-09
124	0x3af7ddfe	0.0018910763
125	0x3c514020	0.012771636
126	0x3cdba321	0.026811184
127	0x36162225	2.2371617e-06

network_body._body_endoder.seq_layers.2.weight f4 [128, 128]
0	0x3d968f97	0.07351606
1	0xbda53021	-0.080658205
2	0x3d8f8f0f	0.07009708
3	0xbd9ebccf	-0.07750856
4	0xbda2a1b3	-0.07940998
5	0x3cd51823	0.026012486
6	0x3b4681ad	0.0030289695
7	0x3b0a4d0c	0.0021103052
8	0x3d976250	0.073917985
9	0x3d5299e8	0.051416308
10	0x3d508a2a	0.050913014
11	0xbcb76c89	-0.02239062
12	0x3dea4b00	0.11440086
13	0x3dd7d003	0.10537722
14	0x3d07671b	0.033057313
15	0x3bd79e17	0.006580125
16	0xbda53250	-0.08066237
17	0xbe7be34e	-0.24598429
18	0x3e099a83	0.13437848
19	0xbda2fe6b	-0.079586826
20	0x3b93aa2d	0.0045063705
21	0xbce5b292	-0.02803925
22	0x3ce46382	0.02787948
23	0xbdc0687e	-0.0939493
24	0xbd23d9d0	-0.040002644
25	0xbd4d0bd6	-0.050060116
26	0xbcefd965	-0.029278466
27	0x3d9b9d04	0.07598308
28	0x3c3148eb	0.010820608
29	0x3d60bf04	0.054869667
30	0x3b4858d5	0.0030570526
31	0x3b9b0726	0.004731077
32	0x3c694f88	0.014240153
33	0xbcb4ebba	-0.02208506
34	0xbe4b1571	-0.19832398
35	0xbd2c4dbb	-0.042066317
36	0x3db24899	0.08705253
37	0xbdcb17e9	-0.0991667
38	0x3d8a53b1	0.06754244
39	0xbc2b64b1	-0.010461018
40	0x3d38296c	0.044961378
41	0xbd8fde7b	-0.07024857
42	0x3c996829	0.018726425
43	0x3ccef7ff	0.025264738
44	0x3d13dc41	0.036098722
45	0x3d77d85a	0.060509063
46	0xbdc9704d	-0.09835873
47	0xbd093526	-0.033497952
48	0x3c50a151	0.012733773
49	0x3b1d47ce	0.0023999098
50	0x3d9ed262	0.07754971
51	0x3d379fb6	0.044830047
52	0x3dd62f6a	0.10458262
53	0x3d79efc3	0.06101967
54	0xbddf8c3b	-0.10915419
55	0xbd8248cd	-0.06361542
56	0xbdd682f0	-0.10474193
57	0xbdd38ed8	-0.1032998
58	0xbda7a37f	-0.08185481
59	0x3d718f2e	0.058974437
60	0x3e113d1e	0.1418347
61	0x3cb8a7f9	0.022541033
62	0xbc0a8c1e	-0.008456258
63	0x3e132901	0.1437111
64	0xbdf9be0f	-0.12194454
65	0xbdf6cfab	-0.12051328
66	0xbe599211	-0.21247126
67	0xbcc95ea3	-0.02458126
68	0x3bed857f	0.00724858
69	0xbcb16aca	-0.021657366
70	0xbd59d733	-0.053183746
71	0xbca28669	-0.019839482
72	0x3e2baa83	0.16764264
73	0xbdec984b	-0.11552485
74	0xbe122321	-0.14271213
75	0x3c9f1d3d	0.019423122
76	0x3d918750	0.07105887
77	0xbd14bb07	-0.036311176
78	0xbe49dfed	-0.19714327
79	0xbe38c7ab	-0.18044917
80	0xbb464f87	-0.0030259804
81	0xbd231583	-0.039815437
82	0x3e612392	0.21986225
83	0x3dbc8301	0.092046745
84	0xbe2bc1f8	-0.16773212
85	0x3c8e0efa	0.017341126
86	0x3dd0b77d	0.101912476
87	0x3e00ede0	0.12590742
88	0x3ce6798f	0.028134136
89	0x3df2298f	0.11824333
90	0x3d9e837a	0.07739921
91	0xbe34275c	-0.1759314
92	0xbd8f41bc	-0.0699496
93	0x3df48949	0.119402476
94	0x3d9f7b05	0.07787136
95	0xbdbeff6d	-0.09326062
96	0xbcb806de	-0.022464212
97	0x3d1e6a27	0.038675454
98	0x3d8f5aa2	0.06999709
99	0xbb54b6c7	-0.0032457577
100	0xbd6f0b98	-0.058360666
101	0x3d7b34c4	0.061329618
102	0x3e21a271	0.15784623
103	0xbc6335b1	-0.0138677815
104	0x3d905f21	0.070493944
105	0xbd8f035b	-0.06983062
106	0x3d5241ca	0.051332273
107	0x3d16e0ae	0.036835365
108	0x3d38ebd0	0.045146763
109	0xbd006a0f	-0.031351145
110	0x3dd19836	0.1023411
111	0xbccf1a90	-0.02528122
112	0xbc83c9c6	-0.016087424
113	0x3dc0775a	0.093977645
114	0xbcb767e9	-0.022388415
115	0xbb95f805	-0.0045766854
116	0x3cc8a9b9	0.024494993
117	0xbd749c1f	-0.0597192
118	0xbe1730da	-0.14764729
119	0x3da9d4e3	0.08292558
120	0xbdc14c71	-0.09438408
121	0x3e29c17e	0.16577718
122	0x3bc60b9e	0.0060438653
123	0xbd821f74	-0.063536555
124	0x3dee2ad8	0.116292655
125	0x3c7eeaf7	0.01555895
126	0x3e0871e5	0.13324697
127	0xbdac7d9a	-0.08422394
128	0xbd7db1c4	-0.06193711
129	0x3db91303	0.09036829
130	0xbe064e02	-0.13115695
131	0xbdfca9de	-0.12337087
132	0xbdee7e17	-0.116451435
133	0x3e5d3510	0.21602273
134	0x3de1a436	0.11017649
135	0xbc8b94e1	-0.017038764
136	0x3cf5a1bb	0.029984346
137	0xbce0fec5	-0.027465234
138	0xbc9e9d63	-0.019362157
139	0x3da26e8f	0.07931244
140	0xbd761ae0	-0.060084224
141	0xb9d209af	-0.00040061536
142	0xbd4c4782	-0.049872883
143	0x3c5a8eef	0.013339742
144	0xbd810d6e	-0.0630139
145	0x3de4885c	0.11158821
146	0xbc3d85de	-0.011567561
147	0xbe0e25b5	-0.13881572
148	0x3d90ecf6	0.07076447
149	0x3e091daf	0.1339023
150	0xbc3dfced	-0.011595947
151	0x3c49db73	0.012320387
152	0xbe0b4cd1	-0.13603522
153	0x3bb55601	0.005533934
154	0xbd9593d4	-0.073035866
155	0x3cffd002	0.031227116
156	0x3e7d0834	0.2471016
157	0x3d10100a	0.035171546
158	0x3c3dcb07	0.01158405
159	0x3d907900	0.07054329
160	0x3d3d38b9	0.046196673
161	0xbd7f7cfb	-0.06237505
162	0x3d27f7a2	0.041007645
163	0xbda3a930	-0.07991254
164	0xbdac5fd2	-0.08416714
165	0x3e284740	0.1643343
166	0x3dfea5a5	0.12433938
167	0x3ce09237	0.02741347
168	0x3cea5e26	0.028609347
169	0xbbb09fea	-0.005390157
170	0xbd168dfd	-0.036756504
171	0xbd2c29ce	-0.042032056
172	0xbcfd9b25	-0.030957768
173	0xbd49d44b	-0.049274724
174	0x3e1b2c4e	0.1515362
175	0xbda40ea1	-0.08010603
176	0xbd2ba12e	-0.04190176
177	0x3df9d026	0.12197904
178	0x3e3eeb76	0.18644509
179	0xbd3ea34e	-0.04654246
180	0x3de5b904	0.112169296
181	0x3dcdb097	0.100434475
182	0xbc3063c4	-0.0107659735
183	0xbb91c037	-0.0044479626
184	0x3db23404	0.087013274
185	0x3d6902c5	0.056887407
186	0x3e5c7ee8	0.21532786
187	0x3daf808c	0.0856944
188	0x3d0e79d6	0.03478416
189	0x3d4f3f44	0.050597444
190	0xbd531678	-0.0515351
191	0x3ce79a47	0.028271807
192	0xbd9dcfc1	-0.077056415
193	0x3e103a17	0.1408466
194	0xbdbb49a2	-0.09144904
195	0xbdc32b44	-0.09529737
196	0xbe208346	-0.15675077
197	0xbe3f4bc7	-0.1868125
198	0x3e1163f8	0.14198291
199	0x3de57cf2	0.11205472
200	0xbce52d50	-0.027975708
201	0xbe0def61	-0.13860847
202	0x3d89f43d	0.06736038
203	0xba9c46e2	-0.001192298
204	0xbdb37fc4	-0.08764604
205	0xbd4b5dce	-0.049650006
206	0x3bd5c2bf	0.0065234597
207	0x3cfe84b9	0.031069146
208	0xbe38e2bd	-0.18055244
209	0xbd81759b	-0.063212596
210	0xbbfd657f	-0.0077330465
211	0x3cf4031e	0.029786643
212	0xbdab3b1b	-0.08360883
213	0x3c02c247	0.00798089
214	0xbe2e821a	-0.17041817
215	0x3dda51db	0.10660144
216	0x3d3c1e82	0.045927532
217	0x3d821ac2	0.0635276
218	0x3cceca43	0.02524293
219	0x3dde6519	0.108591266
220	0xbddc9929	-0.107714005
221	0x3b890b52	0.0041822577
222	0xbda7f4d8	-0.08200997
223	0x3cf4bb36	0.029874425
224	0xbd9a23eb	-0.07526382
225	0xbd55caca	-0.052195348
226	0x3d999d6d	0.0750073
227	0x3d57499a	0.052560426
228	0xbe325668	-0.17415774
229	0x3de184f7	0.11011689
230	0x3dd126d8	0.10212487
231	0xbd89fbec	-0.067375034
232	0xbcdd1e6b	-0.026992043
233	0x3c964d21	0.018347325
234	0xbdb1e9fe	-0.086872086
235	0x3ddc2091	0.10748399
236	0x3e24fd52	0.16112259
237	0xbd16f5c2	-0.036855467
238	0xbda9950c	-0.082803816
239	0x3dcb7b27	0.09935599
240	0xbe1af707	-0.15133296
241	0x3d43de90	0.047819674
242	0x3db29e88	0.08721644
243	0x3dd62dfa	0.10457988
244	0x3d12fab5	0.035883624
245	0x3bcc221e	0.006229653
246	0xbca3b9f0	-0.019986123
247	0xbd7d1bc1	-0.061794046
248	0xbdc684df	-0.09693312
249	0x3e15ec70	0.14640975
250	0x3da733f3	0.081642054
251	0x3db5c448	0.08875328
252	0xbbdad61f	-0.0066783573
253	0x3cbfec23	0.023428028
254	0x3cb649c0	0.022251964
255	0xbceba7c2	-0.028766517

network_body._body_endoder.seq_layers.2.bias f4 [128]
0	0xbab84eb4	-0.0014061541
1	0xbb31e9ef	-0.0027147492
2	0xbb28a602	-0.0025733714
3	0xbb11ed9e	-0.0022266875
4	0x3abf0ff4	0.0014576898
5	0x389e4c3b	7.548226e-05
6	0xba017380	-0.00049381703
7	0x3720b2ae	9.578345e-06
8	0xbb4fb3f9	-0.0031692965
9	0xbb3583cc	-0.0027696965
10	0x9d10e528	-1.9176712e-21
11	0xba276a08	-0.00063863443
12	0xbab98455	-0.0014153818
13	0x3abc8c6f	0.0014385114
14	0xb8e9ccf6	-0.00011148483
15	0xba517ce7	-0.0007991329
16	0xbb5c19ad	-0.003358464
17	0xa5fc3b4e	-4.3755218e-16
18	0xbae3d913	-0.0017383419
19	0xba255d70	-0.0006308174
20	0xbad375b8	-0.0016133105
21	0xac07f38e	-1.9319854e-12
22	0x26283eb4	5.837169e-16
23	0xb8f5aedc	-0.000117150805
24	0xbc02045e	-0.0079356115
25	0xa4b3fc85	-7.805666e-17
26	0xbbbb6075	-0.0057182857
27	0xbb372916	-0.0027948073
28	0xbb3b9218	-0.0028621014
29	0xbad01daf	-0.0015877987
30	0x22ad4edf	4.697525e-18
31	0xbb166073	-0.0022945672
32	0x3b904910	0.004403241
33	0x219bf47d	1.0567924e-18
34	0xb9f7479b	-0.00047164861
35	0xbc0e5972	-0.008688318
36	0x2e50e6f7	4.7498862e-11
37	0x17db49f6	1.4171214e-24
38	0xbb913910	-0.004431851
39	0xbacd36d4	-0.0015656599
40	0xbad09a88	-0.0015915195
41	0x2bbe57c6	1.3524674e-12
42	0xb9c6c725	-0.00037913877
43	0x398fa331	0.00027396673
44	0xb98cd4ad	-0.00026861337
45	0xbad5117d	-0.0016255822
46	0x3a7f4f9b	0.000973934
47	0xb51bb61f	-5.800702e-07
48	0xb9637292	-0.00021691088
49	0xb9dbbc4b	-0.00041911224
50	0xbb365537	-0.0027821788
51	0x17bfc7a5	1.2393483e-24
52	0xbbb76366	-0.005596566
53	0xbb932fb6	-0.0044917716
54	0x3a2cdb88	0.0006593992
55	0xba97a50b	-0.0011569572
56	0x3b3bc506	0.002865137
57	0xb951e980	-0.00020018779
58	0x39cb0819	0.0003872521
59	0xa5049f11	-1.1503069e-16
60	0xb9911452	-0.00027671695
61	0xbbae7e53	-0.0053251176
62	0xa5b8eaa3	-3.2077908e-16
63	0xb9fe6e13	-0.00048528667
64	0xb9337690	-0.00017114938
65	0x3b472c5c	0.003039143
66	0xbb20c6de	-0.0024532597
67	0xbbc080fb	-0.0058747507
68	0xba939605	-0.0011259919
69	0xbbd88bf8	-0.0066084825
70	0x3ab22a9e	0.0013593023
71	0xb9c1be35	-0.00036953544
72	0xb98e505b	-0.0002714422
73	0x97576cfe	-6.9607814e-25
74	0xba591889	-0.0008281549
75	0xbab44554	-0.0013753572
76	0x9b13c88a	-1.2224353e-22
77	0xbabec7fd	-0.0014555451
78	0xbb72002a	-0.0036926367
79	0xbb23538b	-0.0024921622
80	0x3977ff7e	0.00023650934
81	0xbbafe016	-0.0053672893
82	0xbaf06021	-0.0018339196
83	0xbbdbb9dc	-0.006705506
84	0xb490f18a	-2.6997833e-07
85	0x3ae3aa50	0.0017369483
86	0xb2bedcdd	-2.2219348e-08
87	0xba4bdd83	-0.0007776843
88	0x3a146cd6	0.000566197
89	0xa8fd77f2	-2.814066e-14
90	0xba36dc3f	-0.0006975568
91	0xbb228732	-0.002479982
92	0x3b23504e	0.0024919691
93	0xb73b0fde	-1.1149763e-05
94	0xb9cbc2fe	-0.00038864458
95	0xb9471ec7	-0.00018989584
96	0xbb9a75a5	-0.0047137314
97	0xaac85570	-3.558642e-13
98	0xbab01c72	-0.0013436212
99	0xba0e2132	-0.00054218166
100	0xba5fb82b	-0.0008534218
101	0xba77dfe3	-0.0009455664
102	0xbb1d399d	-0.002399064
103	0xb6d4d68e	-6.34307e-06
104	0x3a0ff785	0.00054919004
105	0xae029db6	-2.9698653e-11
106	0xba7b0cc2	-0.0009576791
107	0x3587a3da	1.0105971e-06
108	0xba65d11c	-0.00087668165
109	0xad99cd9f	-1.74854e-11
110	0x263b3c76	6.49606e-16
111	0x3b8de586	0.00433034
112	0xbaab543d	-0.001307137
113	0x390fcb7a	0.00013713344
114	0xbbcdf874	-0.0062857214
115	0x3b4df768	0.0031427983
116	0x3ab85dab	0.0014066001
117	0xbb301b5c	-0.0026871776
118	0xbb9ba7dc	-0.004750235
119	0xbb885ecd	-0.0041616918
120	0xba6367d1	-0.00086748326
121	0xa224b827	-2.2323634e-18
122	0xb960a0a0	-0.00021422142
123	0xbc00a203	-0.007851127
124	0xbb43444d	-0.002979535
125	0xab811b2c	-9.173543e-13
126	0xbb852313	-0.004063019
127	0xb7212a45	-9.606189e-06

action_model._discrete_distribution.branches.0.weight f4 [3, 128]
0	0x3bb4d1b0	0.0055181608
1	0xbc494630	-0.0122848
2	0x39eb5d4b	0.00044892202
3	0x3c2216ba	0.009893114
4	0xbcdead5d	-0.027182275
5	0x3cc2916c	0.023750983
6	0x3be8e48f	0.0071073244
7	0x3b472417	0.0030386501
8	0x3bbc2bf8	0.005742546
9	0xbbfca4ee	-0.007710091
10	0xbc441077	-0.011966816
11	0x3c4f6f38	0.012660794
12	0xbb3e3e37	-0.0029028782
13	0x3ba3046d	0.004974893
14	0xbaee7b72	-0.0018194749
15	0xbbdaae1b	-0.006673587
16	0x3aa204ae	0.0012361014
17	0x3bfb3c8a	0.007667129
18	0xbbe2ee17	-0.006925355
19	0xbc91e3e2	-0.017808858
20	0xbcc25e65	-0.023726651
21	0x3c8ad448	0.016946927
22	0xbaaab193	-0.0013022892
23	0xbc3fd8e7	-0.011709428
24	0xbb92008a	-0.0044556307
25	0xbb825d4e	-0.003978408
26	0x3bc5f7c7	0.0060415003
27	0xbac596a9	-0.0015074807
28	0x3b97625b	0.004619879
29	0x3c542ea8	0.012950577
30	0x3b577878	0.0032878201
31	0x3c61c623	0.01378015
32	0x3b7fcde6	0.0039032637
33	0x3a10796f	0.0005511259
34	0x3c25e3c5	0.010125105
35	0x3b2c0915	0.002625053
36	0xbc1e58a8	-0.009664692
37	0x3acd1323	0.0015645962
38	0xbc435410	-0.0119218975
39	0x396baa6e	0.00022474836
40	0xbc887911	-0.016659291
41	0xbc7dd65d	-0.015493003
42	0x3c0dcf88	0.008655436
43	0xbc947043	-0.018119937
44	0x3a76205a	0.0009388976
45	0x3b5387a5	0.0032276895
46	0x3b6a8dd5	0.0035790105
47	0xb951b02d	-0.00019997424
48	0xbb72d6d1	-0.003705431
49	0x3be213c2	0.006899328
50	0x3cd17a5f	0.025571046
51	0x3a6360d2	0.000867379
52	0x3be27dd8	0.0069119744
53	0x3c01ac2b	0.007914583
54	0xbab17b24	-0.0013540727
55	0x3bd0e879	0.006375369
56	0x3a1144fe	0.00055415917
57	0x3c8bb92d	0.017056072
58	0x3bc38d44	0.005967768
59	0x3ac33657	0.0014893514
60	0x3bee305b	0.007268948
61	0xbaff5605	-0.0019480592
62	0x39413692	0.00018426243
63	0x3cb8f5c6	0.022578131
64	0xba2f8956	-0.0006696185
65	0x3ab5acd7	0.0013860714
66	0x3aca51a9	0.0015435714
67	0x3abc63c4	0.0014372994
68	0x3b1723fa	0.0023062215
69	0xbbadc1ae	-0.0053026294
70	0xbc6371cd	-0.013882113
71	0x3bdddd6e	0.0067707812
72	0xbc8a1651	-0.016856344
73	0x3baee637	0.0053375023
74	0xbcdc35b3	-0.026881075
75	0xbc312452	-0.010811882
76	0x3992ccd7	0.00027999908
77	0x3a7d40d6	0.00096608454
78	0x3bd840f0	0.006599538
79	0x3bb38d83	0.005479516
80	0xbbb726b1	-0.005589329
81	0xbb0bb0bf	-0.0021315066
82	0x3ba9efef	0.005186073
83	0x3c4754eb	0.012166242
84	0xbb906e0a	-0.004407649
85	0x3ac7bba9	0.0015238422
86	0x3b91deb1	0.0044515957
87	0xbba446c9	-0.005013321
88	0x3c0a091e	0.008425025
89	0xbc9aa7f0	-0.018878907
90	0x3c1cedb1	0.009578154
91	0xbc190247	-0.009338922
92	0xbd31b0cf	-0.04338151
93	0xb9cfe040	-0.00039649196
94	0xbaf028c4	-0.0018322696
95	0xbc44a9ed	-0.012003404
96	0x3b6d9124	0.003624984
97	0xbadf2ee5	-0.0017027525
98	0x3c147de1	0.009063215
99	0xb938e113	-0.00017631454
100	0x3bb95fb5	0.005657161
101	0xbb59a8bb	-0.0033212143
102	0xbbe5308d	-0.006994313
103	0x3b42ca15	0.00297225
104	0x3bb5b2e5	0.0055450075
105	0xbb61fffe	-0.0034484859
106	0x3a42a150	0.000742455
107	0xbc373f1e	-0.011184482
108	0x3bedec7c	0.007260857
109	0xbbd77a65	-0.00657587
110	0x3bf850b5	0.0075779804
111	0x3ceed045	0.029152045
112	0xbaf474d4	-0.001865054
113	0x3cc72bfc	0.024312966
114	0xba4c26a1	-0.00077877386
115	0xbd0c875d	-0.03430878
116	0xbc1f3a39	-0.009718471
117	0x3c73f7f4	0.01489066
118	0x3a238106	0.00062371825
119	0xbc3efbf4	-0.01165675
120	0x3a1e8501	0.0006047041
121	0x3b7d0aaa	0.0038611093
122	0xbb317bea	-0.0027081915
123	0x398ecde3	0.00027237748
124	0x3ab71c40	0.0013970211
125	0xbbe35a68	-0.0069382675
126	0xbaf2b8f3	-0.0018518254
127	0xbba7caa8	-0.005120594
128	0x3c47ee80	0.012202859
129	0x3ba33dc5	0.0049817287
130	0xbc998df9	-0.018744456
131	0xba7d7298	-0.000966826
132	0x3c878026	0.016540598
133	0xba3a39e7	-0.0007103965
134	0xbc2cdfd5	-0.010551413
135	0xbb57678d	-0.0032868118
136	0x3b966b85	0.004590454
137	0xbc81b606	-0.015833866
138	0x3bd164ad	0.0063901753
139	0xbba4b899	-0.0050268886
140	0x3b5d0ddb	0.0033730182
141	0x3b673ba1	0.0035283344
142	0xbb89c105	-0.004203918
143	0xbb0811ab	-0.0020762484
144	0xbb045992	-0.002019499
145	0x3bebe947	0.0071994397
146	0xbbf63662	-0.007513807
147	0x3b53915d	0.0032282688
148	0xbbf907c7	-0.007599804
149	0xbbacc63b	-0.0052726544
150	0x3c73be6a	0.014876941
151	0x3c08b34c	0.008343529
152	0xbb95ba2c	-0.0045693126
153	0x3bd6a118	0.0065499656
154	0x3c3f7367	0.011685229
155	0x3b782237	0.003786219
156	0xbb2e1815	-0.0026564647
157	0x3a77f75e	0.0009459163
158	0x3b49de52	0.003080268
159	0xbb989a71	-0.0046570827
160	0xbc59182f	-0.013250395
161	0x3bf8bde0	0.0075909942
162	0xbb714e71	-0.0036820436
163	0x3b625e11	0.0034540931
164	0x3b9150e0	0.00443469
165	0x3b363c05	0.002780677
166	0xbc3f7454	-0.01168545
167	0xbb0af7b9	-0.0021204783
168	0xbb623771	-0.003451791
169	0xbb9fe428	-0.0048794933
170	0xbbe4e2b4	-0.006985033
171	0xbd67b11d	-0.056565393
172	0xbc08a7c2	-0.008340778
173	0xbc3457b2	-0.011007236
174	0xbbcc853d	-0.006241469
175	0xbb35651f	-0.002767868
176	0xbbcefbfa	-0.006316659
177	0xbb4259fe	-0.002965569
178	0x3c2b31e9	0.010448911
179	0x3bb2ae3c	0.0054528993
180	0x3c30eec6	0.0107991155
181	0x3c2eaf9c	0.010661986
182	0xbbb18ad6	-0.005418162
183	0xbc1966c9	-0.009362885
184	0xbcfbffa2	-0.030761544
185	0xb7becff3	-2.2746599e-05
186	0xbc9592d7	-0.018258495
187	0xbc2856d6	-0.01027461
188	0xbbf00edc	-0.00732599
189	0xbb0bedc9	-0.0021351448
190	0xbc2f616d	-0.01070438
191	0x3c127d05	0.00894094
192	0x3bbb0e5f	0.0057085003
193	0xbc918ffb	-0.01776885
194	0x3a0b610d	0.0005316891
195	0x3bbbe9c9	0.0057346565
196	0xbb24df98	-0.0025157686
197	0x3b7224bd	0.0036948167
198	0xbc593dde	-0.013259379
199	0xbb862849	-0.004094158
200	0xbbf5b5e4	-0.0074984897
201	0xbaa348b1	-0.0012457577
202	0x3c44b2fc	0.012005564
203	0x3c1a39d6	0.009413203
204	0xbbd571a3	-0.0065137907
205	0x3bac5de2	0.005260215
206	0x3c3684a0	0.011140019
207	0xbc6795fc	-0.01413488
208	0xbac0ded8	-0.001471485
209	0xb8d0c99e	-9.955767e-05
210	0x3c20e74e	0.009820772
211	0x3c4f22aa	0.012642542
212	0x3a8b80d1	0.0010643249
213	0xbc562c05	-0.0130720185
214	0xbbd5c3a7	-0.0065235677
215	0x3c8c5143	0.017128592
216	0xbc35cd7f	-0.011096357
217	0xba07071b	-0.00051509
218	0x3ba2fb9d	0.0049738423
219	0x3b4f0a77	0.003159193
220	0xbbdaae4d	-0.0066736103
221	0x3c0bf0f5	0.008541335
222	0x3bae3ede	0.005317553
223	0xbbd27480	-0.0064225793
224	0xbba84153	-0.0051347404
225	0xbca14a5b	-0.019688776
226	0xba89b2e3	-0.0010505583
227	0xbc797021	-0.0152244875
228	0xbb584d3e	-0.0033005024
229	0x3c2ced01	0.010554553
230	0xbb21a5c2	-0.002466545
231	0xbc7b626b	-0.015343289
232	0xbc022d7b	-0.007945414
233	0x3ca5f08f	0.020256309
234	0x3c091253	0.008366185
235	0xbaf20019	-0.0018463164
236	0x3c35022b	0.01104788
237	0xbb562ac3	-0.0032679297
238	0xbbde09d5	-0.0067760744
239	0x3d081d8e	0.03323131
240	0xbb88a276	-0.0041697575
241	0xbc22ae21	-0.009929211
242	0x3b268f32	0.002541494
243	0xbb80b08e	-0.003927297
244	0xbbeb6262	-0.007183359
245	0x3b8b157d	0.004244505
246	0x3c2700eb	0.01019309
247	0xbafa7c30	-0.0019110497
248	0x3c5f48bc	0.013628181
249	0xbbee713f	-0.0072766836
250	0x3ae5ab6e	0.0017522404
251	0xbaea1901	-0.0017860235
252	0x3a054aa9	0.00050846726
253	0x3a2334b1	0.0006225808
254	0xbca084d3	-0.019594586
255	0xbbbcb742	-0.0057591507

action_model._discrete_distribution.branches.0.bias f4 [3]
0	0x39dac198	0.0004172444
1	0xba8e40b1	-0.001085302
2	0x3b98ae73	0.004659468

exp_avg f4 [128, 6]
0	0x3a288762	0.0006428865
1	0xb631f043	-2.6514906e-06
2	0x3abc5750	0.0014369283
3	0xb93cd13c	-0.00018007023
4	0xb74967b5	-1.200468e-05
5	0xbb1a3367	-0.0023529173
6	0xb97edc6f	-0.00024305446
7	0xb6426188	-2.8965023e-06
8	0xb9a830ec	-0.00032079907
9	0x384e2923	4.915254e-05
10	0x365be7ab	3.2768392e-06
11	0x3a285d56	0.00064225995
12	0x054452fe	9.231119e-36
13	0x80244fa1	-3.334643e-39
14	0x05c91a19	1.8911536e-35
15	0x84567277	-2.5208139e-36
16	0x8264be60	-1.680543e-37
17	0x862f21c1	-3.293864e-35
18	0x27b767c7	5.090522e-15
19	0xa3f64c13	-2.6703592e-17
20	0x2833a1b9	9.971564e-15
21	0xa6bb89a9	-1.3013044e-15
22	0xa4c80a4e	-8.675363e-17
23	0xa89927e1	-1.7003707e-14
24	0x10d3c6ee	8.3531325e-29
25	0x8ebaa186	-4.600808e-30
26	0x1107061f	1.0651508e-28
27	0x8f941112	-1.4600502e-29
28	0x8d9df013	-9.733668e-31
29	0x9171d79c	-1.9077988e-28
30	0x2e19331f	3.4833577e-11
31	0xaaf37b96	-4.3251226e-13
32	0x2e90df13	6.587988e-11
33	0xad199b12	-8.731476e-12
34	0xab23d89b	-5.8209833e-13
35	0xaefae3a7	-1.1409123e-10
36	0xb40ee842	-1.3309275e-07
37	0xb2f10d7c	-2.8062225e-08
38	0x37dec821	2.6557655e-05
39	0xb609614e	-2.047123e-06
40	0xb41289eb	-1.3647484e-07
41	0xb7e06334	-2.6749076e-05
42	0x398b8260	0.00026609283
43	0x351054d0	5.37676e-07
44	0x3a1785cf	0.0005780132
45	0xb89bb49f	-7.424619e-05
46	0xb6a615fd	-4.9497453e-06
47	0xba7e51b3	-0.0009701505
48	0x207ac343	2.124043e-19
49	0x9d324e90	-2.359872e-21
50	0x2201ef40	1.7609418e-18
51	0xa04fd627	-1.7604439e-19
52	0x9e5db13b	-1.1736293e-20
53	0xa229bbb2	-2.3003136e-18
54	0xb6bf3450	-5.6983336e-06
55	0x368957e8	4.093152e-06
56	0xb6f75b23	-7.3717833e-06
57	0xb62c092b	-2.5635334e-06
58	0xb43780b1	-1.7090021e-07
59	0xb80c7eba	-3.3496624e-05
60	0xb9c1e751	-0.00036984173
61	0xb662dabd	-3.3803947e-06
62	0xba678ede	-0.00088332396
63	0x38ed90cd	0.00011328012
64	0x36fd6744	7.5520093e-06
65	0x3ac2030d	0.0014801935
66	0x38b7ec64	8.770151e-05
67	0xb69642d6	-4.478129e-06
68	0x3951e907	0.00020018603
69	0xb7b9a9bc	-2.2132757e-05
70	0xb5c60a6c	-1.4755183e-06
71	0xb9979ff2	-0.00028920133
72	0x158fc987	5.8075194e-26
73	0x137e1ae6	3.207257e-27
74	0x1740c834	6.229124e-25
75	0x95577714	-4.351284e-26
76	0x9365d405	-2.9008397e-27
77	0x972ff67a	-5.6856647e-25
78	0xb863f136	-5.4345663e-05
79	0x35bdcf1c	1.4141874e-06
80	0x38d715dc	0.000102560705
81	0xb6de6058	-6.6273315e-06
82	0xb4ed3380	-4.418216e-07
83	0xb8b59b79	-8.6597116e-05
84	0x9f26548d	-3.5221806e-20
85	0x9bca5ba4	-3.3477318e-22
86	0x9f5215e7	-4.4487347e-20
87	0x1de53b1f	6.0676925e-21
88	0x1bf48358	4.0451293e-22
89	0x1fbb348a	7.92845e-20
90	0xa7052e8c	-1.848269e-15
91	0x234d8473	1.11411195e-17
92	0xa797a4af	-4.208947e-15
93	0x2616e7be	5.2355774e-16
94	0x2420f72f	3.4903842e-17
95	0x27f67a7f	6.8411527e-15
96	0xb40552af	-1.241667e-07
97	0x3008d0e1	4.9773347e-10
98	0xb494b845	-2.7701222e-07
99	0x331bde02	3.6290665e-08
100	0x31264224	2.4193776e-09
101	0x34fe9546	4.7419798e-07
102	0x3a19d2a6	0.0005867876
103	0x3576eead	9.198946e-07
104	0x3acf704a	0.0015826311
105	0xb94bfe05	-0.00019454218
106	0xb7599776	-1.2969473e-05
107	0xbb2697f5	-0.0025420163
108	0xb9d2c259	-0.00040199122
109	0xb6196997	-2.2860238e-06
110	0xba4dc417	-0.0007849349
111	0x38dacc58	0.00010433112
112	0x36e9628b	6.955413e-06
113	0x3ab2af6b	0.0013632601
114	0x20eb3c98	3.9850646e-19
115	0x9be458a2	-3.7776714e-22
116	0x214edd0a	7.008806e-19
117	0x9fde4ecd	-9.415102e-20
118	0x9ded20e2	-6.2767378e-21
119	0xa1b58d2a	-1.2302403e-18
120	0x16a5e8d0	2.6804113e-25
121	0x943cfeda	-9.541835e-27
122	0x16dc27a8	3.5567944e-25
123	0x956e756c	-4.8156347e-26
124	0x937e5b23	-3.2104241e-27
125	0x9742bdc7	-6.2924313e-25
126	0x39504e93	0.00019865697
127	0xb5ac1891	-1.2822148e-06
128	0x3a1044f5	0.00055034395
129	0xb88b080b	-6.6295346e-05
130	0xb6944cda	-4.4196904e-06
131	0xba6315af	-0.0008662594
132	0x2fa60484	3.0198433e-10
133	0xabb8bbe1	-1.3126133e-12
134	0x303bebf4	6.8365513e-10
135	0xaec38d4c	-8.892673e-11
136	0xacd096b9	-5.928449e-12
137	0xb09fb367	-1.1619762e-09
138	0x3a05d13f	0.00051047275
139	0x36f04110	7.1601316e-06
140	0x3ad398ab	0.0016143521
141	0xb94e271c	-0.0001966026
142	0xb75be573	-1.310684e-05
143	0xbb285bae	-0.002568941
144	0xb91f61a1	-0.00015199791
145	0x35b70500	1.3636018e-06
146	0xba7c5ded	-0.0009627033
147	0x38d6f9bc	0.00010250832
148	0x36e54ea6	6.8338877e-06
149	0x3aaf9037	0.001339442
150	0xb9a29165	-0.00031007375
151	0x3578e818	9.272494e-07
152	0xba27f7f8	-0.00064074947
153	0x38ad6a06	8.269031e-05
154	0x36b8f99e	5.5126866e-06
155	0x3a8d9f1e	0.0010804867
156	0xb945256e	-0.00018801328
157	0x35712d76	8.984565e-07
158	0xb9c80675	-0.00038151784
159	0x384d3ed3	4.893432e-05
160	0x365aedac	3.2622875e-06
161	0x3a279df7	0.0006394083
162	0x3972238c	0.0002309216
163	0x36744c4b	3.6403242e-06
164	0x3a39893f	0.0007077641
165	0xb8b68d35	-8.704738e-05
166	0xb6c2b8c7	-5.8031615e-06
167	0xba951575	-0.0011374193
168	0x388718c5	6.441915e-05
169	0xb604a2b2	-1.9764234e-06
170	0x395e0a3f	0.00021175387
171	0xb7ca4f4a	-2.4117198e-05
172	0xb5d7cc0b	-1.6078133e-06
173	0xb9a5383b	-0.00031513147
174	0xb909c047	-0.00013136967
175	0x357df6ac	9.46088e-07
176	0xba1f7dcd	-0.00060841144
177	0x388d6b40	6.743381e-05
178	0x3696d8cd	4.4955873e-06
179	0x3a66fbf7	0.00088113494
180	0xb6d3a5d8	-6.307597e-06
181	0x34031119	1.2206546e-07
182	0xb8cc371a	-9.7377415e-05
183	0x3718c879	9.106582e-06
184	0x3522f7fa	6.0710556e-07
185	0x38f98bb5	0.00011899268
186	0xb696a577	-4.489611e-06
187	0x33b13a07	8.25276e-08
188	0xb887fbb0	-6.484182e-05
189	0x36cdbb03	6.131247e-06
190	0x34db7224	4.0874977e-07
191	0x38a80365	8.0114965e-05
192	0xb94a8785	-0.00019314706
193	0xb7256bfd	-9.859909e-06
194	0xbab93d38	-0.0014132624
195	0x391f2a58	0.00015179196
196	0x3729c6ca	1.0119469e-05
197	0x3b01fc32	0.0019834158
198	0xb88ce72c	-6.718779e-05
199	0x34d9be8f	4.055805e-07
200	0xb92c0409	-0.00016404701
201	0x37ab77f2	2.0440642e-05
202	0x35b6e65a	1.3627098e-06
203	0x398c085d	0.00026709112
204	0x362aaf5b	2.5434044e-06
205	0x3663b4f9	3.3930976e-06
206	0x38c3e462	9.340864e-05
207	0xb73e3543	-1.13372835e-05
208	0xb54ae39b	-7.5582074e-07
209	0xb91b5625	-0.00014814043
210	0xba5dc30a	-0.0008459544
211	0x36c2b818	5.803082e-06
212	0xbb795839	-0.003804697
213	0x39dd4e75	0.0004221086
214	0x37ec0f69	2.8140568e-05
215	0x3bb4bbcd	0.0055155517
216	0x39f4cad4	0.00046690425
217	0xb5bf8e18	-1.4271964e-06
218	0x3a5b683f	0.0008369721
219	0xb8eaef86	-0.00011202604
220	0xb6fa9918	-7.468403e-06
221	0xbabfdd3b	-0.0014638075
222	0xb8cf7ebc	-9.894135e-05
223	0xb626cfc8	-2.4856872e-06
224	0xb9c2a8d1	-0.00037128342
225	0x383b8561	4.4708493e-05
226	0x364805c2	2.9805674e-06
227	0x3a192471	0.0005841917
228	0xacdb07d9	-6.2252256e-12
229	0x2b48d1db	7.1345507e-13
230	0xb036ab85	-6.645496e-10
231	0x2e533029	4.801862e-11
232	0x2c614470	3.2012414e-12
233	0x302c7865	6.2744326e-10
234	0xb8d07039	-9.939116e-05
235	0xb6864487	-4.001489e-06
236	0xb9bb7ed9	-0.00035761928
237	0x383853db	4.3947115e-05
238	0x36449db5	2.9298074e-06
239	0x3a1688c1	0.0005742424
240	0x983257f5	-2.3050368e-24
241	0x14b8fc30	1.8678722e-26
242	0x98a5aede	-4.282807e-24
243	0x172f1183	5.6567653e-25
244	0x153abd57	3.7711764e-26
245	0x190ef8f7	7.391506e-24
246	0x0e34faeb	2.2307526e-30
247	0x8a07d033	-6.5391715e-33
248	0x0eaac983	4.2102284e-30
249	0x8d3244e2	-5.49334e-31
250	0x8b3e2757	-3.6622265e-32
251	0x8f119620	-7.177965e-30
252	0xaaab09a8	-3.0382402e-13
253	0x27305943	2.4473295e-15
254	0xab7226c5	-8.6029475e-13
255	0x29e93293	1.0356052e-13

exp_avg_sq f4 [128, 6]
0	0x3710d405	8.6324335e-06
1	0x32f83e7e	2.8899418e-08
2	0x3a9ab58b	0.0011803372
3	0x372b763a	1.0219921e-05
4	0x334315f4	4.542194e-08
5	0x3ae4b5f3	0.0017449245
6	0x36a783bc	4.9923237e-06
7	0x319aa550	4.5007837e-09
8	0x38f54dca	0.00011697
9	0x358766f3	1.0088246e-06
10	0x319a0eb6	4.4836623e-09
11	0x39349c91	0.00017224463
12	0x00000000	0.0
13	0x00000000	0.0
14	0x00000000	0.0
15	0x00000000	0.0
16	0x00000000	0.0
17	0x00000000	0.0
18	0x142ec8a9	8.824328e-27
19	0x10118645	2.8699645e-29
20	0x16b64eb4	2.9453354e-25
21	0x13b518f1	4.5715418e-27
22	0x0fce0c67	2.0317946e-29
23	0x1771905d	7.805351e-25
24	0x00000000	0.0
25	0x00000000	0.0
26	0x00000000	0.0
27	0x00000000	0.0
28	0x00000000	0.0
29	0x00000000	0.0
30	0x26738956	8.4493686e-16
31	0x2160208a	7.5937217e-19
32	0x28230d03	9.051139e-15
33	0x253ceb40	1.6386106e-16
34	0x2156f2a7	7.282717e-19
35	0x28fbff39	2.7977283e-14
36	0x30c6c55b	1.4462488e-09
37	0x2df4ad7c	2.7816631e-11
38	0x37c43489	2.3389484e-05
39	0x34109e88	1.3468718e-07
40	0x30248b68	5.986096e-10
41	0x37c0e7ed	2.2996182e-05
42	0x35cef69f	1.5419972e-06
43	0x31a0f6b4	4.6846598e-09
44	0x383eed42	4.5520494e-05
45	0x351405ca	5.514272e-07
46	0x31286abc	2.450789e-09
47	0x38c5723e	9.414971e-05
48	0x0b62f984	4.371373e-32
49	0x09d678cd	5.1632227e-33
50	0x1019ce30	3.033277e-29
51	0x0d063e59	4.1366986e-31
52	0x0918bd56	1.838536e-33
53	0x10b310f5	7.062918e-29
54	0x362c3c04	2.566493e-06
55	0x310b6557	2.0284767e-09
56	0x37124c4d	8.720043e-06
57	0x341fecd5	1.4894188e-07
58	0x3035f59c	6.619645e-10
59	0x37d55289	2.5430012e-05
60	0x37069de1	8.023781e-06
61	0x32634499	1.3228736e-08
62	0x39a268c3	0.000309771
63	0x3647aad4	2.9752746e-06
64	0x32632d43	1.322343e-08
65	0x3a052ace	0.0005079926
66	0x360c1509	2.087387e-06
67	0x32158930	8.704134e-09
68	0x383c1c92	4.48493e-05
69	0x3523b44b	6.098459e-07
70	0x313a424e	2.7104252e-09
71	0x38da5d00	0.00010412373
72	0x00000000	0.0
73	0x00000000	0.0
74	0x00000059	1.25e-43
75	0x00000000	0.0
76	0x00000000	0.0
77	0x0000005a	1.26e-43
78	0x35acf7dc	1.2887135e-06
79	0x316303a1	3.303491e-09
80	0x385e7607	5.3038846e-05
81	0x350e18e0	5.293532e-07
82	0x3121acd7	2.3526832e-09
83	0x38bd8ac2	9.038068e-05
84	0x02aff267	2.585307e-37
85	0x00006681	3.6771e-41
86	0x02f27f5d	3.5631807e-37
87	0x00584896	8.107563e-39
88	0x00006479	3.6043e-41
89	0x03eb854a	1.384266e-36
90	0x18801dc2	3.3117272e-24
91	0x14aa5e77	1.7202873e-26
92	0x1aaa34ce	7.039566e-23
93	0x17b45b19	1.1655224e-24
94	0x13cd3444	5.1800813e-27
95	0x1b7092f0	1.9899813e-22
96	0x2aa7bdf2	2.979696e-13
97	0x27c1e009	5.381116e-15
98	0x319ae7f7	4.5083612e-09
99	0x2dff0acd	2.899494e-11
100	0x2a111734	1.2886637e-13
101	0x31aa1962	4.950537e-09
102	0x37ab4229	2.0415597e-05
103	0x3303de5d	3.0703053e-08
104	0x3a45ede2	0.0007550401
105	0x36ebf403	7.0319525e-06
106	0x33063b2d	3.1253126e-08
107	0x3a9d5e26	0.0012006208
108	0x36db7729	6.5405807e-06
109	0x31d50103	6.199231e-09
110	0x39069836	0.00012835939
111	0x35a6d714	1.243056e-06
112	0x31bdd3b2	5.524691e-09
113	0x395e8bcd	0.0002122365
114	0x0fb9e81b	1.8331812e-29
115	0x0b0cd3ec	2.7122452e-32
116	0x106ec370	4.7087783e-29
117	0x0dcdcf14	1.2683953e-30
118	0x09ea2a31	5.6373127e-33
119	0x1189435e	2.1656307e-28
120	0x00000000	0.0
121	0x00000000	0.0
122	0x00000000	0.0
123	0x00000000	0.0
124	0x00000000	0.0
125	0x00000000	0.0
126	0x35ad2322	1.2899729e-06
127	0x3105207a	1.9372508e-09
128	0x38b9b338	8.8548695e-05
129	0x3546106c	7.3784645e-07
130	0x31615a4b	3.2793135e-09
131	0x390418fd	0.0001259781
132	0x269b1da0	1.0763315e-15
133	0x2482f763	5.67976e-17
134	0x2db57e8b	2.0633514e-11
135	0x2a183bc0	1.3521042e-13
136	0x262d3535	6.009354e-16
137	0x2dcb1000	2.3085533e-11
138	0x3805838a	3.1832176e-05
139	0x33784305	5.7802954e-08
140	0x3a92c71d	0.0011198256
141	0x3736f328	1.090466e-05
142	0x33502800	4.8465154e-08
143	0x3af408ea	0.0018618379
144	0x350d9e0f	5.27566e-07
145	0x311799d0	2.2060824e-09
146	0x3937a5fb	0.00017514073
147	0x35be9a44	1.4201e-06
148	0x31d8dd29	6.3115704e-09
149	0x397e3e34	0.000242465
150	0x35cf11f0	1.5427922e-06
151	0x310ce0db	2.0500497e-09
152	0x38398a5b	4.423629e-05
153	0x34e8ac67	4.3338807e-07
154	0x31045d88	1.9261694e-09
155	0x389b2e25	7.399571e-05
156	0x3544b49f	7.327853e-07
157	0x3120677e	2.3341893e-09
158	0x386a9967	5.5932815e-05
159	0x350870b1	5.0827936e-07
160	0x311b3d0a	2.2590165e-09
161	0x38b5ff0e	8.67826e-05
162	0x3721f08f	9.652357e-06
163	0x328677c9	1.5654125e-08
164	0x391144e9	0.00013853949
165	0x35e5f321	1.7132589e-06
166	0x3202d0cf	7.6144735e-09
167	0x39995d02	0.0002925173
168	0x34e7fc50	4.3210684e-07
169	0x31a57eb5	4.816537e-09
170	0x3897e980	7.243734e-05
171	0x3539e5bd	6.9252184e-07
172	0x31538299	3.0778777e-09
173	0x38f7f778	0.000118239725
174	0x343af263	1.741078e-07
175	0x3122653f	2.3631654e-09
176	0x37dc36db	2.6251588e-05
177	0x348e557f	2.6511768e-07
178	0x30a1f1b7	1.1782991e-09
179	0x383ddb83	4.5265548e-05
180	0x33371801	4.262984e-08
181	0x30544c48	7.7233553e-10
182	0x3a278787	0.00063907396
183	0x3691389a	4.327926e-06
184	0x32a53acb	1.9235264e-08
185	0x3a41b57b	0.00073894084
186	0x3394f9a9	6.9372e-08
187	0x30f9b779	1.816928e-09
188	0x3a42f74c	0.0007437363
189	0x36b0ea8f	5.272515e-06
190	0x32c94ab6	2.3433454e-08
191	0x3a6bfc7b	0.0009002161
192	0x36ea7345	6.9871626e-06
193	0x321029f9	8.391447e-09
194	0x39ef4630	0.00045637926
195	0x3674c844	3.6475403e-06
196	0x328b4103	1.6211294e-08
197	0x3a23419e	0.0006227734
198	0x365ff39f	3.3371396e-06
199	0x32a3d3b1	1.9071964e-08
200	0x39c547c3	0.00037628235
201	0x3678e72c	3.708944e-06
202	0x328d990e	1.6484162e-08
203	0x3a260119	0.0006332561
204	0x3602bddf	1.948203e-06
205	0x30ddde54	1.6143056e-09
206	0x3726b283	9.935934e-06
207	0x3418196d	1.4165353e-07
208	0x302d0e29	6.2957156e-10
209	0x37cae23e	2.4185629e-05
210	0x36371cea	2.7285955e-06
211	0x3174d804	3.5629464e-09
212	0x3aa61f82	0.0012674185
213	0x37228eed	9.68923e-06
214	0x3338f498	4.3063295e-08
215	0x3ad8d5bb	0.0016543189
216	0x36c3b0d1	5.832037e-06
217	0x3208e530	7.968353e-09
218	0x38cf71d4	9.891731e-05
219	0x3591bd8d	1.0858508e-06
220	0x31a5d1db	4.82599e-09
221	0x394266ba	0.0001853955
222	0x360c2de4	2.0888338e-06
223	0x314666c6	2.8871212e-09
224	0x38000746	3.0524352e-05
225	0x34cb6540	3.7885366e-07
226	0x30e76b3f	1.6837943e-09
227	0x3887a751	6.468467e-05
228	0x24270ce4	3.622327e-17
229	0x21da719f	1.480233e-18
230	0x2bad226f	1.2301947e-12
231	0x28048d13	7.3580626e-15
232	0x2416d030	3.2702407e-17
233	0x2bb0cee8	1.256298e-12
234	0x36bf2fed	5.697823e-06
235	0x3282d446	1.5230523e-08
236	0x3902ec2c	0.00012485747
237	0x35d0697c	1.5527908e-06
238	0x31ed2045	6.9012764e-09
239	0x398affcf	0.00026512003
240	0x00000000	0.0
241	0x00000000	0.0
242	0x00000000	0.0
243	0x00000000	0.0
244	0x00000000	0.0
245	0x00000004	6e-45
246	0x00000000	0.0
247	0x00000000	0.0
248	0x00000000	0.0
249	0x00000000	0.0
250	0x00000000	0.0
251	0x00000000	0.0
252	0x17f6caf8	1.5948614e-24
253	0x12e9940e	1.4740866e-27
254	0x1bc59ffc	3.2694304e-22
255	0x183df179	2.454959e-24

exp_avg f4 [128]
0	0xb7c967b5	-2.400936e-05
1	0x36dbe79d	6.553672e-06
2	0x82e4be62	-3.3610863e-37
3	0xa5480a4e	-1.7350726e-16
4	0x8e1df010	-1.946733e-30
5	0xaba3d897	-1.1641962e-12
6	0xb49289ec	-2.729497e-07
7	0xb7261600	-9.899493e-06
8	0x9eddb13b	-2.3472586e-20
9	0xb4b7801e	-3.4179624e-07
10	0x377d673f	1.5104014e-05
11	0xb6460a5c	-2.951033e-06
12	0x93e5d442	-5.801703e-27
13	0xb56d3397	-8.8364453e-07
14	0x1c74835e	8.0902616e-22
15	0x24a0f731	6.98077e-17
16	0x31a64223	4.8387547e-09
17	0xb7d99775	-2.5938944e-05
18	0x37696287	1.3910822e-05
19	0x9e6d20e2	-1.25534755e-20
20	0x93fe5b26	-6.4208494e-27
21	0xb7144cda	-8.839381e-06
22	0xad5096bc	-1.1856901e-11
23	0xb7dbe578	-2.621369e-05
24	0x37654ea7	1.3667776e-05
25	0x3738f9a0	1.1025375e-05
26	0x36daedaf	6.5245763e-06
27	0xb742b8c2	-1.1606318e-05
28	0xb657cc0a	-3.2156263e-06
29	0x3716d8cd	8.991175e-06
30	0x35a2f7f9	1.214211e-06
31	0x355b7223	8.174995e-07
32	0x37a9c6c8	2.0238935e-05
33	0x3636e656	2.7254187e-06
34	0xb5cae382	-1.5116386e-06
35	0x386c0f6b	5.6281144e-05
36	0xb77a9919	-1.4936807e-05
37	0x36c805c0	5.961134e-06
38	0x2ce14471	6.402483e-12
39	0x36c49dbb	5.8596174e-06
40	0x15babd5c	7.542356e-26
41	0x8bbe2759	-7.324454e-32
42	0x2878be78	1.3808067e-14
43	0x1ca22b51	1.0731458e-21
44	0xb686b859	-4.014972e-06
45	0xb53c7ed3	-7.022001e-07
46	0x382f0e62	4.1736646e-05
47	0xb6f9db34	-7.446297e-06
48	0xb8480da5	-4.7696423e-05
49	0xb764bc0c	-1.3633642e-05
50	0x3818aaca	3.6398684e-05
51	0xb81f10a2	-3.7924045e-05
52	0x916fab9a	-1.8906654e-28
53	0xb82324e4	-3.8896585e-05
54	0xb485cfa7	-2.4924267e-07
55	0x369d3f52	4.686336e-06
56	0x37182e63	9.070706e-06
57	0xb71c5698	-9.318486e-06
58	0xb7864597	-1.600645e-05
59	0x37d5d92f	2.5492713e-05
60	0xb70dffbd	-8.463799e-06
61	0x3814b596	3.5455065e-05
62	0xaa5f97d3	-1.9859053e-13
63	0xb78c94db	-1.6758617e-05
64	0x34d5ed8c	3.984718e-07
65	0xb77673f5	-1.4689741e-05
66	0x8b225a2b	-3.12679e-32
67	0x00000000	0.0
68	0x879619c8	-2.2584644e-34
69	0x00166c42	2.059217e-39
70	0x372a487d	1.0149667e-05
71	0x38280add	4.006444e-05
72	0x2693a36f	1.0244473e-15
73	0xb8019bcf	-3.0901105e-05
74	0x00000000	0.0
75	0xb6c08c24	-5.7383604e-06
76	0x0d1447f4	4.569263e-31
77	0xb806b46a	-3.2116113e-05
78	0x2352a33b	1.1418688e-17
79	0x386f34d9	5.703126e-05
80	0xb8097540	-3.2772543e-05
81	0x00000000	0.0
82	0xb6dd9c66	-6.6045204e-06
83	0x1aacd983	7.148894e-23
84	0x310a9083	2.0163788e-09
85	0x34cb4b31	3.7866405e-07
86	0xb754ac74	-1.2676337e-05
87	0xb6e614c5	-6.856952e-06
88	0x36f87f82	7.40582e-06
89	0xb71f33c6	-9.489193e-06
90	0xb6d0c3c2	-6.2216723e-06
91	0x9a3c26ba	-3.8908772e-23
92	0xb7579616	-1.2849943e-05
93	0x17f6498e	1.5915945e-24
94	0x2d1746e5	8.599098e-12
95	0x00000000	0.0
96	0xb6960783	-4.471223e-06
97	0x34f4cc1e	4.5597056e-07
98	0x33a833ea	7.832553e-08
99	0x2d297f27	9.634771e-12
100	0x385d1e65	5.2718813e-05
101	0x37a1ceda	1.9289018e-05
102	0xb828d06c	-4.024843e-05
103	0xb7b4cb8d	-2.1552458e-05
104	0xb7e2e826	-2.7049402e-05
105	0x1172519e	1.9115584e-28
106	0x00000000	0.0
107	0x38676505	5.5168774e-05
108	0xa2256bb5	-2.241869e-18
109	0x363e1676	2.832528e-06
110	0xb80723bc	-3.221979e-05
111	0x35e5bebc	1.7117341e-06
112	0x8003526f	-3.05078e-40
113	0x3735127f	1.0792747e-05
114	0xa78df2c4	-3.939857e-15
115	0xb7812540	-1.5395344e-05
116	0x80000004	-6e-45
117	0x18143425	1.9154878e-24
118	0x37be2005	2.2664675e-05
119	0xb526dd94	-6.216226e-07
120	0xb7bc0f7d	-2.2418559e-05
121	0x8ba65c03	-6.407932e-32
122	0x97085889	-4.4055717e-25
123	0xa106a32e	-4.561693e-19
124	0xb677d8a6	-3.6931974e-06
125	0xb2964be4	-1.749681e-08
126	0xb716885a	-8.9724435e-06
127	0xa9ec9b57	-1.05074525e-13

exp_avg_sq f4 [128]
0	0x344315f4	1.8168777e-07
1	0x329a0eb6	1.793465e-08
2	0x00000000	0.0
3	0x10ce0c65	8.127177e-29
4	0x00000000	0.0
5	0x2256f2a6	2.9130865e-18
6	0x31248b69	2.3944386e-09
7	0x32286abb	9.803155e-09
8	0x0a18bd5a	7.354147e-33
9	0x3135f59b	2.6478577e-09
10	0x33632d41	5.2893714e-08
11	0x323a4249	1.0841696e-08
12	0x00000000	0.0
13	0x3221acd6	9.410732e-09
14	0x000191ca	1.44135e-40
15	0x14cd3445	2.0720327e-26
16	0x2b111734	5.154655e-13
17	0x34063b2d	1.250125e-07
18	0x32bdd3b4	2.2098767e-08
19	0x0aea2a33	2.2549254e-32
20	0x00000000	0.0
21	0x32615a4b	1.3117254e-08
22	0x272d3535	2.4037416e-15
23	0x34502800	1.9386061e-07
24	0x32d8dd29	2.5246282e-08
25	0x32045d88	7.704678e-09
26	0x321b3d0a	9.036066e-09
27	0x3302d0cf	3.0457894e-08
28	0x32538297	1.2311509e-08
29	0x31a1f1b7	4.7131965e-09
30	0x33a53acb	7.6941056e-08
31	0x33c94ab4	9.37338e-08
32	0x338b4103	6.4845175e-08
33	0x338d990d	6.593664e-08
34	0x312d0e29	2.5182862e-09
35	0x3438f497	1.7225317e-07
36	0x32a5d1da	1.9303958e-08
37	0x31e76b3e	6.735177e-09
38	0x2516d02f	1.3080961e-16
39	0x32ed2045	2.7605106e-08
40	0x00000000	0.0
41	0x00000000	0.0
42	0x15581d03	4.364374e-26
43	0x0003d938	3.5343e-40
44	0x326adf24	1.3671329e-08
45	0x3003205c	4.770351e-10
46	0x342fc730	1.6370609e-07
47	0x32486c44	1.1666149e-08
48	0x33f44df3	1.1376314e-07
49	0x33915ad8	6.768613e-08
50	0x33df75e4	1.0405691e-07
51	0x33872a0e	6.294077e-08
52	0x00000000	0.0
53	0x330f17ac	3.331631e-08
54	0x313c5267	2.740444e-09
55	0x3303b9ca	3.066979e-08
56	0x32a27026	1.8910281e-08
57	0x332a9710	3.97186e-08
58	0x3265f21c	1.3384604e-08
59	0x326c7fbc	1.3766051e-08
60	0x318ed771	4.1572368e-09
61	0x3394ed08	6.934903e-08
62	0x1790aa1c	9.348724e-25
63	0x3280f3fe	1.5012116e-08
64	0x30ac3027	1.2528333e-09
65	0x341bcb4a	1.4509456e-07
66	0x00000000	0.0
67	0x00000000	0.0
68	0x00000000	0.0
69	0x00000000	0.0
70	0x31c62fef	5.768008e-09
71	0x33e123e1	1.0483905e-07
72	0x1b4a0a75	1.6712427e-22
73	0x32bd19f6	2.2014301e-08
74	0x00000000	0.0
75	0x31d865be	6.297994e-09
76	0x00000000	0.0
77	0x33395e68	4.315953e-08
78	0x11396b53	1.4626999e-28
79	0x339c0004	7.264319e-08
80	0x33d205f8	9.779973e-08
81	0x00000000	0.0
82	0x33085949	3.1746172e-08
83	0x000bd68c	1.087155e-39
84	0x27053b0e	1.8489471e-15
85	0x31c784ff	5.806782e-09
86	0x341e31d8	1.473303e-07
87	0x31e31530	6.6089783e-09
88	0x319e7602	4.611821e-09
89	0x328b7f8f	1.6239737e-08
90	0x310f6919	2.086898e-09
91	0x000032f7	1.8283e-41
92	0x321b6278	9.044577e-09
93	0x000002b5	9.71e-43
94	0x1d583e2e	2.8619508e-21
95	0x00000000	0.0
96	0x3301f760	3.026014e-08
97	0x33c79750	9.294183e-08
98	0x2b4721de	7.0746e-13
99	0x24a564f6	7.172838e-17
100	0x342daaf1	1.6174069e-07
101	0x3366083d	5.355854e-08
102	0x344e914e	1.9238107e-07
103	0x337fa4b8	5.9521625e-08
104	0x32bfc952	2.2326876e-08
105	0x00000000	0.0
106	0x00000000	0.0
107	0x348278be	2.4302238e-07
108	0x16854617	2.1531542e-25
109	0x316da5a7	3.4582202e-09
110	0x336bbf0a	5.488895e-08
111	0x311f3e21	2.3172861e-09
112	0x00000000	0.0
113	0x339e1542	7.361315e-08
114	0x11ca0cf3	3.187796e-28
115	0x338191d3	6.033556e-08
116	0x00000000	0.0
117	0x00000002	3e-45
118	0x3298ae32	1.7774344e-08
119	0x32a2d7fb	1.8957499e-08
120	0x33747814	5.6919887e-08
121	0x00000000	0.0
122	0x00001b74	9.848e-42
123	0x0cf1a772	3.7232707e-31
124	0x32f43cc8	2.8432979e-08
125	0x2ce8dcba	6.618342e-12
126	0x301f0b64	5.786005e-10
127	0x17a5fa73	1.0726097e-24
