Shortcut Run/results/LEVEL1/Move/Move-400.onnx (onnx, 71941 bytes, 5 tensors)

network_body._body_endoder.seq_layers.0.weight f4 [128, 6]
000000 bd 03 71 3f 8b 87 22 3f 2e 0f 13 be b7 52 07 3f
       0.9414633 0.6348807 -0.1436126 0.5286059
000010 56 8b 81 bd 5a 1e 21 be aa bd 0d bf 32 09 fc be
       -0.06325404 -0.15734234 -0.5536753 -0.49225765
000020 86 ea b8 3e ca e6 d8 3d 69 33 a6 bd 25 5c 34 bd
       0.36116427 0.105908945 -0.081152745 -0.04403319
000030 7b 8e 15 3f d2 c9 52 3e e8 8a 64 3f 22 ac 79 3e
       0.5842053 0.20584801 0.89274454 0.2438207
000040 96 4e 0d bf 25 4e 83 3f a6 91 08 3d a8 9d 0b 3e
       -0.5519804 1.0258223 0.033342026 0.1363436
000050 6f d4 39 3f c0 f5 c2 3e 18 83 f1 3e 77 e7 29 bf
       0.7258977 0.38078117 0.4717033 -0.6636881
000060 2a f2 07 bd 43 5f d2 3e f1 08 c2 bc 49 fc 87 3f
       -0.03318993 0.41088304 -0.023685904 1.0623866
000070 e6 39 51 bf 56 2d 24 bf e2 27 f1 3e d7 7f 84 be
       -0.8172897 -0.6413168 0.4710074 -0.25878784
000080 75 29 38 3e a6 1c 39 bf 24 0c 4c bf 88 14 57 3e
       0.17984565 -0.7230934 -0.79706025 0.21003926
000090 b0 4b 09 3f 88 12 a1 be 71 c4 c0 3d 2c 45 b1 be
       0.53631115 -0.3145945 0.09412468 -0.34623086
0000a0 a0 64 1c bf 14 48 a6 3e 59 4f 18 bf 84 7b 87 3e
       -0.6109104 0.32476866 -0.59496075 0.26461422
0000b0 a6 bb db bd 26 c6 58 3e 67 d6 03 be 46 d7 fd 3d
       -0.107291505 0.21169338 -0.12874757 0.12394576
0000c0 1a bf 73 3e 95 66 9b 3e 34 f8 37 3e e1 94 39 be
       0.23803368 0.303517 0.17965776 -0.18123199
0000d0 8f 64 51 3d b8 70 6c 3e 53 f2 0b be 41 d7 f9 be
       0.05112129 0.23089874 -0.13666658 -0.48797038
0000e0 c0 2f bf 3e 96 1a b1 3e 23 aa 82 be 36 4f fb be
       0.37341118 0.34590596 -0.2552043 -0.4908387
0000f0 f5 d5 21 bf 34 a1 0e bf f0 6d c5 3a 2b 89 c6 bd
       -0.632171 -0.55714726 0.0015062671 -0.096941315
000100 d7 ec 32 be 87 e8 73 3d 7b 48 16 bf d4 ec 1d be
       -0.1747316 0.059547927 -0.58704346 -0.15422374
000110 31 25 b1 3e d7 68 5f bf fe f5 2f 3f 9c 2b 0e bf
       0.34598687 -0.8726935 0.6873473 -0.5553529
000120 5a b6 aa 3e f2 24 69 3e bd dc f3 bd 85 2a 41 bf
       0.33342248 0.22768 -0.11907337 -0.75455505
000130 b1 ff 84 3e d6 cb 5c be 25 f2 a3 3d 6b 49 c8 be
       0.25976327 -0.21562132 0.0800517 -0.39118513
000140 c9 71 b2 3e f4 8f 4b bf 73 b3 64 bf 24 68 e0 3d
       0.34852436 -0.7951653 -0.8933632 0.10957363
000150 ad 14 58 bf 8e 4c 84 be 9f 7d 1a be 32 8c 90 3e
       -0.8440655 -0.25839657 -0.15086983 0.2823196
000160 61 a1 d9 3e 22 de 52 3f ba 93 75 bf d1 b1 af be
       0.42505935 0.823702 -0.9592854 -0.3431535
000170 f1 52 17 3c ee 04 e0 3e f7 8a 42 be 22 ff ff bd
       0.009236083 0.4375376 -0.18998323 -0.124998346
000180 64 7e c5 bc aa c3 18 bf 1d 05 c9 bd 29 ee e2 3e
       -0.02410812 -0.5967356 -0.098154284 0.44322327
000190 9e 5a 4e 3e 12 17 d2 bd 54 4c a6 3d 80 4b 5f 3e
       0.20151755 -0.102583066 0.08120027 0.21806145
0001a0 41 d8 3b bf 04 93 9a bd 53 5a 5d 3f 4f fe a6 3e
       -0.7337685 -0.07547572 0.8646595 0.32615897
0001b0 96 6c 3c bf d0 a5 b8 be 92 ec 1e 3f af 68 ff 3a
       -0.7360319 -0.36064005 0.6207973 0.0019486154
0001c0 f5 1e a0 bd d6 1f 83 be 16 21 f2 3d 7b 6a 42 3e
       -0.078184046 -0.25610226 0.11822717 0.18985932
0001d0 dc c6 aa be 4a 20 e5 3d 99 79 57 3e ca bb bb be
       -0.33354843 0.11187799 0.2104248 -0.3666671
0001e0 cc 42 82 3e 2c bd 2d 3e ab 8f 4a 3e ed 5e a5 3e
       0.25441587 0.16966695 0.19781367 0.32298985
0001f0 47 3e e6 bd b5 40 21 bf 01 49 57 be 82 59 15 be
       -0.11242347 -0.6298936 -0.21023943 -0.14584926
000200 f4 07 1e be 2f da 12 3f af 93 29 bd cd 67 da be
       -0.15432721 0.5736417 -0.041400608 -0.4265732
000210 18 9e db 3e e4 a9 74 be 40 c1 e3 3e be 91 5a 3f
       0.42894053 -0.23892933 0.44483376 0.85378635
000220 1a 17 99 3e 96 fc b9 3d 49 6a 0d 3e 0b 97 29 3f
       0.29900438 0.0908138 0.13810076 0.662461
000230 80 14 5b 3e 14 99 ad be c3 03 b5 3c dc ca 20 3e
       0.21394539 -0.33905852 0.02209652 0.15702385
000240 0f 08 c3 bd 61 33 2d 3f 7c 19 28 3f 5d 53 d9 bd
       -0.095230214 0.67656523 0.65663886 -0.106116034
000250 09 03 7d bc 17 ce 95 3e d3 d4 ce 3c c1 51 49 bf
       -0.015442618 0.29258797 0.025247967 -0.7864037
000260 2f 34 63 3e 67 ae a1 3e e7 66 07 3f ec 90 48 3e
       0.22187875 0.3157837 0.5289139 0.19586533
000270 e9 82 b4 be 12 27 bf 3e c6 65 4d bf 3f 23 b6 3d
       -0.35256127 0.37334496 -0.8023342 0.088934414
000280 b4 2d 30 3e be 8e 40 3f 59 9f f1 3e 35 51 f3 be
       0.17204934 0.7521781 0.47191885 -0.47522894
000290 bb aa 95 be 6b 03 08 be cb 87 e9 3e 87 f0 dc bd
       -0.2923182 -0.13282554 0.45611414 -0.107880645
0002a0 f8 f4 87 be 87 22 d2 be 90 ad 64 be 7c d4 0d 3e
       -0.26554084 -0.41041967 -0.22331834 0.13850588
0002b0 47 f0 55 3e fe 52 35 3f 89 48 41 3f 3e dc 04 bf
       0.2089244 0.7082976 0.75501305 -0.5189856
0002c0 13 b5 60 be 83 5a 97 bd ef d0 56 3e 93 7c 84 3f
       -0.21944074 -0.073903106 0.2097814 1.0350517
0002d0 61 bb 32 be 54 26 cd be e6 5e 0e bf 1e ee 96 3e
       -0.17454292 -0.40068305 -0.55613554 0.29478544
0002e0 76 80 f7 3e 39 10 3a bd 3e 7d 39 bf 5d b0 67 bd
       0.48340195 -0.045425627 -0.7245673 -0.056564678
0002f0 85 f2 ab bc 36 de b4 bf cf e2 7a 3d fc e4 2e bf
       -0.020989666 -1.4130313 0.061251458 -0.6831815
000300 76 90 57 bf 17 57 29 bd 33 52 2d bf 84 1c ef 3e
       -0.84204805 -0.04134282 -0.6770355 0.46701443
000310 5d 10 8b 3e ac d7 ba 3e f5 0e 49 be ad d5 08 bf
       0.27160922 0.3649267 -0.19634612 -0.53451043
000320 b4 c3 d2 3d f3 ad d9 be 46 b2 13 bd 54 b5 13 be
       0.10291234 -0.42515525 -0.036058687 -0.1442464
000330 34 43 c5 be a3 3c 15 3e 7e f1 16 3d 60 65 38 3f
       -0.38527834 0.14573912 0.0368514 0.72029686
000340 60 d4 57 be 9c ef 40 3f 46 b8 37 3f e7 89 8d bf
       -0.21077108 0.75365615 0.71765554 -1.105771
000350 a8 43 2e 3f ec 08 ec 3d f1 62 9c 3d ef 27 cb be
       0.68071985 0.11525139 0.07636059 -0.39678904
000360 76 83 2f 3f 41 74 08 be ed be 25 3f ce 54 a1 bd
       0.6855997 -0.13325597 0.64744455 -0.07877503
000370 75 a0 42 bd b7 57 67 bf b5 92 46 be e5 88 00 be
       -0.047516305 -0.9036822 -0.19391902 -0.12552221
000380 3d a7 10 bf e5 b0 7d 3d 10 20 fe be e2 f1 3f be
       -0.56505185 0.061936278 -0.49633837 -0.18744615
000390 17 89 aa 3f b7 bd cf be 13 1e b2 be 54 ac 2f 3e
       1.3323087 -0.40574428 -0.3478857 0.17155582
0003a0 d6 7f ec 3d 29 0b 38 be 77 06 9f be d5 19 4e be
       0.1154782 -0.17973007 -0.3105962 -0.20127042
0003b0 80 f0 11 3f 42 e0 96 be 01 75 30 bf 27 18 9e bd
       0.570076 -0.2946797 -0.68928534 -0.077194504
0003c0 e9 11 db bd 1f 5a 56 3f ee 52 4a 3e 4b 95 8b 3f
       -0.106967755 0.83731264 0.19758198 1.0904936
0003d0 5c c1 8b 3e 94 42 c7 be b9 36 17 bf 46 e4 54 3e
       0.2729596 -0.38917983 -0.59067875 0.20790204
0003e0 ea c6 22 bf 4a f3 d4 bc 89 3f 05 3e fd f7 61 3d
       -0.6358477 -0.025994916 0.13012518 0.05516814
0003f0 ef 6a 35 3f 68 11 9c bd 84 b5 81 3e ce 97 60 bc
       0.7086629 -0.076205075 0.25333798 -0.013708068

network_body._body_endoder.seq_layers.0.bias f4 [128]
000000 00 00 00 00 00 00 00 00 00 00 00 00 00 00 00 00
       0.0 0.0 0.0 0.0
000010 00 00 00 00 00 00 00 00 00 00 00 00 00 00 00 00
       0.0 0.0 0.0 0.0
000020 00 00 00 00 00 00 00 00 00 00 00 00 00 00 00 00
       0.0 0.0 0.0 0.0
000030 00 00 00 00 00 00 00 00 00 00 00 00 00 00 00 00
       0.0 0.0 0.0 0.0
000040 00 00 00 00 00 00 00 00 00 00 00 00 00 00 00 00
       0.0 0.0 0.0 0.0
000050 00 00 00 00 00 00 00 00 00 00 00 00 00 00 00 00
       0.0 0.0 0.0 0.0
000060 00 00 00 00 00 00 00 00 00 00 00 00 00 00 00 00
       0.0 0.0 0.0 0.0
000070 00 00 00 00 00 00 00 00 00 00 00 00 00 00 00 00
       0.0 0.0 0.0 0.0
000080 00 00 00 00 00 00 00 00 00 00 00 00 00 00 00 00
       0.0 0.0 0.0 0.0
000090 00 00 00 00 00 00 00 00 00 00 00 00 00 00 00 00
       0.0 0.0 0.0 0.0
0000a0 00 00 00 00 00 00 00 00 00 00 00 00 00 00 00 00
       0.0 0.0 0.0 0.0
0000b0 00 00 00 00 00 00 00 00 00 00 00 00 00 00 00 00
       0.0 0.0 0.0 0.0
0000c0 00 00 00 00 00 00 00 00 00 00 00 00 00 00 00 00
       0.0 0.0 0.0 0.0
0000d0 00 00 00 00 00 00 00 00 00 00 00 00 00 00 00 00
       0.0 0.0 0.0 0.0
0000e0 00 00 00 00 00 00 00 00 00 00 00 00 00 00 00 00
       0.0 0.0 0.0 0.0
0000f0 00 00 00 00 00 00 00 00 00 00 00 00 00 00 00 00
       0.0 0.0 0.0 0.0
000100 00 00 00 00 00 00 00 00 00 00 00 00 00 00 00 00
       0.0 0.0 0.0 0.0
000110 00 00 00 00 00 00 00 00 00 00 00 00 00 00 00 00
       0.0 0.0 0.0 0.0
000120 00 00 00 00 00 00 00 00 00 00 00 00 00 00 00 00
       0.0 0.0 0.0 0.0
000130 00 00 00 00 00 00 00 00 00 00 00 00 00 00 00 00
       0.0 0.0 0.0 0.0
000140 00 00 00 00 00 00 00 00 00 00 00 00 00 00 00 00
       0.0 0.0 0.0 0.0
000150 00 00 00 00 00 00 00 00 00 00 00 00 00 00 00 00
       0.0 0.0 0.0 0.0
000160 00 00 00 00 00 00 00 00 00 00 00 00 00 00 00 00
       0.0 0.0 0.0 0.0
000170 00 00 00 00 00 00 00 00 00 00 00 00 00 00 00 00
       0.0 0.0 0.0 0.0
000180 00 00 00 00 00 00 00 00 00 00 00 00 00 00 00 00
       0.0 0.0 0.0 0.0
000190 00 00 00 00 00 00 00 00 00 00 00 00 00 00 00 00
       0.0 0.0 0.0 0.0
0001a0 00 00 00 00 00 00 00 00 00 00 00 00 00 00 00 00
       0.0 0.0 0.0 0.0
0001b0 00 00 00 00 00 00 00 00 00 00 00 00 00 00 00 00
       0.0 0.0 0.0 0.0
0001c0 00 00 00 00 00 00 00 00 00 00 00 00 00 00 00 00
       0.0 0.0 0.0 0.0
0001d0 00 00 00 00 00 00 00 00 00 00 00 00 00 00 00 00
       0.0 0.0 0.0 0.0
0001e0 00 00 00 00 00 00 00 00 00 00 00 00 00 00 00 00
       0.0 0.0 0.0 0.0
0001f0 00 00 00 00 00 00 00 00 00 00 00 00 00 00 00 00
       0.0 0.0 0.0 0.0

network_body._body_endoder.seq_layers.2.weight f4 [128, 128]
000000 e6 60 07 3c 60 96 93 3c a3 53 f0 3d f8 dc 53 3d
       0.0082628485 0.01801604 0.117347024 0.051724404
000010 4b 17 05 be b8 30 6f 3d b8 4f c6 bd ef f4 70 bc
       -0.12997167 0.05839607 -0.09683174 -0.014706834
000020 fa cf 85 bd 88 6e ce bc 4b 23 19 be 0d cc 70 ba
       -0.06533809 -0.02519919 -0.1495487 -0.00091856794
000030 96 ca 39 bc 06 2b 81 bd 69 0e af 3c 5f 38 38 bd
       -0.011339804 -0.06307034 0.021369176 -0.044975635
000040 27 ce ab bd ad 0c d3 bd 33 15 1b bd a7 1f be 3d
       -0.0838893 -0.10305152 -0.037862014 0.09283381
000050 a7 ba 0c bd 2c 09 cc 3d b6 32 c0 3d 1c f9 82 3d
       -0.034357693 0.09962687 0.09384672 0.0639517
000060 a8 a2 0c bd 00 b7 c2 3d 1a b6 57 3d 05 ab c5 bd
       -0.03433481 0.09507561 0.0526639 -0.0965176
000070 71 fa 8a bd c9 6e ba 3d 5d 87 fe 3d 1e 1f 06 be
       -0.06786049 0.09103162 0.12428162 -0.13097808
000080 1e f5 1d 3e 36 3a 84 3c 65 49 1e be 6d eb 5e bc
       0.15425536 0.016141038 -0.15457685 -0.013605935
000090 fb 00 57 3e 3a 3f 49 3c 6e 29 9d 3d ae 9c 09 bd
       0.20996468 0.012283141 0.07673918 -0.033596687
0000a0 bd 70 da 3d 87 d2 0b be c7 e7 4e 3d d6 66 15 3c
       0.10666034 -0.13654529 0.05051401 0.009118756
0000b0 62 66 22 bc c3 09 1b bd 9f d2 40 3c 9c d8 6d 3d
       -0.009912105 -0.037851106 0.011768966 0.058067903
0000c0 f3 7b fc 3d d8 fe 7c bd c3 5e 05 3d 32 c2 ca bb
       0.12328329 -0.061766475 0.032561075 -0.0061877007
0000d0 1f 22 17 3d 1d 3c 35 be 02 c7 30 bd 9a b0 b0 3d
       0.036897775 -0.17698713 -0.04315854 0.08627434
0000e0 1c e5 e5 3d ea 59 2b be 02 c7 87 3c 6e b0 35 bd
       0.1122534 -0.16733518 0.016574387 -0.04435771
0000f0 88 55 60 3d 2f a2 c5 bd e4 3b 54 bd 69 13 45 3e
       0.05476907 -0.09650075 -0.05181493 0.19245686
000100 44 61 90 3c a3 35 85 3d fb a4 c5 3d 5b c8 17 3d
       0.017624505 0.06504371 0.09650608 0.03705631
000110 c4 f9 1c 3e 11 23 82 bd 1a 80 bb bc 9b 6a 43 3c
       0.15329653 -0.06354345 -0.022888232 0.011927272
000120 23 22 a3 bd 69 a3 d3 3b d1 3c 07 be 17 7d 19 3c
       -0.079654954 0.006458689 -0.13206793 0.009368203
000130 d1 02 24 3e b6 a7 9b 3d 10 ae ef bd 6d cf 0d 3e
       0.160167 0.07600348 -0.11703122 0.13848658
000140 6b 00 8b 3d dd b1 7c 3d 46 4a a6 3d ac 76 cd bd
       0.06787189 0.06169306 0.08119635 -0.100324005
000150 bb b7 a1 3c 67 f3 40 be a5 48 17 be 8a 82 df bc
       0.01974093 -0.1884285 -0.14773805 -0.027283926
000160 2f 64 9f bd 59 0e 82 bd ec 62 19 3e 84 47 49 bd
       -0.077827804 -0.06350393 0.14979142 -0.04914047
000170 7b 40 28 bd 34 00 05 bd 8a 46 b9 3c 51 46 c6 bd
       -0.04107712 -0.032470897 0.022616643 -0.096813805
000180 30 28 23 3e f5 8f 5c 3b 40 40 14 bd 38 46 b4 3d
       0.15933299 0.003365514 -0.036194086 0.08802456
000190 e9 a9 ef 3d 13 b6 d1 3d b0 84 9f bc 73 ed f6 3c
       0.1170233 0.10239806 -0.01947245 0.030142521
0001a0 e2 6f c9 3c 3a 07 61 bd 9a 2a 08 bd f9 f9 bb 3c
       0.024589483 -0.054938532 -0.033243753 0.022946345
0001b0 5b c8 30 bd 4c f2 0f 3c 19 49 7c 3d f6 ea 82 bd
       -0.043159824 0.008785795 0.06159315 -0.063924715
0001c0 7e 52 2b bd 8a 25 50 bb 27 3e b3 bd 33 d0 ac 3c
       -0.041826718 -0.0031760656 -0.08752089 0.02109537
0001d0 c0 69 d9 3d 10 ee 91 3a f4 fd 4e bd 73 59 08 bd
       0.10615873 0.001113357 -0.050535157 -0.03328843
0001e0 c1 2c 8e bd a5 e7 29 3e 48 aa bb bd 57 e6 8e bc
       -0.0694213 0.16592272 -0.09163338 -0.017443819
0001f0 c8 39 e7 3d c7 ad 0e bc 56 78 7c 3c 05 6e 36 3d
       0.11290318 -0.008708424 0.01540955 0.044538517
000200 be f0 76 be 60 aa ca 3d 99 92 cf bc 1e 8e c9 3d
       -0.24115273 0.09895778 -0.025338458 0.0984156
000210 10 29 10 3d 55 3e 11 3e 4b a8 e9 3b bd 57 65 bd
       0.03519541 0.14183934 0.007130658 -0.055991877
000220 51 4f 4e bc 27 64 50 3d ed 1f 0f 3d 9b d9 4e 3d
       -0.012592153 0.050876763 0.034942556 0.050500493
000230 d5 d6 4c bd 58 5e 85 bd 19 b5 41 3d 7d c2 0e 3e
       -0.050009567 -0.06512135 0.04729185 0.13941379
000240 a1 a6 dc 3d db 4a d0 bb ef 42 03 3d 4f ef 1e 3d
       0.107739694 -0.0063565797 0.032046255 0.03880244
000250 fd 05 9d bd 61 80 b8 bd 9b 22 fd 3d 6f b9 32 3e
       -0.07667158 -0.09008861 0.12360116 0.1745355
000260 36 5a f9 3d a4 7e c6 bd 64 67 48 bd a6 e9 05 bd
       0.121754095 -0.096921235 -0.048926726 -0.032693528
000270 c4 bd 90 bc 31 e2 13 bb ff bc 2a 3c d1 d0 fe bb
       -0.017668612 -0.002256524 0.010421037 -0.0077763577
000280 18 7d a6 3d f9 a4 6b be 29 07 53 be bb fc 52 bc
       0.081293285 -0.23012151 -0.206082 -0.012877638
000290 1a fe 0e bd a8 31 40 bd 56 92 d1 3b 31 aa cb 3c
       -0.0349103 -0.046922356 0.0063956184 0.024861427
0002a0 b6 1e 0d 3d 5d a1 89 bc 0d ed 4c bd a3 bd 07 be
       0.034453116 -0.016800577 -0.050030757 -0.13255934
0002b0 0d 37 62 bc 10 31 4c 3d dc de f3 3c 07 a9 a9 bb
       -0.01380707 0.049851477 0.029769354 -0.0051776203
0002c0 cd b3 d4 3d 98 e5 a8 3d 9f 5b 8b 3b 8f f7 07 bc
       0.10385857 0.082469165 0.0042528654 -0.008298769
0002d0 9f ad 18 be f8 60 3d bd 78 89 32 be e6 7c cc bd
       -0.14909981 -0.046235055 -0.17435253 -0.0998476
0002e0 24 16 1f 3d 1e 61 bd bd 6b b3 f0 bd 70 7f 97 bd
       0.038839474 -0.09247039 -0.11752971 -0.07397354
0002f0 d8 2c ea bd f8 a0 81 bd 8c b2 9e bc c3 24 12 be
       -0.114343345 -0.063295305 -0.019372247 -0.14271836
000300 ee 8f 0c 3e c9 4e ae 3c dc e8 33 3d 95 b0 a1 bd
       0.1372678 0.021277802 0.043923244 -0.078950085
000310 6d 24 af 3d fe 85 55 3b dd 2e b4 3d 57 96 90 3c
       0.085518695 0.0032581086 0.08798001 0.017649813
000320 98 d1 5a bd 76 b5 da bd 5a 29 f8 3d a2 c8 ff bb
       -0.05342254 -0.10679142 0.12117262 -0.0078058997
000330 35 05 25 3e eb 16 44 3d da d4 f9 3d 38 02 06 3d
       0.16115268 0.04787342 0.12198801 0.03271696
000340 c4 6c 74 3d ca 83 13 3e 51 4e 62 3d d6 41 ec bd
       0.05967404 0.14405742 0.05525047 -0.11535995
000350 c3 a5 3a 3d 18 3f 2d 3e 80 f8 19 be 69 63 dc 3d
       0.04556824 0.169186 -0.15036201 0.107611485
000360 28 2a a3 bd 1b 0a 22 3e f9 54 2c be ec 0d c8 3d
       -0.07967025 0.15824167 -0.1682929 0.097682804
000370 91 76 03 3e ff 54 9b 3d 3a 26 73 bd 86 e8 b2 bd
       0.12838198 0.07584571 -0.059362628 -0.087357566
000380 c6 92 a4 3d 70 b6 ed bd 5c 73 02 3e 7a 10 2f 3e
       0.08035807 -0.11607063 0.12739319 0.17096129
000390 59 17 0d be 4f 31 9f bd 93 af fc bd 9a ae b0 3c
       -0.13778438 -0.07773077 -0.123381756 0.021567632
0003a0 8f ac e3 3d 0c c2 00 bb 05 b4 f2 bd ee 8d 39 bd
       0.11116897 -0.001964691 -0.11850742 -0.04530137
0003b0 a7 1f 1c 3e 2a 5b 58 3b 91 f2 93 bd 8a 06 98 3c
       0.1524645 0.0033013322 -0.07224 0.018557806
0003c0 28 a1 77 b9 84 43 fc bd 91 f8 fb bc 95 4d 08 be
       -0.00023615791 -0.12317565 -0.030758174 -0.13310845
0003d0 d9 bf a8 bd cb 26 01 3e 70 d4 d6 3b 12 1a 1a 3e
       -0.08239717 0.12612455 0.0065560862 0.15049008
0003e0 9d 08 82 3d c4 ac 08 3d 99 d5 01 3d 56 81 3f 3e
       0.06349299 0.033367887 0.031697843 0.18701681
0003f0 85 97 1d 3e 96 37 fc 3d c5 54 0a bc 22 81 33 3c
       0.15389831 0.1231529 -0.008443062 0.010956081

network_body._body_endoder.seq_layers.2.bias f4 [128]
000000 00 00 00 00 00 00 00 00 00 00 00 00 00 00 00 00
       0.0 0.0 0.0 0.0
000010 00 00 00 00 00 00 00 00 00 00 00 00 00 00 00 00
       0.0 0.0 0.0 0.0
000020 00 00 00 00 00 00 00 00 00 00 00 00 00 00 00 00
       0.0 0.0 0.0 0.0
000030 00 00 00 00 00 00 00 00 00 00 00 00 00 00 00 00
       0.0 0.0 0.0 0.0
000040 00 00 00 00 00 00 00 00 00 00 00 00 00 00 00 00
       0.0 0.0 0.0 0.0
000050 00 00 00 00 00 00 00 00 00 00 00 00 00 00 00 00
       0.0 0.0 0.0 0.0
000060 00 00 00 00 00 00 00 00 00 00 00 00 00 00 00 00
       0.0 0.0 0.0 0.0
000070 00 00 00 00 00 00 00 00 00 00 00 00 00 00 00 00
       0.0 0.0 0.0 0.0
000080 00 00 00 00 00 00 00 00 00 00 00 00 00 00 00 00
       0.0 0.0 0.0 0.0
000090 00 00 00 00 00 00 00 00 00 00 00 00 00 00 00 00
       0.0 0.0 0.0 0.0
0000a0 00 00 00 00 00 00 00 00 00 00 00 00 00 00 00 00
       0.0 0.0 0.0 0.0
0000b0 00 00 00 00 00 00 00 00 00 00 00 00 00 00 00 00
       0.0 0.0 0.0 0.0
0000c0 00 00 00 00 00 00 00 00 00 00 00 00 00 00 00 00
       0.0 0.0 0.0 0.0
0000d0 00 00 00 00 00 00 00 00 00 00 00 00 00 00 00 00
       0.0 0.0 0.0 0.0
0000e0 00 00 00 00 00 00 00 00 00 00 00 00 00 00 00 00
       0.0 0.0 0.0 0.0
0000f0 00 00 00 00 00 00 00 00 00 00 00 00 00 00 00 00
       0.0 0.0 0.0 0.0
000100 00 00 00 00 00 00 00 00 00 00 00 00 00 00 00 00
       0.0 0.0 0.0 0.0
000110 00 00 00 00 00 00 00 00 00 00 00 00 00 00 00 00
       0.0 0.0 0.0 0.0
000120 00 00 00 00 00 00 00 00 00 00 00 00 00 00 00 00
       0.0 0.0 0.0 0.0
000130 00 00 00 00 00 00 00 00 00 00 00 00 00 00 00 00
       0.0 0.0 0.0 0.0
000140 00 00 00 00 00 00 00 00 00 00 00 00 00 00 00 00
       0.0 0.0 0.0 0.0
000150 00 00 00 00 00 00 00 00 00 00 00 00 00 00 00 00
       0.0 0.0 0.0 0.0
000160 00 00 00 00 00 00 00 00 00 00 00 00 00 00 00 00
       0.0 0.0 0.0 0.0
000170 00 00 00 00 00 00 00 00 00 00 00 00 00 00 00 00
       0.0 0.0 0.0 0.0
000180 00 00 00 00 00 00 00 00 00 00 00 00 00 00 00 00
       0.0 0.0 0.0 0.0
000190 00 00 00 00 00 00 00 00 00 00 00 00 00 00 00 00
       0.0 0.0 0.0 0.0
0001a0 00 00 00 00 00 00 00 00 00 00 00 00 00 00 00 00
       0.0 0.0 0.0 0.0
0001b0 00 00 00 00 00 00 00 00 00 00 00 00 00 00 00 00
       0.0 0.0 0.0 0.0
0001c0 00 00 00 00 00 00 00 00 00 00 00 00 00 00 00 00
       0.0 0.0 0.0 0.0
0001d0 00 00 00 00 00 00 00 00 00 00 00 00 00 00 00 00
       0.0 0.0 0.0 0.0
0001e0 00 00 00 00 00 00 00 00 00 00 00 00 00 00 00 00
       0.0 0.0 0.0 0.0
0001f0 00 00 00 00 00 00 00 00 00 00 00 00 00 00 00 00
       0.0 0.0 0.0 0.0

action_model._continuous_distribution.mu.weight f4 [1, 128]
000000 57 35 9b 3c 5f 62 ee 3c f2 be 09 bd d8 95 8a bb
       0.018946333 0.029099641 -0.033629365 -0.0042292885
000010 fa 98 ef bb 23 56 df b9 43 d1 91 bc 17 4d 85 bb
       -0.0073119374 -0.0004259805 -0.01779998 -0.0040680277
000020 9f c8 8e bb 9d 7b 0f ba 93 f7 47 bc 5f e2 be 3c
       -0.004357412 -0.0005473437 -0.012205022 0.023301302
000030 ef a5 2f 3c f3 e3 3c bc a4 41 a1 bc 2b a7 81 3c
       0.010720714 -0.011528957 -0.01968462 0.015826782
000040 ce 25 c5 bc 1f 87 36 3d db 2b d6 3b 5f 04 93 bc
       -0.024065878 0.044562455 0.0065359897 -0.01794642
000050 97 0f 30 3c e7 9d 55 bc 3f 91 83 3a 93 2b d8 bc
       0.010745904 -0.013038135 0.0010037794 -0.026387965
000060 18 34 59 bc 93 b5 e3 3b 6d dc 6e 3b 13 5a 15 3d
       -0.013257049 0.0069491356 0.0036447302 0.036462855
000070 92 f4 e6 3b 2f ad 81 3c 34 f6 94 3c 90 74 05 3c
       0.007048198 0.01582965 0.018183805 0.008145466
000080 ec 6d 9c ba 30 c2 e1 bc 09 f5 ab bb 12 df dd bb
       -0.0011934615 -0.027558416 -0.0052477163 -0.006770977
000090 0f 5a 33 3d b7 4a c9 3b 9f fc 11 bd 63 c5 f2 3b
       0.04378706 0.00614294 -0.03564131 0.0074087842
0000a0 70 d2 da ba d7 9d f3 3b eb 3f 1e 3c 32 b8 98 bc
       -0.0016694795 0.0074345875 0.009658794 -0.018642519
0000b0 87 3e a9 bc 6f 0c 6c bc fe e6 92 3c 39 34 17 3d
       -0.020659698 -0.014407261 0.017932411 0.036915038
0000c0 49 98 23 3c 9e 75 8a bc 9f 5e 8a bc 47 53 67 bc
       0.009985038 -0.016901787 -0.016890822 -0.014118976
0000d0 46 83 c7 3b c0 ac 9c bc 33 83 12 3d 3d 3e 8f 3c
       0.006088647 -0.019125342 0.035769653 0.017485732
0000e0 ba c0 4b bc 8a 7f 75 3c cd 4c dc 3c 1f 3e 9c 3c
       -0.012436086 0.014984021 0.02689209 0.01907259
0000f0 f8 d9 c7 bc ec 15 04 3c 65 32 27 bd 85 c9 84 3b
       -0.024395928 0.008061867 -0.040819544 0.0040523433
000100 46 28 10 3c 02 32 63 bc 93 6a ae bc 90 c7 73 3c
       0.008798664 -0.013866903 -0.021291053 0.014879122
000110 19 26 08 3c d7 3f 9f 3c af 17 83 bc 48 bf 77 3c
       0.008309864 0.01943962 -0.016002504 0.015121289
000120 13 dc 93 3c 97 d2 1e bc ff 0c 1b 3d 2e 11 80 3c
       0.018049276 -0.009693763 0.03785419 0.015633192
000130 5d 65 7d 3a cb 48 a2 bc 7b 6c c6 3b 90 0f f1 3c
       0.00096662884 -0.019810101 0.0060554123 0.029426366
000140 02 c4 74 bb 6b a3 8e 3c 48 b1 e7 3a d7 a7 b2 3c
       -0.0037348275 0.017411908 0.0017676735 0.021808548
000150 04 35 a9 bc 44 9e 0f 3b 58 e3 ee 3b 8b b7 c2 bb
       -0.020655163 0.0021914402 0.007290285 -0.00594229
000160 e3 18 2b ba d4 c5 97 3b 0f 67 1e 3d f0 fe 10 3c
       -0.0006526841 0.0046317372 0.038672503 0.008849844
000170 3b b8 a7 bb bf 5c 3f 3b 02 5c e2 3b 87 e3 f2 bc
       -0.0051183975 0.0029199568 0.006907941 -0.02964951
000180 a8 5e 37 bc 4f c8 aa bb b2 1a 6c bc a4 92 a4 39
       -0.011192001 -0.005211867 -0.0144106615 0.00031389773
000190 87 c7 51 3c a3 98 37 3c 47 26 c6 bb 84 c2 8f bb
       0.012803919 0.011205825 -0.0060470435 -0.0043872017
0001a0 00 57 da 3b 6f 23 13 bb 58 a0 7a bc 86 7c b0 3b
       0.0066632032 -0.002245154 -0.015297018 0.005385938
0001b0 c2 2d 1c bb d7 53 36 3c 85 83 27 3c 8f 6d ca 3c
       -0.0023830985 0.011128387 0.010224228 0.024710445
0001c0 55 75 5c bb d2 b1 76 bc 6d d7 d0 39 40 8a 75 bc
       -0.0033639271 -0.015057044 0.00039833356 -0.014986575
0001d0 a2 2b fd 3b 22 ec d9 bb 15 4d fe 3a 17 a0 2f 3c
       0.0077261487 -0.0066504637 0.0019401634 0.010719321
0001e0 ea 0a 0d bc f3 8e ab bb 37 9a d1 3a d5 33 a4 3c
       -0.008608559 -0.0052355467 0.0015991394 0.020044247
0001f0 fb 49 f4 3b 92 7e 47 3c d3 0e e3 bb de 2e 08 3d
       0.007455108 0.012176173 -0.0069292574 0.03324782
