Shortcut Run/results/LEVEL1/Move/Move-232.pt (torch, 149007 bytes, 10 tensors)

network_body._body_endoder.seq_layers.0.weight f4 [128, 6]
0	0x3f0ff35e	0.56230724
1	0xbd000e3d	-0.03126358
2	0xbf21c9d5	-0.63198596
3	0xbdfed749	-0.12443406
4	0x3e131356	0.14362845
5	0x3f4506c6	0.7696346
6	0x3f0043ae	0.5010327
7	0xbe138af4	-0.14408475
8	0x3e708573	0.23488407
9	0xbe4db2a1	-0.20087673
10	0xbdfd220a	-0.12360008
11	0xbeea5898	-0.45770717
12	0x3e914d4f	0.28379294
13	0xbe32ad43	-0.17448907
14	0x3f0c7fb1	0.5488234
15	0x3ebc6c47	0.3680136
16	0xbf17707a	-0.59156
17	0x3f047d8f	0.5175409
18	0xbe77dc82	-0.24205211
19	0xbea4e12a	-0.32203037
20	0x3d1b0524	0.0378467
21	0x3e2ac476	0.16676506
22	0xbe449c70	-0.19200301
23	0x3f0876a2	0.5330602
24	0x3ea40617	0.32035896
25	0x3f282fe6	0.6569809
26	0xbe280fd6	-0.16412291
27	0xbe227ace	-0.15867159
28	0x3e7e06d6	0.24807295
29	0xbe55e57c	-0.20888323
30	0x3f164705	0.5870212
31	0x3d3eaf94	0.046554163
32	0xbf0390ac	-0.51392627
33	0x3f91be1f	1.1386145
34	0xbdc24060	-0.09484935
35	0x3ed74b6a	0.42049724
36	0xbeb90ca6	-0.36142462
37	0x3f4618ed	0.77381784
38	0xbedf3429	-0.43594483
39	0x3ec4767f	0.38371655
40	0x3f0e88c9	0.5567747
41	0x3f45e1f1	0.77297884
42	0xbd35bb15	-0.04436787
43	0xbe32df01	-0.17467882
44	0xbd675dec	-0.056486055
45	0xbe26cc4b	-0.16288869
46	0xbe1550c8	-0.14581597
47	0x3ed15ead	0.40892544
48	0xbe2e1776	-0.17001137
49	0xbf1a0758	-0.60167456
50	0x3eafceef	0.34337565
51	0xbe59ce78	-0.21270168
52	0xbf45afaa	-0.7722117
53	0x3c326415	0.010888119
54	0x3cada4bb	0.021196714
55	0xbe92e096	-0.2868697
56	0xbc7d136e	-0.015446527
57	0x3e83e7d2	0.25762802
58	0xbf132ac2	-0.5748712
59	0x3e59ce91	0.21270205
60	0x3e047180	0.12933922
61	0x3dc98c4f	0.09841215
62	0xbcfa8684	-0.03058172
63	0x3e454bdc	0.1926722
64	0xbe977d8b	-0.2958797
65	0x3f64b3f6	0.893371
66	0x3efd4806	0.49469012
67	0xbca889de	-0.020573553
68	0x3e6e7ddc	0.23290199
69	0x3e4a0cfc	0.19731516
70	0x3e8b30fd	0.27185813
71	0xbd82912f	-0.06375348
72	0xbedbb3f4	-0.4291073
73	0xbe0b201b	-0.13586466
74	0x3d5af073	0.053451966
75	0xbe7e0ff7	-0.24810778
76	0x3df1e2e4	0.11810854
77	0x3cd93471	0.026514264
78	0xbe3b258c	-0.18276042
79	0xbe2300eb	-0.15918319
80	0xbedeb7b4	-0.4349953
81	0x3e79f004	0.24407965
82	0xbc965bea	-0.018354375
83	0x3eaaaeae	0.33336395
84	0xbe25d11d	-0.16193052
85	0xbedd5bdd	-0.4323415
86	0xbe1b8efb	-0.15191261
87	0xbc682ae0	-0.014170378
88	0xbe087066	-0.13324127
89	0x3ec8fd8d	0.39255944
90	0xbdb7c6d2	-0.08973469
91	0xbf332805	-0.6998294
92	0x3eab97eb	0.33514342
93	0x3e3a452b	0.18190448
94	0x3e6aa6c4	0.22915179
95	0x3e917a62	0.28413683
96	0x3fb69b97	1.4266232
97	0xbe92567f	-0.28581616
98	0xbea2e9aa	-0.31818897
99	0xbdbfdf08	-0.09368712
100	0xbe484c15	-0.19560273
101	0xbd81e850	-0.06343138
102	0xbed09ef7	-0.4074628
103	0xbe34a92c	-0.17642659
104	0x3dd2cb27	0.102926545
105	0xbc78e6cc	-0.015191745
106	0xbe0c025b	-0.13672774
107	0xbea94f5e	-0.33068365
108	0x3e27505f	0.16339253
109	0x3e210451	0.15724303
110	0xbe8f44eb	-0.27982268
111	0x3e839827	0.2570202
112	0xbf22d614	-0.6360791
113	0xbdfdd9f9	-0.123950906
114	0x3e2e1632	0.17000654
115	0xbe0433ce	-0.12910387
116	0x3f09d907	0.5384678
117	0x3f543225	0.82889014
118	0xbd5aed3f	-0.05344891
119	0x3ecc44be	0.39896196
120	0x3eb176c1	0.34660915
121	0x3eaf462f	0.34233233
122	0xbed8ec83	-0.42367944
123	0x3f1e9756	0.6194967
124	0xbf2e7c44	-0.68158364
125	0x3e661081	0.22467233
126	0x3ee8e76c	0.4548906
127	0x3e835400	0.25650024
128	0xbec5c178	-0.38624167
129	0x3f311303	0.69169635
130	0xbf6393e2	-0.88897526
131	0xbe359a28	-0.17734587
132	0x3cde56ee	0.02714106
133	0x3ebb83bd	0.36623946
134	0x3ca3fb2a	0.020017225
135	0x3dec730e	0.115453824
136	0x3e9940f0	0.29932356
137	0xbef3da48	-0.47627473
138	0xbdad9368	-0.08475381
139	0xbd3dc377	-0.046328988
140	0x3ea19f36	0.3156678
141	0x3e92e11a	0.28687364
142	0xbe30f8c5	-0.17282398
143	0xbf19e539	-0.6011539
144	0x3e7f3d04	0.2492562
145	0xbe273cb3	-0.16331749
146	0x3f3c00ee	0.7343892
147	0x3c561e65	0.01306877
148	0x3ee7c6c8	0.45268846
149	0xbe8dc7f9	-0.2769163
150	0x3ea50678	0.32231498
151	0xbea845de	-0.32865804
152	0xbca4d3e4	-0.020120569
153	0xbd492cf2	-0.04911513
154	0xbd43fca0	-0.047848344
155	0x3ea48906	0.3213579
156	0x3e537d94	0.20653373
157	0xbf149015	-0.5803235
158	0xbe14ccd1	-0.14531256
159	0x3ebc69fb	0.36799607
160	0x3e82a929	0.25519684
161	0x3eda6c91	0.42660955
162	0xbe26fdd0	-0.1630776
163	0x3eed59ec	0.46357667
164	0xbf4e3223	-0.8054525
165	0x3e9def2d	0.3084654
166	0x3dba58e5	0.090989865
167	0x3e897cb1	0.26852944
168	0x3edb6107	0.42847463
169	0xbe9faeac	-0.31187952
170	0xbe4da372	-0.2008188
171	0xbe0a9629	-0.13533844
172	0x3e295f25	0.16540201
173	0x3dadf415	0.084938206
174	0xbd9e3c36	-0.07726328
175	0xbec06873	-0.37579688
176	0xbe901438	-0.28140426
177	0xbe9a1bf5	-0.30099455
178	0x3f2011aa	0.62526953
179	0x3ab1dd55	0.001356999
180	0xbd983e81	-0.07433797
181	0xbea37d34	-0.3193146
182	0x3f45ac15	0.772157
183	0x3db78d72	0.089625254
184	0xbf1f7f17	-0.623033
185	0xbf047c0a	-0.5175177
186	0x3df26eca	0.118375376
187	0xbd7644f0	-0.060124338
188	0x3ebe4c38	0.37167525
189	0xbf2023bb	-0.6255452
190	0x3f0317fe	0.51208484
191	0x3ec6f97c	0.38862216
192	0x3ea6a099	0.325444
193	0xbdf91a6a	-0.12163241
194	0xbf066097	-0.52491134
195	0xbefe1e0b	-0.49632296
196	0xbeefb5a9	-0.46818283
197	0x3f6e7dc4	0.93160653
198	0xbde0d659	-0.109783836
199	0xbd8acf3d	-0.06777809
200	0x3cf98b5a	0.030461956
201	0xbeaef6c6	-0.34172648
202	0x3ee8cace	0.45467228
203	0xbe2b8a25	-0.16751917
204	0x3dd40fb8	0.103545606
205	0x3f827b43	1.0193866
206	0x3d16c5a4	0.03680958
207	0x3cfa8e88	0.030585542
208	0xbdfc6657	-0.12324207
209	0xbe5927de	-0.21206614
210	0x3e63b80a	0.22238174
211	0xbc1286f8	-0.008943312
212	0xbe17b60c	-0.14815539
213	0x3e2c1b94	0.16807395
214	0x3e3c0878	0.18362606
215	0xbee59b08	-0.44844842
216	0xbe86dc42	-0.26339918
217	0x3e311434	0.17292863
218	0x3de54339	0.11194462
219	0xbd9893b5	-0.07450048
220	0x3e17b050	0.14813352
221	0xbef5945d	-0.47964755
222	0xbdeef2ce	-0.11667405
223	0xbb884f5d	-0.0041598515
224	0xbdc38a85	-0.09547905
225	0xbe34c1af	-0.1765201
226	0xbdbe84da	-0.09302683
227	0xbe926771	-0.28594545
228	0xbbe1f5ef	-0.0068957726
229	0xbdcecd35	-0.10097734
230	0xbf0b9c97	-0.5453581
231	0xbe19a92b	-0.15005939
232	0x3eb2b9a3	0.34907255
233	0xbdc15b03	-0.09441187
234	0x3ed4e05f	0.41577432
235	0x3ec46cfc	0.38364398
236	0xbda9b537	-0.08286517
237	0x3e9b55eb	0.30338988
238	0xbefd16ad	-0.49431363
239	0x3e9caf98	0.30602717
240	0xbf3782d3	-0.71683997
241	0x3c853a3c	0.01626312
242	0x3f83cce9	1.0296909
243	0xbdd04544	-0.10169461
244	0x3f131ed4	0.57468915
245	0xbeb4fb50	-0.35347986
246	0xbe5e3cf6	-0.21702942
247	0xbeabe23d	-0.33571044
248	0xbe311994	-0.17294914
249	0xbe910461	-0.28323653
250	0xbe8b6622	-0.2722636
251	0xbee5c8f0	-0.44879866
252	0x3db0b064	0.08627394
253	0xbd114df0	-0.035474718
254	0x3df1e90c	0.11812028
255	0xbf173b6d	-0.5907505

network_body._body_endoder.seq_layers.0.bias f4 [128]
0	0x00000000	0.0
1	0x00000000	0.0
2	0x00000000	0.0
3	0x00000000	0.0
4	0x00000000	0.0
5	0x00000000	0.0
6	0x00000000	0.0
7	0x00000000	0.0
8	0x00000000	0.0
9	0x00000000	0.0
10	0x00000000	0.0
11	0x00000000	0.0
12	0x00000000	0.0
13	0x00000000	0.0
14	0x00000000	0.0
15	0x00000000	0.0
16	0x00000000	0.0
17	0x00000000	0.0
18	0x00000000	0.0
19	0x00000000	0.0
20	0x00000000	0.0
21	0x00000000	0.0
22	0x00000000	0.0
23	0x00000000	0.0
24	0x00000000	0.0
25	0x00000000	0.0
26	0x00000000	0.0
27	0x00000000	0.0
28	0x00000000	0.0
29	0x00000000	0.0
30	0x00000000	0.0
31	0x00000000	0.0
32	0x00000000	0.0
33	0x00000000	0.0
34	0x00000000	0.0
35	0x00000000	0.0
36	0x00000000	0.0
37	0x00000000	0.0
38	0x00000000	0.0
39	0x00000000	0.0
40	0x00000000	0.0
41	0x00000000	0.0
42	0x00000000	0.0
43	0x00000000	0.0
44	0x00000000	0.0
45	0x00000000	0.0
46	0x00000000	0.0
47	0x00000000	0.0
48	0x00000000	0.0
49	0x00000000	0.0
50	0x00000000	0.0
51	0x00000000	0.0
52	0x00000000	0.0
53	0x00000000	0.0
54	0x00000000	0.0
55	0x00000000	0.0
56	0x00000000	0.0
57	0x00000000	0.0
58	0x00000000	0.0
59	0x00000000	0.0
60	0x00000000	0.0
61	0x00000000	0.0
62	0x00000000	0.0
63	0x00000000	0.0
64	0x00000000	0.0
65	0x00000000	0.0
66	0x00000000	0.0
67	0x00000000	0.0
68	0x00000000	0.0
69	0x00000000	0.0
70	0x00000000	0.0
71	0x00000000	0.0
72	0x00000000	0.0
73	0x00000000	0.0
74	0x00000000	0.0
75	0x00000000	0.0
76	0x00000000	0.0
77	0x00000000	0.0
78	0x00000000	0.0
79	0x00000000	0.0
80	0x00000000	0.0
81	0x00000000	0.0
82	0x00000000	0.0
83	0x00000000	0.0
84	0x00000000	0.0
85	0x00000000	0.0
86	0x00000000	0.0
87	0x00000000	0.0
88	0x00000000	0.0
89	0x00000000	0.0
90	0x00000000	0.0
91	0x00000000	0.0
92	0x00000000	0.0
93	0x00000000	0.0
94	0x00000000	0.0
95	0x00000000	0.0
96	0x00000000	0.0
97	0x00000000	0.0
98	0x00000000	0.0
99	0x00000000	0.0
100	0x00000000	0.0
101	0x00000000	0.0
102	0x00000000	0.0
103	0x00000000	0.0
104	0x00000000	0.0
105	0x00000000	0.0
106	0x00000000	0.0
107	0x00000000	0.0
108	0x00000000	0.0
109	0x00000000	0.0
110	0x00000000	0.0
111	0x00000000	0.0
112	0x00000000	0.0
113	0x00000000	0.0
114	0x00000000	0.0
115	0x00000000	0.0
116	0x00000000	0.0
117	0x00000000	0.0
118	0x00000000	0.0
119	0x00000000	0.0
120	0x00000000	0.0
121	0x00000000	0.0
122	0x00000000	0.0
123	0x00000000	0.0
124	0x00000000	0.0
125	0x00000000	0.0
126	0x00000000	0.0
127	0x00000000	0.0

network_body._body_endoder.seq_layers.2.weight f4 [128, 128]
0	0xbda5c7b3	-0.0809473
1	0xbdb2b69e	-0.08726238
2	0xbd36d4e9	-0.04463664
3	0x3dba67be	0.091018185
4	0x3da6ae6b	0.08138736
5	0xbe0f4808	-0.13992321
6	0xbcae59fe	-0.021283146
7	0x3b267581	0.0025399628
8	0x3e84e358	0.259547
9	0xbda5d465	-0.08097152
10	0x3e55cd05	0.2087899
11	0xbd82ea86	-0.06392388
12	0xbd624bec	-0.055248186
13	0xbddf2aec	-0.108968586
14	0xbd40fd9e	-0.04711687
15	0xbb3e41a0	-0.0029030815
16	0x3c66c93c	0.014086064
17	0x3dc0bdfa	0.09411235
18	0x3dc944e4	0.09827593
19	0xbbd20bcc	-0.0064100977
20	0xbe10073c	-0.1406526
21	0x3dc0c487	0.094124846
22	0x3e7c8605	0.246605
23	0xbd7ccda6	-0.06171956
24	0x3d06cfa5	0.03291287
25	0x3da5080a	0.08058174
26	0x3e0243a3	0.12721114
27	0x3df78035	0.120850004
28	0xbda32481	-0.07965947
29	0x3e20c484	0.15699965
30	0x3c510557	0.012757621
31	0x3d06c595	0.032903273
32	0x3d462526	0.04837527
33	0x3d806cb6	0.06270735
34	0xbcdbf623	-0.026850766
35	0xbde74074	-0.1129159
36	0x3d9d39ca	0.07677038
37	0x3dffadb2	0.124843016
38	0xbd22f082	-0.039780147
39	0xbadf2ec8	-0.0017027492
40	0x3d55ac43	0.052166235
41	0xbcc8f551	-0.024531038
42	0x3db3403f	0.08752488
43	0xbe02e54c	-0.12782782
44	0x3d887c5c	0.06664345
45	0xbad4f737	-0.0016247992
46	0x3d6dc3bb	0.05804799
47	0x3da8bfdd	0.0823972
48	0xbe3fb6fa	-0.18722144
49	0x3cbedaaa	0.023297627
50	0x3c59d26b	0.013294796
51	0xbe2ba2cb	-0.1676132
52	0xbd8c837b	-0.068610154
53	0x3d258732	0.040412135
54	0x3c09a0a9	0.008400121
55	0x3d87d448	0.06632286
56	0xbe3fa830	-0.18716502
57	0xbd578ed5	-0.05262645
58	0x3d31b16f	0.043382104
59	0xbc93a5d5	-0.01802341
60	0xbdb875c6	-0.090068385
61	0xbdaedffb	-0.08538815
62	0x3d031409	0.03200153
63	0xbca9ecfd	-0.020742888
64	0xbdb45b21	-0.08806444
65	0xbcbd6db5	-0.023123601
66	0xbc389028	-0.011264838
67	0xbd92cb14	-0.0716764
68	0xbe966e08	-0.29380822
69	0x3d9dd756	0.07707088
70	0x3c6deebf	0.014522254
71	0x3b3a2afc	0.0028406968
72	0x3e0f4217	0.13990055
73	0xbe315b94	-0.1732009
74	0x3e616732	0.22012022
75	0xbe1bacab	-0.15202586
76	0x3d0a8834	0.0338213
77	0xbb1884aa	-0.0023272433
78	0x3dabd770	0.08390701
79	0x3dbab09a	0.09115715
80	0xbc852fc8	-0.016258135
81	0xbda8cf88	-0.082427084
82	0x3dac8e0c	0.08425531
83	0x3d903d17	0.07042902
84	0xbddcc68d	-0.10780058
85	0x3cbe7ec3	0.023253804
86	0xbdbf596f	-0.0934323
87	0x3c01c5a8	0.00792066
88	0x3dae43e8	0.08509046
89	0x3ce8b61e	0.028407153
90	0xbd8807aa	-0.06642087
91	0x3d3a39ec	0.045465395
92	0xbd8ab71b	-0.06773206
93	0xbc6d96df	-0.0145013025
94	0xbde7b4e4	-0.11313799
95	0xbd94bc6a	-0.072625
96	0x3d838b52	0.064230576
97	0xbde44f15	-0.11147896
98	0xbe0329ab	-0.12808864
99	0x3db36dd4	0.087611824
100	0x3d7b4244	0.061342493
101	0x3d2ed68b	0.042685073
102	0xbdaf41f9	-0.08557505
103	0xbd35640b	-0.04428486
104	0x3dcc28a3	0.09968688
105	0xbd6b3f19	-0.05743322
106	0x3bdb9000	0.0067005157
107	0x3d1f2fba	0.038863875
108	0x3d8f8573	0.07007875
109	0xbe23e953	-0.16006975
110	0x3d953879	0.07286162
111	0xbc9fcc89	-0.01950671
112	0x3c044d48	0.008075066
113	0xbd86b2b4	-0.06577054
114	0x3c886ca6	0.01665337
115	0xbcca7bd4	-0.024717249
116	0x3da9acfc	0.08284947
117	0xbd3a8b2a	-0.045542873
118	0x3d03f350	0.032214463
119	0xbc44fca7	-0.012023128
120	0x3d2a673c	0.04160236
121	0xbe2d7f5e	-0.16943118
122	0x3cf5bda9	0.029997664
123	0x3c4b4005	0.0124054
124	0xbda267d6	-0.079299614
125	0x3e2063f9	0.15663137
126	0xbdfd12d6	-0.12357108
127	0xbdf0c63d	-0.11756561
128	0x3dd6fd01	0.104974754
129	0xbe14de2a	-0.14537874
130	0xbe22254b	-0.15834539
131	0x3dbbd177	0.091708116
132	0xbd34087e	-0.04395341
133	0xbcd7d503	-0.02634669
134	0x3c1862cc	0.009300899
135	0x3d12fe93	0.035887312
136	0xbc22eace	-0.009943677
137	0xbcaa932e	-0.020822134
138	0x3a296bb9	0.00064628903
139	0xbe074120	-0.13208437
140	0xbdf25637	-0.118328504
141	0x3e176a68	0.14786685
142	0xbbc687f2	-0.0060586864
143	0x3c54f7c3	0.012998524
144	0x3dea1ba7	0.114310555
145	0xbe4fabce	-0.20280382
146	0x3e1ccbbb	0.15312092
147	0x3d786aea	0.060648836
148	0x3e0200d7	0.12695633
149	0x3e2d7947	0.16940795
150	0xbdfa0480	-0.122078896
151	0xbda5e24b	-0.080998026
152	0xbdf0561c	-0.11735174
153	0xbe35a29d	-0.17737813
154	0xbdd311cc	-0.10306129
155	0xbdea4693	-0.11439242
156	0x3c1ee066	0.009697055
157	0xbc39ab0f	-0.011332287
158	0xbdfd167b	-0.123578034
159	0xbd92a5e5	-0.07160548
160	0xbdcc90b8	-0.099885404
161	0x3e2c1424	0.16804558
162	0x3df6b342	0.120459095
163	0x3e231d05	0.15929039
164	0x3e4c3ada	0.19944325
165	0x3db99f95	0.09063641
166	0xbda5349d	-0.08066676
167	0x3e065da9	0.13121666
168	0x3cd50933	0.026005363
169	0xbc4ef286	-0.012631064
170	0x3d4cac37	0.049968924
171	0x3d69e451	0.057102505
172	0x3d3356a5	0.043783803
173	0x3d76957d	0.060201157
174	0x3cfbae7f	0.030722855
175	0x3dcd5c18	0.10027331
176	0xbd06e775	-0.03293558
177	0xbc11f106	-0.008907562
178	0x3d7793c1	0.060443643
179	0xbddff187	-0.109347396
180	0xbd60f6c2	-0.054922827
181	0xbbdcebbb	-0.0067419684
182	0x3c166c26	0.009181058
183	0x3d54f837	0.05199453
184	0xbd300b0b	-0.04297928
185	0x3d8ae301	0.06781579
186	0x3d0c673e	0.034278147
187	0xbdc9ee6c	-0.098599285
188	0xbdf048a5	-0.11732606
189	0xbd1a5c1f	-0.03768551
190	0x3d916929	0.07100136
191	0x3e5ea327	0.21741925
192	0x3c204f52	0.009784536
193	0x3d242dbe	0.040082686
194	0xbdc676bd	-0.09690616
195	0xbe150759	-0.14553584
196	0xbdc776a1	-0.097394235
197	0xbdf45c7a	-0.11931701
198	0xbd94b688	-0.072613776
199	0xbe4dd232	-0.20099714
200	0xbdbbe099	-0.09173698
201	0xbd354bff	-0.04426193
202	0xbdc6d20b	-0.09708031
203	0x3d40cc5a	0.047069885
204	0xbc62f7cb	-0.013853024
205	0xbddf350e	-0.10898791
206	0xbdad3d8f	-0.08459007
207	0xbc7fecdd	-0.015620437
208	0xbe0a9dd0	-0.13536763
209	0x3dcb81f5	0.09936897
210	0xbd05ea69	-0.032694254
211	0x3d4ac6fd	0.049506176
212	0xbd554209	-0.05206493
213	0x3dcc900c	0.09988412
214	0xbc244576	-0.010026326
215	0xbdb79139	-0.08963246
216	0x3dc9fc01	0.09862519
217	0x3e21d07c	0.15802187
218	0xbd880c0a	-0.06642921
219	0xbc83c98c	-0.016087316
220	0xbcc83683	-0.024440056
221	0xbdec1d4c	-0.115290254
222	0xbd450a68	-0.048105627
223	0x3da74001	0.08166505
224	0x3d012c99	0.031536672
225	0x3dd97657	0.10618275
226	0xbd454913	-0.048165392
227	0x3d085dd9	0.033292625
228	0xbbc38dcb	-0.005967831
229	0x3ce86d20	0.028372347
230	0xbd80a56e	-0.06281553
231	0xbd2d03da	-0.04224
232	0xbdeb0ab0	-0.11476648
233	0xbd450dd9	-0.04810891
234	0x3df98c05	0.1218491
235	0xbe09e068	-0.1346451
236	0x3c120e33	0.008914518
237	0x3c13fa94	0.00903191
238	0xbc6ee846	-0.0145817455
239	0xbb8193a4	-0.0039543677
240	0x3d9008d5	0.070329346
241	0x3d08be4a	0.0333846
242	0xbd87d368	-0.066321194
243	0x3d9818a8	0.07426578
244	0x3e2e8ecf	0.17046665
245	0xbe301e41	-0.17199041
246	0x3c1665c6	0.009179538
247	0x3d64cc50	0.05585891
248	0x3dba8a50	0.09108412
249	0x3d07d0fb	0.033158284
250	0x3cfae716	0.030627768
251	0xbd942873	-0.072342776
252	0xbd2162a1	-0.0394007
253	0xbd4c7dea	-0.04992477
254	0x3de00d3f	0.109400265
255	0x3d661b2c	0.056178257

network_body._body_endoder.seq_layers.2.bias f4 [128]
0	0x00000000	0.0
1	0x00000000	0.0
2	0x00000000	0.0
3	0x00000000	0.0
4	0x00000000	0.0
5	0x00000000	0.0
6	0x00000000	0.0
7	0x00000000	0.0
8	0x00000000	0.0
9	0x00000000	0.0
10	0x00000000	0.0
11	0x00000000	0.0
12	0x00000000	0.0
13	0x00000000	0.0
14	0x00000000	0.0
15	0x00000000	0.0
16	0x00000000	0.0
17	0x00000000	0.0
18	0x00000000	0.0
19	0x00000000	0.0
20	0x00000000	0.0
21	0x00000000	0.0
22	0x00000000	0.0
23	0x00000000	0.0
24	0x00000000	0.0
25	0x00000000	0.0
26	0x00000000	0.0
27	0x00000000	0.0
28	0x00000000	0.0
29	0x00000000	0.0
30	0x00000000	0.0
31	0x00000000	0.0
32	0x00000000	0.0
33	0x00000000	0.0
34	0x00000000	0.0
35	0x00000000	0.0
36	0x00000000	0.0
37	0x00000000	0.0
38	0x00000000	0.0
39	0x00000000	0.0
40	0x00000000	0.0
41	0x00000000	0.0
42	0x00000000	0.0
43	0x00000000	0.0
44	0x00000000	0.0
45	0x00000000	0.0
46	0x00000000	0.0
47	0x00000000	0.0
48	0x00000000	0.0
49	0x00000000	0.0
50	0x00000000	0.0
51	0x00000000	0.0
52	0x00000000	0.0
53	0x00000000	0.0
54	0x00000000	0.0
55	0x00000000	0.0
56	0x00000000	0.0
57	0x00000000	0.0
58	0x00000000	0.0
59	0x00000000	0.0
60	0x00000000	0.0
61	0x00000000	0.0
62	0x00000000	0.0
63	0x00000000	0.0
64	0x00000000	0.0
65	0x00000000	0.0
66	0x00000000	0.0
67	0x00000000	0.0
68	0x00000000	0.0
69	0x00000000	0.0
70	0x00000000	0.0
71	0x00000000	0.0
72	0x00000000	0.0
73	0x00000000	0.0
74	0x00000000	0.0
75	0x00000000	0.0
76	0x00000000	0.0
77	0x00000000	0.0
78	0x00000000	0.0
79	0x00000000	0.0
80	0x00000000	0.0
81	0x00000000	0.0
82	0x00000000	0.0
83	0x00000000	0.0
84	0x00000000	0.0
85	0x00000000	0.0
86	0x00000000	0.0
87	0x00000000	0.0
88	0x00000000	0.0
89	0x00000000	0.0
90	0x00000000	0.0
91	0x00000000	0.0
92	0x00000000	0.0
93	0x00000000	0.0
94	0x00000000	0.0
95	0x00000000	0.0
96	0x00000000	0.0
97	0x00000000	0.0
98	0x00000000	0.0
99	0x00000000	0.0
100	0x00000000	0.0
101	0x00000000	0.0
102	0x00000000	0.0
103	0x00000000	0.0
104	0x00000000	0.0
105	0x00000000	0.0
106	0x00000000	0.0
107	0x00000000	0.0
108	0x00000000	0.0
109	0x00000000	0.0
110	0x00000000	0.0
111	0x00000000	0.0
112	0x00000000	0.0
113	0x00000000	0.0
114	0x00000000	0.0
115	0x00000000	0.0
116	0x00000000	0.0
117	0x00000000	0.0
118	0x00000000	0.0
119	0x00000000	0.0
120	0x00000000	0.0
121	0x00000000	0.0
122	0x00000000	0.0
123	0x00000000	0.0
124	0x00000000	0.0
125	0x00000000	0.0
126	0x00000000	0.0
127	0x00000000	0.0

action_model._continuous_distribution.mu.weight f4 [1, 128]
0	0x3c5051dd	0.01271483
1	0xbc852d5b	-0.016256979
2	0x3cb8619b	0.02250748
3	0x3a1615e8	0.000572531
4	0x3c8ae53a	0.016955007
5	0x3c795113	0.0152170835
6	0xbca2f5a8	-0.019892529
7	0xbce4b408	-0.027917877
8	0xbbf39bc0	-0.0074343383
9	0xbd503277	-0.050829377
10	0xbd16c584	-0.03680946
11	0xbc95dddf	-0.018294273
12	0xbbfb888b	-0.0076761893
13	0x3c31f52f	0.010861679
14	0x3cdf0dd7	0.027228279
15	0x3c1a6f1f	0.009425907
16	0x3d1da3d3	0.038486313
17	0xbb9c9a43	-0.0047791316
18	0xbc4a2b13	-0.012339371
19	0xbc8b70d9	-0.017021583
20	0xbc3536db	-0.011060442
21	0x3b194cfd	0.0023391836
22	0xbbb82f7b	-0.0056208945
23	0x3b99d576	0.004694636
24	0x3cc9d29a	0.024636555
25	0x3b2c7957	0.0026317441
26	0x3ba828a9	0.0051318
27	0x3c0ad1db	0.008472885
28	0xbc9786d3	-0.018496906
29	0xbcef6c5d	-0.029226476
30	0x3c944fef	0.018104522
31	0x3cbf6ef7	0.023368342
32	0xbc02107f	-0.007938503
33	0xbc39b9f5	-0.0113358395
34	0x3ba07f47	0.004897985
35	0x3c96a158	0.018387482
36	0x3b3952df	0.0028278155
37	0xbc6397fa	-0.0138912145
38	0xba71b17b	-0.0009219867
39	0xbc39eb28	-0.0113475695
40	0x3ccea66a	0.025225837
41	0xbc02bc7c	-0.0079795085
42	0x3c83cc7f	0.016088722
43	0x3b540432	0.0032351133
44	0x3c323953	0.010877925
45	0xbb832685	-0.0040023946
46	0x3ce809cf	0.02832499
47	0xbc2e7198	-0.0106472
48	0xbb3bc504	-0.0028651366
49	0xbc40bb8b	-0.011763464
50	0x3be30c02	0.0069289217
51	0x3c256334	0.010094453
52	0xbcc9c351	-0.024629267
53	0x3b258763	0.0025257699
54	0x3c06c20f	0.008224978
55	0xbbfa887a	-0.007645664
56	0xbb6a7007	-0.003577234
57	0xbbffeb3b	-0.007810024
58	0xbb191ae7	-0.0023361982
59	0x3c10282d	0.008798641
60	0x3c22e713	0.009942788
61	0xbb8fb31e	-0.004385366
62	0x3c86586c	0.016399585
63	0xba03fd43	-0.00050349924
64	0x3d257773	0.04039712
65	0xb88cfe5c	-6.723098e-05
66	0x3be8d490	0.0071054175
67	0x3bcb7f0e	0.0062102145
68	0x3b5dc145	0.0033837121
69	0xb98a1864	-0.00026339584
70	0xba325d75	-0.00068040873
71	0x3c3018f8	0.0107481405
72	0x3cc55323	0.024087494
73	0xbc95d1df	-0.01828855
74	0x3d037e3e	0.032102816
75	0x3b8703af	0.004120312
76	0xbce8ac9d	-0.02840262
77	0xbc80f65b	-0.015742471
78	0xbc196949	-0.009363481
79	0x3bc574b4	0.006025875
80	0x3c2d2496	0.010567805
81	0x3cd74e63	0.026282495
82	0xbab3665c	-0.0013687122
83	0x3b93e212	0.0045130337
84	0xbcf3a9f0	-0.029744118
85	0xbb0afdb7	-0.0021208355
86	0xbb290529	-0.002579043
87	0x3a72015f	0.00092317717
88	0x3c06f463	0.008236977
89	0xbc3779a5	-0.011198436
90	0x3cea2393	0.028581416
91	0xbc81dad9	-0.015851425
92	0x3c9c6f5c	0.019096069
93	0x3cc38679	0.023867832
94	0xbd4aacc5	-0.049481172
95	0xbb626ef2	-0.0034550992
96	0xbbe7e4e3	-0.007076846
97	0x3ca71953	0.020397818
98	0x3cddd03a	0.02707683
99	0x3c5e01cf	0.013550236
100	0x3b8aebef	0.0042395513
101	0xbc739b60	-0.014868587
102	0x3b9edfbf	0.00484845
103	0xbb759848	-0.00374748
104	0x3c5eda88	0.013601907
105	0x3b98ec74	0.0046668593
106	0xbcb12d46	-0.021628033
107	0x3a95f6a3	0.0011441301
108	0xbcf0a76b	-0.029376706
109	0x3bd701ea	0.0065615075
110	0xbc93009b	-0.017944625
111	0x3b42ddce	0.0029734257
112	0x3c6bbd95	0.014388462
113	0x3c1e9ab3	0.009680438
114	0xbc369139	-0.011143022
115	0x3ce7fcca	0.028318781
116	0x3c655cf0	0.013999209
117	0x3c4aa48c	0.012368333
118	0xbbeac753	-0.0071648746
119	0xbc984dd8	-0.018591806
120	0x3c8dbdcc	0.017302416
121	0x3d0f8a1e	0.03504383
122	0xbc23ef4e	-0.010005785
123	0xbcae7830	-0.021297544
124	0xbb36f559	-0.0027917235
125	0x3c48595d	0.012228337
126	0x3ccbf845	0.024898658
127	0x3cb7a8fc	0.022419445

network_body._body_endoder.seq_layers.0.weight f4 [128, 6]
0	0x3e0541c8	0.13013375
1	0x3e59e19d	0.21277471
2	0xbd839162	-0.06424214
3	0x3c2fb64b	0.010724614
4	0x3f2109e3	0.6290571
5	0xbe845afb	-0.25850663
6	0xbeba2286	-0.36354464
7	0xbf848589	-1.0353252
8	0xbc8fdca5	-0.017561266
9	0xbf6e86d4	-0.9317448
10	0x3eda8f5e	0.42687505
11	0x3f0a9f97	0.54149765
12	0xbd12db7a	-0.03585384
13	0x3e7d2139	0.24719705
14	0x3e9de541	0.3083897
15	0x3f13b613	0.576997
16	0x3ea3f30c	0.32021368
17	0xbec225d2	-0.3791948
18	0x3ca015d4	0.019541658
19	0xbe9f0d17	-0.31064674
20	0x3eb69b9b	0.35665593
21	0xbea1be08	-0.31590295
22	0xbeab2ff4	-0.33435023
23	0x3f1872d8	0.5955024
24	0x3e954b76	0.29159135
25	0xbc2bfbc7	-0.01049704
26	0xbdd400f5	-0.10351745
27	0x3e2a5938	0.16635597
28	0xbd1eb274	-0.038744405
29	0x3f98ce62	1.1937983
30	0x3c8204a3	0.015871352
31	0x3d6bfc9a	0.057613946
32	0x3e15844e	0.14601251
33	0xbee5d1ef	-0.4488673
34	0x3f2264a5	0.6343482
35	0x3ed6602b	0.41870245
36	0xbea6f07d	-0.32605353
37	0xbe530db8	-0.20610702
38	0x3d39d51f	0.045369264
39	0xbd77ddaa	-0.06051413
40	0x3f53ea6f	0.8277959
41	0x3eba5bd5	0.36398187
42	0xbd31fc2e	-0.043453388
43	0x3e3659a6	0.17807636
44	0xbe3398e0	-0.17538786
45	0xbece62eb	-0.40309843
46	0x3efe0469	0.4961274
47	0xbf18d28e	-0.5969628
48	0xbddc6927	-0.10762244
49	0xbdb8a814	-0.09016433
50	0x3e4c84ec	0.1997258
51	0xbd2b8551	-0.041875187
52	0xbf6bbea0	-0.92087746
53	0x3fbc9993	1.4734367
54	0xbf13f686	-0.5779804
55	0x3e1885df	0.14894818
56	0xbd813893	-0.06309619
57	0xbdcca932	-0.09993209
58	0xbe6e88af	-0.23294328
59	0x3e0ad2ff	0.13557051
60	0x3ef88824	0.48541367
61	0x3e77817c	0.24170488
62	0xbeea7942	-0.45795637
63	0xbf02219c	-0.50832534
64	0x3e349390	0.17634416
65	0x3f159ff6	0.58447206
66	0x3f5b3a4c	0.8563583
67	0x3e0520fd	0.13000865
68	0x3edb322b	0.42811713
69	0xbf3b1009	-0.7307134
70	0xbe978dee	-0.2960047
71	0xbef0d8ce	-0.4704041
72	0xbe007127	-0.12543164
73	0x3b759496	0.0037472597
74	0x3e198f90	0.14996171
75	0x3e1e7a5e	0.15476367
76	0xbec5c359	-0.386256
77	0x3f10cd6d	0.56563455
78	0xbe69941c	-0.22810405
79	0x3f0dbd1d	0.5536669
80	0x3f248298	0.6426177
81	0xbe6783ed	-0.2260892
82	0xbebf46c0	-0.37358665
83	0xbe2acbb6	-0.16679272
84	0xbf076105	-0.52882415
85	0x3ee5125d	0.44740573
86	0xbe3c4a62	-0.1838775
87	0xbd09a9b2	-0.0336091
88	0x3f3c10ff	0.73463434
89	0xbc8ba85d	-0.017048055
90	0x3dec444a	0.115364626
91	0x3e1d3e4c	0.15355796
92	0x3d14bba5	0.036311764
93	0x3e15bc41	0.14622594
94	0x3e8f47d3	0.27984485
95	0x3cc309bf	0.023808358
96	0x3e4fc8f7	0.20291506
97	0x3e9b80fe	0.3037185
98	0xbd801d1a	-0.06255551
99	0x3db3705a	0.08761664
100	0x3e07a29e	0.13245627
101	0xbeaf76d6	-0.34270352
102	0xbf384340	-0.71977615
103	0xbd051e5a	-0.03249965
104	0xbd9a35fa	-0.075298265
105	0x3f11fbe7	0.57025
106	0x3eb1cec0	0.3472805
107	0xbceb13ea	-0.02869602
108	0x3e89522d	0.26820508
109	0xbe775bdb	-0.24156134
110	0xbeecea98	-0.4627273
111	0xbe3e7c26	-0.18602046
112	0x3ed11759	0.40838125
113	0xbf00b260	-0.5027218
114	0xbebc0920	-0.36725712
115	0x3dc401b5	0.09570638
116	0xbf4f8d32	-0.8107482
117	0xbf110f99	-0.56664425
118	0xbcc1b1d8	-0.023644373
119	0x3c791279	0.015202158
120	0xbd874b6a	-0.06606181
121	0x3e42391f	0.18967102
122	0xbd8542b4	-0.06506863
123	0xbec48be0	-0.38387966
124	0xbe430a4c	-0.19046897
125	0xbc89fc9b	-0.016844084
126	0xbed80d2e	-0.42197555
127	0xbf09dd38	-0.5385318
128	0xbeacff8c	-0.33788717
129	0x3e8248b2	0.25446087
130	0xbc332bfd	-0.010935781
131	0x3d5873a5	0.052844662
132	0xbd2c0497	-0.041996565
133	0xbe6ac2fb	-0.22925942
134	0xbeccef44	-0.40026295
135	0xbece99f9	-0.40351847
136	0x3ecbe37e	0.39822
137	0x3ec2719c	0.37977302
138	0xbeb31677	-0.34978077
139	0x3eb6d25c	0.35707366
140	0xbdc87c48	-0.0978933
141	0xbf6e16b0	-0.9300337
142	0x3e2b112e	0.16705772
143	0xbe1baea9	-0.15203346
144	0xbd01980a	-0.031639136
145	0x3e5a8706	0.2134057
146	0xbe7df846	-0.2480174
147	0xbe05a063	-0.13049464
148	0xbe3cb701	-0.18429185
149	0x3f18a3eb	0.5962512
150	0xbe22c005	-0.15893562
151	0x3ec6b5fa	0.38810712
152	0xbe3db23d	-0.18525024
153	0xbf174113	-0.5908367
154	0xbef8be14	-0.48582518
155	0x3d52658d	0.051366378
156	0x3eff856e	0.49906486
157	0xbe951dfe	-0.29124445
158	0x3f192876	0.59827363
159	0xbf12944a	-0.5725752
160	0xbebd28bd	-0.36945143
161	0xbf1d7321	-0.615038
162	0xbd2c361b	-0.042043786
163	0xbe98c28d	-0.2983593
164	0x3f2af982	0.6678697
165	0xbe985fee	-0.2976069
166	0x3f40edaa	0.75362647
167	0xbeb9f442	-0.36319166
168	0xbe652564	-0.22377545
169	0xbe6d80d7	-0.2319368
170	0xbd10aeec	-0.03532307
171	0xbf0a7246	-0.5408062
172	0x3f4c3122	0.7976247
173	0x3d554345	0.052066106
174	0x3dd8181a	0.10551472
175	0xbeb5dc77	-0.35519764
176	0x3ecb198c	0.39667928
177	0xbe00f91a	-0.12595025
178	0x3ebb9392	0.36636025
179	0xbe6c55d2	-0.23079613
180	0xbe2fb759	-0.17159785
181	0xbf0d3b12	-0.5516826
182	0x3f3f919e	0.7483157
183	0xbf306485	-0.6890338
184	0xbe0e5647	-0.139001
185	0x3f4f7c0b	0.8104865
186	0xbf84de43	-1.0380329
187	0xbea4b35d	-0.32168093
188	0x3e6c3565	0.23067243
189	0x3efd1089	0.49426678
190	0xbf2fd828	-0.68689203
191	0x3da468ba	0.080277875
192	0xbeb9ecf3	-0.3631359
193	0x3ee60dc4	0.44932377
194	0xbed71030	-0.42004538
195	0xbf516c26	-0.81805646
196	0xbdfccb99	-0.12343521
197	0x3e203439	0.15644921
198	0xbeb1ff5c	-0.34765136
199	0xbeceaab6	-0.40364617
200	0x3dce837f	0.10083675
201	0x3dccdc16	0.100029156
202	0x3e21d91d	0.15805478
203	0x3d396729	0.045264397
204	0x3e7bede6	0.2460247
205	0x3c1bcaaa	0.009508768
206	0xbe617c05	-0.22019966
207	0x3f375e3c	0.71628165
208	0x3f1bf032	0.60913384
209	0xbe51300c	-0.20428485
210	0xbf1be322	-0.6089345
211	0x3e5aa8b8	0.21353424
212	0xbdd8263e	-0.10554169
213	0xbe58682a	-0.21133485
214	0x3f422d13	0.7585003
215	0xbee7d31d	-0.45278254
216	0xbcc5d910	-0.024151355
217	0x3dbe630e	0.09296237
218	0x3f1ad855	0.60486346
219	0x3e546e3f	0.2074518
220	0x3f067432	0.5252105
221	0xbe8ef027	-0.27917597
222	0x3db730ab	0.089448296
223	0x3e65c029	0.22436585
224	0xbd9808a6	-0.074235246
225	0xbd9c5174	-0.076327235
226	0xbcb50d02	-0.02210093
227	0xbf29e5db	-0.66366357
228	0xbd7252f7	-0.059161153
229	0xbbe13f15	-0.006873975
230	0x3e15ad29	0.14616837
231	0x3d7464e8	0.059666544
232	0xbf4ba1eb	-0.7954394
233	0x3d132064	0.035919562
234	0x3eb80505	0.3594133
235	0x3d3b0a79	0.045664284
236	0x3f072b1d	0.5280016
237	0xbd47a048	-0.04873684
238	0xbf606e1e	-0.87668025
239	0x3f3639ab	0.71181744
240	0x3e2beffd	0.16790767
241	0x3d83742f	0.06418645
242	0xbd1b225b	-0.03787456
243	0x3e0ac6a9	0.13552345
244	0x3e983fe0	0.29736233
245	0xbf60b90a	-0.8778235
246	0x3db52685	0.08845238
247	0x3e37d292	0.1795142
248	0xbf23633f	-0.6382331
249	0x3db12956	0.08650462
250	0x3dc50daa	0.09621747
251	0x3e9e2bc5	0.30892769
252	0x3c2a3a4d	0.010389877
253	0xbd387368	-0.045031935
254	0xbe3722de	-0.17884395
255	0xbedbce49	-0.4293082

network_body._body_endoder.seq_layers.0.bias f4 [128]
0	0x00000000	0.0
1	0x00000000	0.0
2	0x00000000	0.0
3	0x00000000	0.0
4	0x00000000	0.0
5	0x00000000	0.0
6	0x00000000	0.0
7	0x00000000	0.0
8	0x00000000	0.0
9	0x00000000	0.0
10	0x00000000	0.0
11	0x00000000	0.0
12	0x00000000	0.0
13	0x00000000	0.0
14	0x00000000	0.0
15	0x00000000	0.0
16	0x00000000	0.0
17	0x00000000	0.0
18	0x00000000	0.0
19	0x00000000	0.0
20	0x00000000	0.0
21	0x00000000	0.0
22	0x00000000	0.0
23	0x00000000	0.0
24	0x00000000	0.0
25	0x00000000	0.0
26	0x00000000	0.0
27	0x00000000	0.0
28	0x00000000	0.0
29	0x00000000	0.0
30	0x00000000	0.0
31	0x00000000	0.0
32	0x00000000	0.0
33	0x00000000	0.0
34	0x00000000	0.0
35	0x00000000	0.0
36	0x00000000	0.0
37	0x00000000	0.0
38	0x00000000	0.0
39	0x00000000	0.0
40	0x00000000	0.0
41	0x00000000	0.0
42	0x00000000	0.0
43	0x00000000	0.0
44	0x00000000	0.0
45	0x00000000	0.0
46	0x00000000	0.0
47	0x00000000	0.0
48	0x00000000	0.0
49	0x00000000	0.0
50	0x00000000	0.0
51	0x00000000	0.0
52	0x00000000	0.0
53	0x00000000	0.0
54	0x00000000	0.0
55	0x00000000	0.0
56	0x00000000	0.0
57	0x00000000	0.0
58	0x00000000	0.0
59	0x00000000	0.0
60	0x00000000	0.0
61	0x00000000	0.0
62	0x00000000	0.0
63	0x00000000	0.0
64	0x00000000	0.0
65	0x00000000	0.0
66	0x00000000	0.0
67	0x00000000	0.0
68	0x00000000	0.0
69	0x00000000	0.0
70	0x00000000	0.0
71	0x00000000	0.0
72	0x00000000	0.0
73	0x00000000	0.0
74	0x00000000	0.0
75	0x00000000	0.0
76	0x00000000	0.0
77	0x00000000	0.0
78	0x00000000	0.0
79	0x00000000	0.0
80	0x00000000	0.0
81	0x00000000	0.0
82	0x00000000	0.0
83	0x00000000	0.0
84	0x00000000	0.0
85	0x00000000	0.0
86	0x00000000	0.0
87	0x00000000	0.0
88	0x00000000	0.0
89	0x00000000	0.0
90	0x00000000	0.0
91	0x00000000	0.0
92	0x00000000	0.0
93	0x00000000	0.0
94	0x00000000	0.0
95	0x00000000	0.0
96	0x00000000	0.0
97	0x00000000	0.0
98	0x00000000	0.0
99	0x00000000	0.0
100	0x00000000	0.0
101	0x00000000	0.0
102	0x00000000	0.0
103	0x00000000	0.0
104	0x00000000	0.0
105	0x00000000	0.0
106	0x00000000	0.0
107	0x00000000	0.0
108	0x00000000	0.0
109	0x00000000	0.0
110	0x00000000	0.0
111	0x00000000	0.0
112	0x00000000	0.0
113	0x00000000	0.0
114	0x00000000	0.0
115	0x00000000	0.0
116	0x00000000	0.0
117	0x00000000	0.0
118	0x00000000	0.0
119	0x00000000	0.0
120	0x00000000	0.0
121	0x00000000	0.0
122	0x00000000	0.0
123	0x00000000	0.0
124	0x00000000	0.0
125	0x00000000	0.0
126	0x00000000	0.0
127	0x00000000	0.0

network_body._body_endoder.seq_layers.2.weight f4 [128, 128]
0	0xbd83835b	-0.064215384
1	0xbd887ba2	-0.06664206
2	0x3db70819	0.089370914
3	0xbcab2995	-0.020893851
4	0x3da61038	0.08108562
5	0xbd9ef9c5	-0.077624835
6	0xbccdcf5d	-0.025123293
7	0x3dc6184e	0.096726045
8	0xbd176b41	-0.03696752
9	0xbca73f34	-0.02041588
10	0x3d268262	0.040651686
11	0x3da81674	0.082074076
12	0x3de5372b	0.11192163
13	0xbdcc14ba	-0.09964891
14	0xbc1887b7	-0.009309701
15	0x3d92d9c6	0.07170443
16	0x3d0f31ec	0.03495972
17	0xbdef3ffc	-0.11682126
18	0x3dceaecb	0.10091933
19	0xbc222b1d	-0.009897974
20	0x3df26d31	0.11837233
21	0xbba5071e	-0.005036249
22	0xbd78dc22	-0.06075681
23	0x3d4c40f7	0.049866643
24	0x3de02272	0.1094407
25	0x3c6bc78d	0.014390838
26	0x3c73d790	0.014882937
27	0x3d0378a1	0.032097463
28	0x3d2e3859	0.042534206
29	0xbce16699	-0.027514743
30	0xbdf28b81	-0.118430145
31	0xbd8bb8f8	-0.06822389
32	0x3e904d93	0.28184184
33	0xbe3bf827	-0.18356381
34	0x3d9c9598	0.0764572
35	0xbd14f678	-0.036367863
36	0x3d8548b7	0.0650801
37	0x3dd43d9c	0.103633136
38	0xbcecf98f	-0.028927593
39	0xbd2da43f	-0.042392965
40	0x3d59289e	0.05301725
41	0xbd6864aa	-0.056736626
42	0xbd9c5670	-0.07633674
43	0x3c7dc832	0.015489625
44	0xbd991065	-0.0747383
45	0x3dd23da6	0.10265665
46	0xbdd79004	-0.10525516
47	0xbc12ca72	-0.0089594
48	0xbdf9e227	-0.12201338
49	0xbd24d7fc	-0.04024504
50	0xbdde136b	-0.108435474
51	0xbca9aee9	-0.020713286
52	0xbdee4a9f	-0.116353266
53	0xbdad0983	-0.0844908
54	0x3c6abe86	0.014327651
55	0x3d9545db	0.072887145
56	0xbd0cc2eb	-0.034365576
57	0x3b533584	0.0032227943
58	0xbd9541fd	-0.07287977
59	0x3d775870	0.060387075
60	0xbdfa1d26	-0.12212591
61	0xbcbd2ab1	-0.023091646
62	0xbcae8298	-0.021302506
63	0x3d353cc6	0.04424741
64	0xbdc97302	-0.09836389
65	0xbb8cec96	-0.004300664
66	0x3d3dfbe9	0.04638282
67	0xbc49700c	-0.01229478
68	0x3dc425c3	0.09577515
69	0xbc0f97dc	-0.008764233
70	0xbdd68240	-0.10474062
71	0x3bc5800e	0.006027228
72	0xbc1325b9	-0.008981162
73	0xbdef3f60	-0.1168201
74	0xbdd72505	-0.10505108
75	0xbe2e1e3a	-0.17003718
76	0xbd489e64	-0.048979178
77	0x3cf6a56b	0.030108174
78	0x3cb92002	0.02259827
79	0x3d420835	0.047371108
80	0x3e3bd7f0	0.18344092
81	0x3e2918f8	0.16513431
82	0x3c118621	0.0088820765
83	0xbcfb345a	-0.030664612
84	0x3db9ea1d	0.09077857
85	0xbc21f0bf	-0.0098840585
86	0x3d4ad3ce	0.0495184
87	0x3d2cb514	0.042164877
88	0x3c6e620f	0.014549746
89	0xbddb0fad	-0.10696349
90	0x3c4b4695	0.012406965
91	0x3d9098d0	0.07060397
92	0xbbdc09cf	-0.0067150365
93	0xbba9cd62	-0.0051819542
94	0x3d7ee477	0.0622296
95	0xbd6f751e	-0.0584613
96	0x3cee4814	0.029087104
97	0x3d1c8baa	0.03821913
98	0x3d92dbbc	0.07170817
99	0x3d6fb746	0.058524393
100	0xbd1c66c9	-0.03818396
101	0xbd604664	-0.05475463
102	0x3c8e212f	0.017349808
103	0xbc8105f8	-0.015749916
104	0xbcdfc736	-0.02731667
105	0x3dd1f398	0.1025154
106	0x3e08c314	0.13355666
107	0x3c9a3422	0.018823687
108	0x3dbf1a63	0.09331205
109	0x3d66c586	0.056340717
110	0x3dfd248a	0.12360485
111	0x3dcfa044	0.1013799
112	0xbd6c1d1b	-0.057644945
113	0xbd5889f2	-0.05286593
114	0xbd194bc5	-0.037425775
115	0xbd76b9fb	-0.06023596
116	0x3c892148	0.016739503
117	0xbdeea831	-0.11653174
118	0xbcc33b65	-0.023832032
119	0x3cfcf9e9	0.030880885
120	0xbd865ba1	-0.065604456
121	0xbe983ed7	-0.29735443
122	0x3dce73d5	0.10080687
123	0x3d840c00	0.06447601
124	0x3dc0b57a	0.09409614
125	0x3d103f57	0.035216656
126	0xbd9d67f7	-0.07685845
127	0x3cfc6ba0	0.030813038
128	0xbdbd79a0	-0.09251714
129	0x3d4e01ee	0.05029481
130	0x3d233fa2	0.039855607
131	0xbd67a414	-0.05655296
132	0xba0a170d	-0.0005267717
133	0x3e4db579	0.20088758
134	0x3d380452	0.044925995
135	0x3d1d39fa	0.03838537
136	0xbe0f4500	-0.13991165
137	0x3d1b7639	0.037954543
138	0xbd1bdafa	-0.03805063
139	0x3d0aa4a5	0.033848424
140	0xbe013a95	-0.12620004
141	0x3ddccb8f	0.10781013
142	0x3daa2a12	0.083088055
143	0xbc7546b2	-0.014970468
144	0x3e23480b	0.15945451
145	0x3dca6462	0.09882428
146	0xbda14cb5	-0.07875959
147	0x3db8d526	0.0902503
148	0x3d835d3e	0.06414269
149	0xbc66afcc	-0.014079999
150	0xbd3239a3	-0.043511998
151	0xbd91d869	-0.07121355
152	0x3dd95410	0.10611737
153	0x3c4e1f90	0.012580767
154	0xbae42570	-0.0017406177
155	0x3dc38b07	0.09548002
156	0xbd4dbfcb	-0.050231736
157	0x3e21a8ad	0.15787001
158	0x3d250c61	0.04029501
159	0xbe157dd6	-0.14598784
160	0x3cee33c0	0.02907741
161	0x3cacfee5	0.021117637
162	0xbdd5c353	-0.10437646
163	0x3df73790	0.120711446
164	0xbd1f1c91	-0.038845602
165	0xbdbba97a	-0.091631845
166	0x3b732cb8	0.0037105512
167	0x3df16b0f	0.11787998
168	0xbccb00a7	-0.024780584
169	0x3d0219df	0.031762954
170	0x3d893605	0.066997565
171	0xbdc8b324	-0.09799793
172	0xba935801	-0.0011241437
173	0xbc8fdeed	-0.017562354
174	0x3db52bd0	0.08846247
175	0x3d22079c	0.039558038
176	0x3dc5c826	0.09657316
177	0x3de7f150	0.113253236
178	0x3bc2271b	0.005925072
179	0x3d1064c8	0.035252362
180	0xbd033e3c	-0.032041773
181	0xbe72c181	-0.23706628
182	0x3d3f40ae	0.046692543
183	0xbdb24b64	-0.08705786
184	0xbe08a27a	-0.1334323
185	0xbd1ba171	-0.03799576
186	0xbbe229f9	-0.006901976
187	0xbd686824	-0.05673994
188	0x3d6097c8	0.05483225
189	0xbd9b2e88	-0.075772345
190	0x3dad851b	0.084726535
191	0x3dec53f6	0.11539452
192	0x3d762e28	0.06010261
193	0x3dd29775	0.102827944
194	0x3baa3fa9	0.005195577
195	0x3bc03f93	0.0058669536
196	0xbdad2b9d	-0.08455584
197	0x3d7edd80	0.062222958
198	0x3de5ae45	0.1121488
199	0xbe55c0a9	-0.20874275
200	0x3e04f7e7	0.12985192
201	0xbe09e5ee	-0.13466617
202	0xbe2d89ec	-0.16947144
203	0xbc93fbae	-0.018064346
204	0x3dd6cb26	0.10487966
205	0xbe2c1d98	-0.16808164
206	0xbe1da3d6	-0.1539453
207	0xbcc4e8a6	-0.024036717
208	0x3c18793b	0.009306247
209	0x3dd0d888	0.1019755
210	0x3d19db3f	0.037562605
211	0xbd4d09b3	-0.050058078
212	0x3de9ff26	0.11425619
213	0xbc3b4c2a	-0.011431733
214	0xbb1c2b11	-0.002382938
215	0x3d2a653b	0.041600447
216	0xbd158bb0	-0.03651017
217	0x3d9705c7	0.07374149
218	0x3b911dc5	0.0044285976
219	0xbdaae7c6	-0.083449885
220	0xbb9db372	-0.0048126513
221	0xbd96a1f8	-0.07355112
222	0xbd269572	-0.040669866
223	0x3c2c8d60	0.010531753
224	0x3d960bf0	0.07326496
225	0x3d1c4533	0.03815193
226	0xbda48d3c	-0.08034751
227	0x3e068fbd	0.1314077
228	0x3d061352	0.03273327
229	0xbdd90bb3	-0.105979346
230	0x3cd9496a	0.026524264
231	0x3e9af5d6	0.30265683
232	0xbe608ba7	-0.21928273
233	0xbd8cc0c5	-0.06872705
234	0x3d1dfa58	0.038568825
235	0x3d1c72ff	0.038195606
236	0x3cc7ec6a	0.024404723
237	0xbd1d0065	-0.038330454
238	0x3a28ae23	0.000643464
239	0x3d8c945d	0.068642356
240	0x3dad0084	0.08447364
241	0xbdd5d187	-0.10440355
242	0x3d684c1c	0.05671321
243	0x3be6ec2a	0.007047196
244	0xbdb2622d	-0.08710132
245	0xbdd9c22a	-0.10632737
246	0xbdebb56e	-0.11509214
247	0x3dedac6f	0.11605155
248	0xb9cbf1aa	-0.0003889923
249	0x3d98c0e5	0.07458667
250	0xbcbf99dc	-0.023388796
251	0xbd41f498	-0.047352403
252	0xbdc1be4b	-0.09460124
253	0x3bf053f1	0.0073342253
254	0x3cb6af3c	0.022300355
255	0xbda30d07	-0.07961469

network_body._body_endoder.seq_layers.2.bias f4 [128]
0	0x00000000	0.0
1	0x00000000	0.0
2	0x00000000	0.0
3	0x00000000	0.0
4	0x00000000	0.0
5	0x00000000	0.0
6	0x00000000	0.0
7	0x00000000	0.0
8	0x00000000	0.0
9	0x00000000	0.0
10	0x00000000	0.0
11	0x00000000	0.0
12	0x00000000	0.0
13	0x00000000	0.0
14	0x00000000	0.0
15	0x00000000	0.0
16	0x00000000	0.0
17	0x00000000	0.0
18	0x00000000	0.0
19	0x00000000	0.0
20	0x00000000	0.0
21	0x00000000	0.0
22	0x00000000	0.0
23	0x00000000	0.0
24	0x00000000	0.0
25	0x00000000	0.0
26	0x00000000	0.0
27	0x00000000	0.0
28	0x00000000	0.0
29	0x00000000	0.0
30	0x00000000	0.0
31	0x00000000	0.0
32	0x00000000	0.0
33	0x00000000	0.0
34	0x00000000	0.0
35	0x00000000	0.0
36	0x00000000	0.0
37	0x00000000	0.0
38	0x00000000	0.0
39	0x00000000	0.0
40	0x00000000	0.0
41	0x00000000	0.0
42	0x00000000	0.0
43	0x00000000	0.0
44	0x00000000	0.0
45	0x00000000	0.0
46	0x00000000	0.0
47	0x00000000	0.0
48	0x00000000	0.0
49	0x00000000	0.0
50	0x00000000	0.0
51	0x00000000	0.0
52	0x00000000	0.0
53	0x00000000	0.0
54	0x00000000	0.0
55	0x00000000	0.0
56	0x00000000	0.0
57	0x00000000	0.0
58	0x00000000	0.0
59	0x00000000	0.0
60	0x00000000	0.0
61	0x00000000	0.0
62	0x00000000	0.0
63	0x00000000	0.0
64	0x00000000	0.0
65	0x00000000	0.0
66	0x00000000	0.0
67	0x00000000	0.0
68	0x00000000	0.0
69	0x00000000	0.0
70	0x00000000	0.0
71	0x00000000	0.0
72	0x00000000	0.0
73	0x00000000	0.0
74	0x00000000	0.0
75	0x00000000	0.0
76	0x00000000	0.0
77	0x00000000	0.0
78	0x00000000	0.0
79	0x00000000	0.0
80	0x00000000	0.0
81	0x00000000	0.0
82	0x00000000	0.0
83	0x00000000	0.0
84	0x00000000	0.0
85	0x00000000	0.0
86	0x00000000	0.0
87	0x00000000	0.0
88	0x00000000	0.0
89	0x00000000	0.0
90	0x00000000	0.0
91	0x00000000	0.0
92	0x00000000	0.0
93	0x00000000	0.0
94	0x00000000	0.0
95	0x00000000	0.0
96	0x00000000	0.0
97	0x00000000	0.0
98	0x00000000	0.0
99	0x00000000	0.0
100	0x00000000	0.0
101	0x00000000	0.0
102	0x00000000	0.0
103	0x00000000	0.0
104	0x00000000	0.0
105	0x00000000	0.0
106	0x00000000	0.0
107	0x00000000	0.0
108	0x00000000	0.0
109	0x00000000	0.0
110	0x00000000	0.0
111	0x00000000	0.0
112	0x00000000	0.0
113	0x00000000	0.0
114	0x00000000	0.0
115	0x00000000	0.0
116	0x00000000	0.0
117	0x00000000	0.0
118	0x00000000	0.0
119	0x00000000	0.0
120	0x00000000	0.0
121	0x00000000	0.0
122	0x00000000	0.0
123	0x00000000	0.0
124	0x00000000	0.0
125	0x00000000	0.0
126	0x00000000	0.0
127	0x00000000	0.0

value_heads.value_heads.extrinsic.weight f4 [1, 128]
0	0x3e26004e	0.16211054
1	0xbe336d11	-0.17522074
2	0xbd5ce83a	-0.053932406
3	0xbe324ad8	-0.17411363
4	0x3e013074	0.1261614
5	0x3be31bc4	0.0069308
6	0xbdafca10	-0.08583462
7	0x3db7b659	0.08970327
8	0x3dfbd346	0.122961566
9	0x3deca6fd	0.11555288
10	0x3df5fec6	0.12011485
11	0x3e097160	0.13422155
12	0xbe021d00	-0.12706375
13	0xbdccb7e2	-0.0999601
14	0x3c06dea7	0.008231795
15	0xbe537177	-0.20648752
16	0x3d154850	0.036445916
17	0xbda2d34c	-0.07950458
18	0xbe3629f2	-0.17789438
19	0x3e01fe01	0.12694551
20	0x3d903ff1	0.07043446
21	0xbc586eda	-0.013210023
22	0xbdc36a04	-0.09541705
23	0x3de08689	0.109631605
24	0xbd636205	-0.0555134
25	0x3d05214e	0.032502465
26	0xbd596123	-0.053071152
27	0x3d862d7f	0.065516464
28	0xbe34ff52	-0.17675522
29	0x3e43ade9	0.1910931
30	0xbd25ed2a	-0.04050938
31	0xbe302648	-0.17202103
32	0x3e2fe1e9	0.17176022
33	0xbe19adc7	-0.15007697
34	0xbdcac8b6	-0.09901564
35	0x3d2c235f	0.04202592
36	0xbe0a576b	-0.1350991
37	0xbe529ee1	-0.2056842
38	0x3d8a3f9f	0.06750416
39	0xbbaeb0f3	-0.0053311526
40	0xbe052923	-0.13003974
41	0xbe4103ab	-0.18849055
42	0x3d70809b	0.058716398
43	0xbe35f947	-0.17770873
44	0x3e0e3d54	0.13890582
45	0x3dc1a1b0	0.094546676
46	0x3e12cb1e	0.14335296
47	0x3d98412e	0.07434307
48	0xbd8dec82	-0.06929876
49	0x3dae4990	0.08510125
50	0x3a67fb64	0.0008849411
51	0xbe1d92e3	-0.15388064
52	0xbdbc0663	-0.09180906
53	0xbe38a017	-0.1802982
54	0x3e20a5b4	0.1568821
55	0x3e2d1789	0.16903509
56	0xbe4cdbb9	-0.20005693
57	0x3e07c8e1	0.13260223
58	0x3e23c4d1	0.15993048
59	0x3b6b2da0	0.003588535
60	0x3e2f6d23	0.17131476
61	0xbd57681b	-0.052589517
62	0x3dc21ed1	0.09478534
63	0xbd2d967b	-0.042379837
64	0xbd7ffd7f	-0.062497612
65	0x3c855b36	0.016278844
66	0x3d92cc3c	0.07167861
67	0x3e49e4ab	0.19716136
68	0x3d85c6b1	0.06532038
69	0xbe5c0659	-0.21486796
70	0x3e1eb5b6	0.15499005
71	0xbe2bafbf	-0.1676626
72	0xbe503eb7	-0.20336424
73	0xbb5372c2	-0.0032264446
74	0xbd6bb602	-0.057546623
75	0xbe0d8275	-0.13819297
76	0xbd05f207	-0.03270152
77	0x3d430f0a	0.047621764
78	0xbe2f4bad	-0.17118712
79	0xbdd903ca	-0.10596426
80	0x3da0c352	0.078497544
81	0xbe433655	-0.19063695
82	0xbde054f8	-0.109537065
83	0xbe0a6cca	-0.13518062
84	0xbd5f7767	-0.05455723
85	0xbd5be0fe	-0.053681366
86	0x3e029517	0.12752186
87	0xbd63aba4	-0.05558361
88	0x3e2aed4d	0.16692086
89	0xbd9d8d57	-0.07692974
90	0xbdd5aac8	-0.104329646
91	0xbb3fa5f9	-0.0029243215
92	0x3c9eefd7	0.019401474
93	0xbe4eccc4	-0.201953
94	0xbdf3ffd4	-0.1191403
95	0xbe43aa89	-0.19108023
96	0xbddad9e8	-0.106860936
97	0x3e58d934	0.21176606
98	0x3e5565a0	0.20839548
99	0x3d990145	0.07470945
100	0xbd875b97	-0.06609266
101	0xbc9da8a6	-0.019245457
102	0x3e5b5ec2	0.21422866
103	0xbd035dee	-0.032072
104	0x3de31979	0.11088843
105	0x3e35dc7e	0.17759892
106	0xbe06b350	-0.1315434
107	0xbd01ec4e	-0.0317195
108	0xbb2587b1	-0.002525788
109	0xbca959df	-0.020672737
110	0xbd002983	-0.03128959
111	0x3e29bff6	0.16577134
112	0x3db1aeed	0.086759426
113	0xbd949800	-0.07255554
114	0xbceb5d81	-0.02873111
115	0xbe479a01	-0.19492342
116	0x3e1a2378	0.15052593
117	0x3da5cad1	0.08095325
118	0x3d9e8c94	0.07741657
119	0x3cedc381	0.029023888
120	0xbd923495	-0.071389355
121	0x3d22ecfd	0.03977679
122	0x3e142e77	0.1447085
123	0xbe195153	-0.14972429
124	0xbd23d7ad	-0.040000606
125	0xbd86adc2	-0.065761104
126	0x3e1c4c43	0.15263467
127	0xbdad9c5f	-0.08477091
