Shortcut Run/results/LEVEL1/Move/Move-220268.pt (torch, 437663 bytes, 30 tensors)

network_body._body_endoder.seq_layers.0.weight f4 [128, 6]
0	0x3f3a83ea	0.72857535
1	0xbcf46094	-0.029831208
2	0xbe131ea3	-0.14367156
3	0xbf16eab4	-0.5895188
4	0x3e9360c0	0.28784752
5	0x3f263e46	0.6493877
6	0xbe9aaa26	-0.30207938
7	0xbf0b8f7e	-0.54515827
8	0xbf586c89	-0.8454061
9	0xbe8d58f4	-0.27606928
10	0x3e210e0c	0.15728015
11	0xbccc9383	-0.024972683
12	0x3ecb5199	0.39710692
13	0xbe58483a	-0.21121302
14	0xbc9cb268	-0.01912804
15	0xbf13d489	-0.5774618
16	0xbee800ba	-0.45313054
17	0x3f148b25	0.5802482
18	0xbe4b1449	-0.19831957
19	0x3ea6392b	0.3246549
20	0xbecddfd2	-0.40209824
21	0xbcd43ae2	-0.025906984
22	0x3e32b01c	0.17449993
23	0x3eefaba7	0.46810648
24	0x3fad1629	1.3522388
25	0x3f114013	0.56738394
26	0xbd157b94	-0.036494806
27	0xbf14abc7	-0.5807461
28	0x3e26cb11	0.16288401
29	0x3d9d6ed9	0.07687158
30	0x3ee221bc	0.44166362
31	0x3e4f1cc4	0.20225817
32	0xbef8fe79	-0.48631647
33	0xbf130c57	-0.57440704
34	0xbbd9fc9f	-0.0066524292
35	0x3e196eae	0.14983627
36	0x3e22b4b5	0.15889247
37	0x3e02e9a1	0.12784435
38	0xbee79144	-0.45228016
39	0x3f29676b	0.6617343
40	0x3dab0980	0.08351421
41	0xbf0422d3	-0.5161564
42	0x3dda065b	0.106457435
43	0x3dff06d0	0.12452471
44	0xbe2dc862	-0.16970971
45	0x3ea56dd8	0.32310367
46	0x3e8c21e5	0.2736961
47	0x3f21591f	0.63026613
48	0x3e1d7d97	0.1537994
49	0xbed71a5b	-0.42012295
50	0x3df789aa	0.12086804
51	0xbd252d95	-0.040326674
52	0xbe31e88e	-0.17373869
53	0x3dabe28e	0.08392821
54	0x3efa2f3b	0.4886416
55	0xbd9b18f2	-0.07573117
56	0xbe29a98e	-0.16568586
57	0xbe5aa5df	-0.21352337
58	0xbda4c7b8	-0.08045906
59	0x3d2467db	0.040138107
60	0x3e479c7d	0.1949329
61	0xbec0c9b5	-0.3765389
62	0xbed6e8cb	-0.41974482
63	0xbc6556c2	-0.013997735
64	0x3f31f38e	0.6951226
65	0x3f33d765	0.7025054
66	0xbdf4b545	-0.11948637
67	0x3f3ec0bb	0.74512833
68	0xbe57211b	-0.21008722
69	0x3f4ffca2	0.8124486
70	0x3ea50d37	0.32236645
71	0xbeb469ea	-0.35237056
72	0xbf4dc5ca	-0.8037993
73	0x3ea1c164	0.31592858
74	0x3f0a9e6a	0.5414797
75	0x3e93cabd	0.28865615
76	0xbf72c21c	-0.9482744
77	0x3efe4a94	0.49666274
78	0x3dfb340f	0.12265789
79	0x3ef3dbf1	0.4762874
80	0xbe7280c1	-0.23681928
81	0xbe3d867a	-0.1850833
82	0xbea1f87e	-0.31634897
83	0xbeab4952	-0.33454376
84	0xbf1d4dc4	-0.61446786
85	0xbe65bf40	-0.22436237
86	0xbf403bbb	-0.7509114
87	0x3d710dc5	0.058851022
88	0x3e4cd122	0.20001653
89	0x3efb79bb	0.4911631
90	0x3e8aa8dd	0.27081957
91	0x3da64c87	0.08120065
92	0xbec41a5c	-0.3830136
93	0x3d01c97e	0.0316863
94	0x3e58be67	0.21166383
95	0xbd324579	-0.043523286
96	0x3dfa9cb8	0.12236923
97	0x3e2e3a81	0.17014505
98	0xbeb18984	-0.3467523
99	0x3edd4bfc	0.43222034
100	0x3eb44fd9	0.3521717
101	0xbf830472	-1.0235732
102	0x3eeac1d0	0.45850992
103	0xbea44934	-0.320871
104	0xbe96a328	-0.29421353
105	0xbeaf92f8	-0.34291816
106	0xbd3967c3	-0.04526497
107	0xbf31361c	-0.6922319
108	0x3ec68628	0.38774228
109	0x3d19b365	0.0375246
110	0x3eebf375	0.4608418
111	0x3efad10e	0.4898762
112	0x3f2c2f27	0.6725945
113	0x3e9eba26	0.31001395
114	0xbe7a1295	-0.24421151
115	0x3ec5d765	0.38640895
116	0xbed08c40	-0.40732002
117	0xbf047143	-0.51735324
118	0x3f7dd8ab	0.99158734
119	0x3d1b9c50	0.037990868
120	0x3e6aea4e	0.22940943
121	0xbd85a63d	-0.06525848
122	0x3ebf0387	0.3730738
123	0xbf3566a4	-0.7085974
124	0xbe438ca3	-0.19096617
125	0x3b1fa544	0.002435998
126	0x3e2001b5	0.15625651
127	0xbdaaa7e9	-0.083328076
128	0x3e9360af	0.287847
129	0x3f2f33cd	0.68438417
130	0xbca0e23b	-0.019639125
131	0x3e31aeab	0.17351787
132	0xbebc7818	-0.36810374
133	0xbe6e6ece	-0.23284456
134	0x3dc4cfcb	0.09609946
135	0xbf7ed49e	-0.9954318
136	0x3f284cee	0.65742385
137	0xbe943fef	-0.28955027
138	0xbf37d6c6	-0.71812093
139	0x3efa03bf	0.48830983
140	0x3e6d75c3	0.23189454
141	0x3e2df256	0.16986975
142	0x3ea1cbc5	0.31600776
143	0x3eb36769	0.35039833
144	0x3ed475ee	0.41496223
145	0x3ea6c77a	0.32574064
146	0x3b86eadc	0.004117353
147	0x3f1a4866	0.6026672
148	0x3f608991	0.8770991
149	0x3eb4488e	0.35211605
150	0x3ee989a3	0.4561282
151	0x3ed070ed	0.40711156
152	0xbea7ecb4	-0.32797778
153	0xbf0299aa	-0.5101572
154	0xbf64c6c4	-0.8936579
155	0xbd950eb7	-0.07278197
156	0xbe5140f6	-0.20434937
157	0x3f1a6314	0.6030743
158	0xbe04ed0a	-0.12981048
159	0xbe8e323e	-0.27772707
160	0xbf02eebf	-0.5114555
161	0x3a70a546	0.0009179901
162	0x3f107fd5	0.56445056
163	0x3e936c47	0.28793547
164	0x3dcbd265	0.09952239
165	0x3eafc01a	0.3432625
166	0xbdaea4c2	-0.08527519
167	0x3d5d056a	0.05396024
168	0xbe50ff3f	-0.20409869
169	0x3f51d4e9	0.819655
170	0x3e9f4ce5	0.31113353
171	0x3da49db7	0.08037894
172	0xbe968eb3	-0.29405746
173	0xbe97e992	-0.29670388
174	0xbeb4f769	-0.3534501
175	0xbf0708f7	-0.52748054
176	0xbd7a2893	-0.06107385
177	0x3d6e3f45	0.058165807
178	0x3f031062	0.51196873
179	0x3f072405	0.52789336
180	0x3f37768c	0.71665263
181	0x3ee4c7a9	0.4468358
182	0xbe411342	-0.18855003
183	0xbf3903e4	-0.7227156
184	0xbe1ba72b	-0.15200488
185	0xbec08cf4	-0.3760754
186	0xbd1e8677	-0.038702454
187	0x3dc8b573	0.09800234
188	0x3e203e1f	0.15648697
189	0xbed92da4	-0.42417634
190	0xbd8eee75	-0.06979076
191	0x3edd6fa7	0.43249246
192	0xbe1d56bb	-0.15365116
193	0x3eea7dc7	0.45799085
194	0xbf36311f	-0.711687
195	0xbeaa2e2c	-0.3323835
196	0x3ee0f45f	0.4393644
197	0x3edf7241	0.43641856
198	0xbe717089	-0.23578085
199	0xbce3ad07	-0.027792467
200	0xbe999df6	-0.30003327
201	0x3e967bb0	0.2939124
202	0xbf65dc2b	-0.89789075
203	0x3dbef6af	0.09324395
204	0xbeb036d1	-0.34416822
205	0x3e52efd4	0.205993
206	0xbecbdbfe	-0.39816278
207	0xbe93484a	-0.2876609
208	0x3f001853	0.50037116
209	0xbe342958	-0.17593896
210	0x3ec9b47a	0.39395505
211	0xbf555ccd	-0.8334473
212	0xbf21c673	-0.63193434
213	0xbd2fafd1	-0.04289228
214	0xbdad4989	-0.08461291
215	0x3f5b88e0	0.8575573
216	0x3f4bd9e0	0.79629326
217	0xbe88657f	-0.26639935
218	0x3edd1d6e	0.43186516
219	0xbe012d27	-0.1261488
220	0xbf2fe6e7	-0.68711704
221	0x3e045fc3	0.12927155
222	0xbd61c2d6	-0.05511745
223	0xbe9d4717	-0.307183
224	0xbcc0ec19	-0.02355008
225	0xbde91a70	-0.11381996
226	0x3d1d1b7c	0.03835629
227	0x3f0188b1	0.505992
228	0xbf02603e	-0.50928104
229	0xbe6657d0	-0.22494435
230	0x3f055769	0.520865
231	0xbd13fe6c	-0.036131307
232	0xbf1e7e33	-0.61911315
233	0x3ef45477	0.47720692
234	0xbe9edb1b	-0.3102654
235	0x3e6e21ec	0.23255128
236	0xbf4647bf	-0.77453226
237	0x3f438b65	0.76384574
238	0x3e9ec149	0.3100684
239	0x3e696ded	0.2279584
240	0xbf499be0	-0.7875347
241	0xbe864429	-0.26223877
242	0x3f1d281d	0.61389333
243	0xbe1121aa	-0.14172998
244	0xbd85f22b	-0.065403305
245	0x3e0ed5e6	0.13948783
246	0x3eae9bfc	0.34103382
247	0x3e8a39dc	0.26997268
248	0x3e4c0aa5	0.19925936
249	0x3dc7da73	0.09758463
250	0xbefb0738	-0.49028945
251	0xbf13517a	-0.575462
252	0x3ec40b10	0.3828969
253	0x3f02fe8e	0.5116967
254	0xbe3da6bb	-0.18520634
255	0xbe897066	-0.26843566

network_body._body_endoder.seq_layers.0.bias f4 [128]
0	0xb952d2b0	-0.00020105648
1	0xba587035	-0.0008256466
2	0xba1ecb56	-0.0006057521
3	0xb9d62ece	-0.00040852133
4	0xb94fb42f	-0.00019808182
5	0x394087af	0.00018361093
6	0xbaa71254	-0.0012746551
7	0xb980290d	-0.00024444648
8	0xb94e53ca	-0.00019676905
9	0xb9569222	-0.00020463069
10	0xba86e8b5	-0.0010292741
11	0xba898887	-0.0010492959
12	0x3b225eb0	0.0024775676
13	0x3a18d47a	0.00058300013
14	0xb8b993d4	-8.8490226e-05
15	0xb9c129b7	-0.0003684291
16	0x1ee5e6c5	2.4341762e-20
17	0x2e85b239	6.0797985e-11
18	0x3b871670	0.004122548
19	0x3925a75c	0.00015797972
20	0x2d10033d	8.186171e-12
21	0xba25ba0f	-0.00063219754
22	0x2f13b7f2	1.3434923e-10
23	0xb9b70c0d	-0.00034913459
24	0xb9af7bd0	-0.0003347085
25	0xb63d86cb	-2.8241654e-06
26	0xb906c2b8	-0.00012851774
27	0x39e57726	0.00043767056
28	0xaa4047f7	-1.7077993e-13
29	0xb91fb689	-0.00015231421
30	0x3b29d9bb	0.002591713
31	0xb9a9025d	-0.00032235953
32	0xbbe30f80	-0.006929338
33	0xb927df54	-0.00016009557
34	0xb9e77119	-0.00044144018
35	0xb87be73d	-6.005842e-05
36	0xb87a919c	-5.9740254e-05
37	0xb9eb2bb8	-0.00044855266
38	0x3b92cd5e	0.004480048
39	0xb9b21b68	-0.00033971225
40	0xbc119848	-0.008886404
41	0x941e6266	-7.996367e-27
42	0xba23e455	-0.00062519807
43	0xb8dec861	-0.000106231084
44	0x3b43c500	0.002987206
45	0xb9f35100	-0.00046408921
46	0x3ab96b73	0.0014146402
47	0xbb4c2b55	-0.0031153758
48	0x8cdde20c	-3.4186488e-31
49	0x3b1a523e	0.0023547555
50	0xba4719bc	-0.0007595082
51	0xbaa45fbd	-0.0012540739
52	0x20ac56fe	2.91955e-19
53	0xb823062e	-3.8867984e-05
54	0xbc25b82a	-0.010114709
55	0xb98af101	-0.00026500973
56	0xb7c134cd	-2.303198e-05
57	0xba5f3bfb	-0.00085157127
58	0x9b8d0779	-2.3331322e-22
59	0xb97ea0f7	-0.00024283292
60	0xbba375c8	-0.004988406
61	0xb9fff28b	-0.000488181
62	0xba9ef3c8	-0.0012127096
63	0xba45328d	-0.0007522486
64	0xb8ada836	-8.2806146e-05
65	0xba517073	-0.00079894735
66	0xbb72936d	-0.0037014142
67	0xb9308d47	-0.00016837298
68	0xb8e29a99	-0.00010805316
69	0xbbcee929	-0.006314416
70	0xb9f90b02	-0.00047501182
71	0xb9eebbfa	-0.0004553495
72	0xba957d07	-0.0011405059
73	0xba93f8dd	-0.0011289377
74	0xad87b8e2	-1.5429828e-11
75	0xb77c47d8	-1.5037098e-05
76	0x3add7e04	0.0016898517
77	0x263ac6af	6.480098e-16
78	0xb6c59d9e	-5.8894066e-06
79	0xb9f380d7	-0.00046444565
80	0xbbc16475	-0.005901868
81	0xba1c1be3	-0.0005955083
82	0xb9e4d2ff	-0.00043644753
83	0x39d4633b	0.00040509723
84	0x391c5904	0.0001491048
85	0xba588b8e	-0.00082605414
86	0x3c3f8312	0.011688964
87	0xbbbf5d95	-0.0058400133
88	0xb2e6aedb	-2.6855039e-08
89	0xba9097e8	-0.00110316
90	0xb96184b3	-0.00021507106
91	0xbb4ead11	-0.003153626
92	0xbc51dcfb	-0.0128090335
93	0xa45ac710	-4.7439827e-17
94	0xbc441d94	-0.011969943
95	0xba961dc1	-0.0011452959
96	0x3834c75d	4.3101016e-05
97	0x3a8309fb	0.0009997481
98	0xb936fc6b	-0.00017450906
99	0xb8094908	-3.273136e-05
100	0xb8bf7095	-9.12856e-05
101	0xbab8e770	-0.001410706
102	0x38bd2664	9.019373e-05
103	0xbb9c0c0d	-0.0047621788
104	0xbb221de1	-0.0024737047
105	0xb9b6acae	-0.00034842402
106	0xa4a628e4	-7.2060296e-17
107	0xa004dbe7	-1.1253594e-19
108	0xa586a053	-2.3353934e-16
109	0x111c561c	1.2332765e-28
110	0xb0b84c39	-1.3409426e-09
111	0xbaa47f9c	-0.0012550238
112	0xb9d67c58	-0.00040909904
113	0x3bfb14b9	0.0076623824
114	0xbaf4ebdf	-0.0018686018
115	0xa807db03	-7.541496e-15
116	0xb9c1bbb2	-0.00036951673
117	0x2de7d427	2.6355874e-11
118	0xb9b577e5	-0.0003461234
119	0xb8d4b44a	-0.00010142529
120	0xba4aa583	-0.00077303516
121	0xb280ac87	-1.4979618e-08
122	0xb9bae729	-0.00035648912
123	0xb96e1eb2	-0.00022708884
124	0xb9351592	-0.0001726954
125	0x1f722a35	5.1280406e-20
126	0xbb4567fb	-0.0030121792
127	0xb9c72b81	-0.0003798865

network_body._body_endoder.seq_layers.2.weight f4 [128, 128]
0	0xbc925387	-0.017862095
1	0x3d537d71	0.051633302
2	0xbd5a1b5b	-0.053248744
3	0xbd0cfa6b	-0.034418505
4	0x3e058928	0.13040602
5	0xbde8ad05	-0.11361126
6	0xbd296185	-0.041352767
7	0x3c9ffdf8	0.019530281
8	0x3a638252	0.0008678782
9	0x3c05ac9a	0.008158827
10	0xbd90dd31	-0.07073439
11	0x3ac7ae32	0.0015234409
12	0xbd994b9a	-0.07485123
13	0xbc87bdcf	-0.01657
14	0x3d68a857	0.056801166
15	0xbd8ae2f5	-0.0678157
16	0x3dbdfb6b	0.0927647
17	0x3da7597e	0.08171366
18	0xbdd344a2	-0.10315825
19	0x3d6009e1	0.05469692
20	0x3a8af52e	0.0010601634
21	0xbc8d147c	-0.017221682
22	0xbd91e8e0	-0.071244955
23	0xbe6eee78	-0.23333156
24	0x3d2ae07d	0.041717995
25	0x3d9602f3	0.07324781
26	0x3dd5d05b	0.10440131
27	0xbd203983	-0.039117347
28	0x3d4aa73e	0.0494759
29	0xbd2231a0	-0.039598107
30	0x3c560c06	0.01306439
31	0xbde8a225	-0.113590516
32	0x3dcb2b06	0.099203154
33	0x3d87dc3a	0.06633802
34	0x3d2b0aa4	0.041758195
35	0xbc6ab85b	-0.01432618
36	0xbdb79392	-0.08963694
37	0x3d3c8275	0.04602285
38	0xbda458e9	-0.08024771
39	0xbd1e58ef	-0.038659032
40	0x3e0a4a7d	0.13504978
41	0x3d490ae0	0.049082637
42	0xbd8943eb	-0.067024074
43	0xbd8d7f2a	-0.0690902
44	0xbd66686e	-0.056251936
45	0xbd0d1b71	-0.03445
46	0xbd60fdda	-0.05492959
47	0xbdb19b70	-0.086722255
48	0x3bc957f9	0.0061445204
49	0xbd2ca202	-0.04214669
50	0xbcdaf6da	-0.026729036
51	0xbe571b91	-0.2100661
52	0xbd8bbe1e	-0.06823371
53	0x3d29fc47	0.041500356
54	0x3b46b8dc	0.0030322587
55	0x3c3779aa	0.011198441
56	0x3df94d11	0.121729024
57	0x3e3c1549	0.18367495
58	0xbc368821	-0.011140854
59	0x3dcaafe3	0.09896829
60	0x3cce5631	0.025187584
61	0x3e3f4f98	0.18682706
62	0x3e22a0de	0.15881678
63	0x3e2c6ab5	0.1683758
64	0xbc9d2ac4	-0.019185431
65	0x3dbf5a05	0.09343342
66	0xbda137e1	-0.07871986
67	0x3cf31c39	0.029676544
68	0x3d0ea957	0.034829464
69	0x3d7408ba	0.059578635
70	0xbdf4ff8c	-0.11962804
71	0xbe27d0bc	-0.1638822
72	0x3c0d9022	0.008640321
73	0xbdc68043	-0.09692433
74	0xbe167278	-0.14692104
75	0x3ceb0739	0.028689967
76	0x3cdfc757	0.027316732
77	0xbc830da0	-0.015997708
78	0x3d69b064	0.057052985
79	0x3d83e795	0.06440655
80	0xbc3bc76d	-0.011461121
81	0xbcac6c4f	-0.02104774
82	0xbd192d46	-0.03739669
83	0x3d4a331c	0.049365148
84	0x3d1083d1	0.03528196
85	0xbd82a0cb	-0.06378325
86	0xbd408918	-0.047005743
87	0xbd71dfdd	-0.059051383
88	0xbd5a495e	-0.053292625
89	0x3e3646c0	0.17800426
90	0x3dac2c3e	0.08406876
91	0xbddb8012	-0.10717787
92	0xbd34445e	-0.044010513
93	0x3e5880e8	0.21142924
94	0xbd86f531	-0.06589735
95	0x3af77136	0.0018878344
96	0x3d21987a	0.039452054
97	0x3d37fea8	0.044920594
98	0xbe154cca	-0.14580074
99	0xbd263bdb	-0.040584426
100	0x3d3edae8	0.046595484
101	0x3cdbc3fd	0.026826853
102	0xbd691a79	-0.056910012
103	0xbdcbf1c1	-0.0995822
104	0x3d6c65a0	0.057714105
105	0x3b8b8a9f	0.0042584683
106	0xbd90e911	-0.07075704
107	0x3d53ed59	0.051740024
108	0xbcce7eb5	-0.025206903
109	0x3c4e78d8	0.012602054
110	0xbdfc4df9	-0.123195596
111	0xbd8ce9ba	-0.06880517
112	0x3d167947	0.036736753
113	0xbca3c674	-0.01999209
114	0x3ddfddb2	0.10930957
115	0xbd7ee4a1	-0.062229756
116	0xbd4647b6	-0.048408233
117	0xbcbc5876	-0.0229914
118	0x3ddb9c1d	0.107231356
119	0xbd4d25b7	-0.050084796
120	0x3ca8cc45	0.020605216
121	0xbd8a0c7c	-0.067406625
122	0xbcc88f46	-0.02448238
123	0x3d14e837	0.03635427
124	0x3d9838a0	0.07432675
125	0xbe2482c0	-0.16065502
126	0xbe15fc9c	-0.14647144
127	0x3c9fce20	0.019507468
128	0xbe360bd4	-0.1777795
129	0x3d101a4a	0.03518132
130	0x3da6c517	0.08143061
131	0xbd35e5c7	-0.044408586
132	0xbd1992a6	-0.03749337
133	0xbdfa3841	-0.12217761
134	0x3e0d601a	0.13806191
135	0xbd2623a0	-0.04056132
136	0xbe20b918	-0.15695608
137	0xbe48f492	-0.19624546
138	0x3d9211c6	0.07132296
139	0x3c99541e	0.018716868
140	0xbe154234	-0.14576036
141	0x3c5a358e	0.0133184325
142	0xbd9f0f37	-0.07766574
143	0xbd6df57b	-0.058095437
144	0xbd038542	-0.032109506
145	0x3d6f451e	0.058415525
146	0x3d62e88e	0.055397563
147	0x3c3fe100	0.011711359
148	0x3dcb0bed	0.09914384
149	0x3b45596d	0.0030113116
150	0x3d69ed38	0.057110995
151	0xbe0ebf62	-0.13940194
152	0xbdd52949	-0.10408265
153	0x3d3aafc7	0.04557779
154	0x3dd7fb13	0.105459355
155	0x3ddb1eb8	0.106992185
156	0x3e16fdce	0.14745256
157	0xbdf3c14a	-0.11902101
158	0xbd189d92	-0.037259646
159	0xbd5aebfd	-0.053447712
160	0x3d53828d	0.051638175
161	0x3d98b379	0.07456107
162	0xbd942c3a	-0.07234998
163	0xbe6eacf0	-0.23308158
164	0xbd2f48f8	-0.042794198
165	0x3e436c46	0.19084272
166	0x3d8650d0	0.065583825
167	0x3dafe5a6	0.08588724
168	0x3cb67031	0.022270294
169	0xbdfe5077	-0.12417691
170	0x3c78b31d	0.015179423
171	0xbe16947e	-0.14705083
172	0xbe002773	-0.12515049
173	0xbe3cf52d	-0.18452902
174	0x3dbd3e6e	0.09240423
175	0x3cf87c98	0.030332848
176	0x3db8f8cc	0.09031829
177	0x3e3d0759	0.18459834
178	0x3c96f674	0.018428065
179	0xbc1690f0	-0.009189829
180	0xbdd63f22	-0.104612604
181	0x3c926c11	0.017873796
182	0x3bfb342c	0.0076661315
183	0x3d57da61	0.052698497
184	0x3d35ba47	0.0443671
185	0x3cda5952	0.02665392
186	0x3cc432ac	0.023949943
187	0xbc8799a4	-0.016552754
188	0x3d00d933	0.031457137
189	0xbd76d9b3	-0.060266208
190	0x3d39b191	0.045335356
191	0x3d65ae9e	0.05607473
192	0xbc83b192	-0.016075883
193	0x3c1bc612	0.009507673
194	0x3e0caf0d	0.13738652
195	0x3b5103a0	0.003189303
196	0xbdf1bad3	-0.11803212
197	0xbbec7cf2	-0.007217043
198	0xbadb349b	-0.0016724052
199	0x3c8f56c6	0.017497431
200	0xbd51b78c	-0.051200435
201	0xbdfd1952	-0.12358345
202	0xbcb6a3d2	-0.022294912
203	0xbdbb8d69	-0.09157831
204	0xbdbd6320	-0.09247422
205	0xbdbc4522	-0.091928735
206	0x3de1eb89	0.11031253
207	0xbe1d0e34	-0.1533745
208	0xbe2ac5b1	-0.16676976
209	0x3de17d7c	0.11010262
210	0x3d7ba232	0.06143398
211	0x3bafff2c	0.005370995
212	0xbc695585	-0.014241581
213	0xbde0c6a0	-0.10975385
214	0x3d6e448f	0.05817085
215	0xbd9ffe06	-0.07812123
216	0xbd83ee3a	-0.064419225
217	0xbdc789d9	-0.09743089
218	0x3cffe8e2	0.031238977
219	0xbcb0ac20	-0.02156645
220	0x3df9261c	0.12165472
221	0xbd2156bc	-0.039389357
222	0x3dcaf711	0.099104054
223	0x3dcdc67d	0.10047624
224	0xbd4c2381	-0.049838547
225	0xbdfb4dfd	-0.122707345
226	0x3cc71db0	0.024306148
227	0xbdddc47f	-0.10828494
228	0x3cfe4dbc	0.031042926
229	0xbdc4a302	-0.09601404
230	0x3cc0ee68	0.023551181
231	0x3c8e5733	0.017375564
232	0x3d2651ad	0.040605236
233	0x3d6ea47d	0.058262337
234	0xbd8a9f48	-0.06768662
235	0x3d88b156	0.06674449
236	0x3d25ebcb	0.040508073
237	0x3e1cb520	0.15303469
238	0x3d58316c	0.052781507
239	0x3cdb0d09	0.026739614
240	0x3db638ce	0.088975534
241	0xbe020f51	-0.12701155
242	0x3ddb9941	0.1072259
243	0xbc2dac72	-0.010600196
244	0xbdb0e903	-0.086381935
245	0xbd4fb9fb	-0.050714474
246	0xbda98822	-0.082779184
247	0xbcc6c290	-0.024262697
248	0xbcd69f49	-0.026199
249	0xbca9c492	-0.020723615
250	0xbe06c244	-0.13160044
251	0xbdadaccc	-0.08480224
252	0xbccc4a8d	-0.024937892
253	0x3d301d63	0.042996775
254	0xbe7b0e03	-0.24517064
255	0x3d3e302b	0.046432655

network_body._body_endoder.seq_layers.2.bias f4 [128]
0	0xbb09696e	-0.0020967382
1	0x8b957218	-5.756438e-32
2	0xa0e2b20c	-3.840371e-19
3	0xa3df20af	-2.419155e-17
4	0xbb480ae7	-0.0030524076
5	0x322e57fe	1.014814e-08
6	0xba31d6cb	-0.0006784021
7	0xb96d703d	-0.00022643893
8	0xa2667cf0	-3.1236954e-18
9	0xb9b340f9	-0.0003418995
10	0xb9aaa72d	-0.00032549482
11	0xb69af90c	-4.6185505e-06
12	0xba8b271b	-0.0010616513
13	0x251e4400	1.3727355e-16
14	0xb9bbd69d	-0.0003582732
15	0xaaeda5f3	-4.2214807e-13
16	0xba3c2b0b	-0.0007178045
17	0xa5cf2c84	-3.593894e-16
18	0xbb578834	-0.003288758
19	0xba51cee8	-0.0008003549
20	0xa99dff64	-7.016504e-14
21	0xba0fd0a5	-0.00054861075
22	0xb984421b	-0.00025226254
23	0xb698d03f	-4.554196e-06
24	0xb9800441	-0.00024417232
25	0xba8c9e01	-0.0010728241
26	0xad0f0ff4	-8.132151e-12
27	0xbb3f34e2	-0.0029175808
28	0xba4f8798	-0.00079166284
29	0xba7a6cd1	-0.0009552958
30	0xb973fecc	-0.00023269205
31	0xbad102a5	-0.0015946223
32	0xbb1868e0	-0.002325587
33	0xb8d0a329	-9.948604e-05
34	0x240067d0	2.7843508e-17
35	0xba1a0ee0	-0.00058768503
36	0xa007cdb8	-1.1503011e-19
37	0x9218cb0d	-4.8213022e-28
38	0xb5f9a260	-1.8599203e-06
39	0x26784f2b	8.6149577e-16
40	0x386d59e0	5.6588906e-05
41	0xb9204140	-0.00015283097
42	0xba0e74e2	-0.0005434287
43	0x374f9254	1.2372231e-05
44	0xb881bf27	-6.186804e-05
45	0xb0939dca	-1.0740504e-09
46	0xb8c4eb6a	-9.3898576e-05
47	0x17b6d3bc	1.1814924e-24
48	0xbb91d2a8	-0.004450161
49	0xbb964a50	-0.0045864955
50	0xb7b20ea6	-2.1226075e-05
51	0xb93ed440	-0.00018198881
52	0xbabc8d52	-0.0014385378
53	0xba2523bf	-0.0006299577
54	0xbaea29a5	-0.0017865194
55	0x269438cd	1.0284959e-15
56	0xb7c3446f	-2.3277678e-05
57	0xba532c69	-0.0008055629
58	0xb8a5438b	-7.880394e-05
59	0x268010e7	8.886366e-16
60	0xb8fdaa11	-0.000120956574
61	0xbb13a81f	-0.0022530628
62	0xbb9e8196	-0.004837225
63	0x3b054a80	0.0020338595
64	0xb863d512	-5.4319455e-05
65	0x143e2acf	9.600991e-27
66	0xb98ce5de	-0.00026874145
67	0xba78390e	-0.0009468951
68	0xb93f9f32	-0.00018274484
69	0x2ad0c671	3.708592e-13
70	0x96058a29	-1.078725e-25
71	0xbacfc2fe	-0.0015850959
72	0xb9c75949	-0.0003802276
73	0x37b59a55	2.1648748e-05
74	0xb86fd796	-5.718282e-05
75	0xa82cfe85	-9.603108e-15
76	0xb98540ed	-0.0002541611
77	0xac72ef6b	-3.4523172e-12
78	0xb9c66ba7	-0.0003784571
79	0xb91e17a1	-0.00015076857
80	0xb9bf659e	-0.0003650607
81	0xb9b87fe8	-0.00035190512
82	0xb8b512a5	-8.6342254e-05
83	0xb82f1945	-4.1746785e-05
84	0x38522ecd	5.011149e-05
85	0xb94b0e2f	-0.00019364872
86	0xb96aae03	-0.00022380803
87	0x11095171	1.083249e-28
88	0xbaab65f8	-0.0013076654
89	0xb9a10e6d	-0.0003071906
90	0xb94f6cb4	-0.00019781553
91	0xba1c9e3d	-0.0005974507
92	0xb8e26d31	-0.00010796858
93	0xb8172dfc	-3.604403e-05
94	0x00000000	0.0
95	0xbb6e3206	-0.0036345734
96	0xbadbcd33	-0.0016769528
97	0x351b6f63	5.790409e-07
98	0xbaa2f3b3	-0.0012432247
99	0xb92a0ccf	-0.00016217235
100	0xb8c67783	-9.4636365e-05
101	0xbae213f8	-0.0017248383
102	0xb970c34d	-0.00022960939
103	0x89dc99e2	-5.3107784e-33
104	0xbaa79176	-0.001278444
105	0x28b85e29	2.0468939e-14
106	0xb9bf76b4	-0.000365188
107	0xb8e4fd74	-0.000109190965
108	0xa92e0014	-3.863583e-14
109	0x2d1dd434	8.971535e-12
110	0xb95e029f	-0.00021172546
111	0xb954c763	-0.00020292173
112	0xb82c9f67	-4.115645e-05
113	0x0f8969f5	1.3550056e-29
114	0xb89b62d5	-7.409385e-05
115	0xb7829392	-1.5565925e-05
116	0xb8de1c1d	-0.000105910214
117	0xb9f91c22	-0.00047513942
118	0xb96a1383	-0.00022323248
119	0xb9d4aa09	-0.00040562477
120	0xb9c67735	-0.0003785432
121	0xb0d30c61	-1.5355789e-09
122	0xb451855a	-1.9513155e-07
123	0xbb0b766d	-0.0021280304
124	0xb6f96711	-7.432777e-06
125	0xbac2fa17	-0.0014875558
126	0xb9b38f51	-0.0003424832
127	0xb05d2257	-8.044813e-10

action_model._continuous_distribution.mu.weight f4 [1, 128]
0	0x3cc919e3	0.024548477
1	0x3c41950e	0.011815323
2	0xbcaaf555	-0.020868937
3	0xbcbbc7a6	-0.022922348
4	0x3d4bc709	0.04975036
5	0x3c1dd044	0.009632174
6	0xba83650a	-0.0010024619
7	0x3c8a8f8d	0.016914153
8	0x3c16295f	0.009165137
9	0xbbba7083	-0.005689682
10	0xbbc023b1	-0.0058636297
11	0x3ca129e2	0.019673292
12	0x3c868487	0.016420616
13	0x3c873f3d	0.016509647
14	0xbc02858b	-0.007966409
15	0x3be1a06d	0.0068855793
16	0x3d07782d	0.033073593
17	0xbb9aad03	-0.0047203316
18	0xbbbae4cc	-0.0057035442
19	0xbc3bc5a8	-0.011460699
20	0x3922fd40	0.00015543867
21	0x3ca286b4	0.019839622
22	0x3c6ae6ec	0.014337283
23	0xbbf2141a	-0.00738765
24	0x3c652edd	0.013988224
25	0xbbac33f5	-0.005255217
26	0xbd148f01	-0.03626919
27	0xbc574fa5	-0.013141547
28	0x3b494685	0.00307122
29	0x3b1b388b	0.0023684825
30	0x3c078cfe	0.008273361
31	0xbc977c80	-0.018491983
32	0x3c0cbcbe	0.0085899215
33	0xbc59b510	-0.013287798
34	0x3c1be326	0.009514606
35	0x3b905beb	0.0044054887
36	0xba2ebe28	-0.0006665909
37	0xbb45820d	-0.003013733
38	0xbb55d8f1	-0.0032630528
39	0x3cd89d23	0.026442116
40	0x3ce1e421	0.0275746
41	0xbc80feec	-0.015746556
42	0xbb79c478	-0.003811149
43	0xbd0d208f	-0.03445488
44	0xbc89b106	-0.016808044
45	0xbc810b42	-0.015752438
46	0x3c67a8ea	0.014139393
47	0x3b1a477c	0.0023541143
48	0xbb393e06	-0.0028265729
49	0x3bea170e	0.0071438616
50	0xbcc07c59	-0.023496794
51	0x3bf24eff	0.007394671
52	0xbb40849d	-0.0029375919
53	0x3aff52b8	0.0019479608
54	0xbb011e21	-0.0019701796
55	0x3bbfcc1b	0.0058531887
56	0xbcbb2fd2	-0.022849951
57	0xbce8dc9b	-0.028425505
58	0xbc6dc453	-0.014512139
59	0x3cc179b9	0.023617612
60	0xbc46918a	-0.01211966
61	0x3d2750e9	0.040848646
62	0xbbf9e0de	-0.007625683
63	0xbce4faf7	-0.0279517
64	0xbc920e0e	-0.017828967
65	0x3c10c7b3	0.0088366745
66	0xbbd0a356	-0.0063671274
67	0xbc347307	-0.011013753
68	0x3cd7ca1c	0.02634149
69	0x3af821ca	0.0018930968
70	0x3c4ee76a	0.012628416
71	0xbbe7c1e5	-0.0070726746
72	0x3c041c83	0.008063438
73	0xbd21ec4c	-0.03953199
74	0xbc8e279c	-0.017352872
75	0xbc23854d	-0.009980512
76	0x3c67c0f3	0.014145124
77	0x3b30fb1c	0.0027005142
78	0x3bfa9b61	0.007647917
79	0x3d126643	0.035742056
80	0x3c36911d	0.011142996
81	0x3c0fa0a7	0.00876633
82	0xbc65781f	-0.01400569
83	0xbcd5cc20	-0.026098311
84	0xbc48a776	-0.012246957
85	0x3cb4bfbb	0.02206408
86	0xbc03005a	-0.007995689
87	0x3c1ef6f7	0.009702436
88	0xbcb722ed	-0.022355521
89	0xbc1e4847	-0.009660787
90	0x3cab179f	0.020885287
91	0xbb4da74d	-0.0031380237
92	0xbc52d868	-0.012868978
93	0xbca6e939	-0.020374881
94	0x3b33f553	0.0027459457
95	0xb986726a	-0.00025643717
96	0xbcd83621	-0.026392998
97	0x3c492fe8	0.012279488
98	0xbae9fb52	-0.0017851389
99	0x3d061e3b	0.032743674
100	0xbc62e96a	-0.013849596
101	0xba0f5795	-0.0005468068
102	0x3c880d53	0.016607916
103	0x3b89ca39	0.004205015
104	0xbc9f0015	-0.019409219
105	0x3b2e49ed	0.0026594356
106	0x3c0b844b	0.008515428
107	0xbc4d7686	-0.012540465
108	0xbbab7148	-0.00523201
109	0x3b283fdd	0.002567283
110	0x3c98cc85	0.01865221
111	0x3ca0f6fd	0.019649023
112	0xbca0c997	-0.019627376
113	0xbc666e23	-0.014064345
114	0xbc7e4fa5	-0.015521918
115	0xbca48e10	-0.020087272
116	0x3cee74c0	0.029108405
117	0x3bc2461e	0.005928769
118	0x3c8cb48b	0.017175933
119	0x3beeed62	0.007291482
120	0x3c0110e5	0.007877563
121	0xbc821fbb	-0.01588427
122	0xbc274497	-0.010209224
123	0xbc631d58	-0.013861977
124	0xbcdef174	-0.027214743
125	0xbd281479	-0.04103515
126	0x3c0479f2	0.008085715
127	0xbb6b901e	-0.0035944055

exp_avg f4 [128, 6]
0	0xb9da8056	-0.00041675818
1	0xb7d60bbe	-2.5516256e-05
2	0x3921ce2d	0.00015430963
3	0x38a2754f	7.7466124e-05
4	0x36ad49c2	5.1643883e-06
5	0x3a84ac88	0.0010122219
6	0xb9614c8b	-0.00021486187
7	0xb5841699	-9.841343e-07
8	0x3917bb5c	0.00014470279
9	0x380878a2	3.2537275e-05
10	0x3611919e	2.1691444e-06
11	0x39dee72a	0.0004251537
12	0x39bc35f4	0.00035898353
13	0x374f8f58	1.2371536e-05
14	0xb9ffb16b	-0.00048769577
15	0xb7fd08b5	-3.0164005e-05
16	0xb606f364	-2.0109228e-06
17	0xb9cea4b4	-0.00039414095
18	0x396a126f	0.00022322846
19	0x3703c816	7.854795e-06
20	0xb9c83fe7	-0.00038194584
21	0xb7813898	-1.5404352e-05
22	0xb589d614	-1.02696e-06
23	0xb9530fc7	-0.00020128406
24	0xb96ea61a	-0.00022759326
25	0xb70ee1c7	-8.516427e-06
26	0xbaaec9e1	-0.0013335311
27	0x391671ff	0.00014347582
28	0x37207997	9.565053e-06
29	0x3af5ba37	0.0018747513
30	0xb9472325	-0.00018991211
31	0xb78c4bd1	-1.6724605e-05
32	0xb9a20c7c	-0.0003090835
33	0x389c7d50	7.462001e-05
34	0x36a6ec24	4.974676e-06
35	0x3a7f997a	0.0009750348
36	0x3a05c4cf	0.0005102874
37	0x3651bd4e	3.1253617e-06
38	0xbb55a1a4	-0.0032597566
39	0x396568b7	0.00021878151
40	0x3774b3f9	1.45854365e-05
41	0x3b3b59c7	0.0028587447
42	0x39667bad	0.00021980582
43	0x379e0b36	1.8840288e-05
44	0xb89f1783	-7.58609e-05
45	0xb83cc851	-4.5009252e-05
46	0xb6495df7	-3.0006029e-06
47	0xba1a2c2a	-0.0005881215
48	0xb967516b	-0.00022060207
49	0x36520b52	3.1299028e-06
50	0x3aa237df	0.001237627
51	0xb8f122d4	-0.00011498263
52	0xb7009b1f	-7.6655115e-06
53	0xbac4ed80	-0.0015024394
54	0x39607596	0.00021406109
55	0x379b1b83	1.8490251e-05
56	0x37a42b3a	1.9570452e-05
57	0xb85704c7	-5.1264444e-05
58	0xb6655a81	-3.417634e-06
59	0xba2f993e	-0.0006698555
60	0x37ec831d	2.8194447e-05
61	0xb3158e74	-3.4821326e-08
62	0x3936d011	0.00017434383
63	0xb7e6a5f7	-2.749542e-05
64	0xb5f60646	-1.8330254e-06
65	0xb9bc5cd5	-0.0003592732
66	0x3787a94f	1.6172095e-05
67	0x354827d6	7.4563775e-07
68	0xb952e3b0	-0.00020111981
69	0x3755a694	1.2734574e-05
70	0x3563e4ea	8.4897204e-07
71	0x392e7b56	0.0001663988
72	0xb9858be6	-0.0002547197
73	0x38cbc5e3	9.7166536e-05
74	0x3af9bce8	0.0019053491
75	0xb92ea786	-0.0001665634
76	0xb73a4c3f	-1.1104216e-05
77	0xbb0ea269	-0.0021764284
78	0xb71fda90	-9.528027e-06
79	0xb4d97d30	-4.0510486e-07
80	0x38dd4732	0.00010551362
81	0xb6e65dcb	-6.865453e-06
82	0xb4f5b96a	-4.5769713e-07
83	0xb8bc21ee	-8.9708585e-05
84	0xba4239a9	-0.0007409105
85	0xb8055fdc	-3.1798947e-05
86	0x3a07675d	0.00051652436
87	0x38ed24ba	0.000113078815
88	0x36fcf3e5	7.5385783e-06
89	0x3ac1aadb	0.001477565
90	0x392a0fda	0.00016218369
91	0x37524f85	1.253549e-05
92	0xb8e86543	-0.000110814835
93	0xb7ebe85c	-2.8122384e-05
94	0xb5fba264	-1.8748219e-06
95	0xb9c0a886	-0.00036746653
96	0x9529c79b	-3.428674e-26
97	0x92477f59	-6.2950296e-28
98	0x1708c9af	4.419853e-25
99	0x950afe27	-2.806937e-26
100	0x93144249	-1.8712907e-27
101	0x96e30584	-3.667731e-25
102	0xa4a8637f	-7.302694e-17
103	0xa289c877	-3.7346175e-18
104	0x2644534d	6.8114054e-16
105	0xa45c8d55	-4.782461e-17
106	0xa26b4171	-3.1883083e-18
107	0xa6341e1b	-6.2490846e-16
108	0xb96f17e1	-0.00022801712
109	0x37ed741f	2.8306675e-05
110	0x3a03bb3c	0.00050251535
111	0xb8470aac	-4.7455236e-05
112	0xb6544fb1	-3.1636848e-06
113	0xba228cfa	-0.0006200817
114	0xb9f06d72	-0.0004585791
115	0xb7d9e282	-2.5973892e-05
116	0x39421c62	0.00018511855
117	0x38b4152f	8.5870146e-05
118	0x36c01697	5.7246757e-06
119	0x3a931148	0.001122036
120	0x25925f49	2.539153e-16
121	0x23d2f610	2.2872457e-17
122	0x25ad7b99	3.009447e-16
123	0xa4739898	-5.2821478e-17
124	0xa281eafd	-3.5214324e-18
125	0xa646efd3	-6.902007e-16
126	0xb935278e	-0.0001727624
127	0x380c08a8	3.3386663e-05
128	0xb9a55f12	-0.00031542085
129	0x37fa6b4a	2.9852283e-05
130	0x36058e84	1.99015e-06
131	0x39cc8244	0.00039006968
132	0x269060fa	1.0018293e-15
133	0x2448666f	4.345485e-17
134	0x26ccd136	1.421205e-15
135	0xa5892ec5	-2.3797404e-16
136	0xa3925408	-1.586494e-17
137	0xa76010a3	-3.1095263e-15
138	0xb6f78101	-7.3761917e-06
139	0xb3a183e0	-7.521135e-08
140	0xb934735f	-0.00017209117
141	0x37ba343a	2.2197248e-05
142	0x35c69e25	1.4798176e-06
143	0x39981119	0.00029004438
144	0xb99c879c	-0.00029855676
145	0xb6ff29e9	-7.604471e-06
146	0x39be30f9	0.00036276111
147	0x37ed1e5b	2.8266737e-05
148	0x35fced21	1.8844477e-06
149	0x39c1a562	0.00036935048
150	0xb9e30938	-0.00043303682
151	0xb7ca2827	-2.4098974e-05
152	0x39d1fcac	0.00040051842
153	0x385db48f	5.2858664e-05
154	0x366c7c69	3.5239157e-06
155	0x3a350f45	0.00069068774
156	0x39e27e91	0.00043200378
157	0x37fdcfab	3.0256653e-05
158	0xb844c79f	-4.6915953e-05
159	0xb8c6f09d	-9.4861934e-05
160	0xb6d433c5	-6.324119e-06
161	0xbaa27791	-0.0012395253
162	0x3a479f60	0.0007614996
163	0x385e0fe8	5.294374e-05
164	0xbbbd7afa	-0.005782482
165	0x39b6e398	0.00034883316
166	0x37c314e3	2.3255538e-05
167	0x3b955c02	0.0045580873
168	0x210fc7f6	4.871493e-19
169	0x9fa91399	-7.1606706e-20
170	0x218d8cf1	9.591839e-19
171	0xa0299893	-1.436534e-19
172	0x9e34e702	-9.576892e-21
173	0xa20a80df	-1.8770711e-18
174	0xba03784b	-0.00050151785
175	0xb7e1d3c3	-2.69207e-05
176	0xb861a179	-5.3794563e-05
177	0x38fa5627	0.00011936976
178	0x37058327	7.957954e-06
179	0x3acc7107	0.001559765
180	0xb3a6d25b	-7.768241e-08
181	0x30961bb6	1.0921812e-09
182	0x35173de1	5.634193e-07
183	0xb32aaf02	-3.9740378e-08
184	0xb1361001	-2.6493583e-09
185	0xb50b6441	-5.1927424e-07
186	0x39a15e6d	0.00030778666
187	0x37af1ebe	2.0875941e-05
188	0xb9aed0ae	-0.00033343345
189	0xb83743b7	-4.3693664e-05
190	0xb6437b96	-2.91292e-06
191	0xba15aaa8	-0.00057093287
192	0xb88436b8	-6.304443e-05
193	0xb39e3be4	-7.3683424e-08
194	0x394f3678	0.0001976135
195	0xb6fe2c4f	-7.574948e-06
196	0xb5078ef6	-5.0499455e-07
197	0xb8cf9319	-9.897928e-05
198	0xb912c3da	-0.00013996605
199	0xb7073120	-8.058065e-06
200	0xb88bcba5	-6.665968e-05
201	0x382a4e43	4.0604045e-05
202	0x3635a8fe	2.7069468e-06
203	0x3a0b1530	0.00053055864
204	0x395da523	0.0002113772
205	0x36d5ba12	6.369556e-06
206	0xb9146788	-0.00014152948
207	0xb80f47d0	-3.4160737e-05
208	0xb618d501	-2.277375e-06
209	0xb9ea063b	-0.000446366
210	0xb9e4caf1	-0.00043638752
211	0xb80b15a0	-3.3160322e-05
212	0xb9c839fe	-0.0003819018
213	0x39112f90	0.00013845996
214	0x371add7b	9.230683e-06
215	0x3aed2302	0.0018092098
216	0xb0aaeaf6	-1.2435908e-09
217	0x2e3123cd	4.0276938e-11
218	0x32133d01	8.570397e-09
219	0xb058e31c	-7.8903084e-10
220	0xae6758a6	-5.2602055e-11
221	0xb2311fe1	-1.0310004e-08
222	0x3968b839	0.00022193872
223	0x37db5fbb	2.6151412e-05
224	0x3a5e63dd	0.0008483509
225	0xb90f90b8	-0.00013691455
226	0xb71922e7	-9.127637e-06
227	0xbaea7d57	-0.0017890137
228	0xb883e42c	-6.289067e-05
229	0x376531a4	1.36610215e-05
230	0x3a40df08	0.0007357453
231	0xb87ea880	-6.0715247e-05
232	0xb687d157	-4.047684e-06
233	0xba4ff888	-0.00079334574
234	0xb9b1908b	-0.00033867764
235	0xb7d09778	-2.4866065e-05
236	0xb924c245	-0.0001571263
237	0x38c83b0d	9.547742e-05
238	0x36d59440	6.3651532e-06
239	0x3aa38592	0.001247572
240	0x373d145f	1.1270021e-05
241	0xb6c1a5b5	-5.771139e-06
242	0x3812f984	3.5041492e-05
243	0xb69c69fd	-4.661501e-06
244	0xb4a6d76b	-3.1076647e-07
245	0xb87f79e9	-6.0910275e-05
246	0x8b54ae88	-4.0961018e-32
247	0x093c5c06	2.2672946e-33
248	0x0ca76008	2.578822e-31
249	0x8af6bbb1	-2.375954e-32
250	0x8903974d	-1.5839693e-33
251	0x8cc97fa5	-3.1045777e-31
252	0xb990c6dc	-0.00027613982
253	0xb7b916bd	-2.2064307e-05
254	0xb98c834d	-0.00026800708
255	0x38b9c992	8.859033e-05

exp_avg_sq f4 [128, 6]
0	0x373eecd1	1.1380021e-05
1	0x34b53283	3.375063e-07
2	0x3be406a4	0.0069587994
3	0x3826a199	3.9727984e-05
4	0x343d96e2	1.7656888e-07
5	0x3bde447f	0.0067830677
6	0x361f468e	2.3733915e-06
7	0x338a6828	6.445072e-08
8	0x3aa83b82	0.0012835118
9	0x36f47029	7.284824e-06
10	0x330b0edd	3.2376978e-08
11	0x3aa306d1	0.0012437945
12	0x36cff4ba	6.1975707e-06
13	0x3443a500	1.8220817e-07
14	0x3b7caa3e	0.003855362
15	0x37b5cee7	2.1673228e-05
16	0x33cedb73	9.63254e-08
17	0x3b728306	0.0037004366
18	0x36488270	2.9878247e-06
19	0x33bbe53c	8.7495636e-08
20	0x3aefd818	0.0018298654
21	0x372f0659	1.0432291e-05
22	0x334723b5	4.6365773e-08
23	0x3ae976b2	0.0017811863
24	0x35dd5423	1.649027e-06
25	0x3300ae89	2.996106e-08
26	0x39f89ed6	0.00047420588
27	0x363525c4	2.6993084e-06
28	0x324e1b04	1.1996921e-08
29	0x39f1a17b	0.00046087414
30	0x36a0841b	4.7837507e-06
31	0x341233bc	1.361613e-07
32	0x3b3793a2	0.002801158
33	0x378712a1	1.6101929e-05
34	0x3399aed1	7.1564166e-08
35	0x3b342c10	0.0027492084
36	0x35e3c94e	1.6971405e-06
37	0x32e4f980	2.6656153e-08
38	0x3a178b0a	0.00057809113
39	0x363c700a	2.8079398e-06
40	0x32566668	1.2479724e-08
41	0x39fb5ad2	0.00047942117
42	0x368d7a66	4.2163765e-06
43	0x34041733	1.2301898e-07
44	0x3b25da4c	0.0025307117
45	0x37720c2d	1.4427159e-05
46	0x3389b2be	6.412073e-08
47	0x3b216eac	0.0024632616
48	0x3406d946	1.2558766e-07
49	0x3107c2db	1.9755848e-09
50	0x37b6152d	2.1705951e-05
51	0x34136f65	1.3730967e-07
52	0x3027bf9b	6.1026534e-10
53	0x37c4a97d	2.3443945e-05
54	0x36732113	3.6229073e-06
55	0x33d7f4c9	1.0056244e-07
56	0x3b078582	0.0020678942
57	0x3746ff3d	1.1861147e-05
58	0x33626a10	5.271619e-08
59	0x3b04b84b	0.0020251449
60	0x355e3068	8.2771885e-07
61	0x32764b74	1.4336241e-08
62	0x398df0e5	0.00027073096
63	0x35df0cc8	1.6618515e-06
64	0x31fdc7f8	7.386003e-09
65	0x3994c31c	0.00028374128
66	0x318ae5dc	4.0424606e-09
67	0x2faf7820	3.1917669e-10
68	0x368725d8	4.027719e-06
69	0x329be23f	1.814726e-08
70	0x2eb15c70	8.065448e-11
71	0x364fee7b	3.0984218e-06
72	0x368c8ab2	4.1884714e-06
73	0x335ae290	5.0963138e-08
74	0x3a6048b8	0.0008555758
75	0x36c4ae35	5.8615356e-06
76	0x32dfc754	2.605126e-08
77	0x3a832ccb	0.0010007856
78	0x30b73621	1.3330387e-09
79	0x2d9e5595	1.8000526e-11
80	0x34986724	2.838725e-07
81	0x30a2a199	1.183298e-09
82	0x2cb909bf	5.2590983e-12
83	0x3458ee9e	2.0203376e-07
84	0x3804e548	3.1684787e-05
85	0x3579894d	9.295953e-07
86	0x3c9d0b38	0.019170389
87	0x38e452a3	0.000108872795
88	0x3501e3ea	4.8387903e-07
89	0x3c98475d	0.018588716
90	0x36102c83	2.1483581e-06
91	0x3385c031	6.2282545e-08
92	0x3aa87982	0.0012853595
93	0x36f7f378	7.389517e-06
94	0x330d0e80	3.284231e-08
95	0x3aa55e97	0.0012616691
96	0x00000000	0.0
97	0x00000000	0.0
98	0x00000000	0.0
99	0x00000000	0.0
100	0x00000000	0.0
101	0x00000000	0.0
102	0x0c250e07	1.2715359e-31
103	0x07b9bf00	2.7947966e-34
104	0x0f9a2762	1.5200742e-29
105	0x0b9f11fe	6.1271644e-32
106	0x07b4fc8f	2.723183e-34
107	0x0f542e98	1.0461381e-29
108	0x351396c4	5.498116e-07
109	0x31ca4c03	5.8876153e-09
110	0x37ff70a9	3.045083e-05
111	0x34a7b82a	3.124017e-07
112	0x30bed3cf	1.3884519e-09
113	0x385fb808	5.3338736e-05
114	0x377f4842	1.5216008e-05
115	0x34f0579c	4.4767228e-07
116	0x3c17eafb	0.009272332
117	0x385dc231	5.287136e-05
118	0x347c4fd9	2.3498377e-07
119	0x3c13e694	0.009027142
120	0x0e7e5e57	3.135334e-30
121	0x09aa2c29	4.096754e-33
122	0x0f6505b9	1.1291674e-29
123	0x0ca6d043	2.5701693e-31
124	0x08bdcbf3	1.1422972e-33
125	0x105e82be	4.38825e-29
126	0x34f7f5bc	4.618613e-07
127	0x31c1e1ec	5.6427236e-09
128	0x37f133dd	2.875359e-05
129	0x34a36dc0	3.044097e-07
130	0x30b9f20d	1.3529317e-09
131	0x3859fee3	5.1974213e-05
132	0x0fb7256d	1.8059609e-29
133	0x0a5f6fdc	1.0758098e-32
134	0x10529515	4.1530046e-29
135	0x0db3c25e	1.1078519e-30
136	0x09cc86a7	4.923784e-33
137	0x116fc769	1.8915224e-28
138	0x34a93ecf	3.1524402e-07
139	0x31fceaac	7.3608444e-09
140	0x3917931e	0.00014455288
141	0x356084b5	8.3639617e-07
142	0x317f73bb	3.717317e-09
143	0x3915bdc5	0.00014280442
144	0x36819301	3.861613e-06
145	0x33f3e525	1.13572504e-07
146	0x3b1be789	0.0023789129
147	0x3760a4e8	1.3389836e-05
148	0x337f9867	5.9510423e-08
149	0x3b15d34e	0.0022861543
150	0x371ac2e2	9.22449e-06
151	0x3491370b	2.7048404e-07
152	0x3bb98e79	0.005662736
153	0x3805b480	3.1877775e-05
154	0x3418207a	1.4167918e-07
155	0x3bb25912	0.005442747
156	0x37555ef8	1.2717901e-05
157	0x34c506e1	3.6699115e-07
158	0x3bf50b8f	0.0074781845
159	0x38341989	4.2939126e-05
160	0x344ce9df	1.9084062e-07
161	0x3bf03bbc	0.0073313396
162	0x379b2099	1.849262e-05
163	0x3423eccd	1.5266706e-07
164	0x3adf0672	0.0017015471
165	0x37228852	9.687692e-06
166	0x3338ed09	4.305642e-08
167	0x3ad8ccd8	0.001654054
168	0x0582ca5f	1.229948e-35
169	0x00f14e82	2.2160518e-38
170	0x062e400b	3.2772814e-35
171	0x038d2762	8.296277e-37
172	0x00282679	3.687221e-39
173	0x073c4886	1.4164861e-34
174	0x379f9c60	1.9027095e-05
175	0x3513bb82	5.503463e-07
176	0x3c375a2a	0.01119093
177	0x38866159	6.40775e-05
178	0x3498e519	2.8478897e-07
179	0x3c333f87	0.010940439
180	0x2704b62e	1.841744e-15
181	0x22261a44	2.25111e-18
182	0x2a0b52b7	1.2374378e-13
183	0x26279148	5.8136657e-16
184	0x223ea793	2.5838515e-18
185	0x29df842b	9.926117e-14
186	0x37071cb8	8.053314e-06
187	0x347c164e	2.3477443e-07
188	0x3b9dd0e4	0.0048161615
189	0x37e714eb	2.7547087e-05
190	0x340375b5	1.2243147e-07
191	0x3b9a1e60	0.004703328
192	0x3383898f	6.1251846e-08
193	0x30dc7101	1.6039224e-09
194	0x380cdd93	3.3584958e-05
195	0x3442fe23	1.8160112e-07
196	0x305ddbd5	8.071173e-10
197	0x38020ca7	3.10062e-05
198	0x3618780b	2.271964e-06
199	0x3383a00a	6.129274e-08
200	0x3a9f720f	0.0012164729
201	0x36eceee3	7.061158e-06
202	0x3306c9eb	3.138295e-08
203	0x3a9e056c	0.0012056059
204	0x3632d26f	2.6646555e-06
205	0x33a1f9f8	7.542616e-08
206	0x3accc266	0.00156219
207	0x3715d145	8.929816e-06
208	0x332a7587	3.96881e-08
209	0x3ac7d6fc	0.0015246565
210	0x3799c3c1	1.8330176e-05
211	0x350ea4b3	5.313879e-07
212	0x3c30df77	0.010795466
213	0x3882a475	6.2295156e-05
214	0x3494a460	2.7686747e-07
215	0x3c2e4326	0.010636127
216	0x22b0d948	4.793495e-18
217	0x1e25e597	8.782505e-21
218	0x2586c02b	2.3375513e-16
219	0x220d5ead	1.9159184e-18
220	0x1e20d8ee	8.5151895e-21
221	0x25bc9241	3.2711907e-16
222	0x370e0205	8.46433e-06
223	0x348000c2	2.384241e-07
224	0x3b9b8184	0.004745664
225	0x37e92dd5	2.7797107e-05
226	0x3404a727	1.2354268e-07
227	0x3b9b8479	0.0047460166
228	0x333d45f9	4.406863e-08
229	0x30055376	4.8503723e-10
230	0x36b06658	5.257123e-06
231	0x333ed4f5	4.4431506e-08
232	0x2f591fd0	1.9747337e-10
233	0x36fe8c59	7.5861285e-06
234	0x37339f5d	1.0706336e-05
235	0x34a6e3ba	3.1085602e-07
236	0x3bce57ee	0.006297103
237	0x3817f3c1	3.622822e-05
238	0x342ce34e	1.6101441e-07
239	0x3bcab006	0.0061855344
240	0x3449fcc4	1.881154e-07
241	0x2fbc914c	3.430024e-10
242	0x35074e62	5.040548e-07
243	0x325a6ded	1.2714264e-08
244	0x2e788612	5.650775e-11
245	0x3611ae1a	2.1708024e-06
246	0x00000000	0.0
247	0x00000000	0.0
248	0x00000000	0.0
249	0x00000000	0.0
250	0x00000000	0.0
251	0x00000000	0.0
252	0x36f5f63e	7.3302353e-06
253	0x346500ba	2.1327551e-07
254	0x3b8dbe79	0.0043256846
255	0x37d08e86	2.48619e-05

exp_avg f4 [128]
0	0x372d49d0	1.0328789e-05
1	0x369191b0	4.338297e-06
2	0xb686f371	-4.0218515e-06
3	0xb609d610	-2.0539192e-06
4	0x37a0799a	1.9130111e-05
5	0x3726ec14	9.949337e-06
6	0x37f4b3f2	2.917086e-05
7	0xb6c95e3b	-6.0012367e-06
8	0xb7809b1c	-1.5331017e-05
9	0xb6e55a72	-6.835261e-06
10	0xb676064f	-3.6660529e-06
11	0x35e3e4ef	1.6979446e-06
12	0xb7ba4c4e	-2.220846e-05
13	0xb575b964	-9.153939e-07
14	0x377cf3e2	1.5077154e-05
15	0xb67ba290	-3.7496538e-06
16	0x93944247	-3.7425807e-27
17	0xa2eb4178	-6.3766195e-18
18	0xb6d44fab	-6.327367e-06
19	0x374016a8	1.1449367e-05
20	0xa301eafb	-7.042863e-18
21	0x36858e92	3.9803062e-06
22	0xa4125403	-3.1729864e-17
23	0x36469e21	2.9596342e-06
24	0x367cecce	3.7688765e-06
25	0x36ec7c2d	7.047804e-06
26	0xb75433b7	-1.26482255e-05
27	0x384314e5	4.6511082e-05
28	0x9eb4e702	-1.9153784e-20
29	0x3785833d	1.5915948e-05
30	0xb1b61000	-5.298716e-09
31	0xb6c37ba8	-5.8258483e-06
32	0xb5878f0b	-1.0099915e-06
33	0x36b5a8d3	5.413874e-06
34	0xb698d50c	-4.554755e-06
35	0x379add75	1.8461355e-05
36	0xaee758a6	-1.0520411e-10
37	0xb79922dc	-1.8255254e-05
38	0xb707d158	-8.095369e-06
39	0x37559451	1.2730322e-05
40	0xb526d767	-6.215327e-07
41	0x8983974b	-3.1679378e-33
42	0x37462c79	1.1812074e-05
43	0x36b40fbf	5.366251e-06
44	0xb841b063	-4.617906e-05
45	0x36e06657	6.687634e-06
46	0xb08c824d	-1.0223374e-09
47	0xb56826c5	-8.648315e-07
48	0x00cc0878	1.8737479e-38
49	0xb898eaca	-7.291658e-05
50	0xb60568d4	-1.9879562e-06
51	0x38c0e409	9.197748e-05
52	0x96355191	-1.4646801e-25
53	0x372219dd	9.661974e-06
54	0xb54d8b0f	-7.657081e-07
55	0xb78e55ad	-1.6967615e-05
56	0x2956bede	4.7683096e-14
57	0xb41420db	-1.3795527e-07
58	0x11cc6763	3.2249242e-28
59	0xb759db4a	-1.2985265e-05
60	0xb5ae3964	-1.2980713e-06
61	0xb6d2dc60	-6.2841427e-06
62	0xb700ae5d	-7.669992e-06
63	0x34626d19	2.108758e-07
64	0x36b7fc91	5.4832276e-06
65	0x36f18117	7.1973877e-06
66	0x36af9d28	5.233702e-06
67	0x3760ed48	1.3406687e-05
68	0xb7a6b77e	-1.9874187e-05
69	0xb5e67f53	-1.7173392e-06
70	0xb4489507	-1.8680667e-07
71	0xb6726c8b	-3.612399e-06
72	0x367fc901	3.811496e-06
73	0x36ea7d39	6.9883213e-06
74	0x202c2148	1.4579979e-19
75	0x377f224d	1.5207171e-05
76	0x37e5113b	2.730695e-05
77	0x9a8653d7	-5.555655e-23
78	0xacb68b51	-5.1882183e-12
79	0xb78d0414	-1.6810409e-05
80	0xb567e232	-8.6383363e-07
81	0x371a03c0	9.179988e-06
82	0xb67fc69f	-3.8113574e-06
83	0xaf827641	-2.3730887e-10
84	0x378fcd05	1.7142398e-05
85	0x36eca56b	7.0526053e-06
86	0xb7af258b	-2.0879108e-05
87	0x359cf0f0	1.1693028e-06
88	0x2880a8d4	1.4284072e-14
89	0x36d9d090	6.491384e-06
90	0xb748af2d	-1.1961715e-05
91	0x36159085	2.2286852e-06
92	0x35bca0b9	1.4053868e-06
93	0x99861c2c	-1.3866654e-23
94	0x3432189f	1.6586499e-07
95	0x350ecebd	5.3199966e-07
96	0x37b2a2cb	2.129506e-05
97	0xb475878a	-2.2866712e-07
98	0xb519075a	-5.700764e-07
99	0x376807a6	1.3830058e-05
100	0xb7da39a7	-2.6014472e-05
101	0xb69278ba	-4.3651935e-06
102	0x363f2c43	2.8486982e-06
103	0xb49ca77c	-2.9179125e-07
104	0x362d1a4a	2.579431e-06
105	0x36c6f1f6	5.929028e-06
106	0x199e4066	1.6362827e-23
107	0x151d41fb	3.1757947e-26
108	0x1a4cc7af	4.2347514e-23
109	0x06b54c26	6.8196523e-35
110	0x268fd9b9	9.981632e-16
111	0x3699d770	4.5848356e-06
112	0xb686437f	-4.001369e-06
113	0xb3ce25b2	-9.599479e-08
114	0xb75fbd42	-1.3335901e-05
115	0x1cb1330c	1.1726073e-21
116	0xb71e31fa	-9.42917e-06
117	0x22c7f214	5.419537e-18
118	0xb72a1475	-1.0137553e-05
119	0x3705bd8f	7.971553e-06
120	0xb668b184	-3.4674022e-06
121	0x27dc2d36	6.1111284e-15
122	0x371da057	9.395261e-06
123	0xb77c0316	-1.5021089e-05
124	0x2dde9461	2.5304371e-11
125	0x15634bcf	4.5902087e-26
126	0xb65ae516	-3.2617877e-06
127	0x373881fc	1.0997519e-05

exp_avg_sq f4 [128]
0	0x353d96e2	7.062755e-07
1	0x340b0edd	1.2950791e-07
2	0x34cedb72	3.8530158e-07
3	0x344723b5	1.854631e-07
4	0x334e1b03	4.798768e-08
5	0x3499aed1	2.8625666e-07
6	0x33566666	4.991889e-08
7	0x3489b2be	2.564829e-07
8	0x3127bf9b	2.4410614e-09
9	0x34626a10	2.1086475e-07
10	0x32fdc7fc	2.9544019e-08
11	0x2fb15c71	3.2261796e-10
12	0x33dfc755	1.0420505e-07
13	0x2db909bf	2.1036393e-11
14	0x3601e3ea	1.9355161e-06
15	0x340d0e7f	1.3136922e-07
16	0x00000000	0.0
17	0x08b4fc8e	1.0892731e-33
18	0x31bed3d0	5.553808e-09
19	0x357c4fd8	9.3993503e-07
20	0x09bdcbf6	4.56919e-33
21	0x31b9f20b	5.4117257e-09
22	0x0acc86a8	1.9695137e-32
23	0x327f73bb	1.4869268e-08
24	0x347f9867	2.380417e-07
25	0x3518207a	5.667167e-07
26	0x354ce9de	7.6336244e-07
27	0x3438ed0a	1.722257e-07
28	0x00a099fd	1.474892e-38
29	0x3598e517	1.1391556e-06
30	0x233ea793	1.0335406e-17
31	0x350375b5	4.897259e-07
32	0x315ddbd5	3.2284693e-09
33	0x3406c9eb	1.255318e-07
34	0x342a7587	1.587524e-07
35	0x3594a45f	1.1074698e-06
36	0x1f20d8ee	3.4060758e-20
37	0x3504a727	4.941707e-07
38	0x30591fd0	7.898935e-10
39	0x352ce350	6.4405776e-07
40	0x2f788610	2.2603097e-10
41	0x00000000	0.0
42	0x34ed4a96	4.4198958e-07
43	0x33e0a10c	1.0460107e-07
44	0x32a75db1	1.9483965e-08
45	0x34285f4c	1.5680888e-07
46	0x22f6d120	6.6899853e-18
47	0x31b3aba7	5.2291003e-09
48	0x00000000	0.0
49	0x331b423a	3.6148982e-08
50	0x31e4d12a	6.6594525e-09
51	0x3595ea67	1.1169585e-06
52	0x00000000	0.0
53	0x3423dace	1.5260159e-07
54	0x2ffe4fb0	4.6258952e-10
55	0x35e0e349	1.6755449e-06
56	0x1bb5931b	3.0039003e-22
57	0x2cdaa67f	6.2144174e-12
58	0x00000000	0.0
59	0x34d58641	3.9772024e-07
60	0x2e0225a8	2.9592023e-11
61	0x330ef579	3.3285207e-08
62	0x33de734c	1.0358653e-07
63	0x2dd2efb9	2.3980694e-11
64	0x3402e9b9	1.2192221e-07
65	0x34098070	1.2805845e-07
66	0x3231f133	1.0357598e-08
67	0x355329b2	7.86643e-07
68	0x363bd30b	2.7988015e-06
69	0x2ee77f37	1.0527262e-10
70	0x33f2b739	1.1302331e-07
71	0x34e3fd11	4.2466175e-07
72	0x32e3650f	2.6472234e-08
73	0x33d490b0	9.898338e-08
74	0x07b73e38	2.7571349e-34
75	0x35af6d43	1.3070315e-06
76	0x35101ce4	5.368622e-07
77	0x00000057	1.22e-43
78	0x1bba4206	3.0813785e-22
79	0x3535655d	6.757526e-07
80	0x3229a0ce	9.8736574e-09
81	0x34332e52	1.6687525e-07
82	0x34a9338e	3.1516214e-07
83	0x218fc08d	9.741025e-19
84	0x3506acb5	5.017021e-07
85	0x33bbef51	8.7513975e-08
86	0x31123919	2.1278252e-09
87	0x2f1a6c13	1.4044614e-10
88	0x13167fe5	1.8995719e-27
89	0x32c29981	2.2654378e-08
90	0x3545be8b	7.3665495e-07
91	0x325d53e6	1.2882969e-08
92	0x2fe5b297	4.1781753e-10
93	0x00000000	0.0
94	0x2e785a72	5.6469003e-11
95	0x327306ff	1.4146052e-08
96	0x36135c9d	2.1958615e-06
97	0x2a9fab9d	2.8363154e-13
98	0x3427ddb1	1.5633738e-07
99	0x3520c007	5.988408e-07
100	0x35fe6977	1.8955169e-06
101	0x33853603	6.20312e-08
102	0x33b4aa84	8.41292e-08
103	0x30022968	4.7352566e-10
104	0x32a46efe	1.9142586e-08
105	0x3486941b	2.5067206e-07
106	0x00000002	3e-45
107	0x00000000	0.0
108	0x0000003b	8.3e-44
109	0x00000000	0.0
110	0x0f32dae4	8.818234e-30
111	0x3337b992	4.2776783e-08
112	0x34c323b9	3.6347572e-07
113	0x2a859c2a	2.3733907e-13
114	0x324762eb	1.1605816e-08
115	0x00003e05	2.2248e-41
116	0x34fb03cf	4.6755164e-07
117	0x082128e5	4.8497246e-34
118	0x351ea3ad	5.9097766e-07
119	0x34190d6b	1.4254117e-07
120	0x3431b83c	1.6551434e-07
121	0x133f5bae	2.415279e-27
122	0x349d0bb7	2.9252053e-07
123	0x35ab0ee9	1.2744832e-06
124	0x1dedd2d9	6.295139e-21
125	0x00000000	0.0
126	0x314969a2	2.9309395e-09
127	0x34adcd73	3.2373245e-07
