Shortcut Run/results/LEVEL1/Move/Move-931.onnx (onnx, 73131 bytes, 6 tensors)

network_body._body_endoder.seq_layers.0.weight f4 [128, 6]
00000000: 227b 3f3f e464 243d 86c8 4c3f 8a8d 103f
00000010: ec5f 1ebe 706b dc3d 1e35 64be 9892 03bf
00000020: 843b 083e c34e d83d 14c1 173f ee75 b0be
00000030: 7106 8dbe b826 a33e 3147 6a3f dbe4 3c3e
00000040: 2796 ef3e 475b 39bf 5a76 e73d 099b 0ebe
00000050: ef0c eabd 882d 353e 68af 9abe 23a2 043f
00000060: 038d 073f 4557 69bf 6bac f1be 0dee f23e
00000070: 9dce 543f 740f 9bbe ee4a 94bf 7c31 cabe
00000080: 1628 5b3f d5bb 403f 27eb 08bf 0a61 91be
00000090: a08a e5bd 9446 31bd 2bf3 1c3e 6061 49bf
000000a0: a066 f8be 9529 463e 3c43 033f abf9 f9be
000000b0: 6c20 703e f16b 533d 041a 41be f1d6 2a3f
000000c0: 6b5e 11bf 371e 413e 5ea2 eebd b592 4ebe
000000d0: bf55 e8be 7ddc 04bf 6546 933e e7c5 653c
000000e0: 2938 463f 562b 623e d8cf 983e 3bf0 933f
000000f0: d682 99bf ec09 b83e abed 95be 1b0d 4abe
00000100: c6dd 26bf 399a 933e c6a5 d4be 303f 153e
00000110: 367c 223f 7c3d bebe 19e6 fdbc 0e46 29bd
00000120: ac9d 023f a25f fdbd d452 e5be 3802 443f
00000130: 5e33 dcbe 713e fd3e a054 ecbc 4359 13be
00000140: f4b5 243e 7bea 85bf 972d 923e c411 db3e
00000150: 7181 0a3f 5b03 a8bb 53e7 e6be daf0 673e
00000160: ccab 303f 3da8 b73e 75a8 8f3e d7df 593f
00000170: 6b95 0dbe e0fd fa3e 8c48 8ebe ebae 5f3d
00000180: 16e4 6cbc 4747 b9bd 61d1 ed3e 3ca2 bfbe
00000190: 5bfe 6c3e 5893 3abe 2c72 2abe 7fa6 e8bc
000001a0: fb11 a3be 9dbd 86bf 9b78 033e 01c5 943e
000001b0: 6f75 8e3e 6b62 db3c e76a 52bd db57 283e
000001c0: e586 383f 2667 553f 4afb eebe 60c5 563f
000001d0: c774 2d3f e56f 563d 93cf 9cbe 52c7 e93e
000001e0: 137f 9cbe 338e c0be 6554 41be 34b5 92bd
000001f0: ce64 763e 854f e23e b8d1 603f dcf8 d6bc
00000200: dc93 a73e 5388 7bbe e0b6 96be b28b 93be
00000210: 021a 62be 093a c8be 104f 613e 4ef1 70bf
00000220: 1e5e 3c3e 8985 183e c3c4 52be c5d0 abbc
00000230: 206f 29be 7d7d cf3d ded1 a8bd a962 263e
00000240: 3387 1abd 0fd3 6a3e 2f66 503f 2c1c 4dbe
00000250: 79e6 1d3f 804b 0e3f f60f 643e 281a 8e3e
00000260: ff10 4f3e 40c8 30bf c4fe 4c3e cc09 ed3e
00000270: 7663 783d 6caa d7be 5861 1cbf f06b e63d
00000280: f757 a03e a066 253f 02ec 033e b18f 66be
00000290: cfaf 323d 4c13 493f b04e 26bf ae13 42bf
000002a0: f32f dd3e a3c6 a33e 89c5 4d3e fb64 f83d
000002b0: 470a ef3e 62b9 0d3e b2ed 9ebe 5ec9 57be
000002c0: 0a23 64bf d628 053f 4373 78bd a256 503c
000002d0: 9f55 793e 93c5 31be 8a94 053e 2310 d33c
000002e0: 2daf 343e 60bb 0c3f 3174 803b ab6c 30be
000002f0: 1cac 983e 96b7 e83d 63f7 1a3e 10f3 53be
00000300: 2949 d93a de3d e93e bf07 ddbe b965 10bf
00000310: e658 a1bd c62b a63d d202 06bf 578b 963d
00000320: 31bc 31be de7a d0bd 0b0b 3bbf 2ac6 37be
00000330: 4282 263b 385c 093f 465c 093f f763 28be
00000340: 396f e43d d568 133e bf8a adbe a9e6 47be
00000350: 450c 1cbe 4015 c53e 090a 56bf 0c51 2dbe
00000360: 7113 4bbc 7f62 8bbe 63ce 403f e62d acbc
00000370: aa1a 68bd d89f 82be ba1f 55bf 2339 21bf
00000380: e4be 353f 428a a43e 8391 1e3f c464 83be
00000390: 05b3 71be 3cbd 33be 4eb7 4abd f308 bb3e
000003a0: c59c 39be d325 a03e 3c9c 983e a195 6fbd
000003b0: 28c8 233f ff7a 59bd 3a31 dd3d f446 493e
000003c0: 7c65 78be d8e9 d43e a811 983c 66e2 c13d
000003d0: ccd8 853e 3c9f 893f ca02 06be c23d 3ebf
000003e0: ecbc b0be 7d38 123e ec4a 943d 446e aabe
000003f0: 4546 88bd 0591 61be 34da 59bd d76b 293f
0.7479726 0.04013528 0.79993474 0.5646597 -0.15466279 0.107626796 -0.22285888 -0.5139556
0.13303953 0.105618976 0.5927899 -0.34464973 -0.27543977 0.31865478 0.9151488 0.18446676
0.46794245 -0.72404903 0.11301871 -0.13926329 -0.11428248 0.1769315 -0.3021195 0.518099
0.5294954 -0.9114879 -0.47201857 0.47447243 0.83127767 -0.30285227 -1.1585367 -0.3949088
0.8560804 0.7528661 -0.53483814 -0.28394347 -0.11208081 -0.0432802 0.15327136 -0.7866421
-0.48515797 0.193518 0.51274467 -0.48823294 0.23449868 0.051616613 -0.1885758 0.66734225
-0.56784695 0.18859182 -0.11652063 -0.20173152 -0.4537792 -0.5189894 0.28764644 0.014024234
0.77429444 0.22086844 0.29846072 1.1557688 -1.1993053 0.3594507 -0.2928289 -0.19731562
-0.6518215 0.288286 -0.41532725 0.14574885 0.6347078 -0.37156284 -0.030993508 -0.041326575
0.5102184 -0.12371756 -0.44789755 0.76565886 -0.4300794 0.49461702 -0.028848946 -0.1438952
0.16085035 -1.0462183 0.28550407 0.42786992 0.5410376 -0.005127353 -0.4509836 0.22650471
0.6901214 0.35870543 0.2805821 0.8510718 -0.1382653 0.49021816 -0.27789724 0.054610174
-0.014458677 -0.09046798 0.46448806 -0.37428463 0.23143904 -0.1822027 -0.16645116 -0.028399704
-0.31849656 -1.0526615 0.12838976 0.29056552 0.2782397 0.026780328 -0.05137148 0.16439764
0.7208083 0.8336052 -0.46676093 0.8389492 0.67756313 0.052352805 -0.30627117 0.45659882
-0.305657 -0.3760849 -0.1887985 -0.07163468 0.24061891 0.44201294 0.87820005 -0.026241712
0.32729995 -0.24563722 -0.29436398 -0.28817517 -0.22080234 -0.39106777 0.22002816 -0.941182
0.18395278 0.1489469 -0.20582871 -0.020973573 -0.16546297 0.10131357 -0.08243154 0.16248573
-0.037726592 0.22932075 0.8140592 -0.20030278 0.616798 0.55583954 0.22271714 0.2775433
0.20221327 -0.6905556 0.2001906 0.46296537 0.06064173 -0.4212221 -0.61086035 0.11251056
0.31317112 0.6460972 0.12882999 -0.22515751 0.043624695 0.7854507 -0.6496382 -0.7581128
0.43200645 0.31987485 0.20094885 0.121286355 0.46687528 0.13840249 -0.31040722 -0.21072909
-0.89115965 0.52015436 -0.060656797 0.012715967 0.24349068 -0.17360525 0.13044944 0.02576453
0.1764495 0.5497341 0.003920101 -0.17228954 0.2981881 0.11363141 0.15133433 -0.2069819
0.001657759 0.45555013 -0.43169972 -0.56405216 -0.07878284 0.08113818 -0.52348053 0.07350796
-0.17356946 -0.10179685 -0.73063725 -0.17946687 0.002540723 0.5365634 0.53656423 -0.16444384
0.111540265 0.14395459 -0.33894917 -0.19521584 -0.15239055 0.38492775 -0.8360906 -0.16925448
-0.012394772 -0.27223584 0.7531492 -0.02101798 -0.056666054 -0.25512576 -0.83251536 -0.6297781
0.709944 0.32136732 0.61940783 -0.25662816 -0.23603447 -0.17552656 -0.04949122 0.36530265
-0.18126209 0.31278858 0.29806697 -0.058492307 0.6397729 -0.053095814 0.10800405 0.19655973
-0.24257463 0.4158466 0.018563107 0.0946701 0.26141965 1.075172 -0.13087001 -0.74312985
-0.34519136 0.14279361 0.07240853 -0.3328725 -0.06654028 -0.22027977 -0.05318661 0.66180176

network_body._body_endoder.seq_layers.0.bias f4 [128]
00000000: 0000 0000 0000 0000 0000 0000 0000 0000
00000010: 0000 0000 0000 0000 0000 0000 0000 0000
00000020: 0000 0000 0000 0000 0000 0000 0000 0000
00000030: 0000 0000 0000 0000 0000 0000 0000 0000
00000040: 0000 0000 0000 0000 0000 0000 0000 0000
00000050: 0000 0000 0000 0000 0000 0000 0000 0000
00000060: 0000 0000 0000 0000 0000 0000 0000 0000
00000070: 0000 0000 0000 0000 0000 0000 0000 0000
00000080: 0000 0000 0000 0000 0000 0000 0000 0000
00000090: 0000 0000 0000 0000 0000 0000 0000 0000
000000a0: 0000 0000 0000 0000 0000 0000 0000 0000
000000b0: 0000 0000 0000 0000 0000 0000 0000 0000
000000c0: 0000 0000 0000 0000 0000 0000 0000 0000
000000d0: 0000 0000 0000 0000 0000 0000 0000 0000
000000e0: 0000 0000 0000 0000 0000 0000 0000 0000
000000f0: 0000 0000 0000 0000 0000 0000 0000 0000
00000100: 0000 0000 0000 0000 0000 0000 0000 0000
00000110: 0000 0000 0000 0000 0000 0000 0000 0000
00000120: 0000 0000 0000 0000 0000 0000 0000 0000
00000130: 0000 0000 0000 0000 0000 0000 0000 0000
00000140: 0000 0000 0000 0000 0000 0000 0000 0000
00000150: 0000 0000 0000 0000 0000 0000 0000 0000
00000160: 0000 0000 0000 0000 0000 0000 0000 0000
00000170: 0000 0000 0000 0000 0000 0000 0000 0000
00000180: 0000 0000 0000 0000 0000 0000 0000 0000
00000190: 0000 0000 0000 0000 0000 0000 0000 0000
000001a0: 0000 0000 0000 0000 0000 0000 0000 0000
000001b0: 0000 0000 0000 0000 0000 0000 0000 0000
000001c0: 0000 0000 0000 0000 0000 0000 0000 0000
000001d0: 0000 0000 0000 0000 0000 0000 0000 0000
000001e0: 0000 0000 0000 0000 0000 0000 0000 0000
000001f0: 0000 0000 0000 0000 0000 0000 0000 0000
0.0 0.0 0.0 0.0 0.0 0.0 0.0 0.0
0.0 0.0 0.0 0.0 0.0 0.0 0.0 0.0
0.0 0.0 0.0 0.0 0.0 0.0 0.0 0.0
0.0 0.0 0.0 0.0 0.0 0.0 0.0 0.0
0.0 0.0 0.0 0.0 0.0 0.0 0.0 0.0
0.0 0.0 0.0 0.0 0.0 0.0 0.0 0.0
0.0 0.0 0.0 0.0 0.0 0.0 0.0 0.0
0.0 0.0 0.0 0.0 0.0 0.0 0.0 0.0
0.0 0.0 0.0 0.0 0.0 0.0 0.0 0.0
0.0 0.0 0.0 0.0 0.0 0.0 0.0 0.0
0.0 0.0 0.0 0.0 0.0 0.0 0.0 0.0
0.0 0.0 0.0 0.0 0.0 0.0 0.0 0.0
0.0 0.0 0.0 0.0 0.0 0.0 0.0 0.0
0.0 0.0 0.0 0.0 0.0 0.0 0.0 0.0
0.0 0.0 0.0 0.0 0.0 0.0 0.0 0.0
0.0 0.0 0.0 0.0 0.0 0.0 0.0 0.0

network_body._body_endoder.seq_layers.2.weight f4 [128, 128]
00000000: ca37 93bd 0231 3a3e c9bc 04bd f7bc 91bc
00000010: bca8 a6bd 4ea8 c23d 021c 5fbe 1377 c53c
00000020: 555c c93d 1e5d b2bd 547b 69bc 2cfd bcbb
00000030: 3a5d b5bd 4666 07bd 4526 ec3c 9252 4cbd
00000040: 398c cebd c9f4 6cbc 543e 6e3e 4d0f d5bc
00000050: 98dc fcbc 9cc9 a5bd defe 0f3d 993a f83d
00000060: 3884 8cbd d743 67bd 3c56 b33d 1129 993d
00000070: 2ac7 c73d 7d85 873c e8ef dfbd e7df 82bd
00000080: 2f8b 06bd 63c8 6ebd 0dd4 3f3e c4eb c9bc
00000090: 23d2 77bd 5826 a7bd 2b7b a33c c740 08be
000000a0: 032c 1fbe 7324 813e dfa0 383d 9c76 89bb
000000b0: 5284 5dbc 102a 823d cf3e 1e3d b0ee a13c
000000c0: 1e55 efbc 2908 7dbd 715a 93bd 6335 a43d
000000d0: 0520 253d 89d6 5bbe b15a a53d ddf7 2c3e
000000e0: c719 ad3c f0f9 c3bd ab6c 333d 7e1b 04bd
000000f0: 74e4 5a3d 6b14 cdbd 1da6 13be f145 063d
00000100: fb80 23be 360c 6d3d 1548 babd 90e5 d13c
00000110: 1a39 c43d 9885 bebd cbea 363d 5c74 573d
00000120: 237d 8339 9cb7 a83d 62c0 a8bd 380a 2639
00000130: fe71 9a3d ec0a 0a3d 31d9 c33c 953f 05be
00000140: 12e9 953d ad48 8bbb 364c 063d 7795 9abc
00000150: 62cf acbd 1182 f1bc f52e debd ac2c 143d
00000160: 01f8 05bd d611 e8bb f538 923d fb16 92bd
00000170: 489c a6bd 648d e53c ce7a 07be bdef 7cbc
00000180: d363 103e 9643 8abd b41b c23d 0d57 1c3e
00000190: fdc0 84bd d0dd 30bd 2f80 a6bd 9a5d 893d
000001a0: 257b 223d a44a 4d3c 67a9 f83d a46b 5a3e
000001b0: 555b c6bc beb2 6c3c ee1a d73a e5ec ec3d
000001c0: ab89 96bd 79d3 a1bc b47e dd3d 1ecd 2cbe
000001d0: b77f b93d 669d 8bbc e179 f9bb 34e9 81bc
000001e0: c8fd 293d c858 bb3d 6c1b 8bbd a21a 4f3d
000001f0: 0123 d03c 6044 ccbd e939 b9bd 4f38 b8bd
00000200: 0ed3 d1bd ab04 4dbe 5e58 033e a021 a4bd
00000210: 6c7a d93d dfbb a4bd 8f66 6fbd 891b 62bd
00000220: 59cc a43d 01e4 4a3d 44c5 80bd 2106 6b3c
00000230: 999e 203d d3dc 043c 91fa c53b 210b a73d
00000240: b395 a0bc b878 a53d 7ac0 35ba 7cd2 b5bd
00000250: b3f7 7bbd 9ff4 5dbd 08e1 29bd 081b e13c
00000260: 77cb 0abe 22c9 cd3d b91e 9a3d d6b6 2fbd
00000270: 0192 23bd b522 55bd 8d21 813d ec24 5ebd
00000280: fed7 9abc 988c 81bd 2fd2 173b 171d 06bd
00000290: f8ab 1c3e be8c 63bd 5ac3 59bd a9ad b7bc
000002a0: 9e18 d3bb 2eb2 91bc c96e 4c3c ca4b bf3d
000002b0: 43d4 89bd 6a05 4bbe 0daa 6ebb c261 fbbd
000002c0: e7c9 85bd 52f8 823d 1b1b c53c 7158 04be
000002d0: 4055 39bd 8dba 32bc 163e b8bd d66b d73d
000002e0: b991 70bd b7f3 17be e614 3a3d 41f1 c83d
000002f0: 5871 29bd 1be7 e83a e1e0 50be c0d1 99bd
00000300: c1aa 043e 5936 d83d 3d33 ac3d a396 0ebe
00000310: 0fec e63d 939f 3a3c 0497 c43d 0a86 a93c
00000320: 69ce 85bd 8444 a13d e6dd b43d b95e ddbc
00000330: 1f94 5bbe 52ed 133e d2f8 cdbc 9e8d 653c
00000340: 68e1 4d3e d36e 933d cab1 0c3c bb41 ffbd
00000350: 9ad1 703d 3a10 bfbd d827 bc3d c09f 233e
00000360: aa2a 21bd cbbd c0bc 7f02 24bd 9e63 193c
00000370: cb62 52bd 5687 e93d 7f20 85bd 477c 203c
00000380: 552a 9abd 82d5 5cbd 18a5 533d ac9c 15bd
00000390: 65f8 f3bd e462 0f3e e21f b2bc 8f18 67be
000003a0: 71aa e1bd a33a 1abe 4537 f4bd 5f8a 433d
000003b0: c33e 013d d278 a2bd 50e6 183c efd7 b33c
000003c0: 43da 96bd 9363 383d 3d35 f3bd 9771 473d
000003d0: 001f 42bc 072f efbb 31ee ae3d c569 83bd
000003e0: 9d04 36bd 4d45 d4bd a4d2 71bd 6d87 2cbe
000003f0: 23f0 ebbd 8c82 993c d3bc b53c 3016 38bc
-0.07188375 0.18182757 -0.032406602 -0.0177903 -0.08137652 0.09504758 -0.21788028 0.02410463
0.09832064 -0.08709167 -0.014250595 -0.005767485 -0.08855672 -0.03305652 0.028826842 -0.049883433
-0.10085339 -0.014462658 0.23265964 -0.026008273 -0.030866906 -0.080950946 0.03515517 0.121205516
-0.06861156 -0.05646118 0.08756682 0.07478536 0.097547844 0.016543144 -0.1093443 -0.06390362
-0.03284758 -0.058296572 0.18733235 -0.024648555 -0.060503136 -0.0816161 0.019956192 -0.1330596
-0.15544133 0.2522312 0.045075294 -0.0041950475 -0.013520317 0.06355679 0.038634118 0.019767135
-0.029215392 -0.06177536 -0.07194985 0.08017995 0.04031374 -0.21468557 0.08073939 0.16891427
0.021130456 -0.09569156 0.043804806 -0.03225278 0.053440526 -0.1001366 -0.14418836 0.032781545
-0.15967171 0.057872973 -0.0909578 0.02562216 0.09581204 -0.09302825 0.04465751 0.052601203
0.000250795 0.08238146 -0.08239819 0.000158348 0.075412735 0.033701822 0.023907276 -0.13012536
0.07319845 -0.004250607 0.032787524 -0.018870099 -0.08437993 -0.029480966 -0.108488 0.036175415
-0.032707218 -0.0070822043 0.0713977 -0.071332894 -0.08135277 0.028021522 -0.1323044 -0.015438017
0.1410058 -0.06751172 0.0947794 0.15267582 -0.06482122 -0.043180287 -0.08129918 0.06707306
0.03966822 0.012530003 0.12141686 0.21330124 -0.024213472 0.014446912 0.0016411224 0.115686215
-0.07350477 -0.019754158 0.10815182 -0.16875121 0.09057563 -0.017042827 -0.007613406 -0.01585827
0.04150179 0.09147793 -0.0679234 0.05056251 0.025407316 -0.09973979 -0.090442486 -0.08995115
-0.102453336 -0.20021312 0.12826678 -0.08014226 0.10619053 -0.08043646 -0.058447417 -0.05520204
0.08046789 0.049533848 -0.062876254 0.014344723 0.03921375 0.008109289 0.0060418327 0.081564195
-0.019602632 0.08079666 -0.00069332833 -0.08878037 -0.06151552 -0.054188367 -0.041474372 0.02747871
-0.13554178 0.10048129 0.07525391 -0.042898975 -0.039934162 -0.052035052 0.063052274 -0.05423443
-0.018901821 -0.06325644 0.002316605 -0.032742586 0.15299976 -0.055554144 -0.053164817 -0.022421675
-0.0064421436 -0.017785158 0.012477585 0.093406275 -0.06729939 -0.19826284 -0.0036417276 -0.12274505
-0.065326504 0.063950196 0.024060776 -0.12924363 -0.045247316 -0.010908735 -0.08996217 0.10518615
-0.058732722 -0.14839064 0.045430087 0.098116405 -0.04136786 0.001776907 -0.20398284 -0.0751071
0.12955762 0.10557241 0.084082104 -0.13924651 0.11275493 0.0113905845 0.095991164 0.020693798
-0.0653351 0.078743964 0.08831386 -0.027022706 -0.21443222 0.14446 -0.02514306 0.014010815
0.20105517 0.071988724 0.00858731 -0.12463709 0.05879364 -0.09329267 0.09187287 0.15978909
-0.03934733 -0.023528 -0.040041443 0.0093621295 -0.051363748 0.114027664 -0.06500339 0.009795255
-0.075276054 -0.053914554 0.051671118 -0.036526367 -0.11912612 0.14002568 -0.021743719 -0.22567962
-0.11018837 -0.1506143 -0.11924604 0.047739383 0.031553995 -0.07933201 0.0093322545 0.021953551
-0.07365849 0.045016836 -0.11875389 0.048692312 -0.011848211 -0.0072993073 0.08541525 -0.06416658
-0.044437993 -0.103647806 -0.059038773 -0.16848536 -0.11520412 0.018739007 0.022184765 -0.011235759

network_body._body_endoder.seq_layers.2.bias f4 [128]
00000000: 0000 0000 0000 0000 0000 0000 0000 0000
00000010: 0000 0000 0000 0000 0000 0000 0000 0000
00000020: 0000 0000 0000 0000 0000 0000 0000 0000
00000030: 0000 0000 0000 0000 0000 0000 0000 0000
00000040: 0000 0000 0000 0000 0000 0000 0000 0000
00000050: 0000 0000 0000 0000 0000 0000 0000 0000
00000060: 0000 0000 0000 0000 0000 0000 0000 0000
00000070: 0000 0000 0000 0000 0000 0000 0000 0000
00000080: 0000 0000 0000 0000 0000 0000 0000 0000
00000090: 0000 0000 0000 0000 0000 0000 0000 0000
000000a0: 0000 0000 0000 0000 0000 0000 0000 0000
000000b0: 0000 0000 0000 0000 0000 0000 0000 0000
000000c0: 0000 0000 0000 0000 0000 0000 0000 0000
000000d0: 0000 0000 0000 0000 0000 0000 0000 0000
000000e0: 0000 0000 0000 0000 0000 0000 0000 0000
000000f0: 0000 0000 0000 0000 0000 0000 0000 0000
00000100: 0000 0000 0000 0000 0000 0000 0000 0000
00000110: 0000 0000 0000 0000 0000 0000 0000 0000
00000120: 0000 0000 0000 0000 0000 0000 0000 0000
00000130: 0000 0000 0000 0000 0000 0000 0000 0000
00000140: 0000 0000 0000 0000 0000 0000 0000 0000
00000150: 0000 0000 0000 0000 0000 0000 0000 0000
00000160: 0000 0000 0000 0000 0000 0000 0000 0000
00000170: 0000 0000 0000 0000 0000 0000 0000 0000
00000180: 0000 0000 0000 0000 0000 0000 0000 0000
00000190: 0000 0000 0000 0000 0000 0000 0000 0000
000001a0: 0000 0000 0000 0000 0000 0000 0000 0000
000001b0: 0000 0000 0000 0000 0000 0000 0000 0000
000001c0: 0000 0000 0000 0000 0000 0000 0000 0000
000001d0: 0000 0000 0000 0000 0000 0000 0000 0000
000001e0: 0000 0000 0000 0000 0000 0000 0000 0000
000001f0: 0000 0000 0000 0000 0000 0000 0000 0000
0.0 0.0 0.0 0.0 0.0 0.0 0.0 0.0
0.0 0.0 0.0 0.0 0.0 0.0 0.0 0.0
0.0 0.0 0.0 0.0 0.0 0.0 0.0 0.0
0.0 0.0 0.0 0.0 0.0 0.0 0.0 0.0
0.0 0.0 0.0 0.0 0.0 0.0 0.0 0.0
0.0 0.0 0.0 0.0 0.0 0.0 0.0 0.0
0.0 0.0 0.0 0.0 0.0 0.0 0.0 0.0
0.0 0.0 0.0 0.0 0.0 0.0 0.0 0.0
0.0 0.0 0.0 0.0 0.0 0.0 0.0 0.0
0.0 0.0 0.0 0.0 0.0 0.0 0.0 0.0
0.0 0.0 0.0 0.0 0.0 0.0 0.0 0.0
0.0 0.0 0.0 0.0 0.0 0.0 0.0 0.0
0.0 0.0 0.0 0.0 0.0 0.0 0.0 0.0
0.0 0.0 0.0 0.0 0.0 0.0 0.0 0.0
0.0 0.0 0.0 0.0 0.0 0.0 0.0 0.0
0.0 0.0 0.0 0.0 0.0 0.0 0.0 0.0

action_model._discrete_distribution.branches.0.weight f4 [3, 128]
00000000: 85a6 43bc 053a 38bb b887 54bc 36e1 013c
00000010: 8df9 d9bb 6ce9 943b 20c0 d338 4b4a 133c
00000020: 97b6 00ba 49ed ae3b a2a8 44bc 1f72 583b
00000030: 07ed 583b 60a1 d0b9 cb52 c53a 7623 0cbc
00000040: db2c 25bc b297 f4bb aa79 d13a 5797 72bb
00000050: 4f98 a23b 9c23 a23b ad5b 823b 70fc c93b
00000060: 252b 05bc f28c 5d3b c3fc ac3c 9936 91bc
00000070: ea4a bb3b 7b18 2a3b bf38 a5bc 9aec b93b
00000080: 374c b0b9 f3b0 333c 1304 84bb beee b73b
00000090: 83bd 85b8 bd07 25bc bc56 b13a 7b99 7a3b
000000a0: b4e5 ab3b 438a f639 2740 c5ba fd63 a13b
000000b0: 6089 783c 07f7 5abc 37a6 ae3b 581f 49bb
000000c0: dbe6 b0bb 11e6 41bb e31c 913c 7d54 49bc
000000d0: 895c a03b 1baa 41bc dddb 8aba 1ba2 823c
000000e0: abf5 e03b bb0a 96bc 530b 4c3b e322 ee3b
000000f0: 4854 073c 9f21 1f3c 4b6b a9bb c8d2 e3ba
00000100: 936a f33b 0a94 3dbb ec61 06bc 25b9 4dbc
00000110: 03bb 073c fa95 f0ba 6da1 1cbc 57da 083c
00000120: ef25 50bc ce4d 95bb db69 c5bb cfe4 98ba
00000130: 7eb3 3b3c c03a e3bb 2a28 253b f906 c6bb
00000140: b955 a23c 5ff7 8539 9b64 3a3c 9d94 0e3c
00000150: 80e9 143b 1017 b73b 739f beb9 3594 f63b
00000160: 6a3a 5abc 43b8 75bc c07b 923c 8fe4 0cbb
00000170: b958 91bb 281d eb3b 0241 6c3c 5d7c 543b
00000180: 42ad 7abb ca41 94bb 9bdf 3d3c 0f7e c0b9
00000190: 9f5c ae3c 82d2 5c3b 12e0 b8b9 a08b 9cbb
000001a0: b78a 30bc 7327 73bb bd0f 733b b429 183c
000001b0: d242 58bb 671c bf3b 675f b93b c41d 80bb
000001c0: 9763 e93b a069 6a3b 6540 f739 27d2 26bc
000001d0: 5ad1 203b 2255 753c 16a7 3a3a 3361 013b
000001e0: 8b4c 83bb 6108 b6bb 21e4 c83b a5b7 7cbb
000001f0: 7d4d d93b 50e1 7ebc 6caf cbbb f8b1 d9bb
00000200: 5513 663a 2f91 4b3c a094 1abc 619e 0dbb
00000210: d034 dabb 527c 67bc 6b08 f83b 6d90 623c
00000220: b362 95bb c013 beb9 82a1 03b9 2308 a4bc
00000230: c721 88bb c3e0 fa3b 0aea f63b 5d3f 603b
00000240: afac ea3a a870 7cba 4f45 b53b 4b4d e7ba
00000250: 0fd9 01bb 2cd1 43bc 4518 6fbb 31d0 083c
00000260: 0f76 0d3c 6a6f 67bc b18a b3bc 21af 993b
00000270: 369b 843a 4c46 81bb 5b46 253c 4b9b b1ba
00000280: 4376 e8bb 6736 2c3c bfad 143b abc9 d73b
00000290: d3d1 b93a a4ee 0abc 0a18 2abb c7cc 7cbb
000002a0: a0f7 0238 6f39 ce3a b7ec 44bc 0b11 a6bb
000002b0: 2beb 2cbb f1fd 24bc a7d7 cd39 aec0 8dbc
000002c0: 5b4a e13b b0dd e4ba bb45 1cbb 6755 31bb
000002d0: f0ec 7f3c 7308 36bc deb1 0eb5 4164 bd3a
000002e0: d0fa 7fbb 9e46 053a 7de1 d63b 0956 943b
000002f0: 848d 993c fafe 3d3b 02a4 91ba c415 203c
00000300: cded 243c 9add f8bb af7f 113c 2059 963b
00000310: 3493 99bc ff19 71bb 93c8 84b9 9775 7cbc
00000320: 1bd3 283c cf5b d83a bbfd 443c 4f39 283c
00000330: fc1a ab39 985c b2bb bd6d e4bb 2911 16bc
00000340: 7338 98ba 85e7 5dbc 9aee ccbb 507b 0ebb
00000350: a181 b73c b236 a23b f8e9 0bbb 7261 5dbc
00000360: cc28 bfbb 2206 af3c 8a94 6cba c22d 863c
00000370: a4d9 3c39 41c6 893b 267d 013a ffdc 08bc
00000380: 55dc 243b 5fc2 323c 7dcb 143a 88dc 9b3b
00000390: c8fa 4d3b 4726 3e3c 9bb4 2cbb 203c ffbb
000003a0: 53c7 8ebc a2ff 0c3c 1655 9d3c 1948 20ba
000003b0: c269 7d3a 50be f3bb c6f2 463b 056c 61bb
000003c0: 82a0 923b d501 39bb e01e 3d3a edaf fc3b
000003d0: f879 82bc 63c1 18bc c760 cc3b 0ac3 20bc
000003e0: 7028 c53a 1c72 b93b 5569 69bb ea80 9d39
000003f0: 5036 dabb 070d 1abc d0de 5d3b 161e b7bc
-0.011941557 -0.0028110754 -0.012971811 0.00792723 -0.006652063 0.0045444276 0.0001009705 0.008989881
-0.00049100205 0.005338345 -0.012003096 0.0033027006 0.0033100264 -0.00039793085 0.0015054581 -0.008553376
-0.010081495 -0.0074643726 0.0015981693 -0.0037016475 0.0049620043 0.0049480926 0.0039782138 0.006164126
-0.008127962 0.0033805934 0.02111662 -0.01772623 0.0057157176 0.0025954533 -0.02016866 0.005673957
-0.0003362612 0.010967481 -0.004028806 0.005613177 -6.3772335e-05 -0.010072646 0.0013529877 0.0038238454
0.0052458886 0.0004702379 -0.0015049026 0.0049252496 0.0151694715 -0.01336456 0.005329873 -0.0030688848
-0.005398614 -0.0029586593 0.01771397 -0.01228821 0.0048938436 -0.011820341 -0.0010594089 0.015946439
0.0068652234 -0.018315664 0.003113468 0.0072673424 0.00825984 0.009712606 -0.005170261 -0.0017381543
0.007428476 -0.002892735 -0.008202057 -0.012556349 0.008284333 -0.0018355243 -0.009559971 0.0083528375
-0.012704357 -0.004556394 -0.006024582 -0.001166487 0.0114563685 -0.006934494 0.0025200942 -0.0060433117
0.019816266 0.00025552043 0.011376525 0.008702424 0.0022722185 0.005587466 -0.00036358423 0.007524992
-0.013319591 -0.014997545 0.017881274 -0.0021498536 -0.0044356254 0.0071751066 0.014419796 0.003242276
-0.0038250242 -0.004524444 0.011588956 -0.00036715015 0.0212844 0.0033694808 -0.0003526216 -0.004777387
-0.01077526 -0.003710237 0.0037088238 0.009287287 -0.0032998812 0.0058322432 0.005657125 -0.0039097983
0.0071224677 0.0035768524 0.0004715949 -0.01018194 0.0024538846 0.0149739105 0.00071202347 0.0019741773
-0.0040069274 -0.005555198 0.0061307107 -0.003856161 0.006631552 -0.015556648 -0.0062159803 -0.00664353
0.00087766844 0.012424751 -0.009434849 -0.0021609294 -0.006659128 -0.014128761 0.007569363 0.013828379
-0.004558885 -0.0003625434 -0.000125533 -0.020023411 -0.004154417 0.007656188 0.007535224 0.0034217455
0.0017904247 -0.0009629824 0.005531944 -0.0017646936 -0.0019813215 -0.011951726 -0.0036482972 0.008350418
0.008634104 -0.014125684 -0.02191672 0.0046900664 0.0010117057 -0.0039451476 0.010087575 -0.0013550309
-0.007094176 0.010511017 0.0022686569 0.00658532 0.0014176912 -0.008479748 -0.002595427 -0.0038574205
3.1225034e-05 0.0015733669 -0.012019328 -0.0050679496 -0.0026385288 -0.01007031 0.0003926132 -0.01730379
0.006875319 -0.0017461088 -0.0023845274 -0.002705896 0.015620455 -0.011110413 -5.3157953e-07 0.0014449434
-0.0039059408 0.000508407 0.006557642 0.0045268578 0.018744238 0.002899109 -0.00111115 0.009770814
0.010066462 -0.0075947763 0.00888054 0.0045882612 -0.01874695 -0.0036789177 -0.0002532644 -0.015408895
0.010304238 0.0016506853 0.012023385 0.01026757 0.00032635767 -0.005443167 -0.0069710896 -0.009159365
-0.0011613503 -0.013543968 -0.0062540295 -0.002174098 0.022400679 0.004950368 -0.0021349173 -0.013512002
-0.005833721 0.021365229 -0.00090248196 0.01637924 0.00018010155 0.004204542 0.0004939608 -0.008353471
0.0025155742 0.0109105995 0.0005676074 0.004756514 0.0031429995 0.011605806 -0.0026352766 -0.00778915
-0.01742903 0.0086058695 0.019205611 -0.0006114259 0.0009666943 -0.0074384585 0.0030357107 -0.003439666
0.0044747004 -0.0028229852 0.00072143786 0.0077114017 -0.0159273 -0.009323451 0.0062371227 -0.009812126
0.0015041959 0.005659355 -0.0035615761 0.00030041422 -0.0066593066 -0.00940252 0.003385473 -0.022353213

action_model._discrete_distribution.branches.0.bias f4 [3]
00000000: 0000 0000 0000 0000 0000 0000
0.0 0.0 0.0
