Shortcut Run/results/lvl1/Move/checkpoint.pt (torch, 437599 bytes, 30 tensors)

network_body._body_endoder.seq_layers.0.weight f4 [128, 6]
0	0x3f259009	0.64672905
1	0xbdeb9466	-0.11502914
2	0xbf537610	-0.82602024
3	0xbed96681	-0.42461017
4	0xbea13ecb	-0.3149322
5	0xbe3761b5	-0.17908366
6	0x3f0baa4d	0.54556733
7	0xbe003003	-0.12518315
8	0x3e6a52ca	0.22883144
9	0x3e725cb6	0.23668179
10	0xbcabfc9e	-0.02099448
11	0xbe8b27b3	-0.27178726
12	0xbf12bbae	-0.57317626
13	0x3f380d2d	0.71895105
14	0x3f6db1f2	0.9284965
15	0xbe2958ba	-0.16537753
16	0x3f09aa1f	0.5377521
17	0x3dc1ee5d	0.09469292
18	0x3cc9e5b5	0.024645666
19	0x3f159318	0.5842757
20	0x3ecc733b	0.39931664
21	0xbf080eb2	-0.53147423
22	0xbc0244ed	-0.0079510035
23	0x3df86470	0.12128532
24	0xbea2c18b	-0.31788287
25	0xbe9daf56	-0.30797833
26	0x3f6e25d8	0.93026495
27	0x3e942414	0.28933775
28	0xbe763f27	-0.24047528
29	0xbd9ed03d	-0.07754562
30	0xbe3386bf	-0.1753187
31	0xbe8a323e	-0.26991457
32	0xbf23e7b5	-0.6402543
33	0xbeb9e9c0	-0.3631115
34	0xbea0c7ba	-0.3140238
35	0x3ce2ea99	0.027699756
36	0xbed8adce	-0.42320102
37	0xbe9992ae	-0.2999472
38	0x3d9543c0	0.07288313
39	0x3f15126c	0.58231235
40	0x3f0903e9	0.5352159
41	0xbe23bdf5	-0.15990432
42	0xbd010db7	-0.03150722
43	0xbded667f	-0.11591815
44	0x3e1b1f0b	0.1514856
45	0x3e481c11	0.19541956
46	0xbf383300	-0.7195282
47	0x3de360e3	0.11102464
48	0x3e8bc8a8	0.27301526
49	0x3eaf82f0	0.34279585
50	0xbee797f7	-0.45233127
51	0xbf1a9549	-0.6038404
52	0x3e59e859	0.2128004
53	0xbb8cb170	-0.004293613
54	0x3f4ec824	0.8077414
55	0x3db653e8	0.089027226
56	0xbf674ed5	-0.90354663
57	0xbf0580ad	-0.5214947
58	0xbf15e261	-0.5854855
59	0x3ec8cc85	0.39218536
60	0x3eefdd50	0.46848536
61	0xbe1d88f2	-0.15384272
62	0xbe492360	-0.196424
63	0xbebfbc60	-0.37448406
64	0x3ea594e5	0.3234016
65	0x3da45c58	0.08025426
66	0x3f726fbb	0.9470174
67	0xbe59638a	-0.21229377
68	0xbe0d105c	-0.13775772
69	0x3e814d10	0.25254107
70	0xbd5dc318	-0.054141134
71	0xbe8611fe	-0.26185602
72	0x3f4df301	0.8044892
73	0xbd44d958	-0.048058838
74	0xbdc65acf	-0.09685289
75	0xbe6f6bfa	-0.23381034
76	0xbd28cb9b	-0.0412098
77	0x3c1d5b36	0.009604266
78	0xbe7e1bbb	-0.24815266
79	0x3d45b15f	0.048264857
80	0x3e8576a3	0.26067075
81	0x3ece20cc	0.40259397
82	0xbd80ceab	-0.06289419
83	0x3ed78eee	0.42101234
84	0xbf40a43b	-0.75250596
85	0xbf066c61	-0.52509123
86	0x3f12aa07	0.5729069
87	0xbeffa890	-0.4993329
88	0x3edfb3c9	0.43691853
89	0xbf4ee5af	-0.8081922
90	0xbe8ddc5a	-0.27707177
91	0xbf30ca14	-0.69058347
92	0x3e27f24a	0.1640102
93	0xbecd0291	-0.4004102
94	0xbee0d88e	-0.43915218
95	0xbf60544f	-0.87628645
96	0xbf15fa09	-0.5858465
97	0xbf7ba18d	-0.9829338
98	0x3e0274a2	0.12739804
99	0x3f08f8cc	0.53504634
100	0x3dae267b	0.08503433
101	0xbe3f7687	-0.18697558
102	0x3f3aae02	0.72921765
103	0x3f8091a2	1.0044444
104	0x3d8d6cfc	0.06905553
105	0x3edb84fe	0.42874902
106	0x3f1a1c95	0.6019986
107	0xbf2ad228	-0.66726923
108	0x3e8c48cc	0.2739929
109	0x3ec63946	0.3871557
110	0xbcf40e9d	-0.029792124
111	0xbdd757c9	-0.105147906
112	0x3ead678c	0.33868062
113	0x3eaed128	0.3414395
114	0x3e5b471a	0.21413842
115	0xbe072770	-0.13198638
116	0xbf1d5af2	-0.61466897
117	0xbf3677bb	-0.71276444
118	0xbf1a582d	-0.60290796
119	0x3e6ffa1b	0.23435251
120	0xbeb9db25	-0.36300007
121	0x3dd74a93	0.10512271
122	0x3e837c5d	0.2568082
123	0x3db0d286	0.08633904
124	0x3e1717ff	0.14755248
125	0x3ea5daf9	0.32393625
126	0x3de319ae	0.110888824
127	0xbf1ae725	-0.6050895
128	0x3f1d8402	0.6152955
129	0x3eb829b7	0.35969326
130	0xbe4d380e	-0.20040914
131	0xbe8d154d	-0.27555314
132	0xbcf945b6	-0.030428749
133	0x3efbf966	0.49213713
134	0x3e487886	0.19577226
135	0x3e6c77fe	0.23092648
136	0xbf2b650c	-0.6695106
137	0xbccdfe55	-0.025145689
138	0xbea40628	-0.32035947
139	0x3e30ad3d	0.17253585
140	0x3d7694d4	0.060200527
141	0xbf69e6e8	-0.9136796
142	0x3f65f902	0.8983308
143	0x3e6a6e80	0.22893715
144	0x3efe391d	0.4965295
145	0xbec93d93	-0.3930479
146	0x3e9e4f71	0.30919984
147	0xbdcfc71e	-0.101454005
148	0xbde2a933	-0.110674284
149	0x3da381af	0.079837196
150	0xbe8db842	-0.2767964
151	0xbeb999b4	-0.3625008
152	0x3e88adc3	0.2669507
153	0x3e030478	0.12794673
154	0x3ecb1c5e	0.3967008
155	0x3ed27aa4	0.41109192
156	0xbe963847	-0.2933981
157	0xbedcbed2	-0.43114334
158	0x3f60d762	0.8782865
159	0x3d81794a	0.06321962
160	0x3edf4848	0.43609834
161	0x3ca45dd9	0.020064281
162	0xbd7e05cd	-0.06201725
163	0xbf12ddf6	-0.57369936
164	0x3f3f9749	0.7484022
165	0x3ec6d617	0.38835213
166	0xbe7e4b84	-0.24833494
167	0xbd512e9b	-0.051069837
168	0x3c8496e4	0.016185232
169	0xbd84eeba	-0.06490846
170	0xbec6a79b	-0.38799748
171	0xbf1c489d	-0.610483
172	0xbd1c2ce8	-0.038128763
173	0x3e6e02c6	0.23243245
174	0xbea91d9d	-0.33030406
175	0xb93b9536	-0.00017889295
176	0xbe756f18	-0.2396816
177	0x3e6f9947	0.23398314
178	0xbdd82ce8	-0.1055544
179	0x3f0296c4	0.510113
180	0xbe73b0ab	-0.23797862
181	0xbe50e81f	-0.20401047
182	0x3cc064bf	0.02348554
183	0x3f40e9ce	0.7535676
184	0xbdc5633a	-0.096380666
185	0x3c483639	0.012219959
186	0x3e2ac388	0.16676152
187	0x3e249f8b	0.16076486
188	0xbed9c2f7	-0.4253156
189	0xbf0ba578	-0.5454936
190	0x3eb773fa	0.3583067
191	0xbf491968	-0.7855439
192	0xbea37afa	-0.3192976
193	0xbec0687b	-0.37579712
194	0x3e821179	0.25403956
195	0xbc08b1e0	-0.00834319
196	0xbef2b70c	-0.4740528
197	0xba41926b	-0.00073841837
198	0x3ef6782e	0.48138565
199	0x3e827f57	0.25487778
200	0xbe80d8cf	-0.25165412
201	0xbdcb6636	-0.099316046
202	0x3eaddb14	0.33956206
203	0xbf44b8d7	-0.76844543
204	0x3f68f6b3	0.91001433
205	0xbe2c6f80	-0.16839409
206	0xbe0f38a4	-0.1398645
207	0xbec4ee4f	-0.38463065
208	0x3d5208ac	0.0512778
209	0x3e080a0c	0.13285083
210	0xbf26803b	-0.65039414
211	0x3f2c9ba5	0.67424995
212	0x3f0bc659	0.5459953
213	0xbe775367	-0.24152909
214	0xbdbb3623	-0.09141185
215	0xbef1d7ed	-0.4723505
216	0xbe18b97e	-0.1491451
217	0xbf0e0620	-0.55478096
218	0x3d3e74f0	0.04649824
219	0xbee33dd1	-0.443831
220	0xbdcd57e5	-0.1002653
221	0x3e1bdab8	0.15220153
222	0xbf1a66db	-0.60313195
223	0x3d21d493	0.039509367
224	0x3e2607b1	0.16213872
225	0xbf141b41	-0.57854086
226	0xbe150e25	-0.14556177
227	0xbc2b44db	-0.010453428
228	0x3eb819d5	0.35957208
229	0xbeb0d067	-0.34533998
230	0x3f0ba10f	0.5454263
231	0x3ea2b7d6	0.3178088
232	0xbecd2c46	-0.4007284
233	0x3ea93c8a	0.33054
234	0x3ed35cdd	0.41281787
235	0xbd946810	-0.07246411
236	0xbee904e2	-0.45511538
237	0xbea9ff54	-0.33202612
238	0x3e5c7373	0.21528415
239	0x3ebab9a7	0.36469766
240	0xbef48f43	-0.4776555
241	0x3e35cc38	0.17753685
242	0xbe09df47	-0.1346408
243	0xbf12b1ff	-0.5730285
244	0xbdd64d51	-0.10463966
245	0x3f762940	0.9615669
246	0x3ea74f39	0.3267763
247	0xbe1549dc	-0.14578956
248	0x3f44abc1	0.76824576
249	0x3cf6677b	0.03007864
250	0xbe8cd5a0	-0.27506733
251	0x3ef2d388	0.4742701
252	0xbedaaa52	-0.4270807
253	0xbe8d6a33	-0.27620086
254	0xbedb209b	-0.42798313
255	0xbecf7ade	-0.40523428

network_body._body_endoder.seq_layers.0.bias f4 [128]
0	0xba5247a7	-0.0008021541
1	0x2ae97faa	4.14777e-13
2	0xb8aa7170	-8.127361e-05
3	0xbb3ead8f	-0.0029095148
4	0xa9ad5024	-7.6966455e-14
5	0xbaca59fa	-0.0015438192
6	0x3c04d7d3	0.008108097
7	0xbb16aa72	-0.0022989777
8	0x3723459b	9.731763e-06
9	0x397a4be2	0.00023870126
10	0xb862b5cb	-5.4051907e-05
11	0xb96598fa	-0.0002189613
12	0x38fac315	0.00011957266
13	0xb738339e	-1.0979273e-05
14	0x0480e7bb	3.0305466e-36
15	0x02a1d9a4	2.3781743e-37
16	0xbbbec694	-0.005822012
17	0x1ac592dc	8.1714554e-23
18	0xba41f1b0	-0.000739838
19	0xb859b3af	-5.1904175e-05
20	0x3b68f269	0.0035544878
21	0x1e592d49	1.1497249e-20
22	0x3b189f9c	0.0023288494
23	0xb8c9f850	-9.630679e-05
24	0xbb43ad4a	-0.0029857927
25	0xba4b6c68	-0.0007759989
26	0xb163c434	-3.3144376e-09
27	0xad995833	-1.7433254e-11
28	0xb9923164	-0.0002788409
29	0xba0719a8	-0.00051536644
30	0xb8842176	-6.300483e-05
31	0xaef1c26e	-1.0993949e-10
32	0xbb97de44	-0.0046346504
33	0x2698aeca	1.0594495e-15
34	0xb96e02e6	-0.00022698528
35	0x1ba9f585	2.8117368e-22
36	0xb99914d7	-0.0002919796
37	0xbb36fbe5	-0.0027921137
38	0x39538a37	0.00020174017
39	0xb9384917	-0.00017574836
40	0x398c5452	0.00026765704
41	0xba8fc4b9	-0.0010968662
42	0xb98b46f7	-0.0002656502
43	0xba90e6ed	-0.0011055149
44	0x3b97ca9b	0.0046323068
45	0x3af76883	0.0018875751
46	0x38013ec7	3.0814463e-05
47	0xb9333bb4	-0.00017093011
48	0x8f90b954	-1.4270882e-29
49	0x37669ece	1.3746043e-05
50	0xb8a77fa7	-7.986958e-05
51	0xba35a66f	-0.00069294026
52	0x398d3bad	0.00026938078
53	0xbaa2552c	-0.0012385002
54	0xb960cb44	-0.00021438027
55	0x39e34352	0.00043346972
56	0x374b60ed	1.212231e-05
57	0xba17f9b9	-0.00057974044
58	0x3c013037	0.0078850305
59	0x3898a0ab	7.2778515e-05
60	0xa344c0cd	-1.06660084e-17
61	0x21cca662	1.3867619e-18
62	0xb80910a7	-3.2678854e-05
63	0x29b63e21	8.093201e-14
64	0xb9ddd948	-0.00042314292
65	0xb8f1f747	-0.000115378345
66	0x3b765502	0.003758729
67	0x2de2be94	2.5777859e-11
68	0xb8c3c374	-9.3347306e-05
69	0xba4b43e0	-0.00077539496
70	0x38307138	4.2067113e-05
71	0x9e2c7273	-9.129272e-21
72	0xb9538f2b	-0.00020175862
73	0xb9a15d6e	-0.00030777924
74	0xbba39259	-0.0049918112
75	0xb9a8a488	-0.00032166042
76	0xba418517	-0.00073821977
77	0x395e225a	0.00021184367
78	0xb97570c4	-0.00023407029
79	0xba510bdf	-0.0007974486
80	0xba0722dc	-0.0005155036
81	0xb8dcba77	-0.00010525149
82	0x20703830	2.0347382e-19
83	0xb986ba63	-0.0002569734
84	0x280f01f3	7.938517e-15
85	0xba57c668	-0.0008231164
86	0xb094e008	-1.0832091e-09
87	0xb884ba3b	-6.3289386e-05
88	0x391b6875	0.00014820865
89	0x22304140	2.388699e-18
90	0xb8ce1fba	-9.828755e-05
91	0x359c1d55	1.1631442e-06
92	0x13810ebc	3.2578707e-27
93	0x3a60c53a	0.0008574311
94	0xa9467e33	-4.4074292e-14
95	0x38c0b3ed	9.188787e-05
96	0x1dcba7b0	5.3907037e-21
97	0xb9ba00d1	-0.00035477293
98	0xba16d245	-0.00057533785
99	0xb9b5a30b	-0.00034644487
100	0x912c787a	-1.3605532e-28
101	0xb8d823e3	-0.00010306367
102	0xb623ffc6	-2.4437772e-06
103	0xb7e94265	-2.7806682e-05
104	0xba286476	-0.0006423661
105	0x3b93a4d9	0.0045057354
106	0xb98465ba	-0.00025252794
107	0xb28ef9d4	-1.6644584e-08
108	0xb980ce6b	-0.00024567856
109	0x38e9247d	0.00011117102
110	0xb85ffccd	-5.3402782e-05
111	0xb8e605af	-0.00010968313
112	0xaa983514	-2.7037454e-13
113	0xb861885c	-5.3771175e-05
114	0xb9676436	-0.00022067208
115	0x00000000	0.0
116	0xb889b0fb	-6.565634e-05
117	0xb8b1c24f	-8.4762105e-05
118	0x9fcf552e	-8.780883e-20
119	0xbb2cee3e	-0.002638712
120	0xb9343a35	-0.00017187822
121	0xb934929d	-0.00017220755
122	0x371f21aa	9.4849765e-06
123	0x2c217fde	2.2950457e-12
124	0xb8f0bc26	-0.00011479137
125	0xb8849a4f	-6.322993e-05
126	0xb97b5844	-0.00023970107
127	0xba38ebfc	-0.00070542074

network_body._body_endoder.seq_layers.2.weight f4 [128, 128]
0	0x3a83fa3c	0.0010069082
1	0x3d899a34	0.06718865
2	0xbd8b0d4f	-0.06789648
3	0x3c84c7a1	0.016208472
4	0xbde0af6e	-0.109709606
5	0x3d74ea64	0.059793845
6	0x3ca175ba	0.019709457
7	0xbd0751b1	-0.03303689
8	0xbe30c58f	-0.17262863
9	0xbd943b78	-0.07237905
10	0x3e3529c9	0.17691721
11	0x3da0efb6	0.07858221
12	0x3db79848	0.08964592
13	0xbc7058bb	-0.0146695925
14	0xbdb93673	-0.090435885
15	0xbd75cabe	-0.060007803
16	0xbd99b954	-0.07506052
17	0xbc499c66	-0.012305355
18	0xbe0c2336	-0.13685307
19	0xbde1cf0f	-0.110258214
20	0xbd1855b6	-0.037191115
21	0xbd84611c	-0.06463835
22	0xbd10dbba	-0.035365798
23	0xbd7469ac	-0.05967109
24	0xbe323e50	-0.17406583
25	0xbd9e5146	-0.077303454
26	0xbd6702ae	-0.05639904
27	0x3d7fe404	0.062473312
28	0xbdfafe6f	-0.122555606
29	0xbd6481bc	-0.055787787
30	0xbcd7a67c	-0.026324503
31	0xbd21e945	-0.039529104
32	0x3e52fe5c	0.20604843
33	0x3e2a2033	0.16613846
34	0x3db53988	0.08848864
35	0xbd992a00	-0.07478714
36	0x3d96cf5b	0.07363769
37	0x3b88ad81	0.004171074
38	0x3d27301c	0.040817365
39	0xbc864edd	-0.016395027
40	0x3e357539	0.17720498
41	0xbd56cefb	-0.052443486
42	0xbe1287bb	-0.1430959
43	0x3d801cd5	0.06255499
44	0xbe077f1a	-0.13232079
45	0x3db8d64b	0.09025248
46	0x3db5ccc6	0.08876948
47	0xbd7c949b	-0.06166516
48	0x3d7db140	0.061936617
49	0x3bb16fcb	0.005414938
50	0x3cbd7cbf	0.023130773
51	0xbd37a645	-0.0448363
52	0xbae4e4c8	-0.0017463202
53	0x3dd45199	0.10367126
54	0x3c978afc	0.01849889
55	0xbca6c9ef	-0.020359961
56	0xbdc115e3	-0.09428003
57	0xbd89e645	-0.067333736
58	0x3d5ba87d	0.05362748
59	0x3d91f238	0.07126278
60	0x3cdbe5cb	0.026842972
61	0x3dba763a	0.09104581
62	0xbd5817c3	-0.052757036
63	0x3da4f0d5	0.080537476
64	0xbc8f494a	-0.017491002
65	0x3e011011	0.12603785
66	0xbc6df565	-0.014523839
67	0xbd5f64e8	-0.05453959
68	0xbc0e491b	-0.008684422
69	0x3cfaafbc	0.030601375
70	0x3ca5b64b	0.020228526
71	0x3d265a94	0.040613726
72	0x3e16fa1d	0.14743848
73	0x3d976b91	0.073935635
74	0x3b9029fe	0.004399537
75	0x3e25118f	0.1611998
76	0x3c1181f5	0.008881082
77	0xbdcd318b	-0.10019215
78	0x3d2e8a18	0.042612165
79	0x3e226b09	0.15861143
80	0x3e06be3f	0.1315851
81	0xbcbe9931	-0.023266407
82	0xbc0e2435	-0.008675625
83	0xbc4d15d2	-0.012517409
84	0x3e2123c3	0.15736298
85	0xbe3aafcc	-0.18231124
86	0xbe5c12aa	-0.21491495
87	0x3da50a35	0.080585875
88	0x3dbc5968	0.091967404
89	0x3ceadc38	0.028669462
90	0x3db287ad	0.08717284
91	0xbcce589b	-0.025188735
92	0x3d88f1a8	0.06686717
93	0xbdcf313c	-0.101168126
94	0x3de225bf	0.11042356
95	0x3d09677c	0.033545956
96	0x3da250ef	0.07925593
97	0xbcc38b1d	-0.023870045
98	0x3d7173d1	0.05894834
99	0x3d590309	0.05298141
100	0x3a8b9cde	0.0010651608
101	0xbcd6ca26	-0.026219439
102	0xbe185517	-0.14876209
103	0x3dab4c0d	0.08364115
104	0x3e0ec106	0.1394082
105	0xbd780fc7	-0.06056192
106	0xbd0ad818	-0.03389749
107	0xbd93520e	-0.07193385
108	0x3d9920bb	0.07476946
109	0xbd18c24b	-0.037294667
110	0x3c4faf57	0.012676082
111	0x3d6e834f	0.058230694
112	0xbd21a602	-0.039464958
113	0x3dfabff1	0.12243641
114	0x3dbe5f1c	0.092954844
115	0xbe27e7ed	-0.16397066
116	0x3c0cb851	0.008588866
117	0xbd8376b9	-0.06419129
118	0xbdb480b3	-0.0881361
119	0x3d8f8171	0.07007111
120	0xbdab309a	-0.083588794
121	0xbcbcd549	-0.023050921
122	0x3cb13ff2	0.021636937
123	0xbe03a5cd	-0.12856217
124	0x3a0d5e17	0.00053927436
125	0xbc35d4eb	-0.011098127
126	0xbd9698ee	-0.07353388
127	0x3cb7d82b	0.022441944
128	0x3e00150e	0.12508032
129	0x3d720204	0.059083953
130	0x3dbf3985	0.09337143
131	0x3e395e9f	0.18102501
132	0xbdf9e049	-0.12200982
133	0xbd1af381	-0.03782988
134	0x3df71054	0.12063661
135	0x3b05db01	0.0020424726
136	0x3cd58c94	0.02606801
137	0x3cc43431	0.023950668
138	0x3c74a4d5	0.014931877
139	0xbe1f2332	-0.1554077
140	0xbd418c62	-0.04725302
141	0xbc1554e5	-0.009114479
142	0xbdb92765	-0.09040717
143	0xbd7d10c8	-0.061783582
144	0xbd148c51	-0.03626663
145	0x3d8b2802	0.0679474
146	0x3d423e41	0.04742265
147	0xbd60346c	-0.054737493
148	0xbc092434	-0.008370448
149	0xbdc77149	-0.09738404
150	0xbcf201e6	-0.02954192
151	0x3db0f4fa	0.086404756
152	0x3d5c4a44	0.053781763
153	0xbb7a8818	-0.003822809
154	0xbdc0c654	-0.09412828
155	0xbcc61ebc	-0.024184577
156	0xbd16cd50	-0.036816895
157	0x3e006014	0.12536651
158	0xbe25d338	-0.16193855
159	0xbc0f987d	-0.008764383
160	0x3d9cee8b	0.07662686
161	0xbd9c6376	-0.07636158
162	0xbd3fec91	-0.046856467
163	0xbe4e8a69	-0.20169987
164	0x3d08d753	0.033408474
165	0xbd937615	-0.07200257
166	0xbd8c630f	-0.068548314
167	0x3dfa84f5	0.12232391
168	0xbcf73136	-0.030174833
169	0xbe2b792e	-0.16745445
170	0xbd96ce03	-0.07363512
171	0x3dadda7c	0.08488938
172	0xbda10bcf	-0.078635804
173	0x3c3fb77f	0.011701464
174	0xbd816b41	-0.06319285
175	0xbd8285e3	-0.06373193
176	0x3d23b26f	0.03996509
177	0x3cf4bf82	0.029876474
178	0x3d18514e	0.037186913
179	0xbd28b588	-0.041188747
180	0x3c8fdecd	0.017562294
181	0xbd3010a1	-0.04298461
182	0x3cbe5cc1	0.023237588
183	0xbca9c37c	-0.020723097
184	0x3c9826dd	0.018573219
185	0xbd9d0689	-0.07667262
186	0x3dca191b	0.0986807
187	0x3c164278	0.009171121
188	0xbc831389	-0.016000526
189	0x3db86eae	0.090054855
190	0xbdbbabd8	-0.09163636
191	0xbe4cb1be	-0.19989678
192	0x3dcdda22	0.10051371
193	0xbdce8b4f	-0.10085165
194	0xbd9f6c02	-0.07784273
195	0xbdaa2c76	-0.083092615
196	0x3cf44f2e	0.029822912
197	0xbcebf8c2	-0.02880514
198	0xbcd20098	-0.025635049
199	0xbda050d5	-0.078279175
200	0xbd800cec	-0.06252465
201	0x3e2487cf	0.16067432
202	0x3d158308	0.036501914
203	0x3d83fa72	0.06444253
204	0x3deb0b7c	0.114768
205	0x3cb188f3	0.021671748
206	0x3d8734c0	0.06601858
207	0x3c640063	0.013916108
208	0xbc783f64	-0.015151832
209	0xbd4b4d8a	-0.049634494
210	0x3d3dcb39	0.046336386
211	0xbe18147b	-0.14851563
212	0x3da4ecc1	0.0805297
213	0x3c9dc8ab	0.019260725
214	0xbc615ec5	-0.013755505
215	0xbdaac748	-0.08338791
216	0xbd8e22e5	-0.06940249
217	0xbe0a7beb	-0.13523833
218	0x3d589df7	0.052885022
219	0xbd4aeb29	-0.049540672
220	0xbd43342e	-0.047657184
221	0xbd41e9fb	-0.04734228
222	0xbda6768d	-0.081280805
223	0xbd3a048f	-0.045414504
224	0x3dd85c25	0.1056445
225	0xbcb0c740	-0.021579385
226	0x3dee9e62	0.11651303
227	0xbd9041d4	-0.07043806
228	0x3c21cedf	0.009875982
229	0x3da3d8be	0.08000325
230	0xbd39f16a	-0.045396246
231	0xbdc2a610	-0.0950433
232	0x3d82c614	0.06385437
233	0xbd928a9a	-0.071553424
234	0xbd726cb5	-0.059185702
235	0xbdf86d97	-0.121302776
236	0x3e06e9de	0.13175151
237	0xbd99befe	-0.07507132
238	0xbdb7160c	-0.08939752
239	0x3e15c77f	0.14626883
240	0xbc3881d1	-0.011261419
241	0xbd8863ac	-0.06659636
242	0x3d22c41c	0.039737806
243	0xbdd70324	-0.10498646
244	0xbd9d29a5	-0.07673959
245	0x3b443bde	0.002994291
246	0xbd29a4ae	-0.041416816
247	0x3c2d1497	0.010563991
248	0x3e7248e3	0.23660617
249	0xbdc01835	-0.09379617
250	0x3dc62c48	0.09676415
251	0xbddc0c6e	-0.10744558
252	0xbd2d67a2	-0.04233516
253	0x3cd54cc4	0.026037581
254	0x3d4bbedd	0.04974257
255	0xbce7e0c5	-0.02830542

network_body._body_endoder.seq_layers.2.bias f4 [128]
0	0xb8ac7508	-8.223398e-05
1	0x39f06e84	0.00045858708
2	0xb89c1b4a	-7.443743e-05
3	0x95baad6c	-7.5398413e-26
4	0xba828930	-0.0009959098
5	0xa0ea0825	-3.9646532e-19
6	0xb9022fb8	-0.00012415543
7	0x326819e6	1.3510066e-08
8	0xbb00531d	-0.001958079
9	0xb820cea7	-3.8339433e-05
10	0xb85536af	-5.0834085e-05
11	0xb9d17838	-0.00039953156
12	0x3849eea6	4.8144393e-05
13	0x387ca5d8	6.0235936e-05
14	0xbaa1d507	-0.0012346812
15	0x36272bca	2.4910428e-06
16	0x30b4fa7c	1.3167916e-09
17	0xb91a504a	-0.00014716494
18	0x384e0a58	4.912386e-05
19	0xb732e1ef	-1.0662231e-05
20	0x35b067f2	1.3143274e-06
21	0xba3115c5	-0.0006755258
22	0xb999404c	-0.0002923034
23	0xb8236fd1	-3.8966366e-05
24	0xb95f5297	-0.00021297704
25	0xba0304fb	-0.00049979956
26	0xb912a1e1	-0.0001398395
27	0xb98292b8	-0.00024904846
28	0x3b7df737	0.0038752088
29	0xb8a5482f	-7.881258e-05
30	0xb717ad0c	-9.040592e-06
31	0xb957e04b	-0.00020587553
32	0xba5df7e8	-0.0008467422
33	0xba5e654c	-0.00084837223
34	0xa7430ce5	-2.7068676e-15
35	0xb716287b	-8.950122e-06
36	0xb98990ed	-0.00026238654
37	0xba5f1ed0	-0.00085113663
38	0xb91ad97f	-0.00014767608
39	0xb89d4bf9	-7.5004944e-05
40	0xbb214b69	-0.0024611598
41	0xb8e142dc	-0.000107412896
42	0xbaeb284e	-0.0017941089
43	0xb8997647	-7.3176394e-05
44	0xa7c4d930	-5.4636403e-15
45	0xbace4274	-0.0015736357
46	0xb659bb41	-3.2444516e-06
47	0x1d122f55	1.934741e-21
48	0xb9eb761d	-0.00044910694
49	0xb8f04f22	-0.000114588314
50	0xb8156997	-3.5622706e-05
51	0xb8e06c71	-0.00010701351
52	0xb8fca170	-0.000120463665
53	0xb77a6450	-1.4924517e-05
54	0x3a5136f2	0.0007980905
55	0x311bdce9	2.2681041e-09
56	0xb91e223b	-0.00015080806
57	0xbb151acb	-0.0022751566
58	0xb7e963d4	-2.782225e-05
59	0xb8779ec8	-5.9037266e-05
60	0x2aa1879e	2.8693448e-13
61	0x27ce0444	5.718111e-15
62	0xb87284b1	-5.7820875e-05
63	0xaedccc34	-1.00407155e-10
64	0xa6eebc18	-1.656555e-15
65	0xb7eebdc2	-2.8460174e-05
66	0x2557d9bf	1.8722053e-16
67	0xb18ddb59	-4.128577e-09
68	0xba93648d	-0.0011245176
69	0xba2e436b	-0.00066476193
70	0xba178426	-0.00057798845
71	0x3a3401d7	0.0006866729
72	0x3a54eec0	0.0008122735
73	0xba98cadb	-0.0011657135
74	0x9ac626c5	-8.1953516e-23
75	0xbab200d8	-0.0013580574
76	0x375b468f	1.3069845e-05
77	0xb8a05725	-7.6456265e-05
78	0xb8b32fe2	-8.544304e-05
79	0xb9bbc6ae	-0.00035815447
80	0xb759a803	-1.2973326e-05
81	0x18336b18	2.3189276e-24
82	0xb97f9c37	-0.0002437689
83	0xba2357d8	-0.0006231046
84	0x3a5a4fc8	0.00083279284
85	0xb7b46c8c	-2.1508218e-05
86	0xb7789cef	-1.4818491e-05
87	0xb9801033	-0.00024426132
88	0xbab03da1	-0.0013446101
89	0xb86f687b	-5.7079345e-05
90	0xb91c6ebd	-0.00014918573
91	0x3aabeaf1	0.0013116283
92	0xb7d8d2fc	-2.5847454e-05
93	0x3705aaa8	7.967152e-06
94	0xb95bde4e	-0.00020968282
95	0x2a26d9b8	1.4819298e-13
96	0xb8a42346	-7.8266996e-05
97	0xb854c43b	-5.0727493e-05
98	0xba8d18a1	-0.0010764786
99	0xb8b09129	-8.419372e-05
100	0xba9aa6e8	-0.001179901
101	0xb8da7dbf	-0.00010418472
102	0xb8ae28cc	-8.3045656e-05
103	0xb8518c95	-4.996041e-05
104	0x31653181	3.3352026e-09
105	0xb94fdf43	-0.0001982423
106	0x3b165a1a	0.0022941888
107	0xbae5d8fc	-0.001753598
108	0xba028d68	-0.00049801776
109	0x09f912ce	5.9962253e-33
110	0xb8ccf882	-9.773766e-05
111	0xba5667c2	-0.0008178913
112	0xb8077bc7	-3.2301785e-05
113	0xba8db455	-0.001081119
114	0xb7b60eb1	-2.1702932e-05
115	0x3936716e	0.00017399128
116	0xb866799c	-5.494953e-05
117	0xa1f1dd46	-1.6389366e-18
118	0xbb082499	-0.0020773767
119	0xb9944cf2	-0.00028286088
120	0xb917546f	-0.00014431936
121	0x215a517b	7.396911e-19
122	0xbad4a250	-0.0016222689
123	0xbb341fa5	-0.0027484682
124	0xb9c6bc3b	-0.00037905746
125	0xb9adb07b	-0.0003312862
126	0xb8a80c1d	-8.0131205e-05
127	0xb90d1a4f	-0.00013456609

action_model._continuous_distribution.mu.weight f4 [1, 128]
0	0xbc8847a7	-0.016635729
1	0x3c59c45d	0.013291446
2	0xbca28f22	-0.019843642
3	0x3bec8e7d	0.0072191344
4	0xba57cfa8	-0.00082325423
5	0x3cf42143	0.029801017
6	0x3ba71d74	0.0050999466
7	0xbc08d566	-0.008351659
8	0x3c6e3c7f	0.014540791
9	0x3c8abe1e	0.016936358
10	0x3c1c90fe	0.009556053
11	0x3abf128b	0.001457767
12	0x3cd22ed8	0.025657102
13	0x3cb9b81f	0.022670804
14	0x3ad0bd7f	0.0015925615
15	0x3cdd86d4	0.02704183
16	0xbb81ed72	-0.0039650733
17	0xbbea41e5	-0.0071489685
18	0xbc208949	-0.009798356
19	0x3c9978be	0.018734332
20	0x3cced9cb	0.025250336
21	0xba7d7bae	-0.0009669614
22	0x3c2958b0	0.010336086
23	0x3c9541be	0.018219825
24	0x3cc1ef72	0.023673747
25	0x3bffd2e7	0.007807124
26	0xbbf9970f	-0.0076168845
27	0x3b0e4160	0.0021706447
28	0xbc127771	-0.00893961
29	0xbc9420b7	-0.018082006
30	0x3ca047d9	0.01956551
31	0xbb94deca	-0.00454316
32	0xbbadb028	-0.0053005405
33	0x39a2c2c2	0.00031044154
34	0xbc8cd7f6	-0.017192822
35	0x3ca082c8	0.019593611
36	0x3b333bbb	0.0027348835
37	0xbbbe24cd	-0.005802727
38	0xbbe9e9d6	-0.007138471
39	0xbca0186d	-0.019542897
40	0xbc98727b	-0.018609276
41	0x3cb71816	0.022350352
42	0xbc8cdb04	-0.017194279
43	0xbca82ead	-0.02053007
44	0x3cffe9ea	0.031239469
45	0x39bd1ac9	0.00036068846
46	0x3b29a0a5	0.0025883105
47	0xbc1c7437	-0.009549192
48	0xbb0139ef	-0.001971837
49	0xbc26d7c3	-0.010183278
50	0xbbdda719	-0.0067643044
51	0xbc345341	-0.011006177
52	0xbd711fe2	-0.058868296
53	0x3c8cabff	0.017171858
54	0xbc355a15	-0.0110688405
55	0xbbf74333	-0.0075458526
56	0x3b8f2785	0.0043687248
57	0x39888836	0.00026041426
58	0x3c5b8c48	0.013400145
59	0x3c118851	0.008882598
60	0xbd00bd4f	-0.03143054
61	0xbc459754	-0.012060005
62	0xbd08271e	-0.03324043
63	0x3bcb5272	0.0062048966
64	0xbc6c2405	-0.014412885
65	0x3bd88567	0.0066076997
66	0xbc074ae0	-0.008257598
67	0x3bcab8c7	0.006186578
68	0x3c18bf21	0.009322912
69	0xba9be599	-0.0011893987
70	0xbcb7c162	-0.02243108
71	0x3ceaf0fe	0.028679367
72	0xbcdf5ddb	-0.027266433
73	0x3c3b44b4	0.011429954
74	0x3c9a875b	0.01886337
75	0xbc0597a7	-0.0081538325
76	0x3d28486b	0.04108469
77	0xbc9c2d73	-0.01906464
78	0xbb79e140	-0.0038128644
79	0x3ab964ec	0.0014144457
80	0x3ce47f0e	0.027892616
81	0xbc965e37	-0.018355472
82	0x3b3ff210	0.0029288568
83	0xbb8b4395	-0.0042499998
84	0x3a3087f5	0.00067341264
85	0x3c751443	0.014958444
86	0x3c8c76ff	0.017146586
87	0xbb7f10dd	-0.0038919963
88	0x3c410b75	0.011782517
89	0xbd0ca37f	-0.03433561
90	0xbbec7998	-0.0072166435
91	0x3c402bcd	0.011729193
92	0x3c6393bf	0.013890206
93	0x3d06a827	0.032875206
94	0xbb97eed7	-0.004636626
95	0xbc59b80b	-0.013288508
96	0x3bf16d7e	0.007367789
97	0x3c53a91c	0.012918737
98	0xbcb5d64b	-0.02219691
99	0x3be32f90	0.00693316
100	0x3c3c911e	0.011509208
101	0xbc3f256f	-0.01166664
102	0xbc896143	-0.01677001
103	0x3c1a21ad	0.009407443
104	0xbcfb697e	-0.030689951
105	0x3b9b75cc	0.004744267
106	0xbc04db58	-0.008108936
107	0xbc709cba	-0.014685804
108	0x3c338b3f	0.010958492
109	0xbbab6d09	-0.005231504
110	0xbc512925	-0.012766157
111	0x3ccac87f	0.024753807
112	0x3c4811f3	0.012211311
113	0x3c0fa595	0.008767505
114	0x3c749201	0.014927388
115	0xbd094aaf	-0.03351849
116	0x3c1904e5	0.009339546
117	0x3a192a0b	0.00058427517
118	0x38cda1ae	9.805277e-05
119	0xbb534695	-0.0032238115
120	0x3c3d7411	0.011563317
121	0xbc75753b	-0.014981563
122	0xbc9756c2	-0.018473987
123	0x3c58575b	0.013204421
124	0x3c45d45f	0.012074559
125	0x3cf0fbf6	0.02941702
126	0xbc8eb766	-0.017421436
127	0xbc035d05	-0.008017783

exp_avg f4 [128, 6]
0	0xb847dac8	-4.7649053e-05
1	0x37f10e2f	2.8736044e-05
2	0xbbb5ca6f	-0.0055478136
3	0x39d4bf98	0.0004057854
4	0x37e2ee83	2.7052365e-05
5	0x3badbe97	0.005302261
6	0x24221532	3.5146104e-17
7	0xa170608a	-8.144293e-19
8	0xa51b02bc	-1.3445033e-16
9	0x234e9ef2	1.120094e-17
10	0x215c654c	7.4672965e-19
11	0x2528bd91	1.4635905e-16
12	0xb0d56a8a	-1.552807e-09
13	0xad2bf404	-9.774407e-12
14	0xb12ea1e3	-2.5412354e-09
15	0x300a50a1	5.031869e-10
16	0x2e138934	3.354579e-11
17	0x31e1ea18	6.5749752e-09
18	0xb39fd560	-7.442827e-08
19	0x30573d0c	7.8303297e-10
20	0xb402219f	-1.2119425e-07
21	0x32cea115	2.4054808e-08
22	0x30dc6789	1.6036533e-09
23	0x34a8bf45	3.1431605e-07
24	0xa20eab89	-1.9335399e-18
25	0x9f3799de	-3.8879033e-20
26	0xa265cd53	-3.1143985e-18
27	0x2138d385	6.262157e-19
28	0x1f4525e5	4.1747718e-20
29	0x2316f103	8.1825525e-18
30	0x3919cfea	0.00014668671
31	0xb6b80cbb	-5.4851093e-06
32	0x3a4948c3	0.0007678384
33	0xb892a2e8	-6.992166e-05
34	0xb69c6981	-4.6614446e-06
35	0xba6f8186	-0.0009136427
36	0x361a9f58	2.3040539e-06
37	0x321f8c33	9.286896e-09
38	0x3684be72	3.9560773e-06
39	0xb542db96	-7.259017e-07
40	0xb34fd92d	-4.8393463e-08
41	0xb71f2246	-9.485118e-06
42	0xb906cedb	-0.00012856296
43	0x3749ac91	1.2020712e-05
44	0xb91b2c9d	-0.00014798572
45	0x3755f440	1.2752658e-05
46	0x356437d8	8.501788e-07
47	0x392ebaab	0.00016663472
48	0x39b98abf	0.00035389324
49	0x390d7fa2	0.00013494355
50	0xbcbe4b49	-0.023229258
51	0x3af57842	0.0018727856
52	0x3902eace	0.00012485238
53	0x3cc87789	0.024471061
54	0xb9e15990	-0.00042982074
55	0xb7bf8ad2	-2.2833618e-05
56	0x3ba1e522	0.004940645
57	0xb9e09140	-0.0004283283
58	0xb7ef89e3	-2.8555229e-05
59	0xbbb7658e	-0.005596823
60	0xb9e62a51	-0.00043900547
61	0xb909bdfa	-0.0001313611
62	0x3cc74852	0.024326477
63	0xbafd25fe	-0.0019313691
64	0xb9070334	-0.00012875797
65	0xbccebce5	-0.025236556
66	0xb92c84e4	-0.00016452704
67	0xb6e400f6	-6.7950414e-06
68	0x3a896b07	0.0010484167
69	0xb8974235	-7.212573e-05
70	0xb6a1579d	-4.8083734e-06
71	0xba770e29	-0.0009424412
72	0xb808b7ec	-3.2596217e-05
73	0x363d3801	2.8195793e-06
74	0xb73bf62b	-1.1203384e-05
75	0x378161f5	1.5423613e-05
76	0x358a0211	1.0282403e-06
77	0x39535323	0.00020153499
78	0x39e94e75	0.00044499678
79	0x38ae289c	8.304531e-05
80	0xbc6c8056	-0.014434895
81	0x3a985b6f	0.0011623929
82	0x38a283a8	7.749285e-05
83	0x3c78d99f	0.015188604
84	0x00006326	3.5568e-41
85	0x00000100	3.59e-43
86	0x0000a015	5.7427e-41
87	0x80001f69	-1.1268e-41
88	0x80000217	-7.5e-43
89	0x80019a6b	-1.4723e-40
90	0x000006b5	2.406e-42
91	0x00000017	3.2e-44
92	0x00000abf	3.855e-42
93	0x8000021a	-7.54e-43
94	0x80000024	-5e-44
95	0x80001b79	-9.855e-42
96	0xb5db6475	-1.6346008e-06
97	0xb1c9f35f	-5.877538e-09
98	0xb6327756	-2.659353e-06
99	0x35073829	5.037314e-07
100	0x33103be8	3.3582097e-08
101	0x36dcdbbb	6.582091e-06
102	0x16316bd3	1.433197e-25
103	0x939f906c	-4.0279654e-27
104	0x9735f949	-5.8798896e-25
105	0x157cfa52	5.1088463e-26
106	0x1386ebe7	3.4058973e-27
107	0x174e993b	6.6755594e-25
108	0x3a004a51	0.00048938865
109	0x3692a10c	4.3698874e-06
110	0xbb00e16d	-0.0019665614
111	0x390bc59a	0.00013329685
112	0x37151704	8.886451e-06
113	0x3ae44b4f	0.0017417463
114	0x3964ed65	0.00021832211
115	0x389443db	7.069829e-05
116	0xbc461611	-0.012090222
117	0x3a7fb437	0.0009754332
118	0x38886020	6.50289e-05
119	0x3c50d32d	0.012745661
120	0x38aa1387	8.109869e-05
121	0xb5302d8d	-6.5631394e-07
122	0x3a023a6b	0.00049678114
123	0xb857798e	-5.13732e-05
124	0xb665d6fd	-3.4248799e-06
125	0xba2ff89d	-0.00067127665
126	0x1698ceae	2.4687358e-25
127	0x138f099a	3.6107743e-27
128	0x16f7c2d0	4.0027946e-25
129	0x95c6339d	-8.0052995e-26
130	0x93d36a3c	-5.3368644e-27
131	0x97a1dd5b	-1.0460259e-24
132	0x33e0e309	1.047211e-07
133	0xb07502e9	-8.9134616e-10
134	0x3409bbf5	1.2827498e-07
135	0xb2f243bc	-2.820331e-08
136	0xb101352f	-1.8802202e-09
137	0xb4c5d96f	-3.6852313e-07
138	0xb9d79388	-0.00041117915
139	0xb8f2e76c	-0.00011582565
140	0x3ca8fd42	0.020628575
141	0xbadafd64	-0.0016707596
142	0xb8e996d1	-0.000111383975
143	0xbcb2d777	-0.021831257
144	0xb22eeba0	-1.0181708e-08
145	0xb084cb53	-9.662052e-10
146	0xb3e0a95d	-1.046162e-07
147	0x32864733	1.563203e-08
148	0x308f3ade	1.042135e-09
149	0x345b521b	2.0425834e-07
150	0xb852d53c	-5.026649e-05
151	0x3782d13a	1.5594636e-05
152	0xbb2bf6ea	-0.0026239702
153	0x394d7c28	0.00019596575
154	0x375b2f1a	1.3064384e-05
155	0x3b27d015	0.0025606204
156	0xa9a334af	-7.247793e-14
157	0xa6c6470d	-1.3758268e-15
158	0xaa039258	-1.168591e-13
159	0x28d3514f	2.3460968e-14
160	0x26e167ce	1.5640648e-15
161	0x2aac9377	3.0655662e-13
162	0xa5d28d80	-3.6525077e-16
163	0xa2e72134	-6.264783e-18
164	0xa62a25b9	-5.903172e-16
165	0x25086988	1.1831875e-16
166	0x231181a2	7.8879166e-18
167	0x26dece84	1.5460321e-15
168	0x39eed63c	0.00045554515
169	0x38aeeefd	8.3414816e-05
170	0xbc7fcf83	-0.0156134395
171	0x3aa0a345	0.0012255689
172	0x38ab58d1	8.170459e-05
173	0x3c833001	0.016014101
174	0xb7dc82ca	-2.6286947e-05
175	0x381efe24	3.7906822e-05
176	0xbbe113b4	-0.006868804
177	0x3a11a5d6	0.00055560225
178	0x381b5b8d	3.7040143e-05
179	0x3bede42d	0.0072598667
180	0xb967f449	-0.0002212088
181	0x37819db6	1.5451438e-05
182	0xbabb4124	-0.0014286381
183	0x38f761dc	0.000117961055
184	0x3703eff1	7.864074e-06
185	0x3aca0769	0.0015413585
186	0xa4ca2f44	-8.7683607e-17
187	0x201197f8	1.233226e-19
188	0x26c303ab	1.3531837e-15
189	0xa4d17c43	-9.084981e-17
190	0xa2df7385	-6.0566582e-18
191	0xa6ab1475	-1.1871053e-15
192	0xb5ed5a45	-1.7684148e-06
193	0x31a4edba	4.8000546e-09
194	0xb6405f83	-2.8665825e-06
195	0x351781bc	5.644067e-07
196	0x33219b72	3.762711e-08
197	0x36f77609	7.3749147e-06
198	0x1e8d7471	1.4977115e-20
199	0x9bfbdda7	-4.1667706e-22
200	0xa01a0380	-1.3045465e-19
201	0x1e2519b2	8.740341e-21
202	0x1c301b6a	5.8268947e-22
203	0x2006d4fe	1.1420715e-19
204	0x3929fa6a	0.00016210382
205	0x3893f22f	7.0546164e-05
206	0xbc4e6bd4	-0.01259895
207	0x3a887220	0.0010409988
208	0x38918acd	6.9399925e-05
209	0x3c5edc8a	0.013602385
210	0x13413fd1	2.4391489e-27
211	0x8df29b63	-1.49518095e-30
212	0x139e0a56	3.9895e-27
213	0x92750758	-7.731742e-28
214	0x9082ae96	-5.154495e-29
215	0x94481b55	-1.010281e-26
216	0xb948b446	-0.00019140643
217	0xb718322c	-9.071588e-06
218	0x3b2000ad	0.0024414465
219	0xb93917c6	-0.00017651831
220	0xb7456ead	-1.1767884e-05
221	0xbb1728bf	-0.0023065058
222	0xb849c1ce	-4.810263e-05
223	0xb50a84a8	-5.1602046e-07
224	0xb87845ab	-5.919269e-05
225	0x3779616e	1.4864241e-05
226	0x358500c3	9.909494e-07
227	0x394ba92b	0.00019422609
228	0xb83306d0	-4.268327e-05
229	0x358a62d3	1.0310563e-06
230	0xb901c7b8	-0.000123768
231	0x379cedb6	1.8707342e-05
232	0x35a763f5	1.2471561e-06
233	0x39802887	0.00024444258
234	0xb9879f2a	-0.00025867793
235	0xb8e41e2d	-0.00010877508
236	0x3c98ad79	0.018637406
237	0xbac4efe7	-0.001502511
238	0xb8d210f9	-0.00010016742
239	0xbca0d4fe	-0.019632813
240	0xb97aa088	-0.0002390166
241	0xb85e7ebe	-5.3046962e-05
242	0x3c1f17c1	0.009710253
243	0xba45c232	-0.0007543891
244	0xb852f148	-5.0292612e-05
245	0xbc2180bb	-0.009857352
246	0xb86c6083	-5.635667e-05
247	0x366b66e0	3.507761e-06
248	0xba1deb32	-0.00060241215
249	0x389b33f9	7.4006566e-05
250	0x36a58cc6	4.9337714e-06
251	0x3a7d7f8c	0.000967019
252	0x3a02a560	0.0004983749
253	0x387842df	5.9190086e-05
254	0xbc6cd2c4	-0.014454547
255	0x3a9db746	0.0012032769

exp_avg_sq f4 [128, 6]
0	0x35a469aa	1.2249704e-06
1	0x3222a9ad	9.468221e-09
2	0x39d11318	0.00039877812
3	0x361716c5	2.2514007e-06
4	0x322be7d8	1.0006225e-08
5	0x39c9892a	0.00038439903
6	0x07a7e555	2.5262156e-34
7	0x026cb7aa	1.7391251e-37
8	0x09cab007	4.8795266e-33
9	0x064be7b2	3.835028e-35
10	0x0267ffa6	1.7044567e-37
11	0x0a07fe4d	6.547842e-33
12	0x21e5dd8f	1.557629e-18
13	0x1c8a325c	9.145092e-22
14	0x2299b2b2	4.1659934e-18
15	0x204226e4	1.6445307e-19
16	0x1c5ce6d8	7.309025e-22
17	0x24017d11	2.807835e-17
18	0x28062b4a	7.447881e-15
19	0x23161fe7	8.138272e-18
20	0x28c46257	2.180302e-14
21	0x266583f1	7.962915e-16
22	0x2282919d	3.5390745e-18
23	0x2a1912f3	1.3595704e-13
24	0x045c58f1	2.5901716e-36
25	0x00129845	1.707663e-39
26	0x050d6fcf	6.650324e-36
27	0x02b83db7	2.7071793e-37
28	0x000d1a0f	1.20321e-39
29	0x0675c1d0	4.622177e-35
30	0x34a0cd2d	2.9951607e-07
31	0x2fd27102	3.8279074e-10
32	0x3714187e	8.82719e-06
33	0x3385ce34	6.230803e-08
34	0x2f983dac	2.769246e-10
35	0x37327b4a	1.0638332e-05
36	0x2c2dc54a	2.4694296e-12
37	0x2680df82	8.942366e-16
38	0x2d048e96	7.534992e-12
39	0x2a884f17	2.4213333e-13
40	0x269b16dc	1.0761482e-15
41	0x2e35d22d	4.134131e-11
42	0x329e481c	1.8426412e-08
43	0x2f0a1f8a	1.2562232e-10
44	0x364ecb8d	3.0814874e-06
45	0x331c8618	3.6443538e-08
46	0x2f3216e1	1.6197134e-10
47	0x36d0c90f	6.2222894e-06
48	0x378aecde	1.6561182e-05
49	0x340879c3	1.2710284e-07
50	0x3baef951	0.0053397794
51	0x380ef501	3.4083616e-05
52	0x3422a742	1.5148274e-07
53	0x3bbeb056	0.0058193607
54	0x358340eb	9.779154e-07
55	0x3192156a	4.2515937e-09
56	0x393c6f17	0.00017970461
57	0x35a81f92	1.2526164e-06
58	0x31bf4977	5.5671836e-09
59	0x396041fc	0.00021386886
60	0x37de32e8	2.6488167e-05
61	0x3428dd0d	1.5726637e-07
62	0x3bf0e2ba	0.0073512467
63	0x383d3b22	4.5116183e-05
64	0x34574d7b	2.0051623e-07
65	0x3bfc69bb	0.0077030337
66	0x359c31ea	1.1637433e-06
67	0x30e3585f	1.654154e-09
68	0x388a8a67	6.606132e-05
69	0x34bfa76e	3.5698343e-07
70	0x30da0f41	1.5865923e-09
71	0x387fa525	6.095054e-05
72	0x33edb89b	1.1069752e-07
73	0x2f6d7d75	2.1599596e-10
74	0x37788598	1.4813057e-05
75	0x339c9687	7.291697e-08
76	0x2fb22994	3.2407554e-10
77	0x3750def8	1.244968e-05
78	0x370f785c	8.551488e-06
79	0x33583826	5.0342486e-08
80	0x3b0be061	0.0021343457
81	0x3765a030	1.368676e-05
82	0x3382a1ab	6.083004e-08
83	0x3b1925c7	0.0023368464
84	0x00000000	0.0
85	0x00000000	0.0
86	0x00000000	0.0
87	0x00000000	0.0
88	0x00000000	0.0
89	0x00000000	0.0
90	0x00000000	0.0
91	0x00000000	0.0
92	0x00000000	0.0
93	0x00000000	0.0
94	0x00000000	0.0
95	0x00000000	0.0
96	0x2d3e5325	1.0818711e-11
97	0x27545aa7	2.9470053e-15
98	0x2def11b4	2.7179016e-11
99	0x2b70b446	8.551531e-13
100	0x2788ef19	3.8006813e-15
101	0x2f208952	1.4600701e-10
102	0x00000000	0.0
103	0x00000000	0.0
104	0x00000000	0.0
105	0x00000000	0.0
106	0x00000000	0.0
107	0x00000000	0.0
108	0x3639c69e	2.7682759e-06
109	0x316bf4a8	3.4336072e-09
110	0x393f5938	0.00018248416
111	0x358dbe5f	1.0560724e-06
112	0x31a145d3	4.693655e-09
113	0x393d11f6	0.00018031136
114	0x36692862	3.4743211e-06
115	0x32fd75a1	2.9506568e-08
116	0x3a9e9d5b	0.0012101339
117	0x3701d703	7.7390605e-06
118	0x3313ba9c	3.4395825e-08
119	0x3aad312b	0.0013213506
120	0x33834402	6.1125334e-08
121	0x2f76a518	2.2432223e-10
122	0x36709b5a	3.5853213e-06
123	0x32cb94a0	2.3699897e-08
124	0x2ee7a11f	1.0533285e-10
125	0x3687c6e4	4.0464674e-06
126	0x00000000	0.0
127	0x00000000	0.0
128	0x00000000	0.0
129	0x00000000	0.0
130	0x00000000	0.0
131	0x00000000	0.0
132	0x280493f0	7.359551e-15
133	0x22e851ae	6.2970208e-18
134	0x28ef84f7	2.6591995e-14
135	0x26764ee3	8.5455306e-16
136	0x228c1f39	3.7980134e-18
137	0x2a24461c	1.459045e-13
138	0x3769e3e8	1.3940946e-05
139	0x33d123d9	9.7388416e-08
140	0x3b84aaa1	0.004048661
141	0x37d980c5	2.5928379e-05
142	0x33f7784f	1.1523718e-07
143	0x3b910ffd	0.004426955
144	0x288b15dd	1.5441582e-14
145	0x2402d679	2.8370922e-17
146	0x2b201a12	5.68796e-13
147	0x27d002be	5.773457e-15
148	0x23ecab84	2.5659811e-17
149	0x2b8abb4d	9.857476e-13
150	0x338bfeb3	6.5190214e-08
151	0x30a33102	1.187374e-09
152	0x3862c670	5.406741e-05
153	0x34bb616e	3.4902354e-07
154	0x30d5328f	1.5512159e-09
155	0x3879f1e4	5.9591504e-05
156	0x13a19973	4.0793426e-27
157	0x0e699224	2.8789831e-30
158	0x144f3cb0	1.0462798e-26
159	0x1206ff99	4.2597993e-28
160	0x0e199921	1.8932435e-30
161	0x15b412a7	7.273085e-26
162	0x0c07c2ab	1.0458602e-31
163	0x06c1687a	7.2752046e-35
164	0x0caeb94b	2.6920464e-31
165	0x0a6312b2	1.09331686e-32
166	0x06812de8	4.859186e-35
167	0x0e1771ec	1.8667038e-30
168	0x370d26d0	8.413292e-06
169	0x334e978b	4.810094e-08
170	0x3b124a9f	0.002232231
171	0x37686002	1.3850631e-05
172	0x33843212	6.155837e-08
173	0x3b1afb31	0.0023648257
174	0x3572aeeb	9.0406564e-07
175	0x3214d0bf	8.662197e-09
176	0x39e66676	0.00043945358
177	0x3633c92c	2.6790176e-06
178	0x324c8e68	1.1906742e-08
179	0x39efd074	0.00045740942
180	0x34624b93	2.1075384e-07
181	0x3082dbcf	9.521218e-10
182	0x37b849da	2.19689e-05
183	0x34195c26	1.4282759e-07
184	0x302e7d54	6.3478933e-10
185	0x37cc90ad	2.4386065e-05
186	0x0cb8d36b	2.8476931e-31
187	0x0958cb69	2.6095697e-33
188	0x10f22ff7	9.552607e-29
189	0x0cf516b4	3.776189e-31
190	0x090b6d9a	1.678305e-33
191	0x10a375e5	6.447381e-29
192	0x2c1b5eca	2.2079443e-12
193	0x26ff5360	1.7716778e-15
194	0x2ce0fa11	6.394226e-12
195	0x2a807c8b	2.2823787e-13
196	0x26923068	1.0143906e-15
197	0x2e2b62fe	3.896882e-11
198	0x000e0979	1.289095e-39
199	0x0000024e	8.27e-43
200	0x01f321c2	8.931254e-38
201	0x0004b286	4.31384e-40
202	0x00000566	1.937e-42
203	0x01c88172	7.365414e-38
204	0x363f43a1	2.8500583e-06
205	0x32e401a4	2.654344e-08
206	0x3a8ee871	0.0010903013
207	0x36f0bafa	7.1743243e-06
208	0x3308f2e6	3.1885882e-08
209	0x3aa08dc3	0.001224928
210	0x00000000	0.0
211	0x00000000	0.0
212	0x00000000	0.0
213	0x00000000	0.0
214	0x00000000	0.0
215	0x00000000	0.0
216	0x35264463	6.1939335e-07
217	0x31016b5e	1.8833002e-09
218	0x38e124a2	0.000107356595
219	0x35259c98	6.1695164e-07
220	0x313c6de7	2.7420073e-09
221	0x38dce852	0.000105336905
222	0x32058893	7.772672e-09
223	0x2d29bd55	9.648578e-12
224	0x32d816e5	2.515612e-08
225	0x30519664	7.6247475e-10
226	0x2c6e76c1	3.3887756e-12
227	0x340bc87d	1.3018321e-07
228	0x30db9ae9	1.5978375e-09
229	0x2d04a5b7	7.540127e-12
230	0x33ffd8a7	1.1913772e-07
231	0x30f36074	1.7707991e-09
232	0x2d0a744e	7.870217e-12
233	0x34a2519f	3.023424e-07
234	0x376224a2	1.3479179e-05
235	0x33c1c196	9.022476e-08
236	0x3b836e8f	0.0040109823
237	0x37d55d09	2.5434902e-05
238	0x33f2c2a4	1.1304408e-07
239	0x3b8e4d3a	0.004342702
240	0x36b0c4bc	5.2681116e-06
241	0x32f4d734	2.8503202e-08
242	0x3aa52fd5	0.0012602756
243	0x36ff0713	7.6004158e-06
244	0x33111516	3.377962e-08
245	0x3aaa16d3	0.0012976773
246	0x32931ace	1.7125242e-08
247	0x2e19e734	3.4993522e-11
248	0x34b8fd85	3.445713e-07
249	0x31e77aa4	6.7369275e-09
250	0x2e03af97	2.9941907e-11
251	0x359a623a	1.1502482e-06
252	0x36b1f4cc	5.303509e-06
253	0x3318bdc0	3.5562834e-08
254	0x3ac9a720	0.001538489
255	0x3722d312	9.705096e-06

exp_avg f4 [128]
0	0x3862ee80	5.410472e-05
1	0x21dc6548	1.4934589e-18
2	0x2e938934	6.709158e-11
3	0x315c6787	3.2073062e-09
4	0x1fc525e5	8.3495437e-20
5	0xb71c697f	-9.322887e-06
6	0xb3cfd92b	-9.678691e-08
7	0x35e437cb	1.7003562e-06
8	0x3982eacb	0.00024970467
9	0xb86f89e3	-5.7110457e-05
10	0xb9870334	-0.00025751593
11	0xb72157a5	-9.616754e-06
12	0x360a0210	2.0564803e-06
13	0x392283ab	0.00015498574
14	0x8000042f	-1.501e-42
15	0x80000046	-9.8e-44
16	0x33903be8	6.7164194e-08
17	0x1406ebe6	6.811794e-27
18	0x3795170b	1.7772914e-05
19	0x39086020	0.0001300578
20	0xb6e5d6ff	-6.8497607e-06
21	0x94536a3c	-1.0673729e-26
22	0xb181352f	-3.7604404e-09
23	0xb96996d0	-0.00022276794
24	0x310f3ad8	2.0842688e-09
25	0x37db2f1a	2.6128768e-05
26	0x276167ce	3.1281295e-15
27	0x239181a0	1.577583e-17
28	0x392b58d3	0.0001634092
29	0x389b5b8d	7.4080286e-05
30	0x3783efef	1.5728145e-05
31	0xa35f7382	-1.2113314e-17
32	0x33a19b72	7.525422e-08
33	0x1cb01b6c	1.1653791e-21
34	0x39118acd	0.00013879985
35	0x9102ae96	-1.030899e-28
36	0xb7c56eab	-2.3535764e-05
37	0x360500c3	1.9818988e-06
38	0x362763f4	2.494312e-06
39	0xb95210fa	-0.00020033485
40	0xb8d2f146	-0.00010058521
41	0x37258cc4	9.867541e-06
42	0x39283af5	0.00016043692
43	0xb570f05c	-8.9756736e-07
44	0x36bf1254	5.6943773e-06
45	0x379649e0	1.7915794e-05
46	0x38d5be68	0.000101920974
47	0xb8eed775	-0.000113888564
48	0x0595255b	1.4025615e-35
49	0xb9afee2d	-0.00033556056
50	0xb898b4ad	-7.281578e-05
51	0x3902fdbe	0.00012492292
52	0xb8944323	-7.069695e-05
53	0x37f92929	2.970228e-05
54	0x38bb50a4	8.931875e-05
55	0xb8e859fe	-0.000110793844
56	0x38de0b31	0.000105878695
57	0x38b81120	8.7769935e-05
58	0xb63248bf	-2.656641e-06
59	0xb93ce8de	-0.00018015827
60	0x99454b1a	-1.0199828e-23
61	0x9868bb99	-3.008001e-24
62	0xb96c69bd	-0.00022546104
63	0x9e956bf0	-1.582063e-20
64	0x381e426f	3.7732007e-05
65	0x38dc9256	0.00010517675
66	0xb60447f1	-1.9711408e-06
67	0xa1e4dffd	-1.550917e-18
68	0xb90b3807	-0.00013276945
69	0x384ca0c2	4.8787108e-05
70	0xae4ea20f	-4.6982914e-11
71	0x140fad25	7.253802e-27
72	0xb89aed61	-7.3875075e-05
73	0x38fb1fcc	0.00011974535
74	0x34c5e58d	3.686113e-07
75	0xb6a20a66	-4.8291868e-06
76	0xb8165cd8	-3.5849254e-05
77	0xb8404a42	-4.5845525e-05
78	0xb157747d	-3.1352834e-09
79	0x3887c52d	6.4740285e-05
80	0x38f20a17	0.000115413386
81	0x38a197af	7.7053315e-05
82	0x964f2782	-1.6733793e-25
83	0x38a3c212	7.808594e-05
84	0x9de40b1c	-6.0362584e-21
85	0xb535847d	-6.762055e-07
86	0xa6c8ed44	-1.3942099e-15
87	0xb99bf54c	-0.00029746664
88	0xb934d05d	-0.00017243759
89	0x979165c5	-9.396096e-25
90	0x39334374	0.00017095899
91	0x2b81f5a1	9.234177e-13
92	0x8916ccce	-1.8151892e-33
93	0x34b20a04	3.316237e-07
94	0x1f43652b	4.137654e-20
95	0x3853e288	5.0517294e-05
96	0x92e69a35	-1.4553056e-27
97	0xb874a881	-5.8331065e-05
98	0xb79ff24c	-1.9067105e-05
99	0xb84a209c	-4.8190923e-05
100	0x07427b96	1.4631257e-34
101	0x393554a1	0.00017293032
102	0xb7cf0815	-2.4680086e-05
103	0xb8ec96bb	-0.00011281433
104	0x378a3cda	1.6479218e-05
105	0x3726eac2	9.94903e-06
106	0x37c5523f	2.3522529e-05
107	0x288cf877	1.5650877e-14
108	0x3889b6a3	6.566688e-05
109	0x3952fc1d	0.0002012108
110	0xb985953d	-0.00025478928
111	0x3981015e	0.00024605816
112	0xa085200a	-2.2552278e-19
113	0x3975d1f4	0.00023443234
114	0xb8bbdd92	-8.9581255e-05
115	0x00000000	0.0
116	0xb9adcfc6	-0.00033151935
117	0xb88406e4	-6.295534e-05
118	0x15c90da2	8.120476e-26
119	0x3697d926	4.52543e-06
120	0x38f6a2f9	0.0001176055
121	0xb7687e96	-1.3857751e-05
122	0x2d43c0c2	1.11272675e-11
123	0xa21e2538	-2.1432696e-18
124	0xb8e3f903	-0.000108705855
125	0x395b45c6	0.0002091146
126	0x37fc8a98	3.0105279e-05
127	0x388df5c9	6.769185e-05

exp_avg_sq f4 [128]
0	0x332be7d7	4.0024897e-08
1	0x0367ffa4	6.817826e-37
2	0x1d5ce6d7	2.9236099e-21
3	0x2382919c	1.4156296e-17
4	0x00346801	4.812755e-39
5	0x30983dac	1.1076984e-09
6	0x279b16db	4.3045922e-15
7	0x303216e1	6.4788536e-10
8	0x3522a742	6.0593095e-07
9	0x32bf4977	2.2268734e-08
10	0x35574d7d	8.02065e-07
11	0x31da0f42	6.3463697e-09
12	0x30b22993	1.2963021e-09
13	0x3482a1ab	2.4332016e-07
14	0x00000000	0.0
15	0x00000000	0.0
16	0x2888ef19	1.5202725e-14
17	0x00000000	0.0
18	0x32a145d2	1.8774617e-08
19	0x3413ba9d	1.3758331e-07
20	0x2fe7a120	4.2133141e-10
21	0x00000000	0.0
22	0x238c1f39	1.5192054e-17
23	0x34f7784f	4.609487e-07
24	0x24ecab86	1.0263926e-16
25	0x31d5328f	6.2048637e-09
26	0x0f199921	7.572974e-30
27	0x07812de8	1.9436744e-34
28	0x34843212	2.4623347e-07
29	0x334c8e69	4.7626973e-08
30	0x312e7d55	2.5391576e-09
31	0x0a0b6d9b	6.713221e-33
32	0x2792306a	4.057563e-15
33	0x0000155d	7.664e-42
34	0x3408f2e7	1.2754354e-07
35	0x00000000	0.0
36	0x323c6de8	1.096803e-08
37	0x2d6e76c1	1.3555102e-11
38	0x2e0a744e	3.1480867e-11
39	0x34f2c2a5	4.5217635e-07
40	0x34111516	1.3511848e-07
41	0x2f03af96	1.1976761e-10
42	0x3439421b	1.7253517e-07
43	0x2c955a91	4.2448896e-12
44	0x2fd6e986	3.9092302e-10
45	0x30f22caf	1.7620517e-09
46	0x33fde397	1.1822629e-07
47	0x3428304c	1.566379e-07
48	0x00000000	0.0
49	0x35909904	1.077337e-06
50	0x335030e7	4.847325e-08
51	0x33b48b5e	8.407254e-08
52	0x3391cc91	6.789299e-08
53	0x31c0902b	5.6043254e-09
54	0x338e9379	6.6392154e-08
55	0x341fbca6	1.4876659e-07
56	0x34138558	1.3738952e-07
57	0x33c57d98	9.196373e-08
58	0x2c52d1fd	2.9959362e-12
59	0x34a54375	3.0782726e-07
60	0x00000000	0.0
61	0x00000000	0.0
62	0x350f6e92	5.343255e-07
63	0x000cfde9	1.193112e-39
64	0x32268019	9.691598e-09
65	0x3405e7c2	1.2470903e-07
66	0x2cbd4a8c	5.3799794e-12
67	0x080beed6	4.210954e-34
68	0x342bf533	1.6014819e-07
69	0x32f22c77	2.8192728e-08
70	0x1faef4d1	7.409688e-20
71	0x00000000	0.0
72	0x3398aac5	7.1091144e-08
73	0x33c3d5fe	9.11932e-08
74	0x2c08604f	1.9380224e-12
75	0x2ec108b8	8.7781726e-11
76	0x322964e1	9.860032e-09
77	0x32c9e840	2.3505095e-08
78	0x2586bc3f	2.3372855e-16
79	0x330e0034	3.3062136e-08
80	0x33fc1c1c	1.17397775e-07
81	0x33c6a601	9.2502894e-08
82	0x00000000	0.0
83	0x3320bba6	3.742357e-08
84	0x00004bee	2.7238e-41
85	0x2af53a54	4.3561216e-13
86	0x0f7ff42e	1.2619498e-29
87	0x3564feae	8.5307227e-07
88	0x34547b38	1.9788865e-07
89	0x00000000	0.0
90	0x3481d98c	2.418641e-07
91	0x1a4c4ec4	4.2249838e-23
92	0x00000000	0.0
93	0x2b8e6e70	1.0120359e-12
94	0x000b8b10	1.060077e-39
95	0x32a17704	1.8796989e-08
96	0x00000000	0.0
97	0x33bc2c36	8.762474e-08
98	0x310f3ac3	2.084264e-09
99	0x335a45b5	5.082048e-08
100	0x00000000	0.0
101	0x348cc6f0	2.6221778e-07
102	0x32947527	1.7282742e-08
103	0x340bae1e	1.3008727e-07
104	0x31b0c536	5.1446944e-09
105	0x2fe40fec	4.1484272e-10
106	0x321b1e51	9.029081e-09
107	0x11481fbc	1.5786997e-28
108	0x332da6cf	4.0431413e-08
109	0x34f79288	4.611395e-07
110	0x35372c78	6.8237523e-07
111	0x3525c33e	6.1751405e-07
112	0x022bd2df	1.2623613e-37
113	0x35154d7f	5.5619597e-07
114	0x33ba8270	8.6850264e-08
115	0x00000000	0.0
116	0x359b36e4	1.1564375e-06
117	0x33a87bc7	7.8456246e-08
118	0x00000000	0.0
119	0x3038ac23	6.718343e-10
120	0x340e026c	1.3225662e-07
121	0x3101c6ae	1.8884907e-09
122	0x1c87fc1f	8.998722e-22
123	0x047ffbd0	3.0090733e-36
124	0x3419c36c	1.432033e-07
125	0x34f09e58	4.4818694e-07
126	0x32368928	1.062498e-08
127	0x331c24aa	3.6354926e-08
