Shortcut Run/results/Test5/Move/Move-4719.onnx (onnx, 71941 bytes, 5 tensors)

network_body._body_endoder.seq_layers.0.weight f4 [128, 6]
0.4660707 0.47559243 0.46012473 0.034913693 0.43167466 0.08121913 0.3416612 -0.446085
0.7888342 -0.16054018 0.23829436 0.6068756 -0.3965129 0.6036387 -1.1858839 -0.16483912
0.30822578 -0.92683023 -0.015480217 -0.26265678 -0.42833462 -0.4114476 -0.2651359 -0.24383092
0.87267417 -0.019362513 0.8599755 0.23485957 0.73563087 0.32555366 0.054890353 0.18017715
0.57004356 0.49677473 -0.79187584 0.32026923 0.021607554 0.7969568 -0.53088206 0.37879857
-0.76723087 -0.34418246 -0.65095216 -0.2750237 0.10838628 -0.012040913 0.48121482 0.38602522
-0.08389548 0.50751597 -0.33824968 -0.72015667 0.25009578 -0.40415385 0.67191964 -0.016123584
-0.172472 0.16369294 0.09947669 0.0509064 -0.24829188 -0.33365157 -0.23792231 0.18817268
0.13807328 -0.22994162 0.19829862 -0.36401296 0.31409496 -0.32145345 0.0879581 0.43326655
-0.3022554 0.4276662 -0.3061945 -0.009098017 -0.23331118 -0.059524816 -0.20957936 -0.50223714
0.49166974 0.55588436 -0.34357 -0.20585127 -1.1351268 -0.4160214 0.1832983 0.17002703
-0.3046529 -0.30513301 -0.18993196 -0.54426724 0.445132 -0.382168 0.8506512 0.015462149
0.13024715 -0.5360211 0.11439131 -0.77526927 -0.13007747 -0.6596225 0.9852606 0.18977824
-0.56047755 0.074898414 0.1909497 0.015289294 -0.19441687 0.30783427 -0.3929425 -0.6121916
0.015241913 -0.28703803 0.49117967 -0.024478173 0.34769008 -0.22637156 -0.55046535 0.35731497
0.038243163 -0.85752636 -0.50153553 -1.161951 0.036618575 0.44136596 0.5428281 0.123483956
0.43774143 -0.024031244 -0.08785912 0.7858221 -0.0765755 0.33730993 -0.7352148 0.045950495
-0.02923609 0.15057129 -0.096557684 0.41023576 0.47410828 -0.018434873 -0.2718131 -0.24990551
-0.25804406 0.35440785 0.010604718 0.6792881 0.18027034 -0.39204893 0.19628677 -0.007863322
-0.18603727 -0.10740957 -0.5544963 0.14119151 -0.04148614 -0.20153649 -0.17819172 0.1439922
-0.084010124 -0.23931642 -0.26605493 -0.34655926 0.24205056 0.4055027 0.17304252 -0.24137351
0.14837804 0.38989437 -0.39547676 0.046765573 0.14409582 0.546013 -0.19547068 0.14168458
0.3791804 -0.15591575 0.4244366 0.48885545 0.13320579 -0.06580859 0.5288332 0.2973032
0.029179377 -0.20505953 0.38968587 0.7708485 0.13437599 0.4742354 0.7165031 -0.5456357
-0.09421346 -0.21357018 -0.22991863 0.37342525 -0.12150357 0.4562643 0.08958259 -0.0036604987
0.043469105 -0.31211662 -0.57182217 0.6241796 0.11253101 0.17774363 0.29948214 0.41562378
-0.0930019 -0.4219352 0.4700229 -0.04135732 -0.5712576 -0.18324152 -0.41227016 0.5565686
0.5168584 -0.40684858 0.15848906 -0.121792026 0.33286226 -0.39708784 -1.2500595 0.24525194
0.80212635 0.0886798 0.33572993 -0.26554647 0.58219826 0.3439334 0.029285679 -0.22849923
0.776857 -0.46751204 -0.03645303 -0.08503523 -0.23965739 -0.9127339 -0.4859928 0.134874
-0.80735415 -0.5763302 0.93142295 -0.7029611 0.06997397 0.4479613 -0.15365992 0.09873044
0.37930107 0.72850686 -0.3127943 0.7002658 0.5648098 -0.3701908 -0.67815113 -0.20668961
00000000: d2a0 ee3e da80 f33e 7895 eb3e a901 0f3d
00000010: 7604 dd3e 3756 a63d 38ee ae3e 4165 e4be
00000020: 0af1 493f a564 24be 7003 743e 335c 1b3f
00000030: bd03 cbbe 1188 1a3f 0bcb 97bf 96cb 28be
00000040: c5cf 9d3e bf44 6dbf bca0 7dbc f37a 86be
00000050: ad4e dbbe 43a9 d2be e5bf 87be d0ae 79be
00000060: 9367 5f3f 229e 9ebc 5b27 5c3f 077f 703e
00000070: 4e52 3c3f f8ae a63e b5d4 603d 5c80 383e
00000080: 60ee 113f 4259 fe3e 60b8 4abf 54fa a33e
00000090: 5302 b13c 5c05 4c3f e3e7 07bf e3f1 c13e
000000a0: 3e69 44bf af38 b0be cda4 26bf e8cf 8cbe
000000b0: a0f9 dd3d 4047 45bc ca61 f63e 19a5 c53e
000000c0: 65d1 abbd 91ec 013f 102f adbe 305c 38bf
000000d0: 8e0c 803e 41ed cebe ed02 2c3f 9b15 84bc
000000e0: 809c 30be 1f9f 273e 6fba cb3d 3b83 503d
000000f0: 3a40 7ebe 61d4 aabe e8a1 73be 57b0 403e
00000100: 1563 0d3e d175 6bbe cb0e 4b3e e85f babe
00000110: 0ed1 a03e 8c95 a4be 6023 b43d 1dd5 dd3e
00000120: 38c1 9abe 10f7 da3e 87c5 9cbe d90f 15bc
00000130: 20e9 6ebe 4bd0 73bd f99b 56be 9d92 00bf
00000140: 23bc fb3e 704e 0e3f 68e8 afbe adca 52be
00000150: d64b 91bf c200 d5be 8db2 3b3e 911b 2e3e
00000160: 77fb 9bbe 653a 9cbe 867d 42be 1955 0bbf
00000170: 57e8 e33e 86ab c3be 47c4 593f f454 7d3c
00000180: 825f 053e ae38 09bf fe45 ea3d 0c78 46bf
00000190: 0733 05be 05dd 28bf 0a3a 7c3f 3a55 423e
000001a0: 757b 0fbf 5764 993d 5188 433e f27f 7a3c
000001b0: 3715 47be 749c 9d3e c22f c9be 97b8 1cbf
000001c0: 37b9 793c a6f6 92be e77b fb3e 7386 c8bc
000001d0: 6f04 b23e f2cd 67be 4ceb 0cbf fdf1 b63e
000001e0: dda4 1c3d d986 5bbf a264 00bf cfba 94bf
000001f0: 5cfd 153d b8fa e13e c8f6 0a3f 28e5 fc3d
00000200: a51f e03e 2cdd c4bc 7bef b3bd a32b 493f
00000210: 9ed3 9cbd e3b3 ac3e 0a37 3cbf 9636 3c3d
00000220: 8680 efbc 5c2f 1a3e 09c0 c5bd 6c0a d23e
00000230: 52be f23e bb04 97bc 162b 8bbe 3be7 7fbe
00000240: 5a1e 84be f274 b53e 69bf 2d3c d3e5 2d3f
00000250: ca98 383e a3ba c8be 66ff 483e 2ad5 00bc
00000260: 8e80 3ebe 8cf9 dbbd 78f3 0dbf 8294 103e
00000270: 5fed 29bd 955f 4ebe e477 36be b172 133e
00000280: 800d acbd 5d0f 75be 5a38 88be 3770 b1be
00000290: 1adc 773e 0d9e cf3e 0f32 313e 9e2a 77be
000002a0: 6af0 173e 3ca0 c73e ee7b cabe 428d 3f3d
000002b0: db8d 133e 82c7 0b3f 7729 48be c315 113e
000002c0: ef23 c23e 61a8 1fbe c14f d93e 434b fa3e
000002d0: 1967 083e a7c6 86bd 9d61 073f 2038 983e
000002e0: 9709 ef3c 20fb 51be e884 c73e 5456 453f
000002f0: dc99 093e fbce f23e bf6c 373f c8ae 0bbf
00000300: fdf2 c0bd 24b2 5abe ca6f 6bbe 9831 bf3e
00000310: ddd6 f8bd 799b e93e 1477 b73d fae4 6fbb
00000320: a90c 323d c0cd 9fbe f062 12bf 3cca 1f3f
00000330: a876 e63d 6d02 363e b955 993e a4cc d43e
00000340: c877 bebd e407 d8be d7a6 f03e 4b66 29bd
00000350: f03d 12bf aaa3 3bbe 1315 d3be 487b 0e3f
00000360: d550 043f 754e d0be f54a 223e 196e f9bd
00000370: ec6c aa3e 194f cbbe f301 a0bf 5323 7b3e
00000380: 2758 4d3f c19d b53d cbe4 ab3e b5f5 87be
00000390: f20a 153f 0a18 b03e 85e8 ef3c b4fb 69be
000003a0: 1ae0 463f bd5d efbe c64f 15bd f326 aebd
000003b0: bf68 75be eea8 69bf 0cd4 f8be 691c 0a3e
000003c0: c3ae 4ebf 608a 13bf bc71 6e3f 42f5 33bf
000003d0: 834e 8f3d 2f5b e53e 0759 1dbe 2f33 ca3d
000003e0: c033 c23e 6d7f 3a3f 9326 a0be 9f44 333f
000003f0: 6097 103f a689 bdbe 509b 2dbf 71a6 53be

network_body._body_endoder.seq_layers.0.bias f4 [128]
0.0 0.0 0.0 0.0 0.0 0.0 0.0 0.0
0.0 0.0 0.0 0.0 0.0 0.0 0.0 0.0
0.0 0.0 0.0 0.0 0.0 0.0 0.0 0.0
0.0 0.0 0.0 0.0 0.0 0.0 0.0 0.0
0.0 0.0 0.0 0.0 0.0 0.0 0.0 0.0
0.0 0.0 0.0 0.0 0.0 0.0 0.0 0.0
0.0 0.0 0.0 0.0 0.0 0.0 0.0 0.0
0.0 0.0 0.0 0.0 0.0 0.0 0.0 0.0
0.0 0.0 0.0 0.0 0.0 0.0 0.0 0.0
0.0 0.0 0.0 0.0 0.0 0.0 0.0 0.0
0.0 0.0 0.0 0.0 0.0 0.0 0.0 0.0
0.0 0.0 0.0 0.0 0.0 0.0 0.0 0.0
0.0 0.0 0.0 0.0 0.0 0.0 0.0 0.0
0.0 0.0 0.0 0.0 0.0 0.0 0.0 0.0
0.0 0.0 0.0 0.0 0.0 0.0 0.0 0.0
0.0 0.0 0.0 0.0 0.0 0.0 0.0 0.0
00000000: 0000 0000 0000 0000 0000 0000 0000 0000
00000010: 0000 0000 0000 0000 0000 0000 0000 0000
00000020: 0000 0000 0000 0000 0000 0000 0000 0000
00000030: 0000 0000 0000 0000 0000 0000 0000 0000
00000040: 0000 0000 0000 0000 0000 0000 0000 0000
00000050: 0000 0000 0000 0000 0000 0000 0000 0000
00000060: 0000 0000 0000 0000 0000 0000 0000 0000
00000070: 0000 0000 0000 0000 0000 0000 0000 0000
00000080: 0000 0000 0000 0000 0000 0000 0000 0000
00000090: 0000 0000 0000 0000 0000 0000 0000 0000
000000a0: 0000 0000 0000 0000 0000 0000 0000 0000
000000b0: 0000 0000 0000 0000 0000 0000 0000 0000
000000c0: 0000 0000 0000 0000 0000 0000 0000 0000
000000d0: 0000 0000 0000 0000 0000 0000 0000 0000
000000e0: 0000 0000 0000 0000 0000 0000 0000 0000
000000f0: 0000 0000 0000 0000 0000 0000 0000 0000
00000100: 0000 0000 0000 0000 0000 0000 0000 0000
00000110: 0000 0000 0000 0000 0000 0000 0000 0000
00000120: 0000 0000 0000 0000 0000 0000 0000 0000
00000130: 0000 0000 0000 0000 0000 0000 0000 0000
00000140: 0000 0000 0000 0000 0000 0000 0000 0000
00000150: 0000 0000 0000 0000 0000 0000 0000 0000
00000160: 0000 0000 0000 0000 0000 0000 0000 0000
00000170: 0000 0000 0000 0000 0000 0000 0000 0000
00000180: 0000 0000 0000 0000 0000 0000 0000 0000
00000190: 0000 0000 0000 0000 0000 0000 0000 0000
000001a0: 0000 0000 0000 0000 0000 0000 0000 0000
000001b0: 0000 0000 0000 0000 0000 0000 0000 0000
000001c0: 0000 0000 0000 0000 0000 0000 0000 0000
000001d0: 0000 0000 0000 0000 0000 0000 0000 0000
000001e0: 0000 0000 0000 0000 0000 0000 0000 0000
000001f0: 0000 0000 0000 0000 0000 0000 0000 0000

network_body._body_endoder.seq_layers.2.weight f4 [128, 128]
0.037683245 -0.017140448 0.035837922 -0.024364937 0.042861227 0.09940174 0.0029502243 0.0068152566
-0.15722214 0.08192157 0.15586206 -0.05450987 -0.08079574 0.070331365 -0.10393679 -0.013458458
0.07371987 0.039221045 0.047174096 0.054905068 0.005979486 -0.07751978 -0.06837677 -0.07852169
0.10636013 0.044814985 -0.011409115 -0.044004988 -0.03954606 0.021642094 -0.0014661604 0.015178283
-0.11355811 -0.0938062 0.025786895 -0.1336063 0.033390466 0.0015789539 0.11089038 -0.036407407
-0.09565434 -0.060247663 0.023439314 -0.09210581 -0.0066693053 -0.09834616 -0.015932871 -0.06376205
0.0037497992 0.00892336 -0.17632648 -0.027827596 -0.015642291 -0.11003399 0.01911936 0.079959385
-0.1547504 -0.08278173 -0.075555764 -0.0057138493 -0.081160605 -0.04387618 0.15374804 -0.055819057
-0.1081887 0.018788401 0.09488197 -0.020797443 -0.10542063 0.0065752883 0.03877236 0.015298747
-0.15891501 -0.034373976 0.03258625 -0.057131127 -0.031812467 -0.1337881 0.18162361 -0.02640852
0.099703036 -0.06404207 -0.017426288 -0.099699445 -0.07994341 -0.078161396 0.079980835 0.11588634
0.0074040764 0.0012621835 -0.086680055 -0.02087239 0.18999392 -0.02506924 -0.009882756 -0.18777864
0.064205885 -0.13948531 0.05232732 -0.033323444 -0.18263157 0.008926636 -0.040388625 -0.1701865
-0.018799648 0.0037102078 0.19281837 -0.16742136 0.040048536 -0.061295267 -0.024254726 -0.06682038
-0.00510129 0.12955381 0.05572576 0.00057478953 0.11326241 0.04542852 0.0323198 -0.06205971
-0.04203078 0.009115292 0.11289535 -0.03361901 0.11853963 0.025070678 -0.12281508 0.13364473
0.10067796 -0.03752166 -0.0100313015 -0.050859276 -0.0011685254 -0.022897758 0.102015905 -0.14545675
-0.0028306653 0.053151038 -0.0033945811 -0.03880486 0.0029016333 0.058194786 0.13264899 0.038339846
0.0058326093 0.073915154 -0.033029873 -0.06128504 0.12620461 -0.11189427 -0.013248929 0.024827901
0.01671446 0.029398317 0.11597593 -0.11007258 -0.06392224 -0.06566437 0.076427154 0.035967357
0.097305626 0.044568248 0.19041185 -0.15272672 0.12501656 -0.01695414 0.047819994 -0.002731747
-0.15371905 0.013053922 0.047236126 0.10071589 -0.076609015 -0.054188855 0.18336058 0.01878484
0.11993686 -0.0998765 -0.07680426 0.07915221 -0.05448302 0.17777742 0.19377494 0.14061576
0.068197995 0.20450687 0.0020164761 0.03375382 -0.03552366 -0.029655173 -0.09688007 0.05047014
-0.044276156 -0.079142116 0.018825222 -0.02143723 -0.0860855 -0.03550373 -0.03016659 -0.05082181
-0.074790336 0.045451388 -0.038568117 0.07367959 0.0031579135 0.0028152626 -0.007638712 -0.009037717
0.041048847 0.13356073 0.074274644 0.08885234 0.041803144 -0.040779345 -0.10262704 0.07353168
0.082087696 -0.053891774 -0.15048008 -0.119993106 -0.09272603 0.101525106 -0.08789604 -0.033678338
-0.12874821 -0.064550504 -0.018708685 -0.11794459 0.13111116 0.032915466 0.12309594 -0.018137285
0.09498654 -0.12397409 -0.10762222 0.008381987 0.0333049 0.0006352463 -0.16482182 0.119938746
0.0047036344 -0.09366604 -0.06892648 0.029420797 -0.0878507 0.06240809 0.03825796 0.088069394
-0.046318278 -0.016928295 0.025021717 -0.0030405861 -0.06447443 0.0420419 0.19111425 -0.0900061
00000000: bf59 1a3d 206a 8cbc c9ca 123d fa98 c7bc
00000010: 418f 2f3d 2493 cb3d 8d58 413b 8452 df3b
00000020: d7fe 20be 7fc6 a73d 4e9a 1f3e be45 5fbd
00000030: 3d78 a5bd e409 903d d0dc d4bd dd80 5cbc
00000040: 71fa 963d 3fa6 203d a039 413d 23e4 603d
00000050: 90ef c33b b1c2 9ebd 1f09 8cbd fbcf a0bd
00000060: 57d3 d93d eb8f 373d 4ced 3abc 933e 34bd
00000070: 0dfb 21bd c34a b13c 2e2c c0ba 55ae 783c
00000080: 2891 e8bd 771d c0bd 0a3f d33c 17d0 08be
00000090: 71c4 083d e7f4 ce3a 7f1a e33d ef1f 15bd
000000a0: 6ce6 c3bd 41c6 76bd ce03 c03c f9a1 bcbd
000000b0: 308a dabb b669 c9bd a785 82bc ad95 82bd
000000c0: 31bf 753b 4933 123c ee8e 34be b3f6 e3bc
000000d0: 4324 80bc 8059 e1bd 34a0 9c3c bfc1 a33d
000000e0: e476 1ebe 7889 a9bd fbbc 9abd 3e3b bbbb
000000f0: 8837 a6bd 82b7 33bd 2070 1d3e 86a2 64bd
00000100: 0a92 ddbd 22ea 993c 7a51 c23d 665f aabc
00000110: c5e6 d7bd 8475 d73b c4cf 1e3d 99a7 7a3c
00000120: 9eba 22be bacb 0cbd 2979 053d 5402 6abd
00000130: ca4d 02bd bfff 08be 8afb 393e ae56 d8bc
00000140: 1b31 cc3d 7d28 83bd 93c1 8ebc 392f ccbd
00000150: 5fb9 a3bd 1513 a0bd fecc a33d d155 ed3d
00000160: e59d f23b da6f a53a 5085 b1bd 93fc aabc
00000170: c48d 423e 025e cdbc 48eb 21bc 0b49 40be
00000180: 607e 833d 3dd5 0ebe 2c55 563d 2a7e 08bd
00000190: c503 3bbe 0641 123c 8b6e 25bd 5f45 2ebe
000001a0: b801 9abc f526 733b 2e72 453e 8170 2bbe
000001b0: ef09 243d bf10 7bbd d9b1 c6bc 20d9 88bd
000001c0: b928 a7bb c1a9 043e b240 643d 79ad 163a
000001d0: 1ff6 e73d 4113 3a3d c461 043d 5332 7ebd
000001e0: 7828 2cbd 4e58 153c ad35 e73d 16b4 09bd
000001f0: e8c4 f23d 0661 cd3c 7986 fbbd 2ada 083e
00000200: 3f30 ce3d 50b0 19bd 545a 24bc d151 50bd
00000210: 3529 99ba 1494 bbbc b7ed d03d 9df2 14be
00000220: af82 39bb e7b4 593d 9f77 5ebb d8f1 1ebd
00000230: 5429 3e3b a85d 6e3d 23d5 073e 3e0a 1d3d
00000240: 791f bf3b d460 973d 554a 07bd 0606 7bbd
00000250: c83b 013e d328 e5bd 0912 59bc e263 cb3c
00000260: c3ec 883c bdd4 f03c ca84 ed3d bc6d e1bd
00000270: aae9 82bd 0b7b 86bd d785 9c3d 8252 133d
00000280: 2c48 c73d 328d 363d 53fb 423e 6564 1cbe
00000290: 5704 003e 69e3 8abc e6de 433d 1c07 33bb
000002a0: 8768 1dbe 1ee0 553c ab7a 413d 2244 ce3d
000002b0: 30e5 9cbd 22f5 5dbd e0c2 3b3e aae2 993c
000002c0: 75a1 f53d 0d8c ccbd 8d4b 9dbd 8e1a a23d
000002d0: 9629 5fbd 490b 363e f06c 463e 94fd 0f3e
000002e0: 64ab 8b3d 406a 513e db26 043b 7241 0a3d
000002f0: 4281 11bd 68ef f2bc 0f69 c6bd c7b9 4e3d
00000300: ea5a 35bd 4315 a2bd 5a37 9a3c 219d afbc
00000310: 984d b0bd 5c6c 11bd ed1f f7bc 882a 50bd
00000320: ad2b 99bd 3c2b 3a3d 9af9 1dbd 53e5 963d
00000330: fff4 4e3b 4580 383b 294e fabb ef12 14bc
00000340: d622 283d 25c4 083e 4e1d 983d 37f8 b53d
00000350: c639 2b3d 3e08 27bd 202e d2bd c797 963d
00000360: 981d a83d 9fbd 5cbd 7317 1abe f2be f5bd
00000370: 25e7 bdbd 65ec cf3d d702 b4bd 4cf2 09bd
00000380: 92d6 03be 0e33 84bd f542 99bc ef8c f1bd
00000390: 0142 063e 5ed2 063d b919 fc3d a594 94bc
000003a0: 4e88 c23d 21e6 fdbd 0a69 dcbd 9a54 093c
000003b0: b86a 083d a886 263a 0dc7 28be 72a2 f53d
000003c0: f220 9a3b fbd3 bfbd 5429 8dbd e203 f13c
000003d0: 11eb b3bd a09f 7f3d 61b4 1c3d ba5d b43d
000003e0: 3cb8 3dbd 35ad 8abc 58fa cc3c 9244 47bb
000003f0: 2c0b 84bd 2134 2c3d 74b3 433e 1e55 b8bd

network_body._body_endoder.seq_layers.2.bias f4 [128]
0.0 0.0 0.0 0.0 0.0 0.0 0.0 0.0
0.0 0.0 0.0 0.0 0.0 0.0 0.0 0.0
0.0 0.0 0.0 0.0 0.0 0.0 0.0 0.0
0.0 0.0 0.0 0.0 0.0 0.0 0.0 0.0
0.0 0.0 0.0 0.0 0.0 0.0 0.0 0.0
0.0 0.0 0.0 0.0 0.0 0.0 0.0 0.0
0.0 0.0 0.0 0.0 0.0 0.0 0.0 0.0
0.0 0.0 0.0 0.0 0.0 0.0 0.0 0.0
0.0 0.0 0.0 0.0 0.0 0.0 0.0 0.0
0.0 0.0 0.0 0.0 0.0 0.0 0.0 0.0
0.0 0.0 0.0 0.0 0.0 0.0 0.0 0.0
0.0 0.0 0.0 0.0 0.0 0.0 0.0 0.0
0.0 0.0 0.0 0.0 0.0 0.0 0.0 0.0
0.0 0.0 0.0 0.0 0.0 0.0 0.0 0.0
0.0 0.0 0.0 0.0 0.0 0.0 0.0 0.0
0.0 0.0 0.0 0.0 0.0 0.0 0.0 0.0
00000000: 0000 0000 0000 0000 0000 0000 0000 0000
00000010: 0000 0000 0000 0000 0000 0000 0000 0000
00000020: 0000 0000 0000 0000 0000 0000 0000 0000
00000030: 0000 0000 0000 0000 0000 0000 0000 0000
00000040: 0000 0000 0000 0000 0000 0000 0000 0000
00000050: 0000 0000 0000 0000 0000 0000 0000 0000
00000060: 0000 0000 0000 0000 0000 0000 0000 0000
00000070: 0000 0000 0000 0000 0000 0000 0000 0000
00000080: 0000 0000 0000 0000 0000 0000 0000 0000
00000090: 0000 0000 0000 0000 0000 0000 0000 0000
000000a0: 0000 0000 0000 0000 0000 0000 0000 0000
000000b0: 0000 0000 0000 0000 0000 0000 0000 0000
000000c0: 0000 0000 0000 0000 0000 0000 0000 0000
000000d0: 0000 0000 0000 0000 0000 0000 0000 0000
000000e0: 0000 0000 0000 0000 0000 0000 0000 0000
000000f0: 0000 0000 0000 0000 0000 0000 0000 0000
00000100: 0000 0000 0000 0000 0000 0000 0000 0000
00000110: 0000 0000 0000 0000 0000 0000 0000 0000
00000120: 0000 0000 0000 0000 0000 0000 0000 0000
00000130: 0000 0000 0000 0000 0000 0000 0000 0000
00000140: 0000 0000 0000 0000 0000 0000 0000 0000
00000150: 0000 0000 0000 0000 0000 0000 0000 0000
00000160: 0000 0000 0000 0000 0000 0000 0000 0000
00000170: 0000 0000 0000 0000 0000 0000 0000 0000
00000180: 0000 0000 0000 0000 0000 0000 0000 0000
00000190: 0000 0000 0000 0000 0000 0000 0000 0000
000001a0: 0000 0000 0000 0000 0000 0000 0000 0000
000001b0: 0000 0000 0000 0000 0000 0000 0000 0000
000001c0: 0000 0000 0000 0000 0000 0000 0000 0000
000001d0: 0000 0000 0000 0000 0000 0000 0000 0000
000001e0: 0000 0000 0000 0000 0000 0000 0000 0000
000001f0: 0000 0000 0000 0000 0000 0000 0000 0000

action_model._continuous_distribution.mu.weight f4 [1, 128]
0.026361888 0.0014796718 -0.029606834 0.004610806 0.0007399808 0.0052264375 0.00787739 0.0057600075
-0.036663283 -0.04482783 0.0069770827 0.028730387 0.0028566269 0.00959004 0.033727642 0.028017154
0.0015473216 -0.019288369 0.0025945832 -0.018959723 -0.0028741274 0.011360578 0.026025984 -0.020523136
0.007549575 -0.015076399 0.029638713 -0.0055392915 0.008905589 0.020702237 -0.008162901 0.0085130185
-0.034013014 0.01126369 0.014698981 -0.03198036 0.0035806831 -0.0027031687 0.0065018754 -0.02551036
0.0048811506 -0.0018216394 0.011830385 -0.0023755745 0.014165619 -0.011297898 -0.00350567 0.00598654
0.017094573 -0.0003924543 0.016926713 -0.0035842543 -0.017482784 0.008322628 0.0047373907 0.0029323935
-0.013076211 0.027511466 0.024971059 0.0006997578 0.009021495 0.012738763 -0.029628178 0.010252303
0.011727418 0.014027068 0.00033125648 0.031114826 0.03081794 -0.026413295 -0.024629101 0.017685086
-0.01161994 0.0030250887 -0.0053394428 0.000984643 0.025457725 -0.0089563355 -0.0057352944 -0.02061817
0.010447311 -0.0052197166 0.045657486 -0.018754236 0.0073918127 -0.020723477 -0.033837583 -0.014261
0.02207981 -0.02310548 0.0059045395 0.01492993 0.0017659381 0.01772854 0.0015911473 0.008984812
-0.015472777 0.0024870662 -0.006472658 0.018751737 -0.014878589 -0.0034660138 -0.0029005995 0.018403031
0.042198308 -0.0055348366 -0.013274275 0.013431828 0.0101748295 0.012880457 0.028648479 0.010983861
0.010356873 0.008927058 -0.028139863 -0.025345236 0.013489126 -0.014799103 -0.0036432536 0.0013445541
0.0057947845 -0.018963564 0.032344326 0.039214645 0.0033432313 -0.017101323 -0.020198083 0.009671262
00000000: e3f4 d73c 8cf1 c13a 088a f2bc 3e16 973b
00000010: 45fb 413a 8942 ab3b 2b10 013c 72be bc3b
00000020: 3d2c 16bd 639d 37bd 03a0 e43b fd5b eb3c
00000030: 3f36 3b3b 8b1f 1d3c ff25 0a3d 3b84 e53c
00000040: 7fcf ca3a a402 9ebc e209 2a3b 6c51 9bbc
00000050: db5b 3cbb b821 3a3c 7234 d53c 2320 a8bc
00000060: 6d62 f73b 0003 77bc e3cc f23c f282 b5bb
00000070: bfe8 113c bd97 a93c b0bd 05bc 307a 0b3c
00000080: 3b51 0bbd 578b 383c ffd3 703c d7fd 02bd
00000090: e5a9 6a3b a527 31bb af0d d53b 1afb d0bc
000000a0: 0ff2 9f3b 13c4 eeba 3bd4 413c 87af 1bbb
000000b0: ea16 683c d21a 39bc 62bf 65bb bd2a c43b
000000c0: eb09 8c3c 53c2 cdb9 e4a9 8a3c cfe5 6abb
000000d0: 0e38 8fbc a25b 083c 1d3c 9b3b 662d 403b
000000e0: 9b3d 56bc ba5f e13c 1b90 cc3c f36f 373a
000000f0: e4ce 133c 3fb6 503c cbb6 f2bc 47f9 273c
00000100: 5b24 403c cad1 653c 7eac ad39 85e4 fe3c
00000110: e875 fc3c b260 d8bc f8c2 c9bc 50e0 903c
00000120: 9061 3ebc 9140 463b 7ef6 aebb 230f 813a
00000130: b88c d03c 98bd 12bc 23ef bbbb 70e7 a8bc
00000140: 332b 2b3c 280a abbb 5803 3b3d 7ca2 99bc
00000150: 0537 f23b 48c4 a9bc 4799 0abd f8a6 69bc
00000160: b8e0 b43c b447 bdbc de7a c13b aa9c 743c
00000170: 0d77 e73a 713b 913c 0b8e d03a 0835 133c
00000180: 8881 7dbc 0cfe 223b 9718 d4bb 3e9d 993c
00000190: 53c5 73bc 1026 63bb fc17 3ebb f4c1 963c
000001a0: 22d8 2c3d 935d b5bb 587c 59bc 2b11 5c3c
000001b0: 54b4 263c 8d08 533c 37b0 ea3c a7f5 333c
000001c0: e0af 293c cc42 123c 9285 e6bc d0a0 cfbc
000001d0: 7f01 5d3c f077 72bc a7c3 6ebb c03b b03a
000001e0: 2de2 bd3b 7a59 9bbc 7c7b 043d 899f 203d
000001f0: 1d1a 5b3b 1318 8cbc 7376 a5bc 3774 1e3c
