Shortcut Run/results/Test5/Move/Move-4719.pt (torch, 149007 bytes, 10 tensors)

network_body._body_endoder.seq_layers.0.weight f4 [128, 6]
0.4660707 0.47559243 0.46012473 0.034913693 0.43167466 0.08121913 0.3416612 -0.446085
0.7888342 -0.16054018 0.23829436 0.6068756 -0.3965129 0.6036387 -1.1858839 -0.16483912
0.30822578 -0.92683023 -0.015480217 -0.26265678 -0.42833462 -0.4114476 -0.2651359 -0.24383092
0.87267417 -0.019362513 0.8599755 0.23485957 0.73563087 0.32555366 0.054890353 0.18017715
0.57004356 0.49677473 -0.79187584 0.32026923 0.021607554 0.7969568 -0.53088206 0.37879857
-0.76723087 -0.34418246 -0.65095216 -0.2750237 0.10838628 -0.012040913 0.48121482 0.38602522
-0.08389548 0.50751597 -0.33824968 -0.72015667 0.25009578 -0.40415385 0.67191964 -0.016123584
-0.172472 0.16369294 0.09947669 0.0509064 -0.24829188 -0.33365157 -0.23792231 0.18817268
0.13807328 -0.22994162 0.19829862 -0.36401296 0.31409496 -0.32145345 0.0879581 0.43326655
-0.3022554 0.4276662 -0.3061945 -0.009098017 -0.23331118 -0.059524816 -0.20957936 -0.50223714
0.49166974 0.55588436 -0.34357 -0.20585127 -1.1351268 -0.4160214 0.1832983 0.17002703
-0.3046529 -0.30513301 -0.18993196 -0.54426724 0.445132 -0.382168 0.8506512 0.015462149
0.13024715 -0.5360211 0.11439131 -0.77526927 -0.13007747 -0.6596225 0.9852606 0.18977824
-0.56047755 0.074898414 0.1909497 0.015289294 -0.19441687 0.30783427 -0.3929425 -0.6121916
0.015241913 -0.28703803 0.49117967 -0.024478173 0.34769008 -0.22637156 -0.55046535 0.35731497
0.038243163 -0.85752636 -0.50153553 -1.161951 0.036618575 0.44136596 0.5428281 0.123483956
0.43774143 -0.024031244 -0.08785912 0.7858221 -0.0765755 0.33730993 -0.7352148 0.045950495
-0.02923609 0.15057129 -0.096557684 0.41023576 0.47410828 -0.018434873 -0.2718131 -0.24990551
-0.25804406 0.35440785 0.010604718 0.6792881 0.18027034 -0.39204893 0.19628677 -0.007863322
-0.18603727 -0.10740957 -0.5544963 0.14119151 -0.04148614 -0.20153649 -0.17819172 0.1439922
-0.084010124 -0.23931642 -0.26605493 -0.34655926 0.24205056 0.4055027 0.17304252 -0.24137351
0.14837804 0.38989437 -0.39547676 0.046765573 0.14409582 0.546013 -0.19547068 0.14168458
0.3791804 -0.15591575 0.4244366 0.48885545 0.13320579 -0.06580859 0.5288332 0.2973032
0.029179377 -0.20505953 0.38968587 0.7708485 0.13437599 0.4742354 0.7165031 -0.5456357
-0.09421346 -0.21357018 -0.22991863 0.37342525 -0.12150357 0.4562643 0.08958259 -0.0036604987
0.043469105 -0.31211662 -0.57182217 0.6241796 0.11253101 0.17774363 0.29948214 0.41562378
-0.0930019 -0.4219352 0.4700229 -0.04135732 -0.5712576 -0.18324152 -0.41227016 0.5565686
0.5168584 -0.40684858 0.15848906 -0.121792026 0.33286226 -0.39708784 -1.2500595 0.24525194
0.80212635 0.0886798 0.33572993 -0.26554647 0.58219826 0.3439334 0.029285679 -0.22849923
0.776857 -0.46751204 -0.03645303 -0.08503523 -0.23965739 -0.9127339 -0.4859928 0.134874
-0.80735415 -0.5763302 0.93142295 -0.7029611 0.06997397 0.4479613 -0.15365992 0.09873044
0.37930107 0.72850686 -0.3127943 0.7002658 0.5648098 -0.3701908 -0.67815113 -0.20668961
00000000: d2a0 ee3e da80 f33e 7895 eb3e a901 0f3d
00000010: 7604 dd3e 3756 a63d 38ee ae3e 4165 e4be
00000020: 0af1 493f a564 24be 7003 743e 335c 1b3f
00000030: bd03 cbbe 1188 1a3f 0bcb 97bf 96cb 28be
00000040: c5cf 9d3e bf44 6dbf bca0 7dbc f37a 86be
00000050: ad4e dbbe 43a9 d2be e5bf 87be d0ae 79be
00000060: 9367 5f3f 229e 9ebc 5b27 5c3f 077f 703e
00000070: 4e52 3c3f f8ae a63e b5d4 603d 5c80 383e
00000080: 60ee 113f 4259 fe3e 60b8 4abf 54fa a33e
00000090: 5302 b13c 5c05 4c3f e3e7 07bf e3f1 c13e
000000a0: 3e69 44bf af38 b0be cda4 26bf e8cf 8cbe
000000b0: a0f9 dd3d 4047 45bc ca61 f63e 19a5 c53e
000000c0: 65d1 abbd 91ec 013f 102f adbe 305c 38bf
000000d0: 8e0c 803e 41ed cebe ed02 2c3f 9b15 84bc
000000e0: 809c 30be 1f9f 273e 6fba cb3d 3b83 503d
000000f0: 3a40 7ebe 61d4 aabe e8a1 73be 57b0 403e
00000100: 1563 0d3e d175 6bbe cb0e 4b3e e85f babe
00000110: 0ed1 a03e 8c95 a4be 6023 b43d 1dd5 dd3e
00000120: 38c1 9abe 10f7 da3e 87c5 9cbe d90f 15bc
00000130: 20e9 6ebe 4bd0 73bd f99b 56be 9d92 00bf
00000140: 23bc fb3e 704e 0e3f 68e8 afbe adca 52be
00000150: d64b 91bf c200 d5be 8db2 3b3e 911b 2e3e
00000160: 77fb 9bbe 653a 9cbe 867d 42be 1955 0bbf
00000170: 57e8 e33e 86ab c3be 47c4 593f f454 7d3c
00000180: 825f 053e ae38 09bf fe45 ea3d 0c78 46bf
00000190: 0733 05be 05dd 28bf 0a3a 7c3f 3a55 423e
000001a0: 757b 0fbf 5764 993d 5188 433e f27f 7a3c
000001b0: 3715 47be 749c 9d3e c22f c9be 97b8 1cbf
000001c0: 37b9 793c a6f6 92be e77b fb3e 7386 c8bc
000001d0: 6f04 b23e f2cd 67be 4ceb 0cbf fdf1 b63e
000001e0: dda4 1c3d d986 5bbf a264 00bf cfba 94bf
000001f0: 5cfd 153d b8fa e13e c8f6 0a3f 28e5 fc3d
00000200: a51f e03e 2cdd c4bc 7bef b3bd a32b 493f
00000210: 9ed3 9cbd e3b3 ac3e 0a37 3cbf 9636 3c3d
00000220: 8680 efbc 5c2f 1a3e 09c0 c5bd 6c0a d23e
00000230: 52be f23e bb04 97bc 162b 8bbe 3be7 7fbe
00000240: 5a1e 84be f274 b53e 69bf 2d3c d3e5 2d3f
00000250: ca98 383e a3ba c8be 66ff 483e 2ad5 00bc
00000260: 8e80 3ebe 8cf9 dbbd 78f3 0dbf 8294 103e
00000270: 5fed 29bd 955f 4ebe e477 36be b172 133e
00000280: 800d acbd 5d0f 75be 5a38 88be 3770 b1be
00000290: 1adc 773e 0d9e cf3e 0f32 313e 9e2a 77be
000002a0: 6af0 173e 3ca0 c73e ee7b cabe 428d 3f3d
000002b0: db8d 133e 82c7 0b3f 7729 48be c315 113e
000002c0: ef23 c23e 61a8 1fbe c14f d93e 434b fa3e
000002d0: 1967 083e a7c6 86bd 9d61 073f 2038 983e
000002e0: 9709 ef3c 20fb 51be e884 c73e 5456 453f
000002f0: dc99 093e fbce f23e bf6c 373f c8ae 0bbf
00000300: fdf2 c0bd 24b2 5abe ca6f 6bbe 9831 bf3e
00000310: ddd6 f8bd 799b e93e 1477 b73d fae4 6fbb
00000320: a90c 323d c0cd 9fbe f062 12bf 3cca 1f3f
00000330: a876 e63d 6d02 363e b955 993e a4cc d43e
00000340: c877 bebd e407 d8be d7a6 f03e 4b66 29bd
00000350: f03d 12bf aaa3 3bbe 1315 d3be 487b 0e3f
00000360: d550 043f 754e d0be f54a 223e 196e f9bd
00000370: ec6c aa3e 194f cbbe f301 a0bf 5323 7b3e
00000380: 2758 4d3f c19d b53d cbe4 ab3e b5f5 87be
00000390: f20a 153f 0a18 b03e 85e8 ef3c b4fb 69be
000003a0: 1ae0 463f bd5d efbe c64f 15bd f326 aebd
000003b0: bf68 75be eea8 69bf 0cd4 f8be 691c 0a3e
000003c0: c3ae 4ebf 608a 13bf bc71 6e3f 42f5 33bf
000003d0: 834e 8f3d 2f5b e53e 0759 1dbe 2f33 ca3d
000003e0: c033 c23e 6d7f 3a3f 9326 a0be 9f44 333f
000003f0: 6097 103f a689 bdbe 509b 2dbf 71a6 53be

network_body._body_endoder.seq_layers.0.bias f4 [128]
0.0 0.0 0.0 0.0 0.0 0.0 0.0 0.0
0.0 0.0 0.0 0.0 0.0 0.0 0.0 0.0
0.0 0.0 0.0 0.0 0.0 0.0 0.0 0.0
0.0 0.0 0.0 0.0 0.0 0.0 0.0 0.0
0.0 0.0 0.0 0.0 0.0 0.0 0.0 0.0
0.0 0.0 0.0 0.0 0.0 0.0 0.0 0.0
0.0 0.0 0.0 0.0 0.0 0.0 0.0 0.0
0.0 0.0 0.0 0.0 0.0 0.0 0.0 0.0
0.0 0.0 0.0 0.0 0.0 0.0 0.0 0.0
0.0 0.0 0.0 0.0 0.0 0.0 0.0 0.0
0.0 0.0 0.0 0.0 0.0 0.0 0.0 0.0
0.0 0.0 0.0 0.0 0.0 0.0 0.0 0.0
0.0 0.0 0.0 0.0 0.0 0.0 0.0 0.0
0.0 0.0 0.0 0.0 0.0 0.0 0.0 0.0
0.0 0.0 0.0 0.0 0.0 0.0 0.0 0.0
0.0 0.0 0.0 0.0 0.0 0.0 0.0 0.0
00000000: 0000 0000 0000 0000 0000 0000 0000 0000
00000010: 0000 0000 0000 0000 0000 0000 0000 0000
00000020: 0000 0000 0000 0000 0000 0000 0000 0000
00000030: 0000 0000 0000 0000 0000 0000 0000 0000
00000040: 0000 0000 0000 0000 0000 0000 0000 0000
00000050: 0000 0000 0000 0000 0000 0000 0000 0000
00000060: 0000 0000 0000 0000 0000 0000 0000 0000
00000070: 0000 0000 0000 0000 0000 0000 0000 0000
00000080: 0000 0000 0000 0000 0000 0000 0000 0000
00000090: 0000 0000 0000 0000 0000 0000 0000 0000
000000a0: 0000 0000 0000 0000 0000 0000 0000 0000
000000b0: 0000 0000 0000 0000 0000 0000 0000 0000
000000c0: 0000 0000 0000 0000 0000 0000 0000 0000
000000d0: 0000 0000 0000 0000 0000 0000 0000 0000
000000e0: 0000 0000 0000 0000 0000 0000 0000 0000
000000f0: 0000 0000 0000 0000 0000 0000 0000 0000
00000100: 0000 0000 0000 0000 0000 0000 0000 0000
00000110: 0000 0000 0000 0000 0000 0000 0000 0000
00000120: 0000 0000 0000 0000 0000 0000 0000 0000
00000130: 0000 0000 0000 0000 0000 0000 0000 0000
00000140: 0000 0000 0000 0000 0000 0000 0000 0000
00000150: 0000 0000 0000 0000 0000 0000 0000 0000
00000160: 0000 0000 0000 0000 0000 0000 0000 0000
00000170: 0000 0000 0000 0000 0000 0000 0000 0000
00000180: 0000 0000 0000 0000 0000 0000 0000 0000
00000190: 0000 0000 0000 0000 0000 0000 0000 0000
000001a0: 0000 0000 0000 0000 0000 0000 0000 0000
000001b0: 0000 0000 0000 0000 0000 0000 0000 0000
000001c0: 0000 0000 0000 0000 0000 0000 0000 0000
000001d0: 0000 0000 0000 0000 0000 0000 0000 0000
000001e0: 0000 0000 0000 0000 0000 0000 0000 0000
000001f0: 0000 0000 0000 0000 0000 0000 0000 0000

network_body._body_endoder.seq_layers.2.weight f4 [128, 128]
0.037683245 -0.017140448 0.035837922 -0.024364937 0.042861227 0.09940174 0.0029502243 0.0068152566
-0.15722214 0.08192157 0.15586206 -0.05450987 -0.08079574 0.070331365 -0.10393679 -0.013458458
0.07371987 0.039221045 0.047174096 0.054905068 0.005979486 -0.07751978 -0.06837677 -0.07852169
0.10636013 0.044814985 -0.011409115 -0.044004988 -0.03954606 0.021642094 -0.0014661604 0.015178283
-0.11355811 -0.0938062 0.025786895 -0.1336063 0.033390466 0.0015789539 0.11089038 -0.036407407
-0.09565434 -0.060247663 0.023439314 -0.09210581 -0.0066693053 -0.09834616 -0.015932871 -0.06376205
0.0037497992 0.00892336 -0.17632648 -0.027827596 -0.015642291 -0.11003399 0.01911936 0.079959385
-0.1547504 -0.08278173 -0.075555764 -0.0057138493 -0.081160605 -0.04387618 0.15374804 -0.055819057
-0.1081887 0.018788401 0.09488197 -0.020797443 -0.10542063 0.0065752883 0.03877236 0.015298747
-0.15891501 -0.034373976 0.03258625 -0.057131127 -0.031812467 -0.1337881 0.18162361 -0.02640852
0.099703036 -0.06404207 -0.017426288 -0.099699445 -0.07994341 -0.078161396 0.079980835 0.11588634
0.0074040764 0.0012621835 -0.086680055 -0.02087239 0.18999392 -0.02506924 -0.009882756 -0.18777864
0.064205885 -0.13948531 0.05232732 -0.033323444 -0.18263157 0.008926636 -0.040388625 -0.1701865
-0.018799648 0.0037102078 0.19281837 -0.16742136 0.040048536 -0.061295267 -0.024254726 -0.06682038
-0.00510129 0.12955381 0.05572576 0.00057478953 0.11326241 0.04542852 0.0323198 -0.06205971
-0.04203078 0.009115292 0.11289535 -0.03361901 0.11853963 0.025070678 -0.12281508 0.13364473
0.10067796 -0.03752166 -0.0100313015 -0.050859276 -0.0011685254 -0.022897758 0.102015905 -0.14545675
-0.0028306653 0.053151038 -0.0033945811 -0.03880486 0.0029016333 0.058194786 0.13264899 0.038339846
0.0058326093 0.073915154 -0.033029873 -0.06128504 0.12620461 -0.11189427 -0.013248929 0.024827901
0.01671446 0.029398317 0.11597593 -0.11007258 -0.06392224 -0.06566437 0.076427154 0.035967357
0.097305626 0.044568248 0.19041185 -0.15272672 0.12501656 -0.01695414 0.047819994 -0.002731747
-0.15371905 0.013053922 0.047236126 0.10071589 -0.076609015 -0.054188855 0.18336058 0.01878484
0.11993686 -0.0998765 -0.07680426 0.07915221 -0.05448302 0.17777742 0.19377494 0.14061576
0.068197995 0.20450687 0.0020164761 0.03375382 -0.03552366 -0.029655173 -0.09688007 0.05047014
-0.044276156 -0.079142116 0.018825222 -0.02143723 -0.0860855 -0.03550373 -0.03016659 -0.05082181
-0.074790336 0.045451388 -0.038568117 0.07367959 0.0031579135 0.0028152626 -0.007638712 -0.009037717
0.041048847 0.13356073 0.074274644 0.08885234 0.041803144 -0.040779345 -0.10262704 0.07353168
0.082087696 -0.053891774 -0.15048008 -0.119993106 -0.09272603 0.101525106 -0.08789604 -0.033678338
-0.12874821 -0.064550504 -0.018708685 -0.11794459 0.13111116 0.032915466 0.12309594 -0.018137285
0.09498654 -0.12397409 -0.10762222 0.008381987 0.0333049 0.0006352463 -0.16482182 0.119938746
0.0047036344 -0.09366604 -0.06892648 0.029420797 -0.0878507 0.06240809 0.03825796 0.088069394
-0.046318278 -0.016928295 0.025021717 -0.0030405861 -0.06447443 0.0420419 0.19111425 -0.0900061
00000000: bf59 1a3d 206a 8cbc c9ca 123d fa98 c7bc
00000010: 418f 2f3d 2493 cb3d 8d58 413b 8452 df3b
00000020: d7fe 20be 7fc6 a73d 4e9a 1f3e be45 5fbd
00000030: 3d78 a5bd e409 903d d0dc d4bd dd80 5cbc
00000040: 71fa 963d 3fa6 203d a039 413d 23e4 603d
00000050: 90ef c33b b1c2 9ebd 1f09 8cbd fbcf a0bd
00000060: 57d3 d93d eb8f 373d 4ced 3abc 933e 34bd
00000070: 0dfb 21bd c34a b13c 2e2c c0ba 55ae 783c
00000080: 2891 e8bd 771d c0bd 0a3f d33c 17d0 08be
00000090: 71c4 083d e7f4 ce3a 7f1a e33d ef1f 15bd
000000a0: 6ce6 c3bd 41c6 76bd ce03 c03c f9a1 bcbd
000000b0: 308a dabb b669 c9bd a785 82bc ad95 82bd
000000c0: 31bf 753b 4933 123c ee8e 34be b3f6 e3bc
000000d0: 4324 80bc 8059 e1bd 34a0 9c3c bfc1 a33d
000000e0: e476 1ebe 7889 a9bd fbbc 9abd 3e3b bbbb
000000f0: 8837 a6bd 82b7 33bd 2070 1d3e 86a2 64bd
00000100: 0a92 ddbd 22ea 993c 7a51 c23d 665f aabc
00000110: c5e6 d7bd 8475 d73b c4cf 1e3d 99a7 7a3c
00000120: 9eba 22be bacb 0cbd 2979 053d 5402 6abd
00000130: ca4d 02bd bfff 08be 8afb 393e ae56 d8bc
00000140: 1b31 cc3d 7d28 83bd 93c1 8ebc 392f ccbd
00000150: 5fb9 a3bd 1513 a0bd fecc a33d d155 ed3d
00000160: e59d f23b da6f a53a 5085 b1bd 93fc aabc
00000170: c48d 423e 025e cdbc 48eb 21bc 0b49 40be
00000180: 607e 833d 3dd5 0ebe 2c55 563d 2a7e 08bd
00000190: c503 3bbe 0641 123c 8b6e 25bd 5f45 2ebe
000001a0: b801 9abc f526 733b 2e72 453e 8170 2bbe
000001b0: ef09 243d bf10 7bbd d9b1 c6bc 20d9 88bd
000001c0: b928 a7bb c1a9 043e b240 643d 79ad 163a
000001d0: 1ff6 e73d 4113 3a3d c461 043d 5332 7ebd
000001e0: 7828 2cbd 4e58 153c ad35 e73d 16b4 09bd
000001f0: e8c4 f23d 0661 cd3c 7986 fbbd 2ada 083e
00000200: 3f30 ce3d 50b0 19bd 545a 24bc d151 50bd
00000210: 3529 99ba 1494 bbbc b7ed d03d 9df2 14be
00000220: af82 39bb e7b4 593d 9f77 5ebb d8f1 1ebd
00000230: 5429 3e3b a85d 6e3d 23d5 073e 3e0a 1d3d
00000240: 791f bf3b d460 973d 554a 07bd 0606 7bbd
00000250: c83b 013e d328 e5bd 0912 59bc e263 cb3c
00000260: c3ec 883c bdd4 f03c ca84 ed3d bc6d e1bd
00000270: aae9 82bd 0b7b 86bd d785 9c3d 8252 133d
00000280: 2c48 c73d 328d 363d 53fb 423e 6564 1cbe
00000290: 5704 003e 69e3 8abc e6de 433d 1c07 33bb
000002a0: 8768 1dbe 1ee0 553c ab7a 413d 2244 ce3d
000002b0: 30e5 9cbd 22f5 5dbd e0c2 3b3e aae2 993c
000002c0: 75a1 f53d 0d8c ccbd 8d4b 9dbd 8e1a a23d
000002d0: 9629 5fbd 490b 363e f06c 463e 94fd 0f3e
000002e0: 64ab 8b3d 406a 513e db26 043b 7241 0a3d
000002f0: 4281 11bd 68ef f2bc 0f69 c6bd c7b9 4e3d
00000300: ea5a 35bd 4315 a2bd 5a37 9a3c 219d afbc
00000310: 984d b0bd 5c6c 11bd ed1f f7bc 882a 50bd
00000320: ad2b 99bd 3c2b 3a3d 9af9 1dbd 53e5 963d
00000330: fff4 4e3b 4580 383b 294e fabb ef12 14bc
00000340: d622 283d 25c4 083e 4e1d 983d 37f8 b53d
00000350: c639 2b3d 3e08 27bd 202e d2bd c797 963d
00000360: 981d a83d 9fbd 5cbd 7317 1abe f2be f5bd
00000370: 25e7 bdbd 65ec cf3d d702 b4bd 4cf2 09bd
00000380: 92d6 03be 0e33 84bd f542 99bc ef8c f1bd
00000390: 0142 063e 5ed2 063d b919 fc3d a594 94bc
000003a0: 4e88 c23d 21e6 fdbd 0a69 dcbd 9a54 093c
000003b0: b86a 083d a886 263a 0dc7 28be 72a2 f53d
000003c0: f220 9a3b fbd3 bfbd 5429 8dbd e203 f13c
000003d0: 11eb b3bd a09f 7f3d 61b4 1c3d ba5d b43d
000003e0: 3cb8 3dbd 35ad 8abc 58fa cc3c 9244 47bb
000003f0: 2c0b 84bd 2134 2c3d 74b3 433e 1e55 b8bd

network_body._body_endoder.seq_layers.2.bias f4 [128]
0.0 0.0 0.0 0.0 0.0 0.0 0.0 0.0
0.0 0.0 0.0 0.0 0.0 0.0 0.0 0.0
0.0 0.0 0.0 0.0 0.0 0.0 0.0 0.0
0.0 0.0 0.0 0.0 0.0 0.0 0.0 0.0
0.0 0.0 0.0 0.0 0.0 0.0 0.0 0.0
0.0 0.0 0.0 0.0 0.0 0.0 0.0 0.0
0.0 0.0 0.0 0.0 0.0 0.0 0.0 0.0
0.0 0.0 0.0 0.0 0.0 0.0 0.0 0.0
0.0 0.0 0.0 0.0 0.0 0.0 0.0 0.0
0.0 0.0 0.0 0.0 0.0 0.0 0.0 0.0
0.0 0.0 0.0 0.0 0.0 0.0 0.0 0.0
0.0 0.0 0.0 0.0 0.0 0.0 0.0 0.0
0.0 0.0 0.0 0.0 0.0 0.0 0.0 0.0
0.0 0.0 0.0 0.0 0.0 0.0 0.0 0.0
0.0 0.0 0.0 0.0 0.0 0.0 0.0 0.0
0.0 0.0 0.0 0.0 0.0 0.0 0.0 0.0
00000000: 0000 0000 0000 0000 0000 0000 0000 0000
00000010: 0000 0000 0000 0000 0000 0000 0000 0000
00000020: 0000 0000 0000 0000 0000 0000 0000 0000
00000030: 0000 0000 0000 0000 0000 0000 0000 0000
00000040: 0000 0000 0000 0000 0000 0000 0000 0000
00000050: 0000 0000 0000 0000 0000 0000 0000 0000
00000060: 0000 0000 0000 0000 0000 0000 0000 0000
00000070: 0000 0000 0000 0000 0000 0000 0000 0000
00000080: 0000 0000 0000 0000 0000 0000 0000 0000
00000090: 0000 0000 0000 0000 0000 0000 0000 0000
000000a0: 0000 0000 0000 0000 0000 0000 0000 0000
000000b0: 0000 0000 0000 0000 0000 0000 0000 0000
000000c0: 0000 0000 0000 0000 0000 0000 0000 0000
000000d0: 0000 0000 0000 0000 0000 0000 0000 0000
000000e0: 0000 0000 0000 0000 0000 0000 0000 0000
000000f0: 0000 0000 0000 0000 0000 0000 0000 0000
00000100: 0000 0000 0000 0000 0000 0000 0000 0000
00000110: 0000 0000 0000 0000 0000 0000 0000 0000
00000120: 0000 0000 0000 0000 0000 0000 0000 0000
00000130: 0000 0000 0000 0000 0000 0000 0000 0000
00000140: 0000 0000 0000 0000 0000 0000 0000 0000
00000150: 0000 0000 0000 0000 0000 0000 0000 0000
00000160: 0000 0000 0000 0000 0000 0000 0000 0000
00000170: 0000 0000 0000 0000 0000 0000 0000 0000
00000180: 0000 0000 0000 0000 0000 0000 0000 0000
00000190: 0000 0000 0000 0000 0000 0000 0000 0000
000001a0: 0000 0000 0000 0000 0000 0000 0000 0000
000001b0: 0000 0000 0000 0000 0000 0000 0000 0000
000001c0: 0000 0000 0000 0000 0000 0000 0000 0000
000001d0: 0000 0000 0000 0000 0000 0000 0000 0000
000001e0: 0000 0000 0000 0000 0000 0000 0000 0000
000001f0: 0000 0000 0000 0000 0000 0000 0000 0000

action_model._continuous_distribution.mu.weight f4 [1, 128]
0.026361888 0.0014796718 -0.029606834 0.004610806 0.0007399808 0.0052264375 0.00787739 0.0057600075
-0.036663283 -0.04482783 0.0069770827 0.028730387 0.0028566269 0.00959004 0.033727642 0.028017154
0.0015473216 -0.019288369 0.0025945832 -0.018959723 -0.0028741274 0.011360578 0.026025984 -0.020523136
0.007549575 -0.015076399 0.029638713 -0.0055392915 0.008905589 0.020702237 -0.008162901 0.0085130185
-0.034013014 0.01126369 0.014698981 -0.03198036 0.0035806831 -0.0027031687 0.0065018754 -0.02551036
0.0048811506 -0.0018216394 0.011830385 -0.0023755745 0.014165619 -0.011297898 -0.00350567 0.00598654
0.017094573 -0.0003924543 0.016926713 -0.0035842543 -0.017482784 0.008322628 0.0047373907 0.0029323935
-0.013076211 0.027511466 0.024971059 0.0006997578 0.009021495 0.012738763 -0.029628178 0.010252303
0.011727418 0.014027068 0.00033125648 0.031114826 0.03081794 -0.026413295 -0.024629101 0.017685086
-0.01161994 0.0030250887 -0.0053394428 0.000984643 0.025457725 -0.0089563355 -0.0057352944 -0.02061817
0.010447311 -0.0052197166 0.045657486 -0.018754236 0.0073918127 -0.020723477 -0.033837583 -0.014261
0.02207981 -0.02310548 0.0059045395 0.01492993 0.0017659381 0.01772854 0.0015911473 0.008984812
-0.015472777 0.0024870662 -0.006472658 0.018751737 -0.014878589 -0.0034660138 -0.0029005995 0.018403031
0.042198308 -0.0055348366 -0.013274275 0.013431828 0.0101748295 0.012880457 0.028648479 0.010983861
0.010356873 0.008927058 -0.028139863 -0.025345236 0.013489126 -0.014799103 -0.0036432536 0.0013445541
0.0057947845 -0.018963564 0.032344326 0.039214645 0.0033432313 -0.017101323 -0.020198083 0.009671262
00000000: e3f4 d73c 8cf1 c13a 088a f2bc 3e16 973b
00000010: 45fb 413a 8942 ab3b 2b10 013c 72be bc3b
00000020: 3d2c 16bd 639d 37bd 03a0 e43b fd5b eb3c
00000030: 3f36 3b3b 8b1f 1d3c ff25 0a3d 3b84 e53c
00000040: 7fcf ca3a a402 9ebc e209 2a3b 6c51 9bbc
00000050: db5b 3cbb b821 3a3c 7234 d53c 2320 a8bc
00000060: 6d62 f73b 0003 77bc e3cc f23c f282 b5bb
00000070: bfe8 113c bd97 a93c b0bd 05bc 307a 0b3c
00000080: 3b51 0bbd 578b 383c ffd3 703c d7fd 02bd
00000090: e5a9 6a3b a527 31bb af0d d53b 1afb d0bc
000000a0: 0ff2 9f3b 13c4 eeba 3bd4 413c 87af 1bbb
000000b0: ea16 683c d21a 39bc 62bf 65bb bd2a c43b
000000c0: eb09 8c3c 53c2 cdb9 e4a9 8a3c cfe5 6abb
000000d0: 0e38 8fbc a25b 083c 1d3c 9b3b 662d 403b
000000e0: 9b3d 56bc ba5f e13c 1b90 cc3c f36f 373a
000000f0: e4ce 133c 3fb6 503c cbb6 f2bc 47f9 273c
00000100: 5b24 403c cad1 653c 7eac ad39 85e4 fe3c
00000110: e875 fc3c b260 d8bc f8c2 c9bc 50e0 903c
00000120: 9061 3ebc 9140 463b 7ef6 aebb 230f 813a
00000130: b88c d03c 98bd 12bc 23ef bbbb 70e7 a8bc
00000140: 332b 2b3c 280a abbb 5803 3b3d 7ca2 99bc
00000150: 0537 f23b 48c4 a9bc 4799 0abd f8a6 69bc
00000160: b8e0 b43c b447 bdbc de7a c13b aa9c 743c
00000170: 0d77 e73a 713b 913c 0b8e d03a 0835 133c
00000180: 8881 7dbc 0cfe 223b 9718 d4bb 3e9d 993c
00000190: 53c5 73bc 1026 63bb fc17 3ebb f4c1 963c
000001a0: 22d8 2c3d 935d b5bb 587c 59bc 2b11 5c3c
000001b0: 54b4 263c 8d08 533c 37b0 ea3c a7f5 333c
000001c0: e0af 293c cc42 123c 9285 e6bc d0a0 cfbc
000001d0: 7f01 5d3c f077 72bc a7c3 6ebb c03b b03a
000001e0: 2de2 bd3b 7a59 9bbc 7c7b 043d 899f 203d
000001f0: 1d1a 5b3b 1318 8cbc 7376 a5bc 3774 1e3c

network_body._body_endoder.seq_layers.0.weight f4 [128, 6]
-0.12347491 -0.23184852 0.13316908 -0.053798944 0.20257042 0.25271308 -0.35579556 -0.8283618
0.48639226 -0.12883191 0.12020137 -0.06501825 0.8154335 -0.029188469 -0.03283068 -0.8082136
0.087398104 0.50790006 -0.5531377 -0.52016455 -0.09013406 -0.34322873 0.46843 -0.259875
-0.1718904 -0.06390006 0.2459357 -0.18789794 0.07768985 0.06055482 -0.41807523 -0.19921413
-0.32511184 -0.60034114 -0.066120714 -0.28550887 -0.70544547 0.009750538 -0.066353545 0.5917547
0.19901034 -0.03940548 0.42059577 -0.28618187 -0.67203426 0.22192927 -0.18273152 -0.2813211
-0.15557928 0.037479013 -0.50355834 0.050571505 -0.09673384 -0.2139307 0.5139217 -0.30570653
-0.90838104 -0.28311285 -0.3079582 -0.15399136 0.09185176 -0.2788118 0.16984385 -0.4532949
-0.46743777 -0.5880064 0.3695645 -0.43052042 0.4332703 -0.5916602 -0.48710933 0.39547473
-0.12609376 0.48851186 0.003927988 -0.73305464 0.39440075 -0.29306576 0.50236464 0.34013706
0.23517118 0.056189757 0.26201558 0.4210873 0.07596691 -0.2582372 0.39674926 0.02675679
0.5313959 -0.61521274 0.6246801 -0.21527702 -0.7835286 0.06067838 -0.9999716 0.32302755
0.5067265 0.035848744 0.5653928 -0.06387937 -0.9740668 -0.0631364 0.34292984 -0.33967927
-0.005587098 0.2581607 0.1347665 -0.24123228 -0.3026303 0.16455211 0.74487156 -0.15121718
0.23121138 -1.2069025 0.40284404 -0.18376246 0.011529863 -0.049471267 0.099507816 -0.11753944
-0.25032276 0.3866819 -0.23958889 -0.556012 -0.9047139 -0.14485157 0.53667337 0.20428054
0.009701577 -0.16768853 -0.7660015 -0.6637137 -0.45256963 0.8260413 0.13616884 0.22258554
-0.59755975 -0.31414628 0.21607117 0.02742148 0.0640331 -0.10141858 -0.30754074 0.07793746
-0.27547625 0.0004096556 0.20353337 0.24031833 0.13512813 -0.34512305 -0.28303543 -0.046166956
0.041209076 -0.50052655 0.41983715 0.040215224 -0.6061022 0.699078 0.38619027 0.3779868
0.28573713 -0.10913642 -0.25489634 0.32714358 0.068378896 0.42586318 -0.11809601 0.29526255
-0.63700217 0.25963476 0.3994382 -0.20141573 0.009283993 -0.18637343 -0.4847075 -0.008798735
-0.5657494 -0.7371843 -0.09121571 0.5031243 0.2895485 -0.79836637 -0.3398671 -0.25255468
-0.5371931 -0.037875637 0.045568235 0.055184968 0.3506488 -0.4815151 -0.34270948 -0.29528925
-0.359371 0.109703995 -0.06023504 0.10796259 -0.030220179 0.32148808 -0.25536937 1.3178461
0.26831806 0.5439865 0.6284241 -0.02715264 0.1272741 -0.04194496 -0.35369763 -0.07596646
-0.5149577 0.2497192 -0.6268967 -0.114981994 0.75699735 0.21356136 -0.18138853 -0.89639944
-0.46485993 -0.3207708 0.34822258 0.32996303 0.04067541 -0.114073135 0.61953473 0.33326593
-0.20092194 -0.84336996 -0.28017116 0.6446979 -0.3881413 -0.45143783 0.015949596 -0.3129787
-0.45835283 0.09446276 -0.4176911 -0.3447111 -0.5397817 -0.18496317 0.6246916 -0.546056
-0.1386909 0.36001784 -0.4181698 -0.38740253 0.2226419 0.30179983 -0.89697343 -0.15323503
0.32327673 0.41553044 -0.36193898 -0.42955375 0.44461676 -0.2701534 -0.15101546 -0.0032683078
00000000: 6ae0 fcbd b369 6dbe 7a5d 083e 485c 5cbd
00000010: 9f6e 4f3e 9c63 813e d62a b6be 850f 54bf
00000020: 6808 f93e 83ec 03be 232c f63d 4a28 85bd
00000030: 40c0 503f a81c efbc 7779 06bd 16e7 4ebf
00000040: c7fd b23d bd05 023f 6f9a 0dbf 8129 05bf
00000050: 3598 b8bd adbb afbe 0fd6 ef3e 560e 85be
00000060: 0904 30be 09de 82bd 91d6 7b3e 5168 40be
00000070: db1b 9f3d 5508 783d f50d d6be cafe 4bbe
00000080: 0f75 a6be f5af 19bf 4c6a 87bd 382e 92be
00000090: 1398 34bf b8c0 1f3c 5ee4 87bd 3c7d 173f
000000a0: 5ec9 4b3e a467 21bd 5458 d73e 6e86 92be
000000b0: 700a 2cbf 6d41 633e f91d 3bbe 5209 90be
000000c0: 2d50 1fbe 9883 193d 33e9 00bf 1124 4f3d
000000d0: 641c c6bd a610 5bbe 5f90 033f 9185 9cbe
000000e0: a98b 68bf 2bf4 90be b2ac 9dbe e9af 1dbe
000000f0: c71c bc3d 6cc0 8ebe 8ceb 2d3e 4516 e8be
00000100: 0154 efbe 9687 16bf 8f37 bd3e 2c6d dcbe
00000110: 9bd5 dd3e 0b77 17bf 6566 f9be aa7b ca3e
00000120: b91e 01be 3a1e fa3e 5ab6 803b 78a9 3bbf
00000130: e5ee c93e b70c 96be f89a 003f 7226 ae3e
00000140: b7d0 703e 3b27 663d e826 863e c198 d73e
00000150: 8a94 9b3d ab37 84be b822 cb3e 0e31 db3c
00000160: 9009 083f 957e 1dbf 09eb 1f3f 9471 5cbe
00000170: 5595 48bf e589 783d 24fe 7fbf de63 a53e
00000180: d4b8 013f 22d6 123d 95bd 103f 30d3 82bd
00000190: 715c 79bf a84d 81bd 8094 af3e 71ea adbe
000001a0: fa13 b7bb a42d 843e 3b00 0a3e 9805 77be
000001b0: 5cf2 9abe 5980 283e e7af 3e3f add8 1abe
000001c0: adc2 6c3e c87b 9abf 9341 ce3e 3a2c 3cbe
000001d0: c0e7 3c3c 62a2 4abd c1ca cb3d 85b8 f0bd
000001e0: 4e2a 80be 2cfb c53e ca56 75be cd56 0ebf
000001f0: 559b 67bf f853 14be 6d63 093f eb2e 513e
00000200: 5df3 1e3c 8bb6 2bbe ad18 44bf 24e9 29bf
00000210: 35b7 e7be 7177 533f d86f 0b3e 77ed 633e
00000220: adf9 18bf c8d7 a0be c341 5d3e 03a3 e03c
00000230: c923 833d 8bb4 cfbd fb75 9dbe ad9d 9f3d
00000240: 390b 8dbe 0bc7 d639 0d6b 503e 0216 763e
00000250: 075f 0a3e f8b3 b0be 05ea 90be 9019 3dbd
00000260: d9ca 283d 8222 00bf e5f4 d63e b8b8 243d
00000270: 8429 1bbf c7f6 323f bbba c53e 7c87 c13e
00000280: 234c 923e ea82 dfbd c681 82be 5d7f a73e
00000290: 3c0a 8c3d bd0a da3e 52dc f1bd a72c 973e
000002a0: 9312 23bf d9ee 843e 2a83 cc3e ed3f 4ebe
000002b0: e41b 183c add8 3ebe 952b f8be 9228 10bc
000002c0: f4d4 10bf 1cb8 3cbf 4dcf babd c1cc 003f
000002d0: b33f 943e bd61 4cbf 0f03 aebe d94e 81be
000002e0: 7d85 09bf 7c23 1bbd c2a5 3a3d a209 623d
000002f0: 3d88 b33e 2689 f6be 9e77 afbe 2730 97be
00000300: 7aff b7be 7dac e03d 04b9 76bd 7e1b dd3d
00000310: 4f90 f7bc 169a a43e c6bf 82be 2eaf a83f
00000320: fc60 893e b342 0b3f 67e0 203f 376f debc
00000330: 2454 023e 7ace 2bbd db17 b5be 4e94 9bbd
00000340: 45d4 03bf 64b6 7f3e 4d7c 20bf ae7b ebbd
00000350: 94ca 413f d4af 5a3e eabd 39be 6f7a 65bf
00000360: 1f02 eebe 123c a4be 3b4a b23e eaf0 a83e
00000370: 429b 263d 2d9f e9bd d499 1e3f d5a1 aa3e
00000380: 7bbe 4dbe 18e7 57bf 9872 8fbe ec0a 253f
00000390: 75ba c6be dc22 e7be baa8 823c bf3e a0be
000003a0: 39ad eabe b175 c13d 9cdb d5be f97d b0be
000003b0: 222f 0abf fc66 3dbe caeb 1f3f 53ca 0bbf
000003c0: fd04 0ebe 4254 b83e 5a1a d6be a059 c6be
000003d0: 3dfc 633e 8285 9a3e 0da0 65bf a5e9 1cbe
000003e0: 8784 a53e 68c0 d43e 1150 b9be 78ee dbbe
000003f0: cfa4 e33e 8c51 8abe cca3 1abe 1b31 56bb

network_body._body_endoder.seq_layers.0.bias f4 [128]
0.0 0.0 0.0 0.0 0.0 0.0 0.0 0.0
0.0 0.0 0.0 0.0 0.0 0.0 0.0 0.0
0.0 0.0 0.0 0.0 0.0 0.0 0.0 0.0
0.0 0.0 0.0 0.0 0.0 0.0 0.0 0.0
0.0 0.0 0.0 0.0 0.0 0.0 0.0 0.0
0.0 0.0 0.0 0.0 0.0 0.0 0.0 0.0
0.0 0.0 0.0 0.0 0.0 0.0 0.0 0.0
0.0 0.0 0.0 0.0 0.0 0.0 0.0 0.0
0.0 0.0 0.0 0.0 0.0 0.0 0.0 0.0
0.0 0.0 0.0 0.0 0.0 0.0 0.0 0.0
0.0 0.0 0.0 0.0 0.0 0.0 0.0 0.0
0.0 0.0 0.0 0.0 0.0 0.0 0.0 0.0
0.0 0.0 0.0 0.0 0.0 0.0 0.0 0.0
0.0 0.0 0.0 0.0 0.0 0.0 0.0 0.0
0.0 0.0 0.0 0.0 0.0 0.0 0.0 0.0
0.0 0.0 0.0 0.0 0.0 0.0 0.0 0.0
00000000: 0000 0000 0000 0000 0000 0000 0000 0000
00000010: 0000 0000 0000 0000 0000 0000 0000 0000
00000020: 0000 0000 0000 0000 0000 0000 0000 0000
00000030: 0000 0000 0000 0000 0000 0000 0000 0000
00000040: 0000 0000 0000 0000 0000 0000 0000 0000
00000050: 0000 0000 0000 0000 0000 0000 0000 0000
00000060: 0000 0000 0000 0000 0000 0000 0000 0000
00000070: 0000 0000 0000 0000 0000 0000 0000 0000
00000080: 0000 0000 0000 0000 0000 0000 0000 0000
00000090: 0000 0000 0000 0000 0000 0000 0000 0000
000000a0: 0000 0000 0000 0000 0000 0000 0000 0000
000000b0: 0000 0000 0000 0000 0000 0000 0000 0000
000000c0: 0000 0000 0000 0000 0000 0000 0000 0000
000000d0: 0000 0000 0000 0000 0000 0000 0000 0000
000000e0: 0000 0000 0000 0000 0000 0000 0000 0000
000000f0: 0000 0000 0000 0000 0000 0000 0000 0000
00000100: 0000 0000 0000 0000 0000 0000 0000 0000
00000110: 0000 0000 0000 0000 0000 0000 0000 0000
00000120: 0000 0000 0000 0000 0000 0000 0000 0000
00000130: 0000 0000 0000 0000 0000 0000 0000 0000
00000140: 0000 0000 0000 0000 0000 0000 0000 0000
00000150: 0000 0000 0000 0000 0000 0000 0000 0000
00000160: 0000 0000 0000 0000 0000 0000 0000 0000
00000170: 0000 0000 0000 0000 0000 0000 0000 0000
00000180: 0000 0000 0000 0000 0000 0000 0000 0000
00000190: 0000 0000 0000 0000 0000 0000 0000 0000
000001a0: 0000 0000 0000 0000 0000 0000 0000 0000
000001b0: 0000 0000 0000 0000 0000 0000 0000 0000
000001c0: 0000 0000 0000 0000 0000 0000 0000 0000
000001d0: 0000 0000 0000 0000 0000 0000 0000 0000
000001e0: 0000 0000 0000 0000 0000 0000 0000 0000
000001f0: 0000 0000 0000 0000 0000 0000 0000 0000

network_body._body_endoder.seq_layers.2.weight f4 [128, 128]
-0.04761662 -0.001872619 0.014116212 -0.04527874 0.08374766 0.033919208 -0.13047501 -0.04350945
0.11854029 0.035194796 0.09576029 -0.09990592 -0.08949313 0.09904982 0.13302799 -0.07256462
0.015475536 0.036123235 0.057128616 -0.08161 0.046074145 0.028871447 -0.050825574 -0.009064638
-0.15629175 -0.019714974 -0.037968654 -0.15362427 -0.0672319 0.048149657 0.0026349137 0.19211127
0.011263588 0.09830169 0.12617418 0.06745714 -0.009719015 0.018785756 -0.012444641 0.05688916
0.009471068 -0.043373086 -0.08873649 0.116403915 0.035322074 -0.031931765 -0.03501972 -0.024974817
-0.07968999 0.06012713 -0.039482057 -0.17437953 -0.099233724 -0.03337827 -0.039795414 0.0243119
-0.0014494898 -0.057973236 0.08809896 -0.09127396 -0.01968034 0.06833037 -0.12535743 -0.06585075
0.11324804 -0.09436034 0.0023891015 0.034050334 0.09339539 -0.027036013 -0.13026017 -0.059785742
-0.0010126721 0.056522664 -0.14699303 0.029207215 -0.123533875 0.09319022 0.07783221 0.018988417
0.14475483 -0.14463791 -0.030622957 0.010456151 0.03160585 -0.07697972 -0.06436593 -0.057455994
-0.044553865 0.06313994 -0.008709373 -0.07807367 -0.006345183 -0.12053589 0.09943586 -0.108241305
0.041407883 0.092116565 -0.061782684 0.049852863 0.05294879 0.003644133 -0.13648748 0.03868431
-0.10194783 0.07399223 -0.04046522 -0.13333228 -0.096961334 -0.009868071 -0.08395945 -0.021362469
-0.12882178 -0.19905257 0.008640776 0.03127229 -0.007113802 -0.04302102 0.2162677 -0.0619201
-0.059121117 0.029830601 0.10227023 -0.04528795 -0.09453402 0.06546321 0.005775767 -0.0032158266
-0.010979658 0.070304915 -0.13403638 0.013953274 -0.01648246 0.01911432 0.08670475 -0.1084075
-0.13658407 0.037511595 0.01833582 -0.12487959 0.080570266 0.07088059 -0.10799179 -0.06416293
-0.042397376 0.08825944 0.077725664 -0.007247468 0.011028046 -0.026083251 -0.0719254 0.12480897
0.0008838064 0.06141353 0.032476645 -0.0904318 0.08804576 -0.0846748 0.029571502 -0.07705117
0.04834739 0.15287176 0.06614187 0.017804226 0.16128866 -0.038941357 0.010701298 0.019917978
0.029651545 -0.005641931 0.064550824 0.13657123 -0.13311405 0.0578172 0.026325317 -0.04063007
0.005908483 -0.0752599 -0.08297844 -0.021516712 -0.08549312 -0.05061861 0.23617992 -0.08136407
0.021367919 -0.008491416 0.041496865 0.053967837 0.025327621 -0.1115396 -0.12245427 0.10251756
-0.04012943 0.11182321 -0.08699268 -0.017098065 -0.10545194 -0.06879379 0.053990714 0.01624
0.18903917 -0.07081498 0.040350977 -0.0039617475 -0.022944612 0.11620186 0.08168712 -0.22421232
-0.053912982 0.08595288 -0.17137343 -0.00064310693 0.02293232 -0.07246752 -0.164396 -0.010176457
-0.036294337 0.03256716 -0.08539061 -0.08691555 -0.07658934 0.14149036 -0.07469218 -0.028274216
-0.097300105 0.08665391 0.17073183 0.033783555 0.10693912 0.008233301 -0.05204401 0.077622704
0.061725397 -0.08633758 0.16391563 0.063030794 -0.03317632 0.056083426 0.0063377316 -0.075834095
0.14159746 0.076502874 -0.03124519 -0.04859809 -0.12053165 -0.13654715 -0.05788987 -0.0849374
-0.102824725 0.039599042 0.047254782 0.04058855 -0.15463902 -0.158658 -0.14534107 -0.059071753
00000000: a509 43bd ab72 f5ba af47 673c 3376 39bd
00000010: e583 ab3d deee 0a3d 3e9b 05be f736 32bd
00000020: 40c5 f23d 6b28 103d f91d c43d 7a9b ccbd
00000030: 2d48 b7bd a2da ca3d 7d38 083e c29c 94bd
00000040: 1a8d 7d3c f5f5 133d b2ff 693d 2523 a7bd
00000050: 3eb8 3c3d d083 ec3c 7a2e 50bd d983 14bc
00000060: f20a 20be 4c81 a1bc 0585 1bbd ae4f 1dbe
00000070: e1b0 89bd 9338 453d 84ae 2c3b d1b8 443e
00000080: ea8a 383c 6552 c93d ce33 013e f826 8a3d
00000090: 813c 1fbc 96e4 993c 9ce4 4bbc 9c04 693d
000000a0: 8a2c 1b3c faa7 31bd 7abb b5bd 2d65 ee3d
000000b0: e1ad 103d e2ca 02bd d770 0fbd fd97 ccbc
000000c0: 8134 a3bd de47 763d f0b7 21bd 8c90 32be
000000d0: 0d3b cbbd a7b7 08bd 8400 23bd c029 c73c
000000e0: cffc bdba 5875 6dbd 3a6d b43d d8ed babd
000000f0: aa38 a1bc cbf0 8b3d b35d 00be c2dc 86bd
00000100: 97ee e73d fe3f c1bd 7992 1c3b 5d78 0b3d
00000110: 1546 bf3d a17a ddbc ec62 05be e5e1 74bd
00000120: a3bb 84ba 4f84 673d 5785 16be f843 ef3c
00000130: 54ff fcbd 84da be3d 7e66 9f3d 998d 9b3c
00000140: 9c3a 143e f61b 14be ffdc fabc 4750 2b3c
00000150: 2375 013d 8ba7 9dbd 49d2 83bd fa56 6bbd
00000160: 1d7e 36bd 834f 813d c2b1 0ebc 17e5 9fbd
00000170: 41eb cfbb 85db f6bd 07a5 cb3d 9ead ddbd
00000180: 509b 293d 9ca7 bc3d d70f 7dbd 8432 4c3d
00000190: d5e0 583d 68d2 6e3b 60c3 0bbe 7073 1e3d
000001a0: 06ca d0bd 3d89 973d dcbe 25bd 4288 08be
000001b0: aa93 c6bd b1ad 21bc eff2 abbd 5800 afbc
000001c0: dbe9 03be 70d4 4bbe 0b92 0d3c 5f17 003d
000001d0: e51a e9bb cf36 30bd 4875 5d3e ee9f 7dbd
000001e0: fc28 72bd 4e5f f43c 0e73 d13d dc7f 39bd
000001f0: 0d9b c1bd 9311 863d a542 bd3b 9ec0 52bb
00000200: 06e4 33bc 06fc 8f3d d540 09be 469c 643c
00000210: 3906 87bc a295 9c3c 4392 b13d c004 debd
00000220: b2dc 0bbe c2a5 193d 0035 963c dfc0 ffbd
00000230: 0602 a53d d829 913d cd2a ddbd db67 83bd
00000240: dfa8 2dbd 5ec1 b43d a22e 9f3d 2b7c edbb
00000250: faae 343c 8bac d5bc a04d 93bd d89b ff3d
00000260: 3eaf 673a c18c 7b3d 3b06 053d 4f34 b9bd
00000270: 5651 b43d fb69 adbd ef3f f23c 01cd 9dbd
00000280: ea07 463d 6a8a 1c3e 6475 873d 2bda 913c
00000290: db28 253e f980 1fbd 7f54 2f3c 072b a33c
000002a0: cce7 f23c f3df b8bb 3933 843d 54d9 0b3e
000002b0: 0d4f 08be bad1 6c3d 31a8 d73c b76b 26bd
000002c0: f39b c13b dd21 9abd 9af0 a9bd d143 b0bc
000002d0: 0417 afbd 7655 4fbd 26d9 713e 35a2 a6bd
000002e0: c60b af3c 951f 0bbc 9ef8 293d 610d 5d3d
000002f0: df7b cf3c e06e e4bd 4ec9 fabd baf4 d13d
00000300: c25e 24bd 9103 e53d 3829 b2bd 3e11 8cbc
00000310: 30f7 d7bd c2e3 8cbd 5e25 5d3d c009 853c
00000320: 7c93 413e 7207 91bd 1147 253d 8cd1 81bb
00000330: 57f6 bbbc 3efb ed3d 944b a73d ea97 65be
00000340: dcd3 5cbd 1008 b03d 847c 2fbe 2d96 28ba
00000350: 90dc bb3c da69 94bd 6d57 28be 28bb 26bc
00000360: 5fa9 14bd 2465 053d 46e1 aebd c800 b2bd
00000370: dfda 9cbd d9e2 103e 37f8 98bd 549f e7bc
00000380: 4745 c7bd 9b77 b13d 53d4 2e3e a060 0a3d
00000390: e602 db3d f8e4 063c 1a2c 55bd a7f8 9e3d
000003a0: c5d3 7c3d c2d1 b0bd 80d9 273e 4a16 813d
000003b0: e5e3 07bd bcb7 653d bfac cf3b e84e 9bbd
000003c0: edfe 103e 8aad 9c3d eaf5 ffbc ca0e 47bd
000003d0: 4cd9 f6bd 04d3 0bbe ee1d 6dbd a9f3 adbd
000003e0: c595 d2bd 9b32 223d 3b8e 413d 2e40 263d
000003f0: b159 1ebe 3e77 22be 4ad4 14be 39f5 71bd

network_body._body_endoder.seq_layers.2.bias f4 [128]
0.0 0.0 0.0 0.0 0.0 0.0 0.0 0.0
0.0 0.0 0.0 0.0 0.0 0.0 0.0 0.0
0.0 0.0 0.0 0.0 0.0 0.0 0.0 0.0
0.0 0.0 0.0 0.0 0.0 0.0 0.0 0.0
0.0 0.0 0.0 0.0 0.0 0.0 0.0 0.0
0.0 0.0 0.0 0.0 0.0 0.0 0.0 0.0
0.0 0.0 0.0 0.0 0.0 0.0 0.0 0.0
0.0 0.0 0.0 0.0 0.0 0.0 0.0 0.0
0.0 0.0 0.0 0.0 0.0 0.0 0.0 0.0
0.0 0.0 0.0 0.0 0.0 0.0 0.0 0.0
0.0 0.0 0.0 0.0 0.0 0.0 0.0 0.0
0.0 0.0 0.0 0.0 0.0 0.0 0.0 0.0
0.0 0.0 0.0 0.0 0.0 0.0 0.0 0.0
0.0 0.0 0.0 0.0 0.0 0.0 0.0 0.0
0.0 0.0 0.0 0.0 0.0 0.0 0.0 0.0
0.0 0.0 0.0 0.0 0.0 0.0 0.0 0.0
00000000: 0000 0000 0000 0000 0000 0000 0000 0000
00000010: 0000 0000 0000 0000 0000 0000 0000 0000
00000020: 0000 0000 0000 0000 0000 0000 0000 0000
00000030: 0000 0000 0000 0000 0000 0000 0000 0000
00000040: 0000 0000 0000 0000 0000 0000 0000 0000
00000050: 0000 0000 0000 0000 0000 0000 0000 0000
00000060: 0000 0000 0000 0000 0000 0000 0000 0000
00000070: 0000 0000 0000 0000 0000 0000 0000 0000
00000080: 0000 0000 0000 0000 0000 0000 0000 0000
00000090: 0000 0000 0000 0000 0000 0000 0000 0000
000000a0: 0000 0000 0000 0000 0000 0000 0000 0000
000000b0: 0000 0000 0000 0000 0000 0000 0000 0000
000000c0: 0000 0000 0000 0000 0000 0000 0000 0000
000000d0: 0000 0000 0000 0000 0000 0000 0000 0000
000000e0: 0000 0000 0000 0000 0000 0000 0000 0000
000000f0: 0000 0000 0000 0000 0000 0000 0000 0000
00000100: 0000 0000 0000 0000 0000 0000 0000 0000
00000110: 0000 0000 0000 0000 0000 0000 0000 0000
00000120: 0000 0000 0000 0000 0000 0000 0000 0000
00000130: 0000 0000 0000 0000 0000 0000 0000 0000
00000140: 0000 0000 0000 0000 0000 0000 0000 0000
00000150: 0000 0000 0000 0000 0000 0000 0000 0000
00000160: 0000 0000 0000 0000 0000 0000 0000 0000
00000170: 0000 0000 0000 0000 0000 0000 0000 0000
00000180: 0000 0000 0000 0000 0000 0000 0000 0000
00000190: 0000 0000 0000 0000 0000 0000 0000 0000
000001a0: 0000 0000 0000 0000 0000 0000 0000 0000
000001b0: 0000 0000 0000 0000 0000 0000 0000 0000
000001c0: 0000 0000 0000 0000 0000 0000 0000 0000
000001d0: 0000 0000 0000 0000 0000 0000 0000 0000
000001e0: 0000 0000 0000 0000 0000 0000 0000 0000
000001f0: 0000 0000 0000 0000 0000 0000 0000 0000

value_heads.value_heads.extrinsic.weight f4 [1, 128]
-0.0684304 -0.08170995 -0.10079113 0.06836447 -0.055472728 0.14046872 -0.16102715 0.060263637
0.090110175 -0.041370694 -0.027949674 0.18812242 -0.20543177 -0.042763457 -0.17708504 0.12434884
-0.009680478 0.020641537 -0.20125477 0.028507052 0.061659604 0.1966545 0.012713807 -0.20923156
-0.15192188 -0.20237793 0.0605849 0.06558033 0.011623217 0.14856204 0.16668224 0.13872409
0.01985419 0.16721654 0.07415797 -0.040775727 0.07811856 -0.100745454 0.19681557 0.011089182
0.18998341 -0.19089398 0.19525614 0.04316783 0.025997179 0.041041538 0.066887595 -0.09023778
-0.021433283 0.12913574 -0.19795577 -0.052025594 0.039258156 -0.070249826 0.14289954 -0.14835684
-0.09465322 0.15560625 0.081572615 -0.105691545 -0.07651997 0.07098232 0.19356927 -0.1566614
0.10889133 -0.062912844 0.12850979 -0.020291505 -0.19812554 0.14537252 -0.040223222 0.027504055
0.13475575 0.18760772 -0.12770417 -0.10997062 0.17689016 -0.14723237 0.19908673 -0.13483812
-0.016081087 0.0054318174 -0.21039619 -0.1795471 0.018247716 0.05680051 -0.16650215 0.08473147
-0.0029671274 0.14938189 0.04622575 0.15396142 0.08485685 -0.13682802 -0.07851234 -0.1762619
0.00786261 0.14284642 0.15652822 0.057441007 0.062290434 -0.17751344 -0.1082638 0.029000029
0.06658633 0.109432615 0.012855029 0.15102431 0.2000796 0.18694822 -0.20115708 -0.124124974
0.145329 -0.12641999 0.13826068 0.13237683 0.21343611 0.09183941 -0.11078205 -0.10740541
0.05038323 0.011624965 0.13821316 -0.19414043 -0.21093145 0.20219152 0.099356845 0.00901737
00000000: 3d25 8cbd 8c57 a7bd 946b cebd ac02 8c3d
00000010: 5f37 63bd 08d7 0f3e 4de4 24be 01d7 763d
00000020: af8b b83d 5174 29bd b7f6 e4bc 2aa3 403e
00000030: b55c 52be bc28 2fbd c855 35be 9baa fe3d
00000040: de9a 1ebc 7118 a93c bb15 4ebe 9f87 e93c
00000050: c88e 7c3d cc5f 493e 924d 503c cc40 56be
00000060: 6991 1bbe 293c 4fbe df27 783d fb4e 863d
00000070: 4e6f 3e3c a620 183e c0ae 2a3e b00d 0e3e
00000080: 41a5 a23c d03a 2b3e 22e0 973d 7304 27bd
00000090: a0fc 9f3d a253 cebd 058a 493e 67af 353c
000000a0: 038b 423e b679 43be 3af1 473e c0d0 303d
000000b0: 09f8 d43c 2c1b 283d 5dfc 883d 96ce b8bd
000000c0: da94 afbc 293c 043e ebb4 4abe ca18 55bd
000000d0: 29cd 203d 24df 8fbd 4254 123e dbea 17be
000000e0: 8cd9 c1bd 3f57 1f3e 8b0f a73d cf74 d8bd
000000f0: 81b6 9cbd 2e5f 913d 0637 463e d96b 20be
00000100: 6b02 df3d 73d8 80bd 1298 033e 5f3a a6bc
00000110: 6ce1 4abe 89dc 143e 1bc1 24bd 2f50 e13c
00000120: 69fd 093e 3d1c 403e e2c4 02be 4738 e1bd
00000130: b222 353e 15c4 16be 64dd 4b3e 0113 0abe
00000140: 7cbc 83bc 63fd b13b 1972 57be 32db 37be
00000150: 3c7c 953c a7a7 683d 8a7f 2abe b187 ad3d
00000160: 2374 42bb 91f7 183e 3657 3d3d 10a8 1d3e
00000170: 6ec9 ad3d a51c 0cbe 14cb a0bd 007e 34be
00000180: 2dd2 003c 5546 123e ef48 203e 4347 6b3d
00000190: 4124 7f3d 15c6 35be 69b9 ddbd 7891 ed3c
000001a0: 6a5e 883d 351e e03d e69d 523c 1ea6 1a3e
000001b0: abe1 4c3e 5b6f 3f3e 1ffc 4dbe 3c35 febd
000001c0: 20d1 143e 3e74 01be 3594 0d3e cb8d 073e
000001d0: ff8e 5a3e 4d16 bc3d b3e1 e2bd 5ef7 dbbd
000001e0: a55e 4e3d a376 3e3c c087 0d3e c0cc 46be
000001f0: 6afe 57be 4b0b 4f3e 9a7b cb3d 97bd 133c
