Shortcut Run/results/lvl1/Move.onnx (onnx, 71941 bytes, 5 tensors)

network_body._body_endoder.seq_layers.0.weight f4 [128, 6]
000000 09 90 25 3f 66 94 eb bd 10 76 53 bf 81 66 d9 be
       0.64672905 -0.11502914 -0.82602024 -0.42461017
000010 cb 3e a1 be b5 61 37 be 4d aa 0b 3f 03 30 00 be
       -0.3149322 -0.17908366 0.54556733 -0.12518315
000020 ca 52 6a 3e b6 5c 72 3e 9e fc ab bc b3 27 8b be
       0.22883144 0.23668179 -0.02099448 -0.27178726
000030 ae bb 12 bf 2d 0d 38 3f f2 b1 6d 3f ba 58 29 be
       -0.57317626 0.71895105 0.9284965 -0.16537753
000040 1f aa 09 3f 5d ee c1 3d b5 e5 c9 3c 18 93 15 3f
       0.5377521 0.09469292 0.024645666 0.5842757
000050 3b 73 cc 3e b2 0e 08 bf ed 44 02 bc 70 64 f8 3d
       0.39931664 -0.53147423 -0.0079510035 0.12128532
000060 8b c1 a2 be 56 af 9d be d8 25 6e 3f 14 24 94 3e
       -0.31788287 -0.30797833 0.93026495 0.28933775
000070 27 3f 76 be 3d d0 9e bd bf 86 33 be 3e 32 8a be
       -0.24047528 -0.07754562 -0.1753187 -0.26991457
000080 b5 e7 23 bf c0 e9 b9 be ba c7 a0 be 99 ea e2 3c
       -0.6402543 -0.3631115 -0.3140238 0.027699756
000090 ce ad d8 be ae 92 99 be c0 43 95 3d 6c 12 15 3f
       -0.42320102 -0.2999472 0.07288313 0.58231235
0000a0 e9 03 09 3f f5 bd 23 be b7 0d 01 bd 7f 66 ed bd
       0.5352159 -0.15990432 -0.03150722 -0.11591815
0000b0 0b 1f 1b 3e 11 1c 48 3e 00 33 38 bf e3 60 e3 3d
       0.1514856 0.19541956 -0.7195282 0.11102464
0000c0 a8 c8 8b 3e f0 82 af 3e f7 97 e7 be 49 95 1a bf
       0.27301526 0.34279585 -0.45233127 -0.6038404
0000d0 59 e8 59 3e 70 b1 8c bb 24 c8 4e 3f e8 53 b6 3d
       0.2128004 -0.004293613 0.8077414 0.089027226
0000e0 d5 4e 67 bf ad 80 05 bf 61 e2 15 bf 85 cc c8 3e
       -0.90354663 -0.5214947 -0.5854855 0.39218536
0000f0 50 dd ef 3e f2 88 1d be 60 23 49 be 60 bc bf be
       0.46848536 -0.15384272 -0.196424 -0.37448406
000100 e5 94 a5 3e 58 5c a4 3d bb 6f 72 3f 8a 63 59 be
       0.3234016 0.08025426 0.9470174 -0.21229377
000110 5c 10 0d be 10 4d 81 3e 18 c3 5d bd fe 11 86 be
       -0.13775772 0.25254107 -0.054141134 -0.26185602
000120 01 f3 4d 3f 58 d9 44 bd cf 5a c6 bd fa 6b 6f be
       0.8044892 -0.048058838 -0.09685289 -0.23381034
000130 9b cb 28 bd 36 5b 1d 3c bb 1b 7e be 5f b1 45 3d
       -0.0412098 0.009604266 -0.24815266 0.048264857
000140 a3 76 85 3e cc 20 ce 3e ab ce 80 bd ee 8e d7 3e
       0.26067075 0.40259397 -0.06289419 0.42101234
000150 3b a4 40 bf 61 6c 06 bf 07 aa 12 3f 90 a8 ff be
       -0.75250596 -0.52509123 0.5729069 -0.4993329
000160 c9 b3 df 3e af e5 4e bf 5a dc 8d be 14 ca 30 bf
       0.43691853 -0.8081922 -0.27707177 -0.69058347
000170 4a f2 27 3e 91 02 cd be 8e d8 e0 be 4f 54 60 bf
       0.1640102 -0.4004102 -0.43915218 -0.87628645
000180 09 fa 15 bf 8d a1 7b bf a2 74 02 3e cc f8 08 3f
       -0.5858465 -0.9829338 0.12739804 0.53504634
000190 7b 26 ae 3d 87 76 3f be 02 ae 3a 3f a2 91 80 3f
       0.08503433 -0.18697558 0.72921765 1.0044444
0001a0 fc 6c 8d 3d fe 84 db 3e 95 1c 1a 3f 28 d2 2a bf
       0.06905553 0.42874902 0.6019986 -0.66726923
0001b0 cc 48 8c 3e 46 39 c6 3e 9d 0e f4 bc c9 57 d7 bd
       0.2739929 0.3871557 -0.029792124 -0.105147906
0001c0 8c 67 ad 3e 28 d1 ae 3e 1a 47 5b 3e 70 27 07 be
       0.33868062 0.3414395 0.21413842 -0.13198638
0001d0 f2 5a 1d bf bb 77 36 bf 2d 58 1a bf 1b fa 6f 3e
       -0.61466897 -0.71276444 -0.60290796 0.23435251
0001e0 25 db b9 be 93 4a d7 3d 5d 7c 83 3e 86 d2 b0 3d
       -0.36300007 0.10512271 0.2568082 0.08633904
0001f0 ff 17 17 3e f9 da a5 3e ae 19 e3 3d 25 e7 1a bf
       0.14755248 0.32393625 0.110888824 -0.6050895
000200 02 84 1d 3f b7 29 b8 3e 0e 38 4d be 4d 15 8d be
       0.6152955 0.35969326 -0.20040914 -0.27555314
000210 b6 45 f9 bc 66 f9 fb 3e 86 78 48 3e fe 77 6c 3e
       -0.030428749 0.49213713 0.19577226 0.23092648
000220 0c 65 2b bf 55 fe cd bc 28 06 a4 be 3d ad 30 3e
       -0.6695106 -0.025145689 -0.32035947 0.17253585
000230 d4 94 76 3d e8 e6 69 bf 02 f9 65 3f 80 6e 6a 3e
       0.060200527 -0.9136796 0.8983308 0.22893715
000240 1d 39 fe 3e 93 3d c9 be 71 4f 9e 3e 1e c7 cf bd
       0.4965295 -0.3930479 0.30919984 -0.101454005
000250 33 a9 e2 bd af 81 a3 3d 42 b8 8d be b4 99 b9 be
       -0.110674284 0.079837196 -0.2767964 -0.3625008
000260 c3 ad 88 3e 78 04 03 3e 5e 1c cb 3e a4 7a d2 3e
       0.2669507 0.12794673 0.3967008 0.41109192
000270 47 38 96 be d2 be dc be 62 d7 60 3f 4a 79 81 3d
       -0.2933981 -0.43114334 0.8782865 0.06321962
000280 48 48 df 3e d9 5d a4 3c cd 05 7e bd f6 dd 12 bf
       0.43609834 0.020064281 -0.06201725 -0.57369936
000290 49 97 3f 3f 17 d6 c6 3e 84 4b 7e be 9b 2e 51 bd
       0.7484022 0.38835213 -0.24833494 -0.051069837
0002a0 e4 96 84 3c ba ee 84 bd 9b a7 c6 be 9d 48 1c bf
       0.016185232 -0.06490846 -0.38799748 -0.610483
0002b0 e8 2c 1c bd c6 02 6e 3e 9d 1d a9 be 36 95 3b b9
       -0.038128763 0.23243245 -0.33030406 -0.00017889295
0002c0 18 6f 75 be 47 99 6f 3e e8 2c d8 bd c4 96 02 3f
       -0.2396816 0.23398314 -0.1055544 0.510113
0002d0 ab b0 73 be 1f e8 50 be bf 64 c0 3c ce e9 40 3f
       -0.23797862 -0.20401047 0.02348554 0.7535676
0002e0 3a 63 c5 bd 39 36 48 3c 88 c3 2a 3e 8b 9f 24 3e
       -0.096380666 0.012219959 0.16676152 0.16076486
0002f0 f7 c2 d9 be 78 a5 0b bf fa 73 b7 3e 68 19 49 bf
       -0.4253156 -0.5454936 0.3583067 -0.7855439
000300 fa 7a a3 be 7b 68 c0 be 79 11 82 3e e0 b1 08 bc
       -0.3192976 -0.37579712 0.25403956 -0.00834319
000310 0c b7 f2 be 6b 92 41 ba 2e 78 f6 3e 57 7f 82 3e
       -0.4740528 -0.00073841837 0.48138565 0.25487778
000320 cf d8 80 be 36 66 cb bd 14 db ad 3e d7 b8 44 bf
       -0.25165412 -0.099316046 0.33956206 -0.76844543
000330 b3 f6 68 3f 80 6f 2c be a4 38 0f be 4f ee c4 be
       0.91001433 -0.16839409 -0.1398645 -0.38463065
000340 ac 08 52 3d 0c 0a 08 3e 3b 80 26 bf a5 9b 2c 3f
       0.0512778 0.13285083 -0.65039414 0.67424995
000350 59 c6 0b 3f 67 53 77 be 23 36 bb bd ed d7 f1 be
       0.5459953 -0.24152909 -0.09141185 -0.4723505
000360 7e b9 18 be 20 06 0e bf f0 74 3e 3d d1 3d e3 be
       -0.1491451 -0.55478096 0.04649824 -0.443831
000370 e5 57 cd bd b8 da 1b 3e db 66 1a bf 93 d4 21 3d
       -0.1002653 0.15220153 -0.60313195 0.039509367
000380 b1 07 26 3e 41 1b 14 bf 25 0e 15 be db 44 2b bc
       0.16213872 -0.57854086 -0.14556177 -0.010453428
000390 d5 19 b8 3e 67 d0 b0 be 0f a1 0b 3f d6 b7 a2 3e
       0.35957208 -0.34533998 0.5454263 0.3178088
0003a0 46 2c cd be 8a 3c a9 3e dd 5c d3 3e 10 68 94 bd
       -0.4007284 0.33054 0.41281787 -0.07246411
0003b0 e2 04 e9 be 54 ff a9 be 73 73 5c 3e a7 b9 ba 3e
       -0.45511538 -0.33202612 0.21528415 0.36469766
0003c0 43 8f f4 be 38 cc 35 3e 47 df 09 be ff b1 12 bf
       -0.4776555 0.17753685 -0.1346408 -0.5730285
0003d0 51 4d d6 bd 40 29 76 3f 39 4f a7 3e dc 49 15 be
       -0.10463966 0.9615669 0.3267763 -0.14578956
0003e0 c1 ab 44 3f 7b 67 f6 3c a0 d5 8c be 88 d3 f2 3e
       0.76824576 0.03007864 -0.27506733 0.4742701
0003f0 52 aa da be 33 6a 8d be 9b 20 db be de 7a cf be
       -0.4270807 -0.27620086 -0.42798313 -0.40523428

network_body._body_endoder.seq_layers.0.bias f4 [128]
000000 a7 47 52 ba aa 7f e9 2a 70 71 aa b8 8f ad 3e bb
       -0.0008021541 4.14777e-13 -8.127361e-05 -0.0029095148
000010 24 50 ad a9 fa 59 ca ba d3 d7 04 3c 72 aa 16 bb
       -7.6966455e-14 -0.0015438192 0.008108097 -0.0022989777
000020 9b 45 23 37 e2 4b 7a 39 cb b5 62 b8 fa 98 65 b9
       9.731763e-06 0.00023870126 -5.4051907e-05 -0.0002189613
000030 15 c3 fa 38 9e 33 38 b7 bb e7 80 04 a4 d9 a1 02
       0.00011957266 -1.0979273e-05 3.0305466e-36 2.3781743e-37
000040 94 c6 be bb dc 92 c5 1a b0 f1 41 ba af b3 59 b8
       -0.005822012 8.1714554e-23 -0.000739838 -5.1904175e-05
000050 69 f2 68 3b 49 2d 59 1e 9c 9f 18 3b 50 f8 c9 b8
       0.0035544878 1.1497249e-20 0.0023288494 -9.630679e-05
000060 4a ad 43 bb 68 6c 4b ba 34 c4 63 b1 33 58 99 ad
       -0.0029857927 -0.0007759989 -3.3144376e-09 -1.7433254e-11
000070 64 31 92 b9 a8 19 07 ba 76 21 84 b8 6e c2 f1 ae
       -0.0002788409 -0.00051536644 -6.300483e-05 -1.0993949e-10
000080 44 de 97 bb ca ae 98 26 e6 02 6e b9 85 f5 a9 1b
       -0.0046346504 1.0594495e-15 -0.00022698528 2.8117368e-22
000090 d7 14 99 b9 e5 fb 36 bb 37 8a 53 39 17 49 38 b9
       -0.0002919796 -0.0027921137 0.00020174017 -0.00017574836
0000a0 52 54 8c 39 b9 c4 8f ba f7 46 8b b9 ed e6 90 ba
       0.00026765704 -0.0010968662 -0.0002656502 -0.0011055149
0000b0 9b ca 97 3b 83 68 f7 3a c7 3e 01 38 b4 3b 33 b9
       0.0046323068 0.0018875751 3.0814463e-05 -0.00017093011
0000c0 54 b9 90 8f ce 9e 66 37 a7 7f a7 b8 6f a6 35 ba
       -1.4270882e-29 1.3746043e-05 -7.986958e-05 -0.00069294026
0000d0 ad 3b 8d 39 2c 55 a2 ba 44 cb 60 b9 52 43 e3 39
       0.00026938078 -0.0012385002 -0.00021438027 0.00043346972
0000e0 ed 60 4b 37 b9 f9 17 ba 37 30 01 3c ab a0 98 38
       1.212231e-05 -0.00057974044 0.0078850305 7.2778515e-05
0000f0 cd c0 44 a3 62 a6 cc 21 a7 10 09 b8 21 3e b6 29
       -1.06660084e-17 1.3867619e-18 -3.2678854e-05 8.093201e-14
000100 48 d9 dd b9 47 f7 f1 b8 02 55 76 3b 94 be e2 2d
       -0.00042314292 -0.000115378345 0.003758729 2.5777859e-11
000110 74 c3 c3 b8 e0 43 4b ba 38 71 30 38 73 72 2c 9e
       -9.3347306e-05 -0.00077539496 4.2067113e-05 -9.129272e-21
000120 2b 8f 53 b9 6e 5d a1 b9 59 92 a3 bb 88 a4 a8 b9
       -0.00020175862 -0.00030777924 -0.0049918112 -0.00032166042
000130 17 85 41 ba 5a 22 5e 39 c4 70 75 b9 df 0b 51 ba
       -0.00073821977 0.00021184367 -0.00023407029 -0.0007974486
000140 dc 22 07 ba 77 ba dc b8 30 38 70 20 63 ba 86 b9
       -0.0005155036 -0.00010525149 2.0347382e-19 -0.0002569734
000150 f3 01 0f 28 68 c6 57 ba 08 e0 94 b0 3b ba 84 b8
       7.938517e-15 -0.0008231164 -1.0832091e-09 -6.3289386e-05
000160 75 68 1b 39 40 41 30 22 ba 1f ce b8 55 1d 9c 35
       0.00014820865 2.388699e-18 -9.828755e-05 1.1631442e-06
000170 bc 0e 81 13 3a c5 60 3a 33 7e 46 a9 ed b3 c0 38
       3.2578707e-27 0.0008574311 -4.4074292e-14 9.188787e-05
000180 b0 a7 cb 1d d1 00 ba b9 45 d2 16 ba 0b a3 b5 b9
       5.3907037e-21 -0.00035477293 -0.00057533785 -0.00034644487
000190 7a 78 2c 91 e3 23 d8 b8 c6 ff 23 b6 65 42 e9 b7
       -1.3605532e-28 -0.00010306367 -2.4437772e-06 -2.7806682e-05
0001a0 76 64 28 ba d9 a4 93 3b ba 65 84 b9 d4 f9 8e b2
       -0.0006423661 0.0045057354 -0.00025252794 -1.6644584e-08
0001b0 6b ce 80 b9 7d 24 e9 38 cd fc 5f b8 af 05 e6 b8
       -0.00024567856 0.00011117102 -5.3402782e-05 -0.00010968313
0001c0 14 35 98 aa 5c 88 61 b8 36 64 67 b9 00 00 00 00
       -2.7037454e-13 -5.3771175e-05 -0.00022067208 0.0
0001d0 fb b0 89 b8 4f c2 b1 b8 2e 55 cf 9f 3e ee 2c bb
       -6.565634e-05 -8.4762105e-05 -8.780883e-20 -0.002638712
0001e0 35 3a 34 b9 9d 92 34 b9 aa 21 1f 37 de 7f 21 2c
       -0.00017187822 -0.00017220755 9.4849765e-06 2.2950457e-12
0001f0 26 bc f0 b8 4f 9a 84 b8 44 58 7b b9 fc eb 38 ba
       -0.00011479137 -6.322993e-05 -0.00023970107 -0.00070542074

network_body._body_endoder.seq_layers.2.weight f4 [128, 128]
000000 3c fa 83 3a 34 9a 89 3d 4f 0d 8b bd a1 c7 84 3c
       0.0010069082 0.06718865 -0.06789648 0.016208472
000010 6e af e0 bd 64 ea 74 3d ba 75 a1 3c b1 51 07 bd
       -0.109709606 0.059793845 0.019709457 -0.03303689
000020 8f c5 30 be 78 3b 94 bd c9 29 35 3e b6 ef a0 3d
       -0.17262863 -0.07237905 0.17691721 0.07858221
000030 48 98 b7 3d bb 58 70 bc 73 36 b9 bd be ca 75 bd
       0.08964592 -0.0146695925 -0.090435885 -0.060007803
000040 54 b9 99 bd 66 9c 49 bc 36 23 0c be 0f cf e1 bd
       -0.07506052 -0.012305355 -0.13685307 -0.110258214
000050 b6 55 18 bd 1c 61 84 bd ba db 10 bd ac 69 74 bd
       -0.037191115 -0.06463835 -0.035365798 -0.05967109
000060 50 3e 32 be 46 51 9e bd ae 02 67 bd 04 e4 7f 3d
       -0.17406583 -0.077303454 -0.05639904 0.062473312
000070 6f fe fa bd bc 81 64 bd 7c a6 d7 bc 45 e9 21 bd
       -0.122555606 -0.055787787 -0.026324503 -0.039529104
000080 5c fe 52 3e 33 20 2a 3e 88 39 b5 3d 00 2a 99 bd
       0.20604843 0.16613846 0.08848864 -0.07478714
000090 5b cf 96 3d 81 ad 88 3b 1c 30 27 3d dd 4e 86 bc
       0.07363769 0.004171074 0.040817365 -0.016395027
0000a0 39 75 35 3e fb ce 56 bd bb 87 12 be d5 1c 80 3d
       0.17720498 -0.052443486 -0.1430959 0.06255499
0000b0 1a 7f 07 be 4b d6 b8 3d c6 cc b5 3d 9b 94 7c bd
       -0.13232079 0.09025248 0.08876948 -0.06166516
0000c0 40 b1 7d 3d cb 6f b1 3b bf 7c bd 3c 45 a6 37 bd
       0.061936617 0.005414938 0.023130773 -0.0448363
0000d0 c8 e4 e4 ba 99 51 d4 3d fc 8a 97 3c ef c9 a6 bc
       -0.0017463202 0.10367126 0.01849889 -0.020359961
0000e0 e3 15 c1 bd 45 e6 89 bd 7d a8 5b 3d 38 f2 91 3d
       -0.09428003 -0.067333736 0.05362748 0.07126278
0000f0 cb e5 db 3c 3a 76 ba 3d c3 17 58 bd d5 f0 a4 3d
       0.026842972 0.09104581 -0.052757036 0.080537476
000100 4a 49 8f bc 11 10 01 3e 65 f5 6d bc e8 64 5f bd
       -0.017491002 0.12603785 -0.014523839 -0.05453959
000110 1b 49 0e bc bc af fa 3c 4b b6 a5 3c 94 5a 26 3d
       -0.008684422 0.030601375 0.020228526 0.040613726
000120 1d fa 16 3e 91 6b 97 3d fe 29 90 3b 8f 11 25 3e
       0.14743848 0.073935635 0.004399537 0.1611998
000130 f5 81 11 3c 8b 31 cd bd 18 8a 2e 3d 09 6b 22 3e
       0.008881082 -0.10019215 0.042612165 0.15861143
000140 3f be 06 3e 31 99 be bc 35 24 0e bc d2 15 4d bc
       0.1315851 -0.023266407 -0.008675625 -0.012517409
000150 c3 23 21 3e cc af 3a be aa 12 5c be 35 0a a5 3d
       0.15736298 -0.18231124 -0.21491495 0.080585875
000160 68 59 bc 3d 38 dc ea 3c ad 87 b2 3d 9b 58 ce bc
       0.091967404 0.028669462 0.08717284 -0.025188735
000170 a8 f1 88 3d 3c 31 cf bd bf 25 e2 3d 7c 67 09 3d
       0.06686717 -0.101168126 0.11042356 0.033545956
000180 ef 50 a2 3d 1d 8b c3 bc d1 73 71 3d 09 03 59 3d
       0.07925593 -0.023870045 0.05894834 0.05298141
000190 de 9c 8b 3a 26 ca d6 bc 17 55 18 be 0d 4c ab 3d
       0.0010651608 -0.026219439 -0.14876209 0.08364115
0001a0 06 c1 0e 3e c7 0f 78 bd 18 d8 0a bd 0e 52 93 bd
       0.1394082 -0.06056192 -0.03389749 -0.07193385
0001b0 bb 20 99 3d 4b c2 18 bd 57 af 4f 3c 4f 83 6e 3d
       0.07476946 -0.037294667 0.012676082 0.058230694
0001c0 02 a6 21 bd f1 bf fa 3d 1c 5f be 3d ed e7 27 be
       -0.039464958 0.12243641 0.092954844 -0.16397066
0001d0 51 b8 0c 3c b9 76 83 bd b3 80 b4 bd 71 81 8f 3d
       0.008588866 -0.06419129 -0.0881361 0.07007111
0001e0 9a 30 ab bd 49 d5 bc bc f2 3f b1 3c cd a5 03 be
       -0.083588794 -0.023050921 0.021636937 -0.12856217
0001f0 17 5e 0d 3a eb d4 35 bc ee 98 96 bd 2b d8 b7 3c
       0.00053927436 -0.011098127 -0.07353388 0.022441944
000200 0e 15 00 3e 04 02 72 3d 85 39 bf 3d 9f 5e 39 3e
       0.12508032 0.059083953 0.09337143 0.18102501
000210 49 e0 f9 bd 81 f3 1a bd 54 10 f7 3d 01 db 05 3b
       -0.12200982 -0.03782988 0.12063661 0.0020424726
000220 94 8c d5 3c 31 34 c4 3c d5 a4 74 3c 32 23 1f be
       0.02606801 0.023950668 0.014931877 -0.1554077
000230 62 8c 41 bd e5 54 15 bc 65 27 b9 bd c8 10 7d bd
       -0.04725302 -0.009114479 -0.09040717 -0.061783582
000240 51 8c 14 bd 02 28 8b 3d 41 3e 42 3d 6c 34 60 bd
       -0.03626663 0.0679474 0.04742265 -0.054737493
000250 34 24 09 bc 49 71 c7 bd e6 01 f2 bc fa f4 b0 3d
       -0.008370448 -0.09738404 -0.02954192 0.086404756
000260 44 4a 5c 3d 18 88 7a bb 54 c6 c0 bd bc 1e c6 bc
       0.053781763 -0.003822809 -0.09412828 -0.024184577
000270 50 cd 16 bd 14 60 00 3e 38 d3 25 be 7d 98 0f bc
       -0.036816895 0.12536651 -0.16193855 -0.008764383
000280 8b ee 9c 3d 76 63 9c bd 91 ec 3f bd 69 8a 4e be
       0.07662686 -0.07636158 -0.046856467 -0.20169987
000290 53 d7 08 3d 15 76 93 bd 0f 63 8c bd f5 84 fa 3d
       0.033408474 -0.07200257 -0.068548314 0.12232391
0002a0 36 31 f7 bc 2e 79 2b be 03 ce 96 bd 7c da ad 3d
       -0.030174833 -0.16745445 -0.07363512 0.08488938
0002b0 cf 0b a1 bd 7f b7 3f 3c 41 6b 81 bd e3 85 82 bd
       -0.078635804 0.011701464 -0.06319285 -0.06373193
0002c0 6f b2 23 3d 82 bf f4 3c 4e 51 18 3d 88 b5 28 bd
       0.03996509 0.029876474 0.037186913 -0.041188747
0002d0 cd de 8f 3c a1 10 30 bd c1 5c be 3c 7c c3 a9 bc
       0.017562294 -0.04298461 0.023237588 -0.020723097
0002e0 dd 26 98 3c 89 06 9d bd 1b 19 ca 3d 78 42 16 3c
       0.018573219 -0.07667262 0.0986807 0.009171121
0002f0 89 13 83 bc ae 6e b8 3d d8 ab bb bd be b1 4c be
       -0.016000526 0.090054855 -0.09163636 -0.19989678
000300 22 da cd 3d 4f 8b ce bd 02 6c 9f bd 76 2c aa bd
       0.10051371 -0.10085165 -0.07784273 -0.083092615
000310 2e 4f f4 3c c2 f8 eb bc 98 00 d2 bc d5 50 a0 bd
       0.029822912 -0.02880514 -0.025635049 -0.078279175
000320 ec 0c 80 bd cf 87 24 3e 08 83 15 3d 72 fa 83 3d
       -0.06252465 0.16067432 0.036501914 0.06444253
000330 7c 0b eb 3d f3 88 b1 3c c0 34 87 3d 63 00 64 3c
       0.114768 0.021671748 0.06601858 0.013916108
000340 64 3f 78 bc 8a 4d 4b bd 39 cb 3d 3d 7b 14 18 be
       -0.015151832 -0.049634494 0.046336386 -0.14851563
000350 c1 ec a4 3d ab c8 9d 3c c5 5e 61 bc 48 c7 aa bd
       0.0805297 0.019260725 -0.013755505 -0.08338791
000360 e5 22 8e bd eb 7b 0a be f7 9d 58 3d 29 eb 4a bd
       -0.06940249 -0.13523833 0.052885022 -0.049540672
000370 2e 34 43 bd fb e9 41 bd 8d 76 a6 bd 8f 04 3a bd
       -0.047657184 -0.04734228 -0.081280805 -0.045414504
000380 25 5c d8 3d 40 c7 b0 bc 62 9e ee 3d d4 41 90 bd
       0.1056445 -0.021579385 0.11651303 -0.07043806
000390 df ce 21 3c be d8 a3 3d 6a f1 39 bd 10 a6 c2 bd
       0.009875982 0.08000325 -0.045396246 -0.0950433
0003a0 14 c6 82 3d 9a 8a 92 bd b5 6c 72 bd 97 6d f8 bd
       0.06385437 -0.071553424 -0.059185702 -0.121302776
0003b0 de e9 06 3e fe be 99 bd 0c 16 b7 bd 7f c7 15 3e
       0.13175151 -0.07507132 -0.08939752 0.14626883
0003c0 d1 81 38 bc ac 63 88 bd 1c c4 22 3d 24 03 d7 bd
       -0.011261419 -0.06659636 0.039737806 -0.10498646
0003d0 a5 29 9d bd de 3b 44 3b ae a4 29 bd 97 14 2d 3c
       -0.07673959 0.002994291 -0.041416816 0.010563991
0003e0 e3 48 72 3e 35 18 c0 bd 48 2c c6 3d 6e 0c dc bd
       0.23660617 -0.09379617 0.09676415 -0.10744558
0003f0 a2 67 2d bd c4 4c d5 3c dd be 4b 3d c5 e0 e7 bc
       -0.04233516 0.026037581 0.04974257 -0.02830542

network_body._body_endoder.seq_layers.2.bias f4 [128]
000000 08 75 ac b8 84 6e f0 39 4a 1b 9c b8 6c ad ba 95
       -8.223398e-05 0.00045858708 -7.443743e-05 -7.5398413e-26
000010 30 89 82 ba 25 08 ea a0 b8 2f 02 b9 e6 19 68 32
       -0.0009959098 -3.9646532e-19 -0.00012415543 1.3510066e-08
000020 1d 53 00 bb a7 ce 20 b8 af 36 55 b8 38 78 d1 b9
       -0.001958079 -3.8339433e-05 -5.0834085e-05 -0.00039953156
000030 a6 ee 49 38 d8 a5 7c 38 07 d5 a1 ba ca 2b 27 36
       4.8144393e-05 6.0235936e-05 -0.0012346812 2.4910428e-06
000040 7c fa b4 30 4a 50 1a b9 58 0a 4e 38 ef e1 32 b7
       1.3167916e-09 -0.00014716494 4.912386e-05 -1.0662231e-05
000050 f2 67 b0 35 c5 15 31 ba 4c 40 99 b9 d1 6f 23 b8
       1.3143274e-06 -0.0006755258 -0.0002923034 -3.8966366e-05
000060 97 52 5f b9 fb 04 03 ba e1 a1 12 b9 b8 92 82 b9
       -0.00021297704 -0.00049979956 -0.0001398395 -0.00024904846
000070 37 f7 7d 3b 2f 48 a5 b8 0c ad 17 b7 4b e0 57 b9
       0.0038752088 -7.881258e-05 -9.040592e-06 -0.00020587553
000080 e8 f7 5d ba 4c 65 5e ba e5 0c 43 a7 7b 28 16 b7
       -0.0008467422 -0.00084837223 -2.7068676e-15 -8.950122e-06
000090 ed 90 89 b9 d0 1e 5f ba 7f d9 1a b9 f9 4b 9d b8
       -0.00026238654 -0.00085113663 -0.00014767608 -7.5004944e-05
0000a0 69 4b 21 bb dc 42 e1 b8 4e 28 eb ba 47 76 99 b8
       -0.0024611598 -0.000107412896 -0.0017941089 -7.3176394e-05
0000b0 30 d9 c4 a7 74 42 ce ba 41 bb 59 b6 55 2f 12 1d
       -5.4636403e-15 -0.0015736357 -3.2444516e-06 1.934741e-21
0000c0 1d 76 eb b9 22 4f f0 b8 97 69 15 b8 71 6c e0 b8
       -0.00044910694 -0.000114588314 -3.5622706e-05 -0.00010701351
0000d0 70 a1 fc b8 50 64 7a b7 f2 36 51 3a e9 dc 1b 31
       -0.000120463665 -1.4924517e-05 0.0007980905 2.2681041e-09
0000e0 3b 22 1e b9 cb 1a 15 bb d4 63 e9 b7 c8 9e 77 b8
       -0.00015080806 -0.0022751566 -2.782225e-05 -5.9037266e-05
0000f0 9e 87 a1 2a 44 04 ce 27 b1 84 72 b8 34 cc dc ae
       2.8693448e-13 5.718111e-15 -5.7820875e-05 -1.00407155e-10
000100 18 bc ee a6 c2 bd ee b7 bf d9 57 25 59 db 8d b1
       -1.656555e-15 -2.8460174e-05 1.8722053e-16 -4.128577e-09
000110 8d 64 93 ba 6b 43 2e ba 26 84 17 ba d7 01 34 3a
       -0.0011245176 -0.00066476193 -0.00057798845 0.0006866729
000120 c0 ee 54 3a db ca 98 ba c5 26 c6 9a d8 00 b2 ba
       0.0008122735 -0.0011657135 -8.1953516e-23 -0.0013580574
000130 8f 46 5b 37 25 57 a0 b8 e2 2f b3 b8 ae c6 bb b9
       1.3069845e-05 -7.6456265e-05 -8.544304e-05 -0.00035815447
000140 03 a8 59 b7 18 6b 33 18 37 9c 7f b9 d8 57 23 ba
       -1.2973326e-05 2.3189276e-24 -0.0002437689 -0.0006231046
000150 c8 4f 5a 3a 8c 6c b4 b7 ef 9c 78 b7 33 10 80 b9
       0.00083279284 -2.1508218e-05 -1.4818491e-05 -0.00024426132
000160 a1 3d b0 ba 7b 68 6f b8 bd 6e 1c b9 f1 ea ab 3a
       -0.0013446101 -5.7079345e-05 -0.00014918573 0.0013116283
000170 fc d2 d8 b7 a8 aa 05 37 4e de 5b b9 b8 d9 26 2a
       -2.5847454e-05 7.967152e-06 -0.00020968282 1.4819298e-13
000180 46 23 a4 b8 3b c4 54 b8 a1 18 8d ba 29 91 b0 b8
       -7.8266996e-05 -5.0727493e-05 -0.0010764786 -8.419372e-05
000190 e8 a6 9a ba bf 7d da b8 cc 28 ae b8 95 8c 51 b8
       -0.001179901 -0.00010418472 -8.3045656e-05 -4.996041e-05
0001a0 81 31 65 31 43 df 4f b9 1a 5a 16 3b fc d8 e5 ba
       3.3352026e-09 -0.0001982423 0.0022941888 -0.001753598
0001b0 68 8d 02 ba ce 12 f9 09 82 f8 cc b8 c2 67 56 ba
       -0.00049801776 5.9962253e-33 -9.773766e-05 -0.0008178913
0001c0 c7 7b 07 b8 55 b4 8d ba b1 0e b6 b7 6e 71 36 39
       -3.2301785e-05 -0.001081119 -2.1702932e-05 0.00017399128
0001d0 9c 79 66 b8 46 dd f1 a1 99 24 08 bb f2 4c 94 b9
       -5.494953e-05 -1.6389366e-18 -0.0020773767 -0.00028286088
0001e0 6f 54 17 b9 7b 51 5a 21 50 a2 d4 ba a5 1f 34 bb
       -0.00014431936 7.396911e-19 -0.0016222689 -0.0027484682
0001f0 3b bc c6 b9 7b b0 ad b9 1d 0c a8 b8 4f 1a 0d b9
       -0.00037905746 -0.0003312862 -8.0131205e-05 -0.00013456609

action_model._continuous_distribution.mu.weight f4 [1, 128]
000000 a7 47 88 bc 5d c4 59 3c 22 8f a2 bc 7d 8e ec 3b
       -0.016635729 0.013291446 -0.019843642 0.0072191344
000010 a8 cf 57 ba 43 21 f4 3c 74 1d a7 3b 66 d5 08 bc
       -0.00082325423 0.029801017 0.0050999466 -0.008351659
000020 7f 3c 6e 3c 1e be 8a 3c fe 90 1c 3c 8b 12 bf 3a
       0.014540791 0.016936358 0.009556053 0.001457767
000030 d8 2e d2 3c 1f b8 b9 3c 7f bd d0 3a d4 86 dd 3c
       0.025657102 0.022670804 0.0015925615 0.02704183
000040 72 ed 81 bb e5 41 ea bb 49 89 20 bc be 78 99 3c
       -0.0039650733 -0.0071489685 -0.009798356 0.018734332
000050 cb d9 ce 3c ae 7b 7d ba b0 58 29 3c be 41 95 3c
       0.025250336 -0.0009669614 0.010336086 0.018219825
000060 72 ef c1 3c e7 d2 ff 3b 0f 97 f9 bb 60 41 0e 3b
       0.023673747 0.007807124 -0.0076168845 0.0021706447
000070 71 77 12 bc b7 20 94 bc d9 47 a0 3c ca de 94 bb
       -0.00893961 -0.018082006 0.01956551 -0.00454316
000080 28 b0 ad bb c2 c2 a2 39 f6 d7 8c bc c8 82 a0 3c
       -0.0053005405 0.00031044154 -0.017192822 0.019593611
000090 bb 3b 33 3b cd 24 be bb d6 e9 e9 bb 6d 18 a0 bc
       0.0027348835 -0.005802727 -0.007138471 -0.019542897
0000a0 7b 72 98 bc 16 18 b7 3c 04 db 8c bc ad 2e a8 bc
       -0.018609276 0.022350352 -0.017194279 -0.02053007
0000b0 ea e9 ff 3c c9 1a bd 39 a5 a0 29 3b 37 74 1c bc
       0.031239469 0.00036068846 0.0025883105 -0.009549192
0000c0 ef 39 01 bb c3 d7 26 bc 19 a7 dd bb 41 53 34 bc
       -0.001971837 -0.010183278 -0.0067643044 -0.011006177
0000d0 e2 1f 71 bd ff ab 8c 3c 15 5a 35 bc 33 43 f7 bb
       -0.058868296 0.017171858 -0.0110688405 -0.0075458526
0000e0 85 27 8f 3b 36 88 88 39 48 8c 5b 3c 51 88 11 3c
       0.0043687248 0.00026041426 0.013400145 0.008882598
0000f0 4f bd 00 bd 54 97 45 bc 1e 27 08 bd 72 52 cb 3b
       -0.03143054 -0.012060005 -0.03324043 0.0062048966
000100 05 24 6c bc 67 85 d8 3b e0 4a 07 bc c7 b8 ca 3b
       -0.014412885 0.0066076997 -0.008257598 0.006186578
000110 21 bf 18 3c 99 e5 9b ba 62 c1 b7 bc fe f0 ea 3c
       0.009322912 -0.0011893987 -0.02243108 0.028679367
000120 db 5d df bc b4 44 3b 3c 5b 87 9a 3c a7 97 05 bc
       -0.027266433 0.011429954 0.01886337 -0.0081538325
000130 6b 48 28 3d 73 2d 9c bc 40 e1 79 bb ec 64 b9 3a
       0.04108469 -0.01906464 -0.0038128644 0.0014144457
000140 0e 7f e4 3c 37 5e 96 bc 10 f2 3f 3b 95 43 8b bb
       0.027892616 -0.018355472 0.0029288568 -0.0042499998
000150 f5 87 30 3a 43 14 75 3c ff 76 8c 3c dd 10 7f bb
       0.00067341264 0.014958444 0.017146586 -0.0038919963
000160 75 0b 41 3c 7f a3 0c bd 98 79 ec bb cd 2b 40 3c
       0.011782517 -0.03433561 -0.0072166435 0.011729193
000170 bf 93 63 3c 27 a8 06 3d d7 ee 97 bb 0b b8 59 bc
       0.013890206 0.032875206 -0.004636626 -0.013288508
000180 7e 6d f1 3b 1c a9 53 3c 4b d6 b5 bc 90 2f e3 3b
       0.007367789 0.012918737 -0.02219691 0.00693316
000190 1e 91 3c 3c 6f 25 3f bc 43 61 89 bc ad 21 1a 3c
       0.011509208 -0.01166664 -0.01677001 0.009407443
0001a0 7e 69 fb bc cc 75 9b 3b 58 db 04 bc ba 9c 70 bc
       -0.030689951 0.004744267 -0.008108936 -0.014685804
0001b0 3f 8b 33 3c 09 6d ab bb 25 29 51 bc 7f c8 ca 3c
       0.010958492 -0.005231504 -0.012766157 0.024753807
0001c0 f3 11 48 3c 95 a5 0f 3c 01 92 74 3c af 4a 09 bd
       0.012211311 0.008767505 0.014927388 -0.03351849
0001d0 e5 04 19 3c 0b 2a 19 3a ae a1 cd 38 95 46 53 bb
       0.009339546 0.00058427517 9.805277e-05 -0.0032238115
0001e0 11 74 3d 3c 3b 75 75 bc c2 56 97 bc 5b 57 58 3c
       0.011563317 -0.014981563 -0.018473987 0.013204421
0001f0 5f d4 45 3c f6 fb f0 3c 66 b7 8e bc 05 5d 03 bc
       0.012074559 0.02941702 -0.017421436 -0.008017783
