Shortcut Run/results/Test3/Move/Move-1373.pt (torch, 149007 bytes, 10 tensors)

network_body._body_endoder.seq_layers.0.weight f4 [128, 6]
0.23810184 -0.28131884 -0.2533921 0.5587611 0.33829954 0.5450591 0.52327824 0.15121293
-0.054955628 -0.50981617 0.6668013 -0.09218906 0.14509162 0.09177505 0.15739793 -0.34241
0.11209016 0.7391041 0.48436907 0.39874536 0.16794062 -0.3580434 -0.402477 -0.28507486
0.3812144 -0.58467996 0.43522817 0.22290508 -0.045824267 0.26788175 0.50852144 0.29099837
-0.47323474 -0.1950701 -0.4641969 0.32576036 -0.27213666 -0.49034196 0.12135435 -0.5425565
-0.31819034 -0.4945449 -0.17237972 -0.36898753 -0.40456665 -0.12533121 -0.52352136 -0.36773095
-0.15080887 0.057989586 -0.95654213 -0.36555246 -0.08308102 0.15121835 0.33311164 0.26488283
-0.39940098 0.038773652 0.49462366 -0.26969895 -0.16328055 -0.2083245 0.75921524 0.22526927
-0.8633274 0.011134815 -0.052170593 -0.2837822 -0.37063584 0.3684232 -0.33456096 -0.15145163
-0.13467303 -0.09901025 -0.7394331 -0.040812604 0.14139383 0.09399711 -0.22220545 -0.24061398
0.08712368 0.24265924 -0.21625854 0.61081135 -0.14518368 0.084477685 0.40421128 -0.105079114
0.51565444 0.18274428 -0.543359 -0.9684787 0.7340366 -0.043082055 -0.49179137 0.20153645
0.43922737 0.105666794 0.3269105 -0.1757696 -0.101377025 0.5455935 0.41092762 -0.09088056
0.3012637 -0.07583112 -0.67470086 -0.32426414 0.2929091 0.23042257 0.29354787 -0.09302279
0.7951592 -0.1613755 0.5193576 0.027654165 0.3715029 -0.20352897 -0.2718838 0.23245117
-0.22292976 -0.1452233 0.09178148 -0.08168197 0.32354537 0.40797886 -0.48942286 0.62428653
0.20490487 -0.100240394 0.121752486 0.17121439 -0.0127614215 -1.1966629 -0.05603523 -0.8259569
-0.6855478 -0.2984146 -0.5686833 0.54961085 -0.4172172 0.2599722 0.066828385 0.45374984
0.053728692 -0.25088653 -0.46340436 -0.2361684 -0.15279359 -0.21672553 -0.088416986 0.1931184
0.15951174 -0.113915175 0.034218345 -0.35549337 -0.4000096 0.083482765 0.7479335 0.20025131
-0.00979154 -0.08769172 -0.32623073 0.58560914 0.18046756 -0.44598162 -0.34706286 -0.19533071
0.49411747 -0.5261753 -0.11732492 -0.036984242 -0.52380025 0.5649274 0.2682989 -0.6407113
-0.662007 0.14450489 -0.23656204 0.5274503 -0.2157709 0.22926372 0.029240303 0.19825424
-0.8883752 0.52594304 -0.14514974 0.12807259 0.084619075 -0.46966717 0.5393566 0.536959
0.292345 0.3478536 -0.030886114 -0.29931152 0.46938625 0.0017585171 0.6824712 0.6602701
-0.26501817 0.2908559 0.36579078 0.2000944 0.17208427 -0.0986194 -0.1352866 -0.2636187
0.7227725 -0.19493772 0.45950335 0.20314372 0.38392124 0.30843872 -0.3039098 0.23631574
0.7679401 -0.04464773 0.012928685 -0.05164521 -0.6709092 -0.5163636 0.65849024 0.03282083
0.17357342 0.12614943 0.21942659 0.3045723 0.39439857 0.44169888 -0.49062827 0.45373037
0.7176473 -0.33122352 0.44301322 0.0067134206 0.16682796 -0.3260075 0.5279662 0.78597385
0.02843423 -0.05486206 -0.03776168 0.28354847 0.22708583 0.29417717 -0.190295 -0.07534208
0.041772455 -0.31263188 0.3201701 -0.44954288 -0.20212571 0.6525378 -0.4538284 -0.06028335
00000000: f8d0 733e 0609 90be 9cbc 81be f80a 0f3f
00000010: 9935 ad3e fe88 0b3f 90f5 053f 90d7 1a3e
00000020: 2719 61bd 5083 02bf 7db3 2a3f 9ecd bcbd
00000030: e692 143e 8ff4 bb3d ec2c 213e 5d50 afbe
00000040: 878f e53d ed35 3d3f 39ff f73e 5a28 cc3e
00000050: a0f8 2b3e 7751 b7be 7711 cebe 55f5 91be
00000060: 892e c33e 96ad 15bf 3ad6 de3e 3b41 643e
00000070: 3ab2 3bbd cc27 893e 762e 023f bdfd 943e
00000080: d34b f2be 75c0 47be 37ab edbe 10ca a63e
00000090: 7f55 8bbe 1a0e fbbe a188 f83d fce4 0abf
000000a0: d8e9 a2be fd34 fdbe 4f84 30be efeb bcbe
000000b0: 5c23 cfbe d356 00be 7f05 06bf 3b47 bcbe
000000c0: a46d 1abe 7d86 6d3d f2df 74bf b129 bbbe
000000d0: 6226 aabd fcd8 1a3e 9c8d aa3e b99e 873e
000000e0: 497e ccbe 1fd1 1e3d 503f fd3e fb15 8abe
000000f0: 0433 27be 0553 55be ee5b 423f fdac 663e
00000100: 0603 5dbf cd6e 363c d5b0 55bd e74b 91be
00000110: fbc3 bdbe f7a1 bc3e 934b abbe 2316 1bbe
00000120: bae7 09be e3c5 cabd 7d4b 3dbf 1e2b 27bd
00000130: 8bc9 103e 8f81 c03d d389 63be 8363 76be
00000140: e66d b23d aa7b 783e e172 5dbe 225e 1c3f
00000150: 08ab 14be a302 ad3d c8f4 ce3e b833 d7bd
00000160: ee01 043f 5121 3b3e 9319 0bbf 38ee 77bf
00000170: d3e9 3b3f cf76 30bd 14cc fbbe 925f 4e3e
00000180: 69e2 e03e d567 d83d d060 a73e f2fc 33be
00000190: c29e cfbd 04ac 0b3f 1b65 d23e 961f babd
000001a0: 3c3f 9a3e 594d 9bbd 32b9 2cbf f305 a6be
000001b0: 2ef8 953e e5f3 6b3e e84b 963e bc82 bebd
000001c0: 8e8f 4b3f 9e3f 25be 9ff4 043f fd8a e23c
000001d0: a135 be3e e669 50be 5a34 8bbe ae07 6e3e
000001e0: b347 64be 6bb5 14be eef7 bb3d e048 a7bd
000001f0: bda7 a53e 9be2 d03e a295 fabe 3ed1 1f3f
00000200: 95d2 513e d64a cdbd 5e59 f93d d352 2f3e
00000210: 4815 51bc 402c 99bf 3385 65bd e971 53bf
00000220: 1080 2fbf ccc9 98be 3b95 11bf 4cb3 0c3f
00000230: 7e9d d5be 141b 853e 52dd 883d e651 e83e
00000240: 9e12 5c3d 3374 80be 5643 edbe 21d6 71be
00000250: ec75 1cbe 4ced 5dbe f713 b5bd d4c0 453e
00000260: 0c57 233e 5c4c e9bd 8928 0c3d 3a03 b6be
00000270: 0fce ccbe 03f9 aa3d 9278 3f3f ae0e 4d3e
00000280: b26c 20bc b797 b3bd b707 a7be 7bea 153f
00000290: 7dcc 383e b457 e4be 39b2 b1be c604 48be
000002a0: f7fc fc3e 6db3 06bf 0c48 f0bd ca7c 17bd
000002b0: c617 06bf 159f 103f 795e 893e a805 24bf
000002c0: 4a79 29bf 17f9 133e 523d 72be fc06 073f
000002d0: 0cf3 5cbe 1cc4 6a3e 5c89 ef3c 2903 4b3e
000002e0: 8f6c 63bf 34a4 063f 22a2 14be 7625 033e
000002f0: c44c ad3d 3778 f0be 4613 0a3f 2576 093f
00000300: 3eae 953e de19 b23e e004 fdbc 5c3f 99be
00000310: 6553 f03e 0b7e e63a 6fb6 2e3f 7607 293f
00000320: 76b0 87be 11eb 943e ee48 bb3e 8ce5 4c3e
00000330: dc36 303e f8f8 c9bd 9288 0abe 08f9 86be
00000340: 9e07 393f c19d 47be 0644 eb3e e804 503e
00000350: 5391 c43e aeeb 9d3e 119a 9bbe c1fc 713e
00000360: b997 443f 8ae0 36bd d6d2 533c ed89 53bd
00000370: b5c0 2bbf 6830 04bf d192 283f 226f 063d
00000380: 3bbd 313e 512d 013e 5db1 603e e7f0 9b3e
00000390: 9cee c93e 5b26 e23e a133 fbbe 594f e83e
000003a0: bcb7 373f 2196 a9be a1d2 e23e 41fc db3b
000003b0: f3d4 2a3e 74ea a6be cb28 073f 9535 493f
000003c0: e7ee e83c 0ab7 60bd feab 1abd 442d 913e
000003d0: 3089 683e 649e 963e b1dc 42be f34c 9abd
000003e0: 9819 2b3d 4911 a0be 56ed a33e 7c2a e6be
000003f0: 0bfa 4ebe b80c 273f 325c e8be adeb 76bd

network_body._body_endoder.seq_layers.0.bias f4 [128]
0.0 0.0 0.0 0.0 0.0 0.0 0.0 0.0
0.0 0.0 0.0 0.0 0.0 0.0 0.0 0.0
0.0 0.0 0.0 0.0 0.0 0.0 0.0 0.0
0.0 0.0 0.0 0.0 0.0 0.0 0.0 0.0
0.0 0.0 0.0 0.0 0.0 0.0 0.0 0.0
0.0 0.0 0.0 0.0 0.0 0.0 0.0 0.0
0.0 0.0 0.0 0.0 0.0 0.0 0.0 0.0
0.0 0.0 0.0 0.0 0.0 0.0 0.0 0.0
0.0 0.0 0.0 0.0 0.0 0.0 0.0 0.0
0.0 0.0 0.0 0.0 0.0 0.0 0.0 0.0
0.0 0.0 0.0 0.0 0.0 0.0 0.0 0.0
0.0 0.0 0.0 0.0 0.0 0.0 0.0 0.0
0.0 0.0 0.0 0.0 0.0 0.0 0.0 0.0
0.0 0.0 0.0 0.0 0.0 0.0 0.0 0.0
0.0 0.0 0.0 0.0 0.0 0.0 0.0 0.0
0.0 0.0 0.0 0.0 0.0 0.0 0.0 0.0
00000000: 0000 0000 0000 0000 0000 0000 0000 0000
00000010: 0000 0000 0000 0000 0000 0000 0000 0000
00000020: 0000 0000 0000 0000 0000 0000 0000 0000
00000030: 0000 0000 0000 0000 0000 0000 0000 0000
00000040: 0000 0000 0000 0000 0000 0000 0000 0000
00000050: 0000 0000 0000 0000 0000 0000 0000 0000
00000060: 0000 0000 0000 0000 0000 0000 0000 0000
00000070: 0000 0000 0000 0000 0000 0000 0000 0000
00000080: 0000 0000 0000 0000 0000 0000 0000 0000
00000090: 0000 0000 0000 0000 0000 0000 0000 0000
000000a0: 0000 0000 0000 0000 0000 0000 0000 0000
000000b0: 0000 0000 0000 0000 0000 0000 0000 0000
000000c0: 0000 0000 0000 0000 0000 0000 0000 0000
000000d0: 0000 0000 0000 0000 0000 0000 0000 0000
000000e0: 0000 0000 0000 0000 0000 0000 0000 0000
000000f0: 0000 0000 0000 0000 0000 0000 0000 0000
00000100: 0000 0000 0000 0000 0000 0000 0000 0000
00000110: 0000 0000 0000 0000 0000 0000 0000 0000
00000120: 0000 0000 0000 0000 0000 0000 0000 0000
00000130: 0000 0000 0000 0000 0000 0000 0000 0000
00000140: 0000 0000 0000 0000 0000 0000 0000 0000
00000150: 0000 0000 0000 0000 0000 0000 0000 0000
00000160: 0000 0000 0000 0000 0000 0000 0000 0000
00000170: 0000 0000 0000 0000 0000 0000 0000 0000
00000180: 0000 0000 0000 0000 0000 0000 0000 0000
00000190: 0000 0000 0000 0000 0000 0000 0000 0000
000001a0: 0000 0000 0000 0000 0000 0000 0000 0000
000001b0: 0000 0000 0000 0000 0000 0000 0000 0000
000001c0: 0000 0000 0000 0000 0000 0000 0000 0000
000001d0: 0000 0000 0000 0000 0000 0000 0000 0000
000001e0: 0000 0000 0000 0000 0000 0000 0000 0000
000001f0: 0000 0000 0000 0000 0000 0000 0000 0000

network_body._body_endoder.seq_layers.2.weight f4 [128, 128]
0.0024290613 0.0049676434 -0.09735081 -0.10045522 -0.016398078 -0.024283363 -0.025820917 0.12018427
-0.005496568 0.06263835 -0.02372621 0.07347208 -0.06053428 -0.1649137 0.07047658 -0.0051371283
0.2702996 0.039781768 0.017479662 0.012089963 -0.03836766 0.111803316 -0.13321963 -0.00684465
0.2225979 0.048114505 0.16542073 -0.08188768 -0.03567 -0.054514434 -0.033344917 0.14861663
-0.023130685 -0.07339548 0.03921963 0.04707178 -0.12221522 -0.036747135 0.032046065 -0.042889122
0.113970324 -0.022413913 -0.0015881434 0.013228739 -0.17115928 -0.1430469 0.06096751 0.15792623
0.056136098 0.05853596 0.06782187 -0.005765041 -0.0038269183 0.075140156 0.08511239 -0.0320704
-0.04427153 -0.13105579 -0.2027046 -0.0883113 0.03735988 -0.16681542 -0.028431239 0.013084722
0.029229414 0.11722884 0.07391467 0.052488234 -0.103788085 -0.07567055 0.11401098 0.0450263
0.1340486 -0.057337537 -0.14910431 0.018165672 0.1350081 -0.015166249 -0.09995266 -0.19159284
-0.06798704 -0.08631165 0.028194806 0.028157566 -0.07770829 0.07795576 -0.15667336 -0.013848896
0.16891062 0.097396895 -0.03315147 -0.061491977 0.0501837 -0.041557062 -0.07943902 -0.064811766
0.056000102 -0.016829321 0.035907898 0.040113207 0.043973744 -0.05629404 -0.080655776 -0.01745479
0.12004632 -0.01870675 0.10525666 0.057553295 0.041345768 0.13026717 -0.050186366 -0.040289074
-0.11636655 0.08856674 -0.11264489 -0.13958187 0.042839445 0.01382249 0.04085894 -0.025796078
0.09510066 0.0037514758 -0.042002454 0.114165656 -0.0050597503 -0.022231657 0.0010370732 0.04983556
0.060539763 0.011650471 -0.12752275 -0.0022880367 -0.13013984 0.17078564 0.011104053 -0.12729281
-9.5630865e-05 0.13668874 0.019485602 -0.01806624 -0.20113128 0.076505214 -0.032320965 0.027445985
0.20017196 -0.0066878526 0.03510036 0.016598212 0.09548872 -0.03268364 0.04530531 -0.1308472
0.0609579 -0.09271274 -0.116067044 -0.029048642 0.044830833 -0.032100994 0.04671008 0.101530574
-0.051632237 0.050964072 -0.079419844 -0.020603415 -0.07641911 0.018439906 -0.07614546 -0.01279147
-0.09120035 -0.016459523 0.13758346 0.010239788 -0.09192469 -0.092687875 0.050011672 0.018965865
0.110987514 -0.09263451 -0.003738624 -0.074754044 -0.095690206 0.008153455 0.0643015 0.057894833
-0.113260895 0.07028038 -0.10161436 0.015111808 -0.07829989 0.15208913 -0.010206699 -0.13635938
0.04047891 0.03467987 0.00055677997 -0.08925632 0.14035763 0.038614932 0.13738613 -0.19503964
0.042534687 0.04817472 -0.05341271 0.1585162 -0.07916678 0.11301922 0.16498058 -0.12069009
-0.12862019 0.24376535 -0.04290274 -0.07982356 0.0035149094 -0.038197737 -0.10439131 -0.08857595
0.041623548 0.0191246 0.023976658 -0.025509246 -0.22773258 0.06416803 -0.10154242 -0.10184668
-0.10119257 -0.119943336 0.08069037 -0.041184798 -0.11591304 -0.043019462 -0.078628264 -0.018438645
-0.10838005 0.016337441 -0.0037428515 0.057606257 0.099086836 -0.118276246 0.015491162 -0.067088574
0.025414428 -0.13606952 0.0548805 -0.014299214 -0.078563586 -0.10390153 0.016547747 -0.06603477
0.11066103 0.023341509 0.12404205 -0.093401894 -0.06540597 0.07407984 0.07347314 0.1276938
00000000: e330 1f3b 9dc7 a23b dd5f c7bd 77bb cdbd
00000010: 4355 86bc e7ed c6bc 6386 d3bc 2c23 f63d
00000020: 8e1c b4bb 8948 803d 785d c2bc 8878 963d
00000030: cbf2 77bd 23df 28be 0656 903d 5b55 a8bb
00000040: b664 8a3e 35f2 223d 8231 8f3c fb14 463c
00000050: 6827 1dbd 23f9 e43d ba6a 08be 1649 e0bb
00000060: b4f0 633e b713 453d 0d64 293e bab4 a7bd
00000070: b51a 12bd 874a 5fbd ae94 08bd f52e 183e
00000080: 907c bdbc 5f50 96bd c3a4 203d 57ce 403d
00000090: f94b fabd 2a84 16bd bc42 033d 81ac 2fbd
000000a0: 4669 e93d 629d b7bc 4029 d0ba 5abd 583c
000000b0: 6144 2fbe e37a 12be 11b9 793d 6ab7 213e
000000c0: f7ee 653d 67c3 6f3d 31e6 8a3d abe8 bcbb
000000d0: 09cd 7abb 15e3 993d 684f ae3d 405c 03bd
000000e0: 1056 35bd 7d33 06be cb91 4fbe 8edc b4bd
000000f0: ac06 193d a9d1 2abe a1e8 e8bc 4d61 563c
00000100: 8672 ef3c ad15 f03d 9360 973d e7fd 563d
00000110: d98e d4bd 29f9 9abd 977e e93d 7f6d 383d
00000120: 0944 093e c4da 6abd cdae 18be 2dd0 943c
00000130: 903f 0a3e dc7b 78bc fbb3 ccbd ea30 44be
00000140: ca3c 8bbd 2ac4 b0bd cbf8 e63c b2aa e63c
00000150: 8625 9fbd 45a7 9f3d fb6e 20be 7be6 62bc
00000160: e8f6 2c3e 0678 c73d d6c9 07bd 03df 7bbd
00000170: 6c8d 4d3d bd37 2abd edb0 a2bd 08bc 84bd
00000180: 5d60 653d a5dd 89bc 2914 133d bf4d 243d
00000190: d01d 343d 9494 66bd db2e a5bd 59fd 8ebc
000001a0: d8da f53d e63e 99bc ce90 d73d 01bd 6b3d
000001b0: 2e5a 293d c264 053e 3890 4dbd 2806 25bd
000001c0: 9651 eebd 7b62 b53d 5db2 e6bd 8dee 0ebe
000001d0: 6a78 2f3d ba77 623c b45b 273d 4c52 d3bc
000001e0: 23c4 c23d 52db 753b c40a 2cbd afcf e93d
000001f0: 43cc a5bb 2a1f b6bc 67ee 873a 5f20 4c3d
00000200: 8bf8 773d 9ee1 3e3c 5395 02be e3f2 15bb
00000210: 6143 05be 6ee2 2e3e c6ed 353c 0c59 02be
00000220: 6e8d c8b8 22f8 0b3e 45a0 9f3c a7ff 93bc
00000230: 5cf5 4dbe c4ae 9c3d fd62 04bd 67d6 e03c
00000240: e1f9 4c3e c625 dbbb 65c5 0f3d f9f8 873c
00000250: 978f c33d 48df 05bd 1092 393d cffc 05be
00000260: feae 793d 2de0 bdbd 8fb4 edbd 6bf7 edbc
00000270: 89a0 373d 557c 03bd 1253 3f3d 43ef cf3d
00000280: 537c 53bd b4bf 503d dfa6 a2bd 7ec8 a8bc
00000290: 9f81 9cbd 490f 973c 27f2 9bbd 5093 51bc
000002a0: 40c7 babd 1fd6 86bc aee2 0c3e c9c4 273c
000002b0: 0343 bcbd 24d3 bdbd 0ad9 4c3d 4d5e 9b3c
000002c0: 6c4d e33d 29b7 bdbd b403 75bb a618 99bd
000002d0: 3af9 c3bd 1296 053c 81b0 833d 2223 6d3d
000002e0: 54f5 e7bd 29ef 8f3d 311b d0bd 8497 773c
000002f0: b15b a0bd 41bd 1b3e 003a 27bc cba1 0bbe
00000300: 37cd 253d 7b0c 0e3d dff4 113a 04cc b6bd
00000310: e9b9 0f3e b12a 1e3d f3ae 0c3e 79b8 47be
00000320: da38 2e3d db52 453d 49c7 5abd 1252 223e
00000330: 3122 a2bd 9f76 e73d abf0 283e 5e2c f7bd
00000340: 03b5 03be a09d 793e c9ba 2fbd 897a a3bd
00000350: 655a 663b 3b75 1cbd 1ccb d5bd 4f67 b5bd
00000360: 747d 2a3d 31ab 9c3c b26a c43c c4f8 d0bc
00000370: bb32 69be 876a 833d 79f5 cfbd fe94 d0bd
00000380: 0d3e cfbd daa4 f5bd fe40 a53d 64b1 28bd
00000390: d163 edbd 2d35 30bd db07 a1bd a40c 97bc
000003a0: 5cf6 ddbd 19d6 853c a14a 75bb 8af4 6b3d
000003b0: 0aee ca3d d13a f2bd a5ce 7d3c bc65 89bd
000003c0: eb31 d03c cf55 0bbe 60ca 603d 4047 6abc
000003d0: f2e5 a0bd 53ca d4bd 248f 873c 3d3d 87bd
000003e0: 40a2 e23d b136 bf3c c209 fe3d 7e49 bfbd
000003f0: 91f3 85bd 2cb7 973d 1679 963d 2ac2 023e

network_body._body_endoder.seq_layers.2.bias f4 [128]
0.0 0.0 0.0 0.0 0.0 0.0 0.0 0.0
0.0 0.0 0.0 0.0 0.0 0.0 0.0 0.0
0.0 0.0 0.0 0.0 0.0 0.0 0.0 0.0
0.0 0.0 0.0 0.0 0.0 0.0 0.0 0.0
0.0 0.0 0.0 0.0 0.0 0.0 0.0 0.0
0.0 0.0 0.0 0.0 0.0 0.0 0.0 0.0
0.0 0.0 0.0 0.0 0.0 0.0 0.0 0.0
0.0 0.0 0.0 0.0 0.0 0.0 0.0 0.0
0.0 0.0 0.0 0.0 0.0 0.0 0.0 0.0
0.0 0.0 0.0 0.0 0.0 0.0 0.0 0.0
0.0 0.0 0.0 0.0 0.0 0.0 0.0 0.0
0.0 0.0 0.0 0.0 0.0 0.0 0.0 0.0
0.0 0.0 0.0 0.0 0.0 0.0 0.0 0.0
0.0 0.0 0.0 0.0 0.0 0.0 0.0 0.0
0.0 0.0 0.0 0.0 0.0 0.0 0.0 0.0
0.0 0.0 0.0 0.0 0.0 0.0 0.0 0.0
00000000: 0000 0000 0000 0000 0000 0000 0000 0000
00000010: 0000 0000 0000 0000 0000 0000 0000 0000
00000020: 0000 0000 0000 0000 0000 0000 0000 0000
00000030: 0000 0000 0000 0000 0000 0000 0000 0000
00000040: 0000 0000 0000 0000 0000 0000 0000 0000
00000050: 0000 0000 0000 0000 0000 0000 0000 0000
00000060: 0000 0000 0000 0000 0000 0000 0000 0000
00000070: 0000 0000 0000 0000 0000 0000 0000 0000
00000080: 0000 0000 0000 0000 0000 0000 0000 0000
00000090: 0000 0000 0000 0000 0000 0000 0000 0000
000000a0: 0000 0000 0000 0000 0000 0000 0000 0000
000000b0: 0000 0000 0000 0000 0000 0000 0000 0000
000000c0: 0000 0000 0000 0000 0000 0000 0000 0000
000000d0: 0000 0000 0000 0000 0000 0000 0000 0000
000000e0: 0000 0000 0000 0000 0000 0000 0000 0000
000000f0: 0000 0000 0000 0000 0000 0000 0000 0000
00000100: 0000 0000 0000 0000 0000 0000 0000 0000
00000110: 0000 0000 0000 0000 0000 0000 0000 0000
00000120: 0000 0000 0000 0000 0000 0000 0000 0000
00000130: 0000 0000 0000 0000 0000 0000 0000 0000
00000140: 0000 0000 0000 0000 0000 0000 0000 0000
00000150: 0000 0000 0000 0000 0000 0000 0000 0000
00000160: 0000 0000 0000 0000 0000 0000 0000 0000
00000170: 0000 0000 0000 0000 0000 0000 0000 0000
00000180: 0000 0000 0000 0000 0000 0000 0000 0000
00000190: 0000 0000 0000 0000 0000 0000 0000 0000
000001a0: 0000 0000 0000 0000 0000 0000 0000 0000
000001b0: 0000 0000 0000 0000 0000 0000 0000 0000
000001c0: 0000 0000 0000 0000 0000 0000 0000 0000
000001d0: 0000 0000 0000 0000 0000 0000 0000 0000
000001e0: 0000 0000 0000 0000 0000 0000 0000 0000
000001f0: 0000 0000 0000 0000 0000 0000 0000 0000

action_model._continuous_distribution.mu.weight f4 [1, 128]
-0.0022698208 -0.010071821 0.032519277 0.006950617 0.017107666 0.003260359 -0.0008438729 -0.026858354
0.008435129 -0.03239545 0.003939872 -0.026288638 -0.033467133 -0.008120531 -0.010882972 0.021102956
-0.021049932 0.0019280084 -0.008054118 -0.00050068164 0.010525761 -0.004362404 -0.020712275 -0.0039242483
0.010299469 -0.009107458 0.01918206 0.0031574212 0.03405 -0.015328422 0.015262537 -0.010790119
0.029735392 0.01092434 0.0075357417 -0.0117090875 -0.017360415 -0.01661487 -0.021102322 0.012232453
-0.0082468875 0.008613624 -0.020539446 -0.018638017 -0.004599926 -0.021451844 0.0171335 0.023367757
-0.0007968141 0.032465175 0.0066575306 -0.022968505 0.014685667 -0.0088028135 0.0575864 0.010020633
-0.017995005 0.014360696 0.019469054 -0.014338321 0.014068769 0.023173608 0.012285282 -0.0024490235
-0.006968949 0.008177548 0.03849346 0.0294484 0.012541334 0.018160386 0.016652115 -0.0032716678
0.007702691 -0.019493999 -0.0051698145 -0.016907725 0.021164982 -0.004981158 0.008320446 0.004405699
-0.003414726 -0.009736393 0.03036653 -0.002601842 0.008786582 0.005227351 0.026493117 0.023049137
0.00012303995 0.01064926 -0.00725675 -0.011948018 -0.016764265 0.00065193285 0.03212583 0.014536855
0.01897743 0.0032981343 -0.009570654 -0.01839381 -0.014945258 -0.024740003 -0.02150931 0.009155605
0.0074372822 0.014439242 0.015022345 -0.026376208 0.017881863 0.002768668 -0.017261334 -0.0022806316
0.0005874335 0.013719914 0.033527683 -0.0032486652 0.03073257 0.006944398 -0.010567265 0.003209296
0.002971447 -0.008683659 -0.009105678 0.02406816 -0.0115935 -0.0047538835 0.006030418 0.037240643
00000000: 46c1 14bb 4704 25bc ef32 053d 00c2 e33b
00000010: 6025 8c3c bfab 553b 5a37 5dba 0d06 dcbc
00000020: 7f33 0a3c 17b1 04bd 0b1a 813b 455b d7bc
00000030: d514 09bd fa0b 05bc 7e4e 32bc 1be0 ac3c
00000040: e870 acbc 3ab5 fc3a 6bf5 03bc 2d40 03ba
00000050: 3e74 2c3c 7ff2 8ebb caac a9bc fb96 80bb
00000060: 1bbf 283c 7337 15bc b223 9d3c bdec 4e3b
00000070: 0378 0b3d 1024 7bbc b80f 7a3c 0ac9 30bc
00000080: a397 f33c 01fc 323c 62ee f63b 79d7 3fbc
00000090: 6e37 8ebc e81b 88bc c7de acbc a06a 483c
000000a0: f41d 07bc 2820 0d3c 5742 a8bc c1ae 98bc
000000b0: faba 96bb c7bb afbc 8e5b 8c3c bd6d bf3c
000000c0: 4ae1 50ba 34fa 043d 6a27 da3b 7228 bcbc
000000d0: 279c 703c ad39 10bc b8df 6b3d 952d 243c
000000e0: 436a 93bc 2049 6b3c 917d 9f3c 47eb 6abc
000000f0: b280 663c 94d6 bd3c 3548 493c cc7f 20bb
00000100: c85b e4bb 1ffb 053c 51ab 1d3d c53d f13c
00000110: 2b7a 4d3c 17c5 943c 046a 883c 7a69 56bb
00000120: db66 fc3b e1b1 9fbc 8c67 a9bb 1282 8abc
00000130: 2f62 ad3c fb38 a3bb 7b52 083c af5d 903b
00000140: 98c9 5fbb 6485 1fbc 3bc3 f83c aa83 2abb
00000150: 99f5 0f3c 334a ab3b 1808 d93c 8bd1 bc3c
00000160: 4904 0139 3c7a 2e3c 08ca edbb 9fc1 43bc
00000170: 3655 89bc 79e6 2a3a 6096 033d fd2b 6e3c
00000180: 8e76 9b3c 8325 583b 3bce 1cbc 9eae 96bc
00000190: f5dc 74bc 8cab cabc 4b34 b0bc 6401 163c
000001a0: 72b4 f33b 9292 6c3c 4820 763c eb12 d8bc
000001b0: fc7c 923c 8b72 353b a467 8dbc a676 15bb
000001c0: fffd 193a 7dc9 603c 5354 093d 8fe7 54bb
000001d0: dfc2 fb3c d58d e33b 5222 2dbc 0d53 523b
000001e0: 9cbc 423b e845 0ebc fb2f 15bc 972a c53c
000001f0: aaf2 3dbc 77c6 9bbb d09a c53b a589 183d

network_body._body_endoder.seq_layers.0.weight f4 [128, 6]
0.43443558 0.44050178 -0.38941073 -0.8911901 0.1848054 -0.066102736 -0.6811315 -0.31173226
-0.011841336 -0.2915224 -0.06411219 -0.3963863 -0.011452718 -0.741813 -0.5094976 1.2871765
-0.16559304 -0.44258106 -0.100883864 -0.6328923 -0.01934559 0.050854236 0.13486472 -0.2075634
-0.23817326 -0.1368853 -0.57354397 -0.14369984 -1.1940517 0.26930374 0.22105852 0.053519614
0.3564041 -0.68582207 -0.079107605 -0.1161962 -0.14337578 -0.16094644 0.11460834 0.28588897
-0.80404 -0.33832407 0.2959312 -0.64895505 0.26150844 -0.23585257 0.3430144 -0.14039691
0.20565802 -0.34126395 0.3105551 0.11495622 -0.08921257 -0.67741555 0.14801481 0.104757726
-0.011025699 0.82339215 0.37716198 -0.8711454 -0.11753525 -0.13236396 0.19964892 0.007042395
-0.060791258 -0.321381 0.37927216 0.49673915 0.35321674 0.18594763 0.32087865 -0.8287479
-0.30600247 -0.36818165 -0.29239026 -0.018793058 0.50779384 -0.24422452 0.4927438 0.49944085
-0.4781091 0.14215358 -0.34313938 -0.32736412 0.47418678 0.024158593 0.27367646 1.063186
0.058734808 0.022465697 0.1398951 0.1698497 -0.2611926 0.05011246 -0.07607349 0.09342492
-0.27671468 0.28654218 -0.49988037 -0.49509168 -0.016098911 -0.055344705 0.36660862 -0.16026495
-0.53985524 0.41359288 -0.18818828 0.0997637 -0.13135189 -0.2964066 0.19866365 -0.3186893
0.48453745 0.009393055 -0.31902713 -0.85243046 0.23669583 -0.10037063 -0.10705375 0.92123467
0.29274848 0.06046942 -0.77264136 -0.114713386 -0.1697376 0.77283996 0.05262092 -0.39472818
-0.26461905 -0.07706268 0.3234683 0.6568409 -0.8860463 -0.41294146 -0.40738565 0.24294978
-0.71973485 -0.2751665 0.31437665 -0.32707423 -0.11799257 -0.20022254 -0.07147221 -0.21272005
-0.119442604 -0.053407628 0.62199986 0.5103462 -0.043960717 -0.4823448 0.27111056 0.5354062
0.8195698 0.19400945 -0.4280708 -0.08098934 0.27999702 0.77495396 0.09489102 -0.09805426
0.5900767 -0.29491246 -0.042674605 -0.32955587 0.22911169 -0.13104439 0.0793045 -0.5041727
0.41469002 -0.33320233 0.15777378 0.42679456 -0.23506455 0.14852707 -0.0010018738 -0.19617444
0.04526173 -0.3141997 0.0055019083 -0.2920314 0.19324265 0.10115235 0.20032677 0.33390373
0.047495246 0.77810806 -0.23864946 0.8458323 -0.372275 -0.16885148 0.24956949 -0.13852414
-0.38225177 -0.44245732 0.1660835 0.457806 0.23011172 -0.619201 -0.06225291 0.075829595
0.4112699 0.8961959 -0.05680141 -0.12464222 -0.32637292 0.18555208 -0.2308324 -0.18373609
-0.4147357 -0.43705347 0.06710001 -0.22955647 -0.34513637 -0.078016065 0.31198558 -0.45208052
-0.4244871 0.111634254 0.057007592 -0.21711999 0.11817652 -0.15643443 0.5288613 -0.02474808
-0.1658137 -0.20450395 0.23017883 0.38350457 0.041465227 0.21561968 -0.1660452 0.20511484
0.31316492 0.94874984 0.3516626 -0.42801967 0.33318177 0.06283884 -0.4007981 -0.11751995
0.6039504 0.4031265 -0.07304537 -0.612469 0.014192044 0.11546459 0.5041033 -0.4253263
0.17229845 0.3877927 -0.2617868 0.07942305 -0.036174 -0.30775046 0.27863148 0.75171334
00000000: 576e de3e 7389 e13e d860 c7be 0925 64bf
00000010: a03d 3d3e df60 87bd a25e 2ebf 5f9b 9fbe
00000020: 2a02 42bc 6d42 95be 404d 83bd 25f3 cabe
00000030: 2ea4 3bbc 75e7 3dbf 6f6e 02bf 33c2 a43f
00000040: 3991 29be fc99 e2be 339c cebd 3b05 22bf
00000050: a57a 9ebc 884c 503d fa19 0a3e 808b 54be
00000060: b1e3 73be a92b 0cbe c7d3 12bf 0d26 13be
00000070: b0d6 98bf 2ee2 893e 2a5d 623e 6237 5b3d
00000080: 997a b63e 0992 2fbf 2b03 a2bd 46f8 edbd
00000090: 1ad1 12be 25cf 24be c7b7 ea3d 0a60 923e
000000a0: 91d5 4dbf d038 adbe 4b84 973e eb21 26bf
000000b0: 6fe4 853e 5683 71be 959f af3e 35c4 0fbe
000000c0: 0498 523e 26ba aebe 1401 9f3e 2b6e eb3d
000000d0: 14b5 b6bd 1b6b 2dbf 3291 173e 388b d63d
000000e0: 22a5 34bc d4c9 523f 601b c13e 6303 5fbf
000000f0: 52b6 f0bd 6b8a 07be c470 4c3e e4c3 e63b
00000100: 4100 79bd 0d8c a4be f62f c23e 9854 fe3e
00000110: d3d8 b43e 0e69 3e3e 354a a43e d328 54bf
00000120: 5bac 9cbe 4e82 bcbe 2db4 95be e6f3 99bc
00000130: c7fe 013f fe15 7abe ea48 fc3e b6b6 ff3e
00000140: b7ca f4be b590 113e f7af afbe 459c a7be
00000150: 9cc8 f23e 3ee8 c53c 521f 8c3e 7b16 883f
00000160: e993 703d fb09 b83c a940 0f3e 14ed 2d3e
00000170: 09bb 85be b942 4d3d 6bcc 9bbd 9155 bf3d
00000180: 8cad 8dbe a8b5 923e 52f0 ffbe a87c fdbe
00000190: dde1 83bc 21b1 62bd 20b4 bb3e 7f1c 24be
000001a0: f433 0abf 72c2 d33e 6eb4 40be e950 cc3d
000001b0: 1c81 06be 9bc2 97be 7c6e 4b3e 3e2b a3be
000001c0: 4b15 f83e 54e5 193c 8657 a3be e238 5abf
000001d0: 6460 723e 1e8f cdbd ff3e dbbd 09d6 6b3f
000001e0: 21e3 953e c8ae 773d d3cb 45bf daee eabd
000001f0: b2cf 2dbe d7d8 453f 0989 573d d019 cabe
00000200: 267c 87be 0ad3 9dbd a39d a53e ba26 283f
00000210: eed3 62bf 106d d3be da94 d0be d4c7 783e
00000220: 8b40 38bf a0e2 8cbe faf5 a03e 4676 a7be
00000230: 17a6 f1bd 2307 4dbe 0660 92bd 49d3 59be
00000240: 539e f4bd f5c1 5abd 623b 1f3f 0ca6 023f
00000250: 2710 34bd e6f5 f6be 01cf 8a3e 6110 093f
00000260: 54cf 513f 6aaa 463e 192c dbbe bddd a5bd
00000270: c55b 8f3e 6263 463f 3956 c23d acd0 c8bd
00000280: 440f 173f c4fe 96be 91cb 2ebd 8cbb a8be
00000290: 419c 6a3e 8030 06be 666a a23d 7611 01bf
000002a0: 4052 d43e 7f99 aabe 738f 213e d184 da3e
000002b0: c3b4 70be 7b17 183e 4e51 83ba f4e1 48be
000002c0: 5d64 393d c8de a0be 5a49 b43b 2485 95be
000002d0: 67e1 453e f728 cf3d 7622 4d3e 6ef5 aa3e
000002e0: 608a 423d 1732 473f 8660 74be 7788 583f
000002f0: d49a bebe 67e7 2cbe 258f 7f3e 46d9 0dbe
00000300: 81b6 c3be c489 e2be cb11 2a3e 8c65 ea3e
00000310: 68a2 6b3e f583 1ebf e8fc 7ebd 8c4c 9b3d
00000320: f891 d23e 186d 653f 98a8 68bd 6c44 ffbd
00000330: 5a1a a7be 5d01 3e3e 545f 6cbe 5025 3cbe
00000340: 3d58 d4be 79c5 dfbe bb6b 893d da10 6bbe
00000350: b7b5 b0be e3c6 9fbd 93bc 9f3e 1977 e7be
00000360: 6056 d9be 80a0 e43d cb80 693d b454 5ebe
00000370: 8806 f23d 5930 20be 7463 073f 7cbc cabc
00000380: 11cb 29be 7c69 51be 00b4 6b3e b65a c43e
00000390: 71d7 293d 68cb 5c3e c107 2abe a009 523e
000003a0: 2757 a03e 45e1 723f 1f0d b43e 6525 dbbe
000003b0: cd96 aa3e a6b1 803d 6935 cdbe 4dae f0bd
000003c0: 7e9c 1a3f 9966 ce3e d098 95bd c5ca 1cbf
000003d0: bf85 683c b378 ec3d ea0c 013f 5ec4 d9be
000003e0: 016f 303e c48c c63e eb08 86be 8da8 a23d
000003f0: 302b 14bd 7891 9dbe c9a8 8e3e 4970 403f

network_body._body_endoder.seq_layers.0.bias f4 [128]
0.0 0.0 0.0 0.0 0.0 0.0 0.0 0.0
0.0 0.0 0.0 0.0 0.0 0.0 0.0 0.0
0.0 0.0 0.0 0.0 0.0 0.0 0.0 0.0
0.0 0.0 0.0 0.0 0.0 0.0 0.0 0.0
0.0 0.0 0.0 0.0 0.0 0.0 0.0 0.0
0.0 0.0 0.0 0.0 0.0 0.0 0.0 0.0
0.0 0.0 0.0 0.0 0.0 0.0 0.0 0.0
0.0 0.0 0.0 0.0 0.0 0.0 0.0 0.0
0.0 0.0 0.0 0.0 0.0 0.0 0.0 0.0
0.0 0.0 0.0 0.0 0.0 0.0 0.0 0.0
0.0 0.0 0.0 0.0 0.0 0.0 0.0 0.0
0.0 0.0 0.0 0.0 0.0 0.0 0.0 0.0
0.0 0.0 0.0 0.0 0.0 0.0 0.0 0.0
0.0 0.0 0.0 0.0 0.0 0.0 0.0 0.0
0.0 0.0 0.0 0.0 0.0 0.0 0.0 0.0
0.0 0.0 0.0 0.0 0.0 0.0 0.0 0.0
00000000: 0000 0000 0000 0000 0000 0000 0000 0000
00000010: 0000 0000 0000 0000 0000 0000 0000 0000
00000020: 0000 0000 0000 0000 0000 0000 0000 0000
00000030: 0000 0000 0000 0000 0000 0000 0000 0000
00000040: 0000 0000 0000 0000 0000 0000 0000 0000
00000050: 0000 0000 0000 0000 0000 0000 0000 0000
00000060: 0000 0000 0000 0000 0000 0000 0000 0000
00000070: 0000 0000 0000 0000 0000 0000 0000 0000
00000080: 0000 0000 0000 0000 0000 0000 0000 0000
00000090: 0000 0000 0000 0000 0000 0000 0000 0000
000000a0: 0000 0000 0000 0000 0000 0000 0000 0000
000000b0: 0000 0000 0000 0000 0000 0000 0000 0000
000000c0: 0000 0000 0000 0000 0000 0000 0000 0000
000000d0: 0000 0000 0000 0000 0000 0000 0000 0000
000000e0: 0000 0000 0000 0000 0000 0000 0000 0000
000000f0: 0000 0000 0000 0000 0000 0000 0000 0000
00000100: 0000 0000 0000 0000 0000 0000 0000 0000
00000110: 0000 0000 0000 0000 0000 0000 0000 0000
00000120: 0000 0000 0000 0000 0000 0000 0000 0000
00000130: 0000 0000 0000 0000 0000 0000 0000 0000
00000140: 0000 0000 0000 0000 0000 0000 0000 0000
00000150: 0000 0000 0000 0000 0000 0000 0000 0000
00000160: 0000 0000 0000 0000 0000 0000 0000 0000
00000170: 0000 0000 0000 0000 0000 0000 0000 0000
00000180: 0000 0000 0000 0000 0000 0000 0000 0000
00000190: 0000 0000 0000 0000 0000 0000 0000 0000
000001a0: 0000 0000 0000 0000 0000 0000 0000 0000
000001b0: 0000 0000 0000 0000 0000 0000 0000 0000
000001c0: 0000 0000 0000 0000 0000 0000 0000 0000
000001d0: 0000 0000 0000 0000 0000 0000 0000 0000
000001e0: 0000 0000 0000 0000 0000 0000 0000 0000
000001f0: 0000 0000 0000 0000 0000 0000 0000 0000

network_body._body_endoder.seq_layers.2.weight f4 [128, 128]
-0.087877914 0.111264646 -0.012463764 0.028418653 -0.016836282 0.19839793 0.0022899357 0.07440765
0.06342633 -0.13316095 0.09992946 0.20435148 -0.07616781 0.058741644 0.31697473 0.005769081
0.00014918251 0.105272435 -0.15739022 0.12535436 -0.119798064 0.07245924 0.121240295 -0.067528844
-0.11894557 -0.21842933 0.0072814994 -0.008315497 0.043892816 0.0076240962 -0.053293683 -0.035837848
-0.03414396 -0.051703192 -0.045799185 -0.023287015 0.07260508 -0.10331013 0.016231105 -0.014337709
0.012253818 0.10091871 0.07854884 0.07830623 -0.021248551 -0.019689547 -0.19245994 -0.0061054523
-0.029288976 0.063727126 0.09139995 0.009471666 0.021351695 -0.050768297 0.0030876375 -0.13148198
0.03544544 0.008315787 -0.03539977 -0.047450233 -0.07903825 0.027631091 -0.019902077 0.10742992
-0.11503539 0.061349053 0.021686684 -0.17789575 0.026711848 -0.046545472 -0.0866621 0.11521254
0.14645563 -0.15846294 -0.1868802 -0.046674684 -0.11892794 0.091008075 0.17373787 0.06337993
-0.20876198 0.102887444 0.034587767 0.011222304 0.020850737 0.043867126 0.035784956 0.14007717
0.020398708 -0.0013118923 -0.118863635 0.02578587 -0.18412395 0.10422376 -0.039931256 0.0862141
0.10744517 -0.00026618806 0.05751028 -0.07503666 0.04416196 0.09326854 0.03155523 0.031772893
-0.0522105 0.036751594 -0.07305567 -0.056704912 0.06193955 -0.07128628 -0.11817369 0.04260623
-0.07476872 -0.06664925 0.07051739 -0.012708343 0.05904614 -0.030301558 0.06458063 0.02581016
-0.06877201 0.14139093 -0.20474106 -0.14426012 -0.16576743 0.057152662 0.008336684 -0.031883515
-0.028895225 -0.12417781 0.0021896309 0.040604185 0.027123466 -0.06997795 0.1066768 0.060789146
0.13159795 -0.012873998 -0.05715616 -0.10072862 0.006168231 -0.052160192 0.056346618 -0.17537968
0.00945566 -0.03461012 0.07614262 0.08701402 0.1141354 0.048322067 0.109304205 -0.006563224
-0.23639631 0.024236282 -0.1715074 0.11742621 0.03805872 0.077222 -0.087087825 -0.03627112
-0.102284245 -0.04644273 0.035451923 0.13996741 0.10498307 0.13104805 -0.112954795 0.11543901
-0.030870799 0.05094039 0.052634947 0.0029397877 0.0045793396 -0.008642166 -0.07908283 0.26286027
0.02872198 0.09332202 0.13196242 -0.17217746 -0.105770014 -0.13748348 -0.04595329 -0.0039397515
0.0072348192 -0.114395194 -0.16581789 0.0804439 -0.06481423 -0.1467473 -0.019028142 -0.02771799
-0.11044511 -0.0984809 0.009711495 0.13646735 0.028730532 -0.06981218 -0.0804323 -0.00094057916
-0.032025475 -0.10945239 0.13533841 -0.16975735 -0.15299071 0.029270975 -0.016343566 0.052403968
-0.11785911 -0.027274637 0.18520364 -0.031071141 0.16766436 -0.089594334 0.019702984 0.10021881
-0.058072146 -0.12326981 -0.06791019 -0.16335775 0.03466129 -0.0009704488 -0.044397615 0.1746316
-0.051769685 0.04901629 -0.09852575 -0.2506498 0.12595886 0.071906865 -0.03856768 -0.10354975
0.008525977 -0.07551692 0.012025078 -0.2159383 0.0077827205 0.10944095 -0.014274454 -0.03967031
-0.04021408 0.067259915 -0.11363411 -0.062255282 -0.0947194 0.011394431 0.0051894644 0.11004361
-0.026129423 0.020546583 -0.15136516 0.0031017617 -0.048840437 0.032593373 -0.064051606 0.07261192
00000000: 56f9 b3bd b8de e33d d134 4cbc 3cce e83c
00000010: 3eec 89bc d428 4b3e bf12 163b 0a63 983d
00000020: aae5 813d 585b 08be d1a7 cc3d 8441 513e
00000030: defd 9bbd 149b 703d 834a a23e 8f0a bd3b
00000040: e06d 1c39 1399 d73d e72a 21be e55c 003e
00000050: b058 f5bd 8365 943d d54c f83d 904c 8abd
00000060: bc99 f3bd f0ab 5fbe a599 ee3b b93d 08bc
00000070: f4c8 333d 8ed3 f93b 7a4a 5abd b5ca 12bd
00000080: 89da 0bbd bac6 53bd ed97 3bbd 69c4 bebc
00000090: f9b1 943d 4394 d3bd 18f7 843c b6e8 6abc
000000a0: 3dc4 483c 78ae ce3d 37de a03d 045f a03d
000000b0: 7111 aebc f94b a1bc 3814 45be 3f10 c8bb
000000c0: 6fef efbc 5e83 823d e62f bb3d 0c2f 1b3c
000000d0: c0e9 ae3c 6bf2 4fbd f659 4a3b 36a3 06be
000000e0: 3d2f 113d f03e 083c 59ff 10bd 2d5b 42bd
000000f0: cede a1bd 995a e23c ae09 a3bc 3804 dc3d
00000100: ad97 ebbd 2549 7b3d 46a8 b13c 4e2a 36be
00000110: ced2 da3c 77a6 3ebd e67b b1bd 8df4 eb3d
00000120: 77f8 153e 1c44 22be 865d 3fbe f42d 3fbd
00000130: 7e90 f3bd 7162 ba3d 57e8 313e 56cd 813d
00000140: b3c5 55be a7b6 d23d e7ab 0d3d c1dd 373c
00000150: 2acf aa3c 04ae 333d 3f93 123d 6470 0f3e
00000160: 311b a73c cdf3 abba c76e f3bd e43c d33c
00000170: fd8a 3cbe 4473 d53d f58e 23bd 0591 b03d
00000180: 370c dc3d 288f 8bb9 e68f 6b3d d2ac 99bd
00000190: 2ce3 343d 9403 bf3d 0f40 013d 4b24 023d
000001a0: adda 55bd d788 163d 369e 95bd 6943 68bd
000001b0: 53b4 7d3d 8bfe 91bd 0c05 f2bd df83 2e3d
000001c0: 5820 99bd 677f 88bd 6c6b 903d a736 50bc
000001d0: 5eda 713d f93a f8bc d942 843d d46f d33c
000001e0: 57d8 8cbd c9c8 103e a4a7 51be edb8 13be
000001f0: f0be 29be e918 6a3d 9696 083c 4a98 02bd
00000200: aeb5 ecbc f050 febd e97f 0f3b 9350 263d
00000210: 0832 de3c 9950 8fbd 5e79 da3d 0afe 783d
00000220: 9dc1 063e 76ed 52bc 941c 6abd cf4a cebd
00000230: df1e ca3b eda5 55bd b6cb 663d bb96 33be
00000240: eaeb 1a3c 57c3 0dbd a9f0 9b3d 6834 b23d
00000250: d2bf e93d 5ced 453d e2da df3d 5010 d7bb
00000260: e011 72be 2b8b c63c a39f 2fbe 277d f03d
00000270: 76e3 1b3d 9126 9e3d 1a5b b2bd 0791 14bd
00000280: 677a d1bd bb3a 3ebd 0936 113d 9e53 0f3e
00000290: 5d01 d73d 7631 063e d854 e7bd 4a6b ec3d
000002a0: c2e4 fcbc dfa6 503d be97 573d 74a9 403b
000002b0: 490e 963b df97 0dbc 2ef6 a1bd 9f95 863e
000002c0: 5c4a eb3c 9d1f bf3d 2821 073e 4a4f 30be
000002d0: f39d d8bd 78c8 0cbe 8439 3cbd 0819 81bb
000002e0: 1012 ed3b 0748 eabd 2acc 29be c5bf a43d
000002f0: 53bd 84bd ed44 16be e8e0 9bbc d710 e3bc
00000300: 0c31 e2bd 5bb0 c9bd f61c 1f3c 19be 0b3e
00000310: 4b5c eb3c b0f9 8ebd b1b9 a4bd 3391 76ba
00000320: 252d 03bd 9328 e0bd 2796 0a3e dfd4 2dbe
00000330: 99a9 1cbe afc9 ef3c f1e2 85bc 8ba5 563d
00000340: 1e60 f1bd 0f6f dfbc 06a6 3d3e e888 febc
00000350: 35b0 2b3e 3c7d b7bd 2768 a13c 853f cd3d
00000360: 0fdd 6dbd e274 fcbd 7f14 8bbd 4147 27be
00000370: fff8 0d3d b765 7eba 46da 35bd a0d2 323e
00000380: 730c 54bd 4ec5 483d dec7 c9bd 2c55 80be
00000390: 5cfb 003e e843 933d 25f9 1dbd e411 d4bd
000003a0: 8ab0 0b3c 9da8 9abd d504 453c ee1e 5dbe
000003b0: 3106 ff3b 9422 e03d 66df 69bc 567d 22bd
000003c0: 85b7 24bd 91bf 893d 00b9 e8bd 65ff 7ebd
000003d0: 3ffc c1bd b5af 3a3c 620c aa3b 8b5e e13d
000003e0: 5f0d d6bc 4f51 a83c 78ff 1abe ed46 4b3b
000003f0: e90c 48bd a180 053d 7d2d 83bd 8fb5 943d

network_body._body_endoder.seq_layers.2.bias f4 [128]
0.0 0.0 0.0 0.0 0.0 0.0 0.0 0.0
0.0 0.0 0.0 0.0 0.0 0.0 0.0 0.0
0.0 0.0 0.0 0.0 0.0 0.0 0.0 0.0
0.0 0.0 0.0 0.0 0.0 0.0 0.0 0.0
0.0 0.0 0.0 0.0 0.0 0.0 0.0 0.0
0.0 0.0 0.0 0.0 0.0 0.0 0.0 0.0
0.0 0.0 0.0 0.0 0.0 0.0 0.0 0.0
0.0 0.0 0.0 0.0 0.0 0.0 0.0 0.0
0.0 0.0 0.0 0.0 0.0 0.0 0.0 0.0
0.0 0.0 0.0 0.0 0.0 0.0 0.0 0.0
0.0 0.0 0.0 0.0 0.0 0.0 0.0 0.0
0.0 0.0 0.0 0.0 0.0 0.0 0.0 0.0
0.0 0.0 0.0 0.0 0.0 0.0 0.0 0.0
0.0 0.0 0.0 0.0 0.0 0.0 0.0 0.0
0.0 0.0 0.0 0.0 0.0 0.0 0.0 0.0
0.0 0.0 0.0 0.0 0.0 0.0 0.0 0.0
00000000: 0000 0000 0000 0000 0000 0000 0000 0000
00000010: 0000 0000 0000 0000 0000 0000 0000 0000
00000020: 0000 0000 0000 0000 0000 0000 0000 0000
00000030: 0000 0000 0000 0000 0000 0000 0000 0000
00000040: 0000 0000 0000 0000 0000 0000 0000 0000
00000050: 0000 0000 0000 0000 0000 0000 0000 0000
00000060: 0000 0000 0000 0000 0000 0000 0000 0000
00000070: 0000 0000 0000 0000 0000 0000 0000 0000
00000080: 0000 0000 0000 0000 0000 0000 0000 0000
00000090: 0000 0000 0000 0000 0000 0000 0000 0000
000000a0: 0000 0000 0000 0000 0000 0000 0000 0000
000000b0: 0000 0000 0000 0000 0000 0000 0000 0000
000000c0: 0000 0000 0000 0000 0000 0000 0000 0000
000000d0: 0000 0000 0000 0000 0000 0000 0000 0000
000000e0: 0000 0000 0000 0000 0000 0000 0000 0000
000000f0: 0000 0000 0000 0000 0000 0000 0000 0000
00000100: 0000 0000 0000 0000 0000 0000 0000 0000
00000110: 0000 0000 0000 0000 0000 0000 0000 0000
00000120: 0000 0000 0000 0000 0000 0000 0000 0000
00000130: 0000 0000 0000 0000 0000 0000 0000 0000
00000140: 0000 0000 0000 0000 0000 0000 0000 0000
00000150: 0000 0000 0000 0000 0000 0000 0000 0000
00000160: 0000 0000 0000 0000 0000 0000 0000 0000
00000170: 0000 0000 0000 0000 0000 0000 0000 0000
00000180: 0000 0000 0000 0000 0000 0000 0000 0000
00000190: 0000 0000 0000 0000 0000 0000 0000 0000
000001a0: 0000 0000 0000 0000 0000 0000 0000 0000
000001b0: 0000 0000 0000 0000 0000 0000 0000 0000
000001c0: 0000 0000 0000 0000 0000 0000 0000 0000
000001d0: 0000 0000 0000 0000 0000 0000 0000 0000
000001e0: 0000 0000 0000 0000 0000 0000 0000 0000
000001f0: 0000 0000 0000 0000 0000 0000 0000 0000

value_heads.value_heads.extrinsic.weight f4 [1, 128]
0.11934441 -0.020994797 -0.041742735 0.17682342 -0.12780695 -0.084183924 0.10327595 0.05095629
0.07146183 -0.17714496 0.15660411 -0.07113127 -0.044391733 0.10400949 0.21311551 -0.2154097
0.19382568 -0.15929227 -0.036138434 -0.003876621 -0.11315604 -0.19617692 0.05073681 -0.056496177
-0.068605945 0.011811717 0.114570856 0.09822386 -0.19474404 -0.15091032 -0.16172104 -0.0319194
0.17720412 0.06883824 0.1195151 -0.12462964 0.13081026 -0.07312079 0.030933937 0.06001135
-0.10694796 0.053371247 0.027042545 0.089528985 0.025032436 0.19647762 0.04353619 -0.15332448
0.082107656 -0.15919098 0.10528053 0.0447942 0.044054672 -0.06117966 0.021999609 -0.1723215
-0.06748972 0.20078756 -0.11907763 0.08237873 0.12907334 0.18644236 0.16741434 -0.04362404
0.037976623 0.20258407 0.19324847 0.064561 0.10599492 0.039360635 -0.068259604 -0.0027243027
-0.0606877 -0.108184546 0.014592697 0.07184407 -0.17453508 -0.034584433 0.013327258 -0.15574287
0.085348904 -0.052679256 0.116649255 0.0075063035 0.090848826 0.09086191 -0.04746203 -0.067203395
0.17929493 -0.15600687 0.08714506 -0.1533021 0.12456981 -0.09851422 -0.128331 -0.17300731
-0.16611029 0.02048119 -0.16313343 -0.032917876 -0.038712837 -0.010112408 0.021073481 0.19499995
0.13249399 0.038759217 -0.017199147 0.07556424 0.18263623 0.18746346 0.13882153 0.12625043
-0.1522602 0.011767446 0.13411202 -0.013899432 -0.19364363 -0.17958854 0.061768483 -0.14601159
0.012658609 -0.21351759 0.16979618 -0.121829264 -0.072248355 -0.06385523 -0.0964663 -0.13935196
00000000: d86a f43d 48fd abbc 6efa 2abd 3311 353e
00000010: d3df 02be 9f68 acbd 5782 d33d 8bb7 503d
00000020: 945a 923d 7d65 35be d45c 203e 45ad 91bd
00000030: 1bd4 35bd ed02 d53d f43a 5a3e 5c94 5cbe
00000040: 3d7a 463e 831d 23be e505 14bd e80e 7ebb
00000050: 5bbe e7bd 9ae2 48be 67d1 4f3d 8968 67bd
00000060: 4681 8cbd ef85 413c 20a4 ea3d 9729 c93d
00000070: fb6a 47be 3c88 1abe 339a 25be ebbd 02bd
00000080: ff74 353e 10fb 8c3d 55c4 f43d d33d ffbd
00000090: 20f3 053e 5ac0 95bd 2b69 fd3c 76ce 753d
000000a0: 8807 dbbd cf9b 5a3d 5488 dd3c f95a b73d
000000b0: d310 cd3c 6e31 493e 0153 323d 1801 1dbe
000000c0: 0f28 a83d f602 23be 529d d73d 207a 373d
000000d0: ac72 343d 8697 7abd 8638 b43c 0c75 30be
000000e0: 0d38 8abd 419b 4d3e f9de f3bd 2eb6 a83d
000000f0: cd2b 043e bfea 3e3e aa6e 2b3e 1faf 32bd
00000100: 608d 1b3d 3372 4f3e ede2 453e 8f38 843d
00000110: dd13 d93d 9e38 213d b1cb 8bbd 378a 32bb
00000120: aa93 78bd dc8f ddbd 3516 6f3c fc22 933d
00000130: 53b9 32be 68a8 0dbd 925a 5a3c 0f7b 1fbe
00000140: 68cb ae3d 34c6 57bd cee5 ee3d 70f7 f53b
00000150: f30e ba3d cf15 ba3d 8c67 42bd efa1 89bd
00000160: 1799 373e 44c0 1fbe 1c79 b23d 3afb 1cbe
00000170: 751e ff3d d3c1 c9bd 3469 03be d428 31be
00000180: d118 2abe 2bc8 a73c 730c 27be e5d4 06bd
00000190: 5a91 1ebd 83ae 25bc 4ba2 ac3c 11ae 473e
000001a0: 81ac 073e fcc1 1e3d 3ae5 8cbc 6dc1 9a3d
000001b0: fe04 3b3e 6cf6 3f3e 3b27 0e3e cb47 013e
000001c0: 19ea 1bbe 3fcc 403c a954 093e 71ba 63bc
000001d0: 844a 46be 0fe6 37be f300 7d3d 1084 15be
000001e0: 0e66 4f3c 5ba4 5abe 0ddf 2d3e 9f81 f9bd
000001f0: f2f6 93bd 88c6 82bd 2090 c5bd 48b2 0ebe
