Shortcut Run/results/Test3/Move/Move-1373.onnx (onnx, 71941 bytes, 5 tensors)

network_body._body_endoder.seq_layers.0.weight f4 [128, 6]
00000000: f8d0 733e 0609 90be 9cbc 81be f80a 0f3f
00000010: 9935 ad3e fe88 0b3f 90f5 053f 90d7 1a3e
00000020: 2719 61bd 5083 02bf 7db3 2a3f 9ecd bcbd
00000030: e692 143e 8ff4 bb3d ec2c 213e 5d50 afbe
00000040: 878f e53d ed35 3d3f 39ff f73e 5a28 cc3e
00000050: a0f8 2b3e 7751 b7be 7711 cebe 55f5 91be
00000060: 892e c33e 96ad 15bf 3ad6 de3e 3b41 643e
00000070: 3ab2 3bbd cc27 893e 762e 023f bdfd 943e
00000080: d34b f2be 75c0 47be 37ab edbe 10ca a63e
00000090: 7f55 8bbe 1a0e fbbe a188 f83d fce4 0abf
000000a0: d8e9 a2be fd34 fdbe 4f84 30be efeb bcbe
000000b0: 5c23 cfbe d356 00be 7f05 06bf 3b47 bcbe
000000c0: a46d 1abe 7d86 6d3d f2df 74bf b129 bbbe
000000d0: 6226 aabd fcd8 1a3e 9c8d aa3e b99e 873e
000000e0: 497e ccbe 1fd1 1e3d 503f fd3e fb15 8abe
000000f0: 0433 27be 0553 55be ee5b 423f fdac 663e
00000100: 0603 5dbf cd6e 363c d5b0 55bd e74b 91be
00000110: fbc3 bdbe f7a1 bc3e 934b abbe 2316 1bbe
00000120: bae7 09be e3c5 cabd 7d4b 3dbf 1e2b 27bd
00000130: 8bc9 103e 8f81 c03d d389 63be 8363 76be
00000140: e66d b23d aa7b 783e e172 5dbe 225e 1c3f
00000150: 08ab 14be a302 ad3d c8f4 ce3e b833 d7bd
00000160: ee01 043f 5121 3b3e 9319 0bbf 38ee 77bf
00000170: d3e9 3b3f cf76 30bd 14cc fbbe 925f 4e3e
00000180: 69e2 e03e d567 d83d d060 a73e f2fc 33be
00000190: c29e cfbd 04ac 0b3f 1b65 d23e 961f babd
000001a0: 3c3f 9a3e 594d 9bbd 32b9 2cbf f305 a6be
000001b0: 2ef8 953e e5f3 6b3e e84b 963e bc82 bebd
000001c0: 8e8f 4b3f 9e3f 25be 9ff4 043f fd8a e23c
000001d0: a135 be3e e669 50be 5a34 8bbe ae07 6e3e
000001e0: b347 64be 6bb5 14be eef7 bb3d e048 a7bd
000001f0: bda7 a53e 9be2 d03e a295 fabe 3ed1 1f3f
00000200: 95d2 513e d64a cdbd 5e59 f93d d352 2f3e
00000210: 4815 51bc 402c 99bf 3385 65bd e971 53bf
00000220: 1080 2fbf ccc9 98be 3b95 11bf 4cb3 0c3f
00000230: 7e9d d5be 141b 853e 52dd 883d e651 e83e
00000240: 9e12 5c3d 3374 80be 5643 edbe 21d6 71be
00000250: ec75 1cbe 4ced 5dbe f713 b5bd d4c0 453e
00000260: 0c57 233e 5c4c e9bd 8928 0c3d 3a03 b6be
00000270: 0fce ccbe 03f9 aa3d 9278 3f3f ae0e 4d3e
00000280: b26c 20bc b797 b3bd b707 a7be 7bea 153f
00000290: 7dcc 383e b457 e4be 39b2 b1be c604 48be
000002a0: f7fc fc3e 6db3 06bf 0c48 f0bd ca7c 17bd
000002b0: c617 06bf 159f 103f 795e 893e a805 24bf
000002c0: 4a79 29bf 17f9 133e 523d 72be fc06 073f
000002d0: 0cf3 5cbe 1cc4 6a3e 5c89 ef3c 2903 4b3e
000002e0: 8f6c 63bf 34a4 063f 22a2 14be 7625 033e
000002f0: c44c ad3d 3778 f0be 4613 0a3f 2576 093f
00000300: 3eae 953e de19 b23e e004 fdbc 5c3f 99be
00000310: 6553 f03e 0b7e e63a 6fb6 2e3f 7607 293f
00000320: 76b0 87be 11eb 943e ee48 bb3e 8ce5 4c3e
00000330: dc36 303e f8f8 c9bd 9288 0abe 08f9 86be
00000340: 9e07 393f c19d 47be 0644 eb3e e804 503e
00000350: 5391 c43e aeeb 9d3e 119a 9bbe c1fc 713e
00000360: b997 443f 8ae0 36bd d6d2 533c ed89 53bd
00000370: b5c0 2bbf 6830 04bf d192 283f 226f 063d
00000380: 3bbd 313e 512d 013e 5db1 603e e7f0 9b3e
00000390: 9cee c93e 5b26 e23e a133 fbbe 594f e83e
000003a0: bcb7 373f 2196 a9be a1d2 e23e 41fc db3b
000003b0: f3d4 2a3e 74ea a6be cb28 073f 9535 493f
000003c0: e7ee e83c 0ab7 60bd feab 1abd 442d 913e
000003d0: 3089 683e 649e 963e b1dc 42be f34c 9abd
000003e0: 9819 2b3d 4911 a0be 56ed a33e 7c2a e6be
000003f0: 0bfa 4ebe b80c 273f 325c e8be adeb 76bd
0.23810184 -0.28131884 -0.2533921 0.5587611 0.33829954 0.5450591 0.52327824 0.15121293
-0.054955628 -0.50981617 0.6668013 -0.09218906 0.14509162 0.09177505 0.15739793 -0.34241
0.11209016 0.7391041 0.48436907 0.39874536 0.16794062 -0.3580434 -0.402477 -0.28507486
0.3812144 -0.58467996 0.43522817 0.22290508 -0.045824267 0.26788175 0.50852144 0.29099837
-0.47323474 -0.1950701 -0.4641969 0.32576036 -0.27213666 -0.49034196 0.12135435 -0.5425565
-0.31819034 -0.4945449 -0.17237972 -0.36898753 -0.40456665 -0.12533121 -0.52352136 -0.36773095
-0.15080887 0.057989586 -0.95654213 -0.36555246 -0.08308102 0.15121835 0.33311164 0.26488283
-0.39940098 0.038773652 0.49462366 -0.26969895 -0.16328055 -0.2083245 0.75921524 0.22526927
-0.8633274 0.011134815 -0.052170593 -0.2837822 -0.37063584 0.3684232 -0.33456096 -0.15145163
-0.13467303 -0.09901025 -0.7394331 -0.040812604 0.14139383 0.09399711 -0.22220545 -0.24061398
0.08712368 0.24265924 -0.21625854 0.61081135 -0.14518368 0.084477685 0.40421128 -0.105079114
0.51565444 0.18274428 -0.543359 -0.9684787 0.7340366 -0.043082055 -0.49179137 0.20153645
0.43922737 0.105666794 0.3269105 -0.1757696 -0.101377025 0.5455935 0.41092762 -0.09088056
0.3012637 -0.07583112 -0.67470086 -0.32426414 0.2929091 0.23042257 0.29354787 -0.09302279
0.7951592 -0.1613755 0.5193576 0.027654165 0.3715029 -0.20352897 -0.2718838 0.23245117
-0.22292976 -0.1452233 0.09178148 -0.08168197 0.32354537 0.40797886 -0.48942286 0.62428653
0.20490487 -0.100240394 0.121752486 0.17121439 -0.0127614215 -1.1966629 -0.05603523 -0.8259569
-0.6855478 -0.2984146 -0.5686833 0.54961085 -0.4172172 0.2599722 0.066828385 0.45374984
0.053728692 -0.25088653 -0.46340436 -0.2361684 -0.15279359 -0.21672553 -0.088416986 0.1931184
0.15951174 -0.113915175 0.034218345 -0.35549337 -0.4000096 0.083482765 0.7479335 0.20025131
-0.00979154 -0.08769172 -0.32623073 0.58560914 0.18046756 -0.44598162 -0.34706286 -0.19533071
0.49411747 -0.5261753 -0.11732492 -0.036984242 -0.52380025 0.5649274 0.2682989 -0.6407113
-0.662007 0.14450489 -0.23656204 0.5274503 -0.2157709 0.22926372 0.029240303 0.19825424
-0.8883752 0.52594304 -0.14514974 0.12807259 0.084619075 -0.46966717 0.5393566 0.536959
0.292345 0.3478536 -0.030886114 -0.29931152 0.46938625 0.0017585171 0.6824712 0.6602701
-0.26501817 0.2908559 0.36579078 0.2000944 0.17208427 -0.0986194 -0.1352866 -0.2636187
0.7227725 -0.19493772 0.45950335 0.20314372 0.38392124 0.30843872 -0.3039098 0.23631574
0.7679401 -0.04464773 0.012928685 -0.05164521 -0.6709092 -0.5163636 0.65849024 0.03282083
0.17357342 0.12614943 0.21942659 0.3045723 0.39439857 0.44169888 -0.49062827 0.45373037
0.7176473 -0.33122352 0.44301322 0.0067134206 0.16682796 -0.3260075 0.5279662 0.78597385
0.02843423 -0.05486206 -0.03776168 0.28354847 0.22708583 0.29417717 -0.190295 -0.07534208
0.041772455 -0.31263188 0.3201701 -0.44954288 -0.20212571 0.6525378 -0.4538284 -0.06028335

network_body._body_endoder.seq_layers.0.bias f4 [128]
00000000: 0000 0000 0000 0000 0000 0000 0000 0000
00000010: 0000 0000 0000 0000 0000 0000 0000 0000
00000020: 0000 0000 0000 0000 0000 0000 0000 0000
00000030: 0000 0000 0000 0000 0000 0000 0000 0000
00000040: 0000 0000 0000 0000 0000 0000 0000 0000
00000050: 0000 0000 0000 0000 0000 0000 0000 0000
00000060: 0000 0000 0000 0000 0000 0000 0000 0000
00000070: 0000 0000 0000 0000 0000 0000 0000 0000
00000080: 0000 0000 0000 0000 0000 0000 0000 0000
00000090: 0000 0000 0000 0000 0000 0000 0000 0000
000000a0: 0000 0000 0000 0000 0000 0000 0000 0000
000000b0: 0000 0000 0000 0000 0000 0000 0000 0000
000000c0: 0000 0000 0000 0000 0000 0000 0000 0000
000000d0: 0000 0000 0000 0000 0000 0000 0000 0000
000000e0: 0000 0000 0000 0000 0000 0000 0000 0000
000000f0: 0000 0000 0000 0000 0000 0000 0000 0000
00000100: 0000 0000 0000 0000 0000 0000 0000 0000
00000110: 0000 0000 0000 0000 0000 0000 0000 0000
00000120: 0000 0000 0000 0000 0000 0000 0000 0000
00000130: 0000 0000 0000 0000 0000 0000 0000 0000
00000140: 0000 0000 0000 0000 0000 0000 0000 0000
00000150: 0000 0000 0000 0000 0000 0000 0000 0000
00000160: 0000 0000 0000 0000 0000 0000 0000 0000
00000170: 0000 0000 0000 0000 0000 0000 0000 0000
00000180: 0000 0000 0000 0000 0000 0000 0000 0000
00000190: 0000 0000 0000 0000 0000 0000 0000 0000
000001a0: 0000 0000 0000 0000 0000 0000 0000 0000
000001b0: 0000 0000 0000 0000 0000 0000 0000 0000
000001c0: 0000 0000 0000 0000 0000 0000 0000 0000
000001d0: 0000 0000 0000 0000 0000 0000 0000 0000
000001e0: 0000 0000 0000 0000 0000 0000 0000 0000
000001f0: 0000 0000 0000 0000 0000 0000 0000 0000
0.0 0.0 0.0 0.0 0.0 0.0 0.0 0.0
0.0 0.0 0.0 0.0 0.0 0.0 0.0 0.0
0.0 0.0 0.0 0.0 0.0 0.0 0.0 0.0
0.0 0.0 0.0 0.0 0.0 0.0 0.0 0.0
0.0 0.0 0.0 0.0 0.0 0.0 0.0 0.0
0.0 0.0 0.0 0.0 0.0 0.0 0.0 0.0
0.0 0.0 0.0 0.0 0.0 0.0 0.0 0.0
0.0 0.0 0.0 0.0 0.0 0.0 0.0 0.0
0.0 0.0 0.0 0.0 0.0 0.0 0.0 0.0
0.0 0.0 0.0 0.0 0.0 0.0 0.0 0.0
0.0 0.0 0.0 0.0 0.0 0.0 0.0 0.0
0.0 0.0 0.0 0.0 0.0 0.0 0.0 0.0
0.0 0.0 0.0 0.0 0.0 0.0 0.0 0.0
0.0 0.0 0.0 0.0 0.0 0.0 0.0 0.0
0.0 0.0 0.0 0.0 0.0 0.0 0.0 0.0
0.0 0.0 0.0 0.0 0.0 0.0 0.0 0.0

network_body._body_endoder.seq_layers.2.weight f4 [128, 128]
00000000: e330 1f3b 9dc7 a23b dd5f c7bd 77bb cdbd
00000010: 4355 86bc e7ed c6bc 6386 d3bc 2c23 f63d
00000020: 8e1c b4bb 8948 803d 785d c2bc 8878 963d
00000030: cbf2 77bd 23df 28be 0656 903d 5b55 a8bb
00000040: b664 8a3e 35f2 223d 8231 8f3c fb14 463c
00000050: 6827 1dbd 23f9 e43d ba6a 08be 1649 e0bb
00000060: b4f0 633e b713 453d 0d64 293e bab4 a7bd
00000070: b51a 12bd 874a 5fbd ae94 08bd f52e 183e
00000080: 907c bdbc 5f50 96bd c3a4 203d 57ce 403d
00000090: f94b fabd 2a84 16bd bc42 033d 81ac 2fbd
000000a0: 4669 e93d 629d b7bc 4029 d0ba 5abd 583c
000000b0: 6144 2fbe e37a 12be 11b9 793d 6ab7 213e
000000c0: f7ee 653d 67c3 6f3d 31e6 8a3d abe8 bcbb
000000d0: 09cd 7abb 15e3 993d 684f ae3d 405c 03bd
000000e0: 1056 35bd 7d33 06be cb91 4fbe 8edc b4bd
000000f0: ac06 193d a9d1 2abe a1e8 e8bc 4d61 563c
00000100: 8672 ef3c ad15 f03d 9360 973d e7fd 563d
00000110: d98e d4bd 29f9 9abd 977e e93d 7f6d 383d
00000120: 0944 093e c4da 6abd cdae 18be 2dd0 943c
00000130: 903f 0a3e dc7b 78bc fbb3 ccbd ea30 44be
00000140: ca3c 8bbd 2ac4 b0bd cbf8 e63c b2aa e63c
00000150: 8625 9fbd 45a7 9f3d fb6e 20be 7be6 62bc
00000160: e8f6 2c3e 0678 c73d d6c9 07bd 03df 7bbd
00000170: 6c8d 4d3d bd37 2abd edb0 a2bd 08bc 84bd
00000180: 5d60 653d a5dd 89bc 2914 133d bf4d 243d
00000190: d01d 343d 9494 66bd db2e a5bd 59fd 8ebc
000001a0: d8da f53d e63e 99bc ce90 d73d 01bd 6b3d
000001b0: 2e5a 293d c264 053e 3890 4dbd 2806 25bd
000001c0: 9651 eebd 7b62 b53d 5db2 e6bd 8dee 0ebe
000001d0: 6a78 2f3d ba77 623c b45b 273d 4c52 d3bc
000001e0: 23c4 c23d 52db 753b c40a 2cbd afcf e93d
000001f0: 43cc a5bb 2a1f b6bc 67ee 873a 5f20 4c3d
00000200: 8bf8 773d 9ee1 3e3c 5395 02be e3f2 15bb
00000210: 6143 05be 6ee2 2e3e c6ed 353c 0c59 02be
00000220: 6e8d c8b8 22f8 0b3e 45a0 9f3c a7ff 93bc
00000230: 5cf5 4dbe c4ae 9c3d fd62 04bd 67d6 e03c
00000240: e1f9 4c3e c625 dbbb 65c5 0f3d f9f8 873c
00000250: 978f c33d 48df 05bd 1092 393d cffc 05be
00000260: feae 793d 2de0 bdbd 8fb4 edbd 6bf7 edbc
00000270: 89a0 373d 557c 03bd 1253 3f3d 43ef cf3d
00000280: 537c 53bd b4bf 503d dfa6 a2bd 7ec8 a8bc
00000290: 9f81 9cbd 490f 973c 27f2 9bbd 5093 51bc
000002a0: 40c7 babd 1fd6 86bc aee2 0c3e c9c4 273c
000002b0: 0343 bcbd 24d3 bdbd 0ad9 4c3d 4d5e 9b3c
000002c0: 6c4d e33d 29b7 bdbd b403 75bb a618 99bd
000002d0: 3af9 c3bd 1296 053c 81b0 833d 2223 6d3d
000002e0: 54f5 e7bd 29ef 8f3d 311b d0bd 8497 773c
000002f0: b15b a0bd 41bd 1b3e 003a 27bc cba1 0bbe
00000300: 37cd 253d 7b0c 0e3d dff4 113a 04cc b6bd
00000310: e9b9 0f3e b12a 1e3d f3ae 0c3e 79b8 47be
00000320: da38 2e3d db52 453d 49c7 5abd 1252 223e
00000330: 3122 a2bd 9f76 e73d abf0 283e 5e2c f7bd
00000340: 03b5 03be a09d 793e c9ba 2fbd 897a a3bd
00000350: 655a 663b 3b75 1cbd 1ccb d5bd 4f67 b5bd
00000360: 747d 2a3d 31ab 9c3c b26a c43c c4f8 d0bc
00000370: bb32 69be 876a 833d 79f5 cfbd fe94 d0bd
00000380: 0d3e cfbd daa4 f5bd fe40 a53d 64b1 28bd
00000390: d163 edbd 2d35 30bd db07 a1bd a40c 97bc
000003a0: 5cf6 ddbd 19d6 853c a14a 75bb 8af4 6b3d
000003b0: 0aee ca3d d13a f2bd a5ce 7d3c bc65 89bd
000003c0: eb31 d03c cf55 0bbe 60ca 603d 4047 6abc
000003d0: f2e5 a0bd 53ca d4bd 248f 873c 3d3d 87bd
000003e0: 40a2 e23d b136 bf3c c209 fe3d 7e49 bfbd
000003f0: 91f3 85bd 2cb7 973d 1679 963d 2ac2 023e
0.0024290613 0.0049676434 -0.09735081 -0.10045522 -0.016398078 -0.024283363 -0.025820917 0.12018427
-0.005496568 0.06263835 -0.02372621 0.07347208 -0.06053428 -0.1649137 0.07047658 -0.0051371283
0.2702996 0.039781768 0.017479662 0.012089963 -0.03836766 0.111803316 -0.13321963 -0.00684465
0.2225979 0.048114505 0.16542073 -0.08188768 -0.03567 -0.054514434 -0.033344917 0.14861663
-0.023130685 -0.07339548 0.03921963 0.04707178 -0.12221522 -0.036747135 0.032046065 -0.042889122
0.113970324 -0.022413913 -0.0015881434 0.013228739 -0.17115928 -0.1430469 0.06096751 0.15792623
0.056136098 0.05853596 0.06782187 -0.005765041 -0.0038269183 0.075140156 0.08511239 -0.0320704
-0.04427153 -0.13105579 -0.2027046 -0.0883113 0.03735988 -0.16681542 -0.028431239 0.013084722
0.029229414 0.11722884 0.07391467 0.052488234 -0.103788085 -0.07567055 0.11401098 0.0450263
0.1340486 -0.057337537 -0.14910431 0.018165672 0.1350081 -0.015166249 -0.09995266 -0.19159284
-0.06798704 -0.08631165 0.028194806 0.028157566 -0.07770829 0.07795576 -0.15667336 -0.013848896
0.16891062 0.097396895 -0.03315147 -0.061491977 0.0501837 -0.041557062 -0.07943902 -0.064811766
0.056000102 -0.016829321 0.035907898 0.040113207 0.043973744 -0.05629404 -0.080655776 -0.01745479
0.12004632 -0.01870675 0.10525666 0.057553295 0.041345768 0.13026717 -0.050186366 -0.040289074
-0.11636655 0.08856674 -0.11264489 -0.13958187 0.042839445 0.01382249 0.04085894 -0.025796078
0.09510066 0.0037514758 -0.042002454 0.114165656 -0.0050597503 -0.022231657 0.0010370732 0.04983556
0.060539763 0.011650471 -0.12752275 -0.0022880367 -0.13013984 0.17078564 0.011104053 -0.12729281
-9.5630865e-05 0.13668874 0.019485602 -0.01806624 -0.20113128 0.076505214 -0.032320965 0.027445985
0.20017196 -0.0066878526 0.03510036 0.016598212 0.09548872 -0.03268364 0.04530531 -0.1308472
0.0609579 -0.09271274 -0.116067044 -0.029048642 0.044830833 -0.032100994 0.04671008 0.101530574
-0.051632237 0.050964072 -0.079419844 -0.020603415 -0.07641911 0.018439906 -0.07614546 -0.01279147
-0.09120035 -0.016459523 0.13758346 0.010239788 -0.09192469 -0.092687875 0.050011672 0.018965865
0.110987514 -0.09263451 -0.003738624 -0.074754044 -0.095690206 0.008153455 0.0643015 0.057894833
-0.113260895 0.07028038 -0.10161436 0.015111808 -0.07829989 0.15208913 -0.010206699 -0.13635938
0.04047891 0.03467987 0.00055677997 -0.08925632 0.14035763 0.038614932 0.13738613 -0.19503964
0.042534687 0.04817472 -0.05341271 0.1585162 -0.07916678 0.11301922 0.16498058 -0.12069009
-0.12862019 0.24376535 -0.04290274 -0.07982356 0.0035149094 -0.038197737 -0.10439131 -0.08857595
0.041623548 0.0191246 0.023976658 -0.025509246 -0.22773258 0.06416803 -0.10154242 -0.10184668
-0.10119257 -0.119943336 0.08069037 -0.041184798 -0.11591304 -0.043019462 -0.078628264 -0.018438645
-0.10838005 0.016337441 -0.0037428515 0.057606257 0.099086836 -0.118276246 0.015491162 -0.067088574
0.025414428 -0.13606952 0.0548805 -0.014299214 -0.078563586 -0.10390153 0.016547747 -0.06603477
0.11066103 0.023341509 0.12404205 -0.093401894 -0.06540597 0.07407984 0.07347314 0.1276938

network_body._body_endoder.seq_layers.2.bias f4 [128]
00000000: 0000 0000 0000 0000 0000 0000 0000 0000
00000010: 0000 0000 0000 0000 0000 0000 0000 0000
00000020: 0000 0000 0000 0000 0000 0000 0000 0000
00000030: 0000 0000 0000 0000 0000 0000 0000 0000
00000040: 0000 0000 0000 0000 0000 0000 0000 0000
00000050: 0000 0000 0000 0000 0000 0000 0000 0000
00000060: 0000 0000 0000 0000 0000 0000 0000 0000
00000070: 0000 0000 0000 0000 0000 0000 0000 0000
00000080: 0000 0000 0000 0000 0000 0000 0000 0000
00000090: 0000 0000 0000 0000 0000 0000 0000 0000
000000a0: 0000 0000 0000 0000 0000 0000 0000 0000
000000b0: 0000 0000 0000 0000 0000 0000 0000 0000
000000c0: 0000 0000 0000 0000 0000 0000 0000 0000
000000d0: 0000 0000 0000 0000 0000 0000 0000 0000
000000e0: 0000 0000 0000 0000 0000 0000 0000 0000
000000f0: 0000 0000 0000 0000 0000 0000 0000 0000
00000100: 0000 0000 0000 0000 0000 0000 0000 0000
00000110: 0000 0000 0000 0000 0000 0000 0000 0000
00000120: 0000 0000 0000 0000 0000 0000 0000 0000
00000130: 0000 0000 0000 0000 0000 0000 0000 0000
00000140: 0000 0000 0000 0000 0000 0000 0000 0000
00000150: 0000 0000 0000 0000 0000 0000 0000 0000
00000160: 0000 0000 0000 0000 0000 0000 0000 0000
00000170: 0000 0000 0000 0000 0000 0000 0000 0000
00000180: 0000 0000 0000 0000 0000 0000 0000 0000
00000190: 0000 0000 0000 0000 0000 0000 0000 0000
000001a0: 0000 0000 0000 0000 0000 0000 0000 0000
000001b0: 0000 0000 0000 0000 0000 0000 0000 0000
000001c0: 0000 0000 0000 0000 0000 0000 0000 0000
000001d0: 0000 0000 0000 0000 0000 0000 0000 0000
000001e0: 0000 0000 0000 0000 0000 0000 0000 0000
000001f0: 0000 0000 0000 0000 0000 0000 0000 0000
0.0 0.0 0.0 0.0 0.0 0.0 0.0 0.0
0.0 0.0 0.0 0.0 0.0 0.0 0.0 0.0
0.0 0.0 0.0 0.0 0.0 0.0 0.0 0.0
0.0 0.0 0.0 0.0 0.0 0.0 0.0 0.0
0.0 0.0 0.0 0.0 0.0 0.0 0.0 0.0
0.0 0.0 0.0 0.0 0.0 0.0 0.0 0.0
0.0 0.0 0.0 0.0 0.0 0.0 0.0 0.0
0.0 0.0 0.0 0.0 0.0 0.0 0.0 0.0
0.0 0.0 0.0 0.0 0.0 0.0 0.0 0.0
0.0 0.0 0.0 0.0 0.0 0.0 0.0 0.0
0.0 0.0 0.0 0.0 0.0 0.0 0.0 0.0
0.0 0.0 0.0 0.0 0.0 0.0 0.0 0.0
0.0 0.0 0.0 0.0 0.0 0.0 0.0 0.0
0.0 0.0 0.0 0.0 0.0 0.0 0.0 0.0
0.0 0.0 0.0 0.0 0.0 0.0 0.0 0.0
0.0 0.0 0.0 0.0 0.0 0.0 0.0 0.0

action_model._continuous_distribution.mu.weight f4 [1, 128]
00000000: 46c1 14bb 4704 25bc ef32 053d 00c2 e33b
00000010: 6025 8c3c bfab 553b 5a37 5dba 0d06 dcbc
00000020: 7f33 0a3c 17b1 04bd 0b1a 813b 455b d7bc
00000030: d514 09bd fa0b 05bc 7e4e 32bc 1be0 ac3c
00000040: e870 acbc 3ab5 fc3a 6bf5 03bc 2d40 03ba
00000050: 3e74 2c3c 7ff2 8ebb caac a9bc fb96 80bb
00000060: 1bbf 283c 7337 15bc b223 9d3c bdec 4e3b
00000070: 0378 0b3d 1024 7bbc b80f 7a3c 0ac9 30bc
00000080: a397 f33c 01fc 323c 62ee f63b 79d7 3fbc
00000090: 6e37 8ebc e81b 88bc c7de acbc a06a 483c
000000a0: f41d 07bc 2820 0d3c 5742 a8bc c1ae 98bc
000000b0: faba 96bb c7bb afbc 8e5b 8c3c bd6d bf3c
000000c0: 4ae1 50ba 34fa 043d 6a27 da3b 7228 bcbc
000000d0: 279c 703c ad39 10bc b8df 6b3d 952d 243c
000000e0: 436a 93bc 2049 6b3c 917d 9f3c 47eb 6abc
000000f0: b280 663c 94d6 bd3c 3548 493c cc7f 20bb
00000100: c85b e4bb 1ffb 053c 51ab 1d3d c53d f13c
00000110: 2b7a 4d3c 17c5 943c 046a 883c 7a69 56bb
00000120: db66 fc3b e1b1 9fbc 8c67 a9bb 1282 8abc
00000130: 2f62 ad3c fb38 a3bb 7b52 083c af5d 903b
00000140: 98c9 5fbb 6485 1fbc 3bc3 f83c aa83 2abb
00000150: 99f5 0f3c 334a ab3b 1808 d93c 8bd1 bc3c
00000160: 4904 0139 3c7a 2e3c 08ca edbb 9fc1 43bc
00000170: 3655 89bc 79e6 2a3a 6096 033d fd2b 6e3c
00000180: 8e76 9b3c 8325 583b 3bce 1cbc 9eae 96bc
00000190: f5dc 74bc 8cab cabc 4b34 b0bc 6401 163c
000001a0: 72b4 f33b 9292 6c3c 4820 763c eb12 d8bc
000001b0: fc7c 923c 8b72 353b a467 8dbc a676 15bb
000001c0: fffd 193a 7dc9 603c 5354 093d 8fe7 54bb
000001d0: dfc2 fb3c d58d e33b 5222 2dbc 0d53 523b
000001e0: 9cbc 423b e845 0ebc fb2f 15bc 972a c53c
000001f0: aaf2 3dbc 77c6 9bbb d09a c53b a589 183d
-0.0022698208 -0.010071821 0.032519277 0.006950617 0.017107666 0.003260359 -0.0008438729 -0.026858354
0.008435129 -0.03239545 0.003939872 -0.026288638 -0.033467133 -0.008120531 -0.010882972 0.021102956
-0.021049932 0.0019280084 -0.008054118 -0.00050068164 0.010525761 -0.004362404 -0.020712275 -0.0039242483
0.010299469 -0.009107458 0.01918206 0.0031574212 0.03405 -0.015328422 0.015262537 -0.010790119
0.029735392 0.01092434 0.0075357417 -0.0117090875 -0.017360415 -0.01661487 -0.021102322 0.012232453
-0.0082468875 0.008613624 -0.020539446 -0.018638017 -0.004599926 -0.021451844 0.0171335 0.023367757
-0.0007968141 0.032465175 0.0066575306 -0.022968505 0.014685667 -0.0088028135 0.0575864 0.010020633
-0.017995005 0.014360696 0.019469054 -0.014338321 0.014068769 0.023173608 0.012285282 -0.0024490235
-0.006968949 0.008177548 0.03849346 0.0294484 0.012541334 0.018160386 0.016652115 -0.0032716678
0.007702691 -0.019493999 -0.0051698145 -0.016907725 0.021164982 -0.004981158 0.008320446 0.004405699
-0.003414726 -0.009736393 0.03036653 -0.002601842 0.008786582 0.005227351 0.026493117 0.023049137
0.00012303995 0.01064926 -0.00725675 -0.011948018 -0.016764265 0.00065193285 0.03212583 0.014536855
0.01897743 0.0032981343 -0.009570654 -0.01839381 -0.014945258 -0.024740003 -0.02150931 0.009155605
0.0074372822 0.014439242 0.015022345 -0.026376208 0.017881863 0.002768668 -0.017261334 -0.0022806316
0.0005874335 0.013719914 0.033527683 -0.0032486652 0.03073257 0.006944398 -0.010567265 0.003209296
0.002971447 -0.008683659 -0.009105678 0.02406816 -0.0115935 -0.0047538835 0.006030418 0.037240643
