Shortcut Run/results/Test9/Move/Move-400.pt (torch, 149007 bytes, 10 tensors)

network_body._body_endoder.seq_layers.0.weight f4 [128, 6]
0.24984555 0.15244932 0.11679693 0.6542287 -0.2844291 -0.41435018 0.008535263 -0.7351369
0.29222003 0.10012316 -0.006043719 0.1808617 0.0015451922 -0.2983813 0.86466837 -0.12177817
-0.5843701 -0.54382044 -0.011674962 0.16206403 0.12965697 0.53611887 -0.4990885 0.044176348
-0.186109 0.17394744 -0.119037025 -0.22539 -0.11790105 -0.19302136 0.04271824 0.7258685
-0.54185224 -0.54684865 0.7262852 -0.5857102 0.08685184 0.23600021 -0.32274872 0.36382565
0.13522589 -0.5248961 0.1708633 0.11686739 0.09531357 -0.39417887 -0.09594472 0.22988692
-0.38989645 -0.44523668 0.3735613 -0.13993135 -0.43036035 -0.56121284 -0.40129125 0.42916873
0.8450416 -0.20692503 -0.37068808 0.015082442 0.524266 -0.46686152 -0.17120111 -0.4391424
-0.035958607 -0.038417015 -0.017636575 0.851357 -0.0041637146 0.11133086 0.8885777 -0.6952545
0.26032016 0.1855228 -0.100590676 -0.20303796 -0.43295765 0.83606094 0.6959894 0.6451051
0.31323013 0.8019876 0.5112984 0.10951234 -0.5610384 -0.04020029 0.23427776 -0.7557994
0.61098343 0.32371753 0.015093901 -0.5590572 0.86205035 0.08391802 0.015910594 -0.07672502
-0.1855105 -0.03401643 0.17957589 0.45359045 -0.3574846 0.5312839 0.39710546 -0.21602805
0.29990104 -0.14962487 0.23865226 -0.6275319 -0.32970798 0.46841303 0.054647386 0.1627033
0.072008096 0.1212626 -0.04996516 0.110594556 -0.13410367 -0.59150815 -0.64252627 0.39396903
0.11715213 0.26930925 0.58428895 -0.31479457 -0.3933727 -0.64899373 0.21046819 0.19687201
-0.0142053915 -0.42688134 -0.3847042 -0.055245902 -0.49172702 0.01896301 -0.083543696 0.15706566
0.51793224 0.06981255 0.29968444 -0.016393922 -0.35126725 0.6044721 0.46916902 0.0025980514
-0.0859971 0.0814082 0.1866578 0.34287682 -0.017649518 1.0233387 -0.7328741 -0.35279217
0.60217124 -0.2876464 -0.27225304 0.4161157 0.1415375 0.027118698 0.22239123 -0.5475881
-0.5322182 -0.1550043 0.06793072 0.2228751 -0.17249885 -0.5024686 -0.34441185 0.18901186
-0.16545281 0.1879598 -0.21975335 -0.007034033 -0.02907692 -0.79546165 0.077196084 0.13026291
0.020433377 0.03735999 -0.60984594 0.14609152 -0.05372127 -0.03966331 0.030449038 0.17508143
0.4956221 0.4733236 0.39422426 0.028552812 0.44096187 0.3468682 0.41847304 -0.14587858
-0.12676547 0.12493356 0.355979 -0.09970775 0.23199368 0.67602795 -0.33610952 0.5890929
-0.6055794 -0.57291234 -0.7344222 0.3925792 0.12609693 0.17919332 0.47507155 0.025380364
-0.75065506 -0.061145555 0.3122528 0.30866638 -0.2091118 -0.13090588 0.5216826 -1.2831403
-0.08518917 -0.26808885 -0.50611883 -0.1279113 -0.8895835 0.3196276 0.28309005 -0.58799195
0.00669272 -1.2166721 0.5788324 -0.21925648 0.25402698 -0.1376448 0.45818204 -0.2708795
0.115646966 -0.7821861 -0.37959868 0.108266555 0.07347017 0.42646912 0.46588218 0.8579301
0.18297069 -0.06619819 0.55253744 0.636436 0.41449058 -0.2788599 -0.049426276 -0.3914231
-0.58243936 0.27173907 -0.23072545 -0.6066469 0.15930311 -0.47155023 0.048817057 -0.7052625
00000000: 83d7 7f3e ad1b 1c3e 3b33 ef3d 887b 273f
00000010: b1a0 91be b525 d4be 7dd7 0b3c ef31 3cbf
00000020: dd9d 953e 5f0d cd3d 640a c6bb cf33 393e
00000030: 0c88 ca3a 6fc5 98be e85a 5d3f d566 f9bd
00000040: 4799 15bf d137 0bbf 5748 3fbc 1df4 253e
00000050: ccc4 043e 163f 093f 8788 ffbe 42f2 343d
00000060: 5c93 3ebe 471f 323e afc9 f3bd a3cc 66be
00000070: 1b76 f1bd 64a7 45be 52f9 2e3d 85d2 393f
00000080: d4b6 0abf 46fe 0bbf d4ed 393f 1bf1 15bf
00000090: 61df b13d 0aaa 713e 523f a5be 5b47 ba3e
000000a0: a878 0a3e 975f 06bf caf6 2e3e 2c58 ef3d
000000b0: c333 c33d d0d1 c9be aa7e c4bd 7a67 6b3e
000000c0: 82a0 c7be 10f6 e3be 6d43 bf3e 2a4a 0fbe
000000d0: 3158 dcbe a5ab 0fbf 0c76 cdbe 01bc db3e
000000e0: a554 583f 28e4 53be d4ca bdbe 591c 773c
000000f0: 4c36 063f 7908 efbe 584f 2fbe 46d7 e0be
00000100: 5549 13bd 295b 1dbd 947a 90bc 88f2 593f
00000110: c56f 88bb 6f01 e43d d479 633f 33fc 31bf
00000120: af48 853e b0f9 3d3e 7c02 cebd 2fe9 4fbe
00000130: a0ac ddbe 1708 563f 5c2c 323f 9c25 253f
00000140: b35f a03e 0f4f 4d3f 74e4 023f 0148 e03d
00000150: 36a0 0fbf 0fa9 24bd 82e6 6f3e 127c 41bf
00000160: 6969 1c3f 4ebe a53e 694c 773c 5f1e 0fbf
00000170: 55af 5c3f 36dd ab3d ef56 823c 0222 9dbd
00000180: 77f6 3dbe d054 0bbd bee2 373e 023d e83e
00000190: 3908 b7be 3902 083f 6851 cb3e 7536 5dbe
000001a0: a18c 993e 4337 19be 4261 743e eea5 20bf
000001b0: 7ccf a8be d5d3 ef3e f0d5 5f3d b29b 263e
000001c0: fb78 933d 8758 f83d 45a8 4cbd 667f e23d
000001d0: 7952 09be 146d 17bf 9a7c 24bf 4fb6 c93e
000001e0: 75ed ef3d e7e2 893e f693 153f c12c a1be
000001f0: 2668 c9be 7424 26bf f984 573e d198 493e
00000200: bbbd 68bc 3190 dabe f3f7 c4be 8749 62bd
00000210: a5c3 fbbe 5058 9b3c f518 abbd d2d5 203e
00000220: 3597 043f e2f9 8e3d 3d70 993e 8c4c 86bc
00000230: 4dd9 b3be afbe 1a3f ec36 f03e 1244 2a3b
00000240: 3f1f b0bd 58b9 a63d 3923 3f3e 8d8d af3e
00000250: b995 90bc c3fc 823f a39d 3bbf 2da1 b4be
00000260: e527 1a3f 6446 93be c064 8bbe 1e0d d53e
00000270: 35ef 103e 0828 de3c 87ba 633e bc2e 0cbf
00000280: 743f 08bf 72b9 1ebe 431f 8b3d 5f39 643e
00000290: 8aa3 30be c8a1 00bf c056 b0be 538c 413e
000002a0: 766c 29be 8978 403e 0607 61be bf7d e6bb
000002b0: b932 eebc 60a3 4bbf fb18 9e3d a463 053e
000002c0: e663 a73c ca06 193d dd1e 1cbf 0499 153e
000002d0: d60a 5cbd ff75 22bd 4370 f93c 8c48 333e
000002e0: 2ec2 fd3e 7957 f23e c3d7 c93e 96e7 e93c
000002f0: c1c5 e13e b598 b13e 1942 d63e 3261 15be
00000300: cfce 01be 2bdd ff3d e142 b63e 9433 ccbd
00000310: c08f 6d3e 2b10 2d3f 8c16 acbe cbce 163f
00000320: 4007 1bbf 62aa 12bf 1803 3cbf 2400 c93e
00000330: 8e1f 013e 747e 373e 943c f33e 7bea cf3c
00000340: ee2a 40bf c373 7abd 99df 9f3e 8509 9e3e
00000350: 6721 56be 310c 06be fe8c 053f f13d a4bf
00000360: a977 aebd f142 89be 0191 01bf 2efb 02be
00000370: bfbb 63bf 3ba6 a33e 2ef1 903e a486 16bf
00000380: 9b4e db3b e9bb 9bbf 5c2e 143f c584 60be
00000390: d30f 823e c2f2 0cbe d696 ea3e b8b0 8abe
000003a0: 51d8 ec3d 593d 48bf c25a c2be dbba dd3d
000003b0: 8777 963d 295a da3e 1c88 ee3e 4fa1 5b3f
000003c0: ab5c 3b3e eb92 87bd 1873 0d3f 78ed 223f
000003d0: 1c38 d43e bac6 8ebe 3573 4abd 9c68 c8be
000003e0: bf1a 15bf 6221 8b3e 4b43 6cbe 364d 1bbf
000003f0: 5b20 233e 086f f1be 65f4 473d 158c 34bf

network_body._body_endoder.seq_layers.0.bias f4 [128]
0.0 0.0 0.0 0.0 0.0 0.0 0.0 0.0
0.0 0.0 0.0 0.0 0.0 0.0 0.0 0.0
0.0 0.0 0.0 0.0 0.0 0.0 0.0 0.0
0.0 0.0 0.0 0.0 0.0 0.0 0.0 0.0
0.0 0.0 0.0 0.0 0.0 0.0 0.0 0.0
0.0 0.0 0.0 0.0 0.0 0.0 0.0 0.0
0.0 0.0 0.0 0.0 0.0 0.0 0.0 0.0
0.0 0.0 0.0 0.0 0.0 0.0 0.0 0.0
0.0 0.0 0.0 0.0 0.0 0.0 0.0 0.0
0.0 0.0 0.0 0.0 0.0 0.0 0.0 0.0
0.0 0.0 0.0 0.0 0.0 0.0 0.0 0.0
0.0 0.0 0.0 0.0 0.0 0.0 0.0 0.0
0.0 0.0 0.0 0.0 0.0 0.0 0.0 0.0
0.0 0.0 0.0 0.0 0.0 0.0 0.0 0.0
0.0 0.0 0.0 0.0 0.0 0.0 0.0 0.0
0.0 0.0 0.0 0.0 0.0 0.0 0.0 0.0
00000000: 0000 0000 0000 0000 0000 0000 0000 0000
00000010: 0000 0000 0000 0000 0000 0000 0000 0000
00000020: 0000 0000 0000 0000 0000 0000 0000 0000
00000030: 0000 0000 0000 0000 0000 0000 0000 0000
00000040: 0000 0000 0000 0000 0000 0000 0000 0000
00000050: 0000 0000 0000 0000 0000 0000 0000 0000
00000060: 0000 0000 0000 0000 0000 0000 0000 0000
00000070: 0000 0000 0000 0000 0000 0000 0000 0000
00000080: 0000 0000 0000 0000 0000 0000 0000 0000
00000090: 0000 0000 0000 0000 0000 0000 0000 0000
000000a0: 0000 0000 0000 0000 0000 0000 0000 0000
000000b0: 0000 0000 0000 0000 0000 0000 0000 0000
000000c0: 0000 0000 0000 0000 0000 0000 0000 0000
000000d0: 0000 0000 0000 0000 0000 0000 0000 0000
000000e0: 0000 0000 0000 0000 0000 0000 0000 0000
000000f0: 0000 0000 0000 0000 0000 0000 0000 0000
00000100: 0000 0000 0000 0000 0000 0000 0000 0000
00000110: 0000 0000 0000 0000 0000 0000 0000 0000
00000120: 0000 0000 0000 0000 0000 0000 0000 0000
00000130: 0000 0000 0000 0000 0000 0000 0000 0000
00000140: 0000 0000 0000 0000 0000 0000 0000 0000
00000150: 0000 0000 0000 0000 0000 0000 0000 0000
00000160: 0000 0000 0000 0000 0000 0000 0000 0000
00000170: 0000 0000 0000 0000 0000 0000 0000 0000
00000180: 0000 0000 0000 0000 0000 0000 0000 0000
00000190: 0000 0000 0000 0000 0000 0000 0000 0000
000001a0: 0000 0000 0000 0000 0000 0000 0000 0000
000001b0: 0000 0000 0000 0000 0000 0000 0000 0000
000001c0: 0000 0000 0000 0000 0000 0000 0000 0000
000001d0: 0000 0000 0000 0000 0000 0000 0000 0000
000001e0: 0000 0000 0000 0000 0000 0000 0000 0000
000001f0: 0000 0000 0000 0000 0000 0000 0000 0000

network_body._body_endoder.seq_layers.2.weight f4 [128, 128]
0.020966511 -0.08112484 0.041737195 -0.079858996 -0.09008401 -0.062449005 0.0034041908 0.024677824
0.08121626 -0.036364615 0.044377845 0.016054828 -0.05672417 -0.0911158 -0.027617069 -0.1996056
-0.033307128 0.1801516 -0.08244971 -0.078049 0.01919492 -0.12634628 0.029455977 0.2353241
-0.031666692 0.037816077 -0.07448001 0.054609466 -0.0012544686 0.0043574455 0.0078039793 0.122563615
-0.07290592 0.09106703 -0.018465536 -0.0154128615 0.06927604 0.01139417 0.087747954 0.09864788
0.122310765 -0.057615414 0.126441 -0.06984411 -0.1187047 -0.03836669 0.31685776 0.011607796
0.043796886 0.13339798 -0.06305495 -0.075858705 0.0057038185 0.13651536 -0.048578113 0.071169585
-0.0477378 0.097623415 -0.14417392 -0.09408091 -0.1163547 0.029832685 -0.0492964 -0.014598227
0.14482243 0.2102253 0.13942151 0.0043130205 0.08104401 0.025126157 -0.005367551 -0.012548298
0.04179926 0.07279472 -0.14517018 -0.03971139 -0.099538736 -0.13134964 -0.0020080507 0.1311159
-0.068971455 0.13103312 -0.14086102 -0.12595065 -0.12170312 -0.09225906 0.027684662 -0.06012555
-0.0016674583 0.064424306 -0.011607003 -0.01769868 0.04985244 0.025805 -0.06489798 0.0008728385
0.08933797 0.084992945 -0.16229177 0.0025761398 -0.041485216 0.042290147 0.01205249 0.11809068
0.048806123 -0.12972747 0.079253614 -0.0041815 -0.11437861 -0.071040206 -0.07224625 0.12213481
0.06392281 -0.060012292 0.1621093 -0.057230018 -0.010936614 -0.02380747 0.069256105 0.011991447
0.045745905 -0.049614713 0.0060288874 -0.05578161 -0.007732955 -0.03482724 0.14523901 -0.044545192
0.016738558 0.08567204 0.1531596 -0.054693818 -0.09718923 0.0058913515 -0.1455612 0.13257533
0.15470044 -0.016119182 0.02449739 0.07803674 -0.05137414 0.044963337 0.02718496 0.0564631
-0.101494975 0.1386873 0.01308297 0.009679988 0.035212945 0.12013229 0.02882651 -0.06262374
0.05962241 -0.1054339 0.028579762 0.15980898 0.017077655 0.051513117 -0.095190205 -0.09627908
-0.011626524 -0.08291572 -0.042729206 -0.017059771 -0.047855537 0.006603383 -0.00935569 0.17339711
0.00038738636 0.083883025 0.068069845 0.025433736 0.026574362 0.028533721 0.13673864 0.12553434
-0.055857603 0.09002957 -0.0420997 -0.0030597534 -0.1745919 -0.21028529 -0.021680627 0.19294643
-0.12629488 0.24919634 0.0005803831 0.0069490816 -0.03243821 -0.05999587 0.062908575 0.19752179
-0.09573895 -0.032896217 0.10018562 -0.051887926 -0.105090424 0.0053871777 0.010422223 -0.12880166
-0.077269614 0.038646713 0.18238863 -0.07717788 -0.05865232 0.033998072 -0.11267271 -0.014273379
-0.08564844 -0.06271917 -0.01054195 0.21546489 -0.063419424 0.021497194 0.06690046 0.13104528
0.084559955 -0.13884474 -0.004325175 -0.06837452 -0.024021003 -0.01990999 0.11777294 -0.023302937
-0.12612647 0.089384995 -0.114007995 -0.07556949 0.07629866 -0.053599868 -0.08599306 0.04686384
0.014032358 0.047838654 0.0072471392 -0.055098604 -0.07786331 0.08484642 -0.0054054363 -0.05065533
0.08507049 0.050950043 0.026961923 -0.10249638 0.030931018 0.097994804 0.0643124 -0.09336608
0.02239853 -0.013888789 -0.09060348 -0.0740104 0.016002024 0.053927172 -0.11579584 -0.094844356
00000000: f6c1 ab3c c824 a6bd 9ff4 2a3d 1d8d a3bd
00000010: f77d b8bd 87ca 7fbd d818 5f3b 2629 ca3c
00000020: b654 a63d 10f3 14bd 8bc5 353d 6a85 833c
00000030: 9a57 68bd ec9a babd 313d e2bc 6965 4cbe
00000040: 0e6d 08bd a979 383e 65db a8bd 27d8 9fbd
00000050: aa3e 9d3c eb60 01be a94d f13c cdf8 703e
00000060: efb4 01bd 08e5 1a3d fa88 98bd 2dae 5f3d
00000070: fb6c a4ba e7c8 8e3b 86b8 ff3b a202 fb3d
00000080: b34f 95bd 5a81 ba3d 0945 97bc 3a86 7cbc
00000090: 99e0 8d3d 9dae 3a3c 33b5 b33d e607 ca3d
000000a0: 117e fa3d 24fe 6bbd c079 013e 6e0a 8fbd
000000b0: 731b f3bd 6426 1dbd 2e3b a23e a02e 3e3c
000000c0: 5d64 333d 7b99 083e f422 81bd cf5b 9bbd
000000d0: 19e7 ba3b afca 0b3e d8f9 46bd 5cc1 913d
000000e0: b688 43bd c9ee c73d 54a2 13be 7ead c0bd
000000f0: 5f4b eebd ad63 f43c 06eb 49bd 672d 6fbc
00000100: 554c 143e 4d45 573e 83c4 0e3e 3d54 8d3b
00000110: 67fa a53d 5fd5 cd3c 48e2 afbb 6097 4dbc
00000120: b335 2b3d 6615 953d 7ea7 14be 69a8 22bd
00000130: f7da cbbd 8580 06be 8099 03bb 3f43 063e
00000140: e840 8dbd 8c2d 063e df3d 10be 35f9 00be
00000150: 7c3f f9bd 51f2 bcbd f2ca e23c 3546 76bd
00000160: 9e8e daba e4f0 833d 4d2b 3ebc d2fc 90bc
00000170: 1232 4c3d 0265 d33c 3be9 84bd 33cf 643a
00000180: d3f6 b63d c810 ae3d d02f 26be 74d4 283b
00000190: 67ec 29bd 6f38 2d3d cf77 453c 87d9 f13d
000001a0: eee8 473d 47d7 04be b84f a23d f704 89bb
000001b0: 553f eabd 877d 91bd d8f5 93bd d121 fa3d
000001c0: f6e9 823d 73cf 75bd fbff 253e 066a 6abd
000001d0: 7c2f 33bc e207 c3bc 25d6 8d3d c677 443c
000001e0: 0f60 3b3d cc38 4bbd f98d c53b 427b 64bd
000001f0: ba64 fdbb 02a7 0ebd 89b9 143e 0575 36bd
00000200: 4d1f 893c d374 af3d dfd5 1c3e a006 60bd
00000210: 260b c7bd 3d0c c13b ff0d 15be d4c1 073e
00000220: cb69 1e3e 600c 84bc c0ae c83c bad1 9f3d
00000230: b16d 52bd 7a2b 383d feb2 de3c da45 673d
00000240: 99dc cfbd 0b04 0e3e f459 563c d098 1e3c
00000250: 733b 103d eb07 f63d 9325 ec3c e040 80bd
00000260: a136 743d bbed d7bd 1b20 ea3c f7a4 233e
00000270: 70e6 8b3c 6bff 523d 15f3 c2bd f72d c5bd
00000280: 2d7d 3ebc b8cf a9bd d204 2fbd efc0 8bbc
00000290: 2b04 44bd 3161 d83b 9c48 19bc 038f 313e
000002a0: 1e1a cb39 ddca ab3d 3468 8b3d 695a d03c
000002b0: 7ab2 d93c 8dbf e93c 3705 0c3e 138c 003e
000002c0: f1ca 64bd 6c61 b83d bc70 2cbd 2586 48bb
000002d0: 38c8 32be 0755 57be 929b b1bc c093 453e
000002e0: 7253 01be 532d 7f3e da24 183a 1fb5 e33b
000002f0: eedd 04bd 3bbe 75bd 36d6 803d 2743 4a3e
00000300: c812 c4bd 2fbe 06bd 1e2e cd3d 6f88 54bd
00000310: a639 d7bd ec86 b03b f9c1 2a3c 95e4 03be
00000320: 883f 9ebd 044c 1e3d 16c4 3a3e 700f 9ebd
00000330: 6a3d 70bd 9041 0b3d f3c0 e6bd e4da 69bc
00000340: 7368 afbd e872 80bd 25b8 2cbc d4a2 5c3e
00000350: 0be2 81bd e21a b03c 1c03 893d bc30 063e
00000360: c52d ad3d 512d 0ebe 33ba 8dbb f107 8cbd
00000370: b2c7 c4bc 461a a3bc f032 f13d cde5 bebc
00000380: 4c27 01be 7b0f b73d 067d e9bd 2dc4 9abd
00000390: 7942 9c3d 898b 5bbd 211d b0bd 4cf4 3f3d
000003a0: fae7 653c 77f2 433d 6979 ed3b 13af 61bd
000003b0: cd76 9fbd f6c3 ad3d 1620 b1bb f77b 4fbd
000003c0: 7039 ae3d feb0 503d 40df dc3c 9fe9 d1bd
000003d0: 0c63 fd3c 80b1 c83d 38b6 833d b736 bfbd
000003e0: 1f7d b73c ce8d 63bc 518e b9bd c492 97bd
000003f0: ad16 833c bde2 5c3d 5f26 edbd c23d c2bd

network_body._body_endoder.seq_layers.2.bias f4 [128]
0.0 0.0 0.0 0.0 0.0 0.0 0.0 0.0
0.0 0.0 0.0 0.0 0.0 0.0 0.0 0.0
0.0 0.0 0.0 0.0 0.0 0.0 0.0 0.0
0.0 0.0 0.0 0.0 0.0 0.0 0.0 0.0
0.0 0.0 0.0 0.0 0.0 0.0 0.0 0.0
0.0 0.0 0.0 0.0 0.0 0.0 0.0 0.0
0.0 0.0 0.0 0.0 0.0 0.0 0.0 0.0
0.0 0.0 0.0 0.0 0.0 0.0 0.0 0.0
0.0 0.0 0.0 0.0 0.0 0.0 0.0 0.0
0.0 0.0 0.0 0.0 0.0 0.0 0.0 0.0
0.0 0.0 0.0 0.0 0.0 0.0 0.0 0.0
0.0 0.0 0.0 0.0 0.0 0.0 0.0 0.0
0.0 0.0 0.0 0.0 0.0 0.0 0.0 0.0
0.0 0.0 0.0 0.0 0.0 0.0 0.0 0.0
0.0 0.0 0.0 0.0 0.0 0.0 0.0 0.0
0.0 0.0 0.0 0.0 0.0 0.0 0.0 0.0
00000000: 0000 0000 0000 0000 0000 0000 0000 0000
00000010: 0000 0000 0000 0000 0000 0000 0000 0000
00000020: 0000 0000 0000 0000 0000 0000 0000 0000
00000030: 0000 0000 0000 0000 0000 0000 0000 0000
00000040: 0000 0000 0000 0000 0000 0000 0000 0000
00000050: 0000 0000 0000 0000 0000 0000 0000 0000
00000060: 0000 0000 0000 0000 0000 0000 0000 0000
00000070: 0000 0000 0000 0000 0000 0000 0000 0000
00000080: 0000 0000 0000 0000 0000 0000 0000 0000
00000090: 0000 0000 0000 0000 0000 0000 0000 0000
000000a0: 0000 0000 0000 0000 0000 0000 0000 0000
000000b0: 0000 0000 0000 0000 0000 0000 0000 0000
000000c0: 0000 0000 0000 0000 0000 0000 0000 0000
000000d0: 0000 0000 0000 0000 0000 0000 0000 0000
000000e0: 0000 0000 0000 0000 0000 0000 0000 0000
000000f0: 0000 0000 0000 0000 0000 0000 0000 0000
00000100: 0000 0000 0000 0000 0000 0000 0000 0000
00000110: 0000 0000 0000 0000 0000 0000 0000 0000
00000120: 0000 0000 0000 0000 0000 0000 0000 0000
00000130: 0000 0000 0000 0000 0000 0000 0000 0000
00000140: 0000 0000 0000 0000 0000 0000 0000 0000
00000150: 0000 0000 0000 0000 0000 0000 0000 0000
00000160: 0000 0000 0000 0000 0000 0000 0000 0000
00000170: 0000 0000 0000 0000 0000 0000 0000 0000
00000180: 0000 0000 0000 0000 0000 0000 0000 0000
00000190: 0000 0000 0000 0000 0000 0000 0000 0000
000001a0: 0000 0000 0000 0000 0000 0000 0000 0000
000001b0: 0000 0000 0000 0000 0000 0000 0000 0000
000001c0: 0000 0000 0000 0000 0000 0000 0000 0000
000001d0: 0000 0000 0000 0000 0000 0000 0000 0000
000001e0: 0000 0000 0000 0000 0000 0000 0000 0000
000001f0: 0000 0000 0000 0000 0000 0000 0000 0000

action_model._continuous_distribution.mu.weight f4 [1, 128]
-0.0036596456 0.0079667 0.0017916141 0.0071753995 0.0052042194 0.012214052 0.018135076 0.0012696101
-0.025110615 0.01230024 0.019353343 -0.023029314 -0.020417687 0.03288602 -0.018344203 -0.00067709835
-0.012165819 0.003914708 0.0049262317 0.019902257 -0.012003766 0.026688457 0.016316101 0.003752055
0.012405158 0.016638504 -0.014993717 -0.02294667 0.006747503 -0.019902267 0.023257624 0.009727779
0.019495664 0.0027761657 -0.009364567 -0.030440925 -0.025626121 -0.010664381 0.024793155 -0.008652187
-0.022265634 0.008670025 -0.014370337 -0.00039128005 -0.018773796 0.014924148 -0.0014511555 0.016779993
-0.012029617 0.029859483 -0.015661469 -0.024924913 0.009119895 -0.011035423 0.0036569822 -0.0022889485
-0.017344758 0.0019650485 -0.0007805812 -0.00938048 -0.008914167 -0.012839054 0.0066223494 -0.008509707
0.011561404 0.014635471 -0.007728662 0.0047235065 -0.0065381117 -0.011165044 -0.030877566 -0.014328564
0.00048488664 -0.0043361597 0.021362407 -0.032462724 0.0057185586 -0.017581068 -0.008504777 0.007860306
-0.004551617 0.033914663 -0.015087861 -0.011860684 -0.000903723 -0.00252604 -0.014139692 -0.015081935
0.005097271 0.018564967 0.016165204 -0.015867604 -0.015266001 -0.00039303774 -0.025536159 -0.03165204
0.016563982 -0.044142753 -0.004285283 0.005324365 0.0038357992 -0.011034681 0.0051723667 0.00073893525
-0.022467313 0.007921143 -0.0359265 -0.020612337 -0.014548227 -0.012250904 -0.008481124 -0.010686164
-0.022884147 0.028769512 -0.0041087256 0.0032426044 0.019907529 0.00659289 -0.016999193 -0.0015303608
-0.04867917 0.014126003 -0.0074612536 0.012438218 0.0016966847 -0.011149297 0.004757204 -0.008100837
00000000: aad6 6fbb c386 023c 98d4 ea3a 9d1f eb3b
00000010: 2888 aa3b 721d 483c 0390 943c 0c69 a63a
00000020: c7b4 cdbc f286 493c e78a 9e3c f9a7 bcbc
00000030: fe42 a7bc 7eb3 063d 9546 96bc 4d7f 31ba
00000040: 2553 47bc f346 803b 3a6c a13b 0f0a a33c
00000050: 72ab 44bc c0a1 da3c 58a9 853c 0ae5 753b
00000060: 013f 4b3c 794d 883c 35a8 75bc a8fa bbbc
00000070: 281a dd3b 140a a3bc c686 be3c 4361 1f3c
00000080: 5fb5 9f3c 55f0 353b d76d 19bc 3f5f f9bc
00000090: dfed d1bc a8b9 2ebc 041b cb3c e7c1 0dbc
000000a0: 6b66 b6bc b80c 0e3c 9071 6bbc b824 cdb9
000000b0: 81cb 99bc 6a84 743c b334 beba 3276 893c
000000c0: df17 45bc e09b f43c 7b4c 80bc 552f ccbc
000000d0: 9d6b 153c ebcd 34bc fba9 6f3b 2f02 16bb
000000e0: 9816 8ebc 0bc8 003b eb9f 4cba 96b0 19bc
000000f0: ba0c 12bc e55a 52bc 4b00 d93b 4c6c 0bbc
00000100: 0b6c 3d3c 9dc9 6f3c b740 fdbb a5c7 9a3b
00000110: a83d d6bb 97ed 36bc f3f2 fcbc 5ac2 6abc
00000120: 6238 fe39 5816 8ebb 3700 af3c a2f7 04bd
00000130: bf62 bb3b 2c06 90bc 9f57 0bbc 83c8 003c
00000140: bb25 95bb 1aea 0a3d 1333 77bc 5053 42bc
00000150: d3e7 6cba eb8b 25bb 2baa 67bc 381a 77bc
00000160: 0207 a73b 8f15 983c e46c 843c c7fc 81bc
00000170: 401e 7abc a210 ceb9 3531 d1bc 92a5 01bd
00000180: 30b1 873c 08cf 34bd 8f6b 8cbb 0378 ae3b
00000190: 0862 7b3b cfca 34bc f57c a93b 1bb5 413a
000001a0: 5f0d b8bc afc7 013c aa27 13bd 34db a8bc
000001b0: b05b 6ebc 04b8 48bc 6af4 0abc 0515 2fbc
000001c0: 8977 bbbc 0aae eb3c 7da2 86bb e081 543b
000001d0: 1d15 a33c 2b09 d83b e441 8bbc 6396 c8ba
000001e0: cf63 47bd c070 673c 887d f4bb abc9 4b3c
000001f0: 4b63 de3a 8aab 36bc 52e2 9b3b 5fb9 04bc

network_body._body_endoder.seq_layers.0.weight f4 [128, 6]
0.12392925 0.26213607 -0.1917523 -0.07786796 -0.6961671 0.2893567 0.39280748 -0.4401187
-0.44324234 0.24814074 -0.025695967 -0.0696713 -0.03214935 0.5157341 0.53174037 -0.07800175
0.04539914 -0.28397217 0.06644295 -0.30259028 0.100814246 -0.3711044 0.20641929 0.17406085
0.3809367 -0.12270743 0.17509033 -0.002456448 -0.54229146 -0.34563166 -0.0024716356 0.2373768
-0.007875982 0.28609905 -0.03123523 -0.519292 -0.22173513 -0.067384966 0.38185537 -0.22355683
0.7538433 -0.37818292 -0.09013786 -0.88190377 0.60443485 0.055970654 -0.27403268 -0.8121129
-0.53444684 0.058082078 -0.42884067 0.25009024 0.49487653 1.0703163 0.016683832 0.1991332
-0.74515903 0.69522876 -0.07484742 0.2195001 -0.15019795 0.061244227 -0.24785346 0.82951456
0.8998079 -0.3142143 -0.7138905 0.049110573 0.2311226 0.15967242 -0.00949628 0.6649829
0.39679363 0.7689524 0.002666974 -0.47153896 -0.12550232 -0.8664777 -0.0710384 -0.037715815
0.33276954 -0.748654 -0.16491151 0.031928785 0.25304717 -0.81291443 -0.0043238103 0.24905218
0.3215708 -0.08049791 -0.102438554 0.36707354 0.17056344 -0.33472055 -0.072723106 0.2120896
0.7408019 0.32163924 -0.64085114 0.5657488 0.58454436 0.046268865 -0.87875754 0.026040848
-0.39497408 -0.03222998 0.6549645 0.19104235 1.0775132 0.31716812 0.08090285 0.10536747
0.7493658 0.24313262 -0.3797553 0.46888927 0.7686193 -0.40081745 0.025358113 -0.0670306
-0.31790587 0.19000544 -0.14842896 0.0963946 -0.13504966 -0.26070356 -0.05848917 -0.02166926
-0.3037466 -0.7782448 -0.039915577 0.20026787 -0.6230919 0.81960285 -0.11053258 0.7163673
0.239193 -0.176508 -0.030315425 0.09626356 -0.071903795 -0.56637794 0.26450998 -0.5639388
0.6163111 -0.24275708 -0.753875 0.16374464 0.529863 -0.3377754 -0.49241817 0.37448987
0.25296968 -0.6169921 -0.29520518 0.36592397 -0.154429 -0.7069398 0.5071303 0.067477696
-0.13970274 0.28699648 -0.44465622 -0.2537561 -0.08232698 0.21467508 -0.21934517 0.2742866
-0.63145924 0.108790606 -0.42674404 0.18187897 0.2454847 0.34398553 -0.7084243 -0.46697876
-0.35907984 0.511948 -0.48324454 -0.045365505 0.10719316 0.47395012 -0.24380566 -0.14487532
-0.80452776 0.14428717 0.88054305 -0.28128842 0.099879764 0.36228704 -0.7540764 0.14089727
0.058790527 0.25144336 0.1113537 0.45665628 0.21709383 -0.2822609 0.28346336 -0.40052325
0.23941764 0.11134687 0.4415449 -0.27338374 0.12585092 -0.031652305 0.013420912 -0.33667403
-0.20726997 0.0028433653 0.023929056 0.53100646 0.0714787 0.4145861 0.67308205 -0.6280661
0.37512082 0.16066788 0.12322733 -0.1268744 0.029676823 0.33656347 -0.23688555 -0.19551249
0.15869722 0.53982335 0.111438744 0.10063984 0.19381459 0.40629965 -0.006410308 -0.15194221
0.040967874 -0.250649 0.28118345 0.16999587 0.43506503 -0.15379374 -0.50683904 0.054324996
0.32388484 0.31382594 0.1216668 -0.07704529 0.08920282 0.76584196 0.45366457 -0.006599974
-0.518077 -0.303897 0.013145934 0.58752847 0.29161057 -0.06219529 -0.17897923 -0.4727362
00000000: 9ece fd3d b336 863e b75a 44be 3d79 9fbd
00000010: 0238 32bf 9026 943e 101e c93e 3d57 e1be
00000020: a9f0 e2be 9b18 7e3e 5980 d2bc d4af 8ebd
00000030: 09af 03bd 2607 043f 2320 083f 62bf 9fbd
00000040: 73f4 393d cd64 91be 3e13 883d 1ded 9abe
00000050: b377 ce3d 6501 bebe 945f 533e 023d 323e
00000060: 230a c33e 084e fbbd e14a 333e 5cfc 20bb
00000070: 9dd3 0abf a2f6 b0be 2afb 21bb e712 733e
00000080: 430a 01bc 937b 923e 06e1 ffbc 52f0 04bf
00000090: 890e 63be 2101 8abd 8c82 c33e 15ec 64be
000000a0: e0fb 403f 31a1 c1be 339a b8bd 72c4 61bf
000000b0: 3ebc 1a3f 7c41 653d 034e 8cbe a2e6 4fbf
000000c0: 82d1 08bf 79e7 6d3d 0191 dbbe d40b 803e
000000d0: 7560 fd3e 2000 893f 88ac 883c 93e9 4b3e
000000e0: bec2 3ebf 83fa 313f 9b49 99bd a2c4 603e
000000f0: 7ecd 19be 3adb 7a3d 4ccd 7dbe 115b 543f
00000100: cf59 663f b2e0 a0be 87c1 36bf 2b28 493d
00000110: 67ab 6c3e 2b81 233e 4996 1bbc 523c 2a3f
00000120: 8928 cb3e 11da 443f 66c8 2e3b 8e6d f1be
00000130: ae83 00be 7cd1 5dbf 957c 91bd e67b 1abd
00000140: c560 aa3e caa7 3fbf 90de 28be c2c7 023d
00000150: 668f 813e 291b 50bf c0ae 8dbb 8907 7f3e
00000160: eea4 a43e 17dc a4bd 4ecb d1bd 10f1 bb3e
00000170: 2fa8 2e3e 7e60 abbe daef 94bd 042e 593e
00000180: 31a5 3d3f e6ad a43e d20e 24bf ead4 103f
00000190: b3a4 153f 6c84 3d3d 41f6 60bf 9e53 d53c
000001a0: 0b3a cabe 9503 04bd c1ab 273f 9ba0 433e
000001b0: f4eb 893f dc63 a23e 65b0 a53d e6ca d73d
000001c0: 70d6 3f3f c2f7 783e 496f c2be 4112 f03e
000001d0: 3cc4 443f f237 cdbe d1bb cf3c 5747 89bd
000001e0: 8fc4 a2be c990 423e c3fd 17be 886a c53d
000001f0: 754a 0abe f07a 85be 5792 6fbd bb83 b1bc
00000200: ad84 9bbe 0d3b 47bf 847e 23bd 0513 4d3e
00000210: f382 1fbf 7ed1 513f e85e e2bd d963 373f
00000220: 03ef 743e 83be 34be 0e58 f8bc d425 c53d
00000230: 4c42 93bd 25fe 10bf da6d 873e 4b5e 10bf
00000240: 90c6 1d3f 5095 78be f4fd 40bf adac 273e
00000250: 1aa5 073f e6f0 acbe 3c1e fcbe 23bd bf3e
00000260: 3e85 813e 32f3 1dbf 2225 97be 635a bb3e
00000270: a322 1ebe 02fa 34bf 4bd3 013f bf31 8a3d
00000280: 3c0e 0fbe 34f1 923e fba9 e3be 52ec 81be
00000290: 0c9b a8bd c9d3 5b3e 059c 60be 4b6f 8c3e
000002a0: 50a7 21bf 9ccd de3d 327e dabe 7b3e 3a3e
000002b0: 5760 7b3e df1e b03e 4c5b 35bf d717 efbe
000002c0: 50d9 b7be 060f 033f d46b f7be 2ed1 39bd
000002d0: 1688 db3d 97a9 f23e 31a8 79be 325a 14be
000002e0: 88f5 4dbf 04c0 133e 456b 613f 0905 90be
000002f0: c38d cc3d b07d b93e 270b 41bf 6047 103e
00000300: 56ce 703d 2fbd 803e 690d e43d dace e93e
00000310: d84d 5e3e 8084 90be 1c22 913e 6211 cdbe
00000320: e629 753e d409 e43d 2c12 e23e f4f8 8bbe
00000330: 10df 003e d9a5 01bd 63e3 5b3c 8a60 acbe
00000340: 943e 54be c157 3a3b de06 c43c 0af0 073f
00000350: 6d63 923d a144 d43e 1b4f 2c3f f1c8 20bf
00000360: d60f c03e 1f86 243e 9c5e fc3d 5deb 01be
00000370: cf1c f33c 0c52 ac3e 2092 72be 6d34 48be
00000380: 8681 223e dd31 0a3f ff39 e43d 431c ce3d
00000390: 5577 463e 8206 d03e 900d d2bb bd96 1bbe
000003a0: eecd 273d 1155 80be 47f7 8f3e 6613 2e3e
000003b0: d8c0 de3e 1b7c 1dbe 34c0 01bf e383 5e3d
000003c0: 3cd4 a53e cbad a03e 712c f93d ecc9 9dbd
000003d0: f8af b63d 380e 443f b946 e83e 9844 d8bb
000003e0: b2a0 04bf 6398 9bbe 0b62 573c 4468 163f
000003f0: fb4d 953e 7dc0 7ebd 5546 37be 7b0a f2be

network_body._body_endoder.seq_layers.0.bias f4 [128]
0.0 0.0 0.0 0.0 0.0 0.0 0.0 0.0
0.0 0.0 0.0 0.0 0.0 0.0 0.0 0.0
0.0 0.0 0.0 0.0 0.0 0.0 0.0 0.0
0.0 0.0 0.0 0.0 0.0 0.0 0.0 0.0
0.0 0.0 0.0 0.0 0.0 0.0 0.0 0.0
0.0 0.0 0.0 0.0 0.0 0.0 0.0 0.0
0.0 0.0 0.0 0.0 0.0 0.0 0.0 0.0
0.0 0.0 0.0 0.0 0.0 0.0 0.0 0.0
0.0 0.0 0.0 0.0 0.0 0.0 0.0 0.0
0.0 0.0 0.0 0.0 0.0 0.0 0.0 0.0
0.0 0.0 0.0 0.0 0.0 0.0 0.0 0.0
0.0 0.0 0.0 0.0 0.0 0.0 0.0 0.0
0.0 0.0 0.0 0.0 0.0 0.0 0.0 0.0
0.0 0.0 0.0 0.0 0.0 0.0 0.0 0.0
0.0 0.0 0.0 0.0 0.0 0.0 0.0 0.0
0.0 0.0 0.0 0.0 0.0 0.0 0.0 0.0
00000000: 0000 0000 0000 0000 0000 0000 0000 0000
00000010: 0000 0000 0000 0000 0000 0000 0000 0000
00000020: 0000 0000 0000 0000 0000 0000 0000 0000
00000030: 0000 0000 0000 0000 0000 0000 0000 0000
00000040: 0000 0000 0000 0000 0000 0000 0000 0000
00000050: 0000 0000 0000 0000 0000 0000 0000 0000
00000060: 0000 0000 0000 0000 0000 0000 0000 0000
00000070: 0000 0000 0000 0000 0000 0000 0000 0000
00000080: 0000 0000 0000 0000 0000 0000 0000 0000
00000090: 0000 0000 0000 0000 0000 0000 0000 0000
000000a0: 0000 0000 0000 0000 0000 0000 0000 0000
000000b0: 0000 0000 0000 0000 0000 0000 0000 0000
000000c0: 0000 0000 0000 0000 0000 0000 0000 0000
000000d0: 0000 0000 0000 0000 0000 0000 0000 0000
000000e0: 0000 0000 0000 0000 0000 0000 0000 0000
000000f0: 0000 0000 0000 0000 0000 0000 0000 0000
00000100: 0000 0000 0000 0000 0000 0000 0000 0000
00000110: 0000 0000 0000 0000 0000 0000 0000 0000
00000120: 0000 0000 0000 0000 0000 0000 0000 0000
00000130: 0000 0000 0000 0000 0000 0000 0000 0000
00000140: 0000 0000 0000 0000 0000 0000 0000 0000
00000150: 0000 0000 0000 0000 0000 0000 0000 0000
00000160: 0000 0000 0000 0000 0000 0000 0000 0000
00000170: 0000 0000 0000 0000 0000 0000 0000 0000
00000180: 0000 0000 0000 0000 0000 0000 0000 0000
00000190: 0000 0000 0000 0000 0000 0000 0000 0000
000001a0: 0000 0000 0000 0000 0000 0000 0000 0000
000001b0: 0000 0000 0000 0000 0000 0000 0000 0000
000001c0: 0000 0000 0000 0000 0000 0000 0000 0000
000001d0: 0000 0000 0000 0000 0000 0000 0000 0000
000001e0: 0000 0000 0000 0000 0000 0000 0000 0000
000001f0: 0000 0000 0000 0000 0000 0000 0000 0000

network_body._body_endoder.seq_layers.2.weight f4 [128, 128]
0.02971848 0.0049178703 0.03435284 -0.0067744562 -0.08933204 0.10028245 -0.13020171 -0.11379724
0.09774279 0.06677629 0.048136916 9.357827e-06 -0.06314335 0.020289332 0.18433002 0.11920168
-0.022180492 -0.12362632 0.0741941 0.026814612 0.19758354 0.08247559 -0.0147975 -0.036571395
0.052944623 0.14079094 0.026980052 -0.00030037237 0.036290374 0.034798957 -0.10535894 -0.17121863
-0.11362573 0.092552416 0.033953417 0.19105914 -0.051010672 0.004318707 0.036298826 -0.056782033
0.016874902 0.024370788 0.21290919 0.18136512 -0.10934455 0.09903721 -0.0014491052 0.16164783
-0.04270418 -0.014722971 -0.006062907 0.12498749 0.06874941 -0.08322116 0.014109493 0.003339722
-0.16119629 0.21413562 0.03642903 -0.085375376 0.026819278 -0.13663073 -0.05557088 -0.0067270505
-0.05308582 -0.07156947 -0.08130243 -0.112632416 0.12681027 0.069772705 0.092097804 0.017404227
0.18544632 -0.08108734 -0.10515812 -0.033192012 0.04271223 0.12501132 -0.007477703 -0.022005366
-0.14706586 0.123907395 0.01635166 -0.07543933 0.0005771449 -0.04292913 0.021269767 0.04835699
0.081824176 0.124026425 0.064858206 0.016062178 0.0054051615 -0.067691766 -0.06591482 0.032170616
0.0075123813 0.01620466 0.008867317 -0.00351743 0.028249115 -0.04372082 -0.016633602 0.10859621
-0.0074212626 -0.11167659 -0.01442176 0.016154299 -0.039103106 -0.18534458 0.15468241 -0.19213508
-0.0046799993 0.109917 -0.027040867 -0.16405074 0.026020052 -0.15891439 0.1012624 0.1531899
0.18717991 -0.10505529 0.0039870166 -0.092193656 0.010130948 -0.09884944 0.0098628765 -0.03616368
0.061178904 -0.009409128 0.014105898 -0.0034166188 0.014826436 -0.04394217 0.22619812 -0.14567682
-0.027336504 -0.115129225 0.08155389 -0.12346026 -0.07930368 0.16322616 -0.13075165 0.113441676
-0.14097776 -0.08345814 0.2057054 0.0060463287 -0.102024056 0.09582515 -0.17389451 -0.13025671
-0.0049596895 -0.094505526 -0.050687075 -0.0259538 -0.12280508 0.11683975 -0.09536545 -0.0481004
-0.091917366 -0.01914935 -0.010384091 -0.10691055 -0.06098295 -0.027155746 0.061733846 -0.20044918
-0.027908752 -0.0235062 0.20638117 0.1246198 -0.12613542 0.06069356 -0.011399906 0.08421138
0.001811272 -0.034812752 0.32341138 0.0010506926 -0.11551076 -0.072474584 0.01989989 -0.042405225
0.036687158 -0.02609606 -0.021254515 0.018429296 -0.118481636 -0.10762073 -0.028694024 0.12952565
-0.0649338 -0.040728163 -0.098307595 -0.06780737 -0.058569267 -0.016473128 0.053690743 -0.022314515
-0.0025851307 -0.09701927 0.095343135 0.024406927 -0.061983336 -0.009053448 0.061124988 -0.031173315
0.03117945 -0.12105465 -0.093282215 0.09226368 -0.007834064 -0.0008606871 0.09511297 -0.13029435
-0.12083738 0.1164252 0.14999844 0.1291081 0.1405095 0.114724405 -0.06818055 -0.12875956
-0.09610984 -0.023021393 -0.070570596 0.031883415 -0.06349901 0.100064255 0.077856526 -0.029479425
0.08648909 -0.09546344 -0.053227115 -0.02357156 0.048213094 0.10948831 0.0043780087 0.043269943
0.027709179 -0.010095341 0.15173475 -0.055497278 0.0074915173 -0.14815235 0.08048135 -0.08415126
0.030870222 0.11983867 -0.27277005 0.006484016 0.047258634 0.059319105 0.09466367 0.036002077
00000000: 2b74 f33c 1626 a13b 90b5 0c3d 42fc ddbb
00000010: b7f3 b6bd e360 cd3d 9953 05be 870e e9bd
00000020: 5f2d c83d 02c2 883d 372b 453d 90ff 1c37
00000030: 4d51 81bd d035 a63c 02c1 3c3e 0320 f43d
00000040: ddb3 b5bc cc2f fdbd 14f3 973d 51aa db3c
00000050: 5753 4a3e f6e8 a83d 3771 72bc e3cb 15bd
00000060: 76dc 583d 802b 103e 4505 dd3c 4c7b 9db9
00000070: 37a5 143d 5a89 0e3d 6ec6 d7bd f053 2fbe
00000080: 9bb4 e8bd 1f8c bd3d bd12 0b3d 02a5 433e
00000090: 91f0 50bd f183 8d3b 14ae 143d 4794 68bd
000000a0: 3c3d 8a3c 3fa5 c73c de04 5a3e c7b7 393e
000000b0: 09f0 dfbd 05d4 ca3d e7ef bdba 0287 253e
000000c0: 94ea 2ebd 9e38 71bc 5aab c6bb 71f9 ff3d
000000d0: 7ecc 8c3d db6f aabd 812b 673c 3ddf 5a3b
000000e0: a410 25be 5e46 5b3e 9b36 153d 49d9 aebd
000000f0: 1ab4 db3c ede8 0bbe 4b9e 63bd 976e dcbb
00000100: 8470 59bd 0493 92bd e381 a6bd d3ab e6bd
00000110: 8dda 013e fee4 8e3d c69d bc3d 4f93 8e3c
00000120: a4e5 3d3e 1f11 a6bd 245d d7bd 59f4 07bd
00000130: 05f3 2e3d f802 003e 8507 f5bb 9944 b4bc
00000140: 6f98 16be 29c3 fd3d ebf3 853c ef7f 9abd
00000150: 8a4b 173a 75d6 2fbd ef3d ae3c fb11 463d
00000160: 6f93 a73d 9101 fe3d 61d4 843d d494 833c
00000170: c81d b13b fba1 8abd 59fe 86bd 56c5 033d
00000180: 6c2a f63b a3bf 843c 3948 113c af84 66bb
00000190: b06a e73c 9a14 33bd 3143 88bc b167 de3d
000001a0: 102e f3bb b2b6 e4bd 3f49 6cbc 0556 843c
000001b0: 942a 20bd f8ca 3dbe 1165 1e3e 0fbf 44be
000001c0: ae5a 99bb 2a1c e13d cf84 ddbc ebfc 27be
000001d0: 0128 d53c 74ba 22be a962 cf3d d0dd 1c3e
000001e0: 17ac 3f3e 3a27 d7bd 85a5 823b 07d0 bcbd
000001f0: 47fc 253c 9371 cabd e797 213c 5e20 14bd
00000200: bb96 7a3d be28 1abc 6d1c 673c 5ae9 5fbb
00000210: 94ea 723c b4fc 33bd 7ba0 673e 4e2c 15be
00000220: cef0 dfbc dfc8 ebbd ba05 a73d bcd8 fcbd
00000230: f869 a2bd c224 273e c3e3 05be 1c54 e83d
00000240: 795c 10be 1aec aabd 70a4 523e 4820 c63b
00000250: fdf1 d0bd fa3f c43d 6711 32be 0462 05be
00000260: e484 a2bb 1d8c c1bd 409d 4fbd 109d d4bc
00000270: 3b81 fbbd ae49 ef3d f64e c3bd ed04 45bd
00000280: 2c3f bcbd 19df 9cbc 0922 2abc ebf3 dabd
00000290: 42c9 79bd ba75 debc a1dc 7c3d 8d42 4dbe
000002a0: e5a0 e4bc 1390 c0bc 9655 533e aa38 ff3d
000002b0: a529 01be cf99 783d acc6 3abc 0477 ac3d
000002c0: 3468 ed3a d197 0ebd 2d96 a53e 65b7 893a
000002d0: e890 ecbd 8e6d 94bd 1805 a33c 1ab1 2dbd
000002e0: 4645 163d 68c7 d5bc f31d aebc 09f9 963c
000002f0: 80a6 f2bd 4268 dcbd bb0f ebbc 5fa2 043e
00000300: 03fc 84bd 93d2 26bd 7e55 c9bd 97de 8abd
00000310: 54e6 6fbd a7f2 86bc d3ea 5b3d eecc b6bc
00000320: 4c6b 29bb 0ab2 c6bd 4343 c33d 09f1 c73c
00000330: 3de2 7dbd ea54 14bc 325e 7a3d 2e5f ffbc
00000340: 0c6c ff3c 80eb f7bd bf0a bfbd bef4 bc3d
00000350: 725a 00bc bc9f 61ba 97ca c23d e26b 05be
00000360: 9779 f7bd 5670 ee3d 3199 193e ea34 043e
00000370: b9e1 0f3e a1f4 ea3d 3fa2 8bbd 8cd9 03be
00000380: 3cd5 c4bd 5c97 bcbc 5187 90bd 2f98 023d
00000390: c50b 82bd 7dee cc3d 3e73 9f3d d67e f1bc
000003a0: 3121 b13d 5682 c3bd ad04 5abd 2519 c1bc
000003b0: 187b 453d 683b e03d 6675 8f3b d33b 313d
000003c0: 5cfe e23c ee66 25bc 5b60 1b3e 1d51 63bd
000003d0: 677b f53b 40b5 17be 68d3 a43d 7f57 acbd
000003e0: 8ce3 fc3c fa6d f53d 84a8 8bbe de77 d43b
000003f0: 4592 413d 97f8 723d 07df c13d ea76 133d

network_body._body_endoder.seq_layers.2.bias f4 [128]
0.0 0.0 0.0 0.0 0.0 0.0 0.0 0.0
0.0 0.0 0.0 0.0 0.0 0.0 0.0 0.0
0.0 0.0 0.0 0.0 0.0 0.0 0.0 0.0
0.0 0.0 0.0 0.0 0.0 0.0 0.0 0.0
0.0 0.0 0.0 0.0 0.0 0.0 0.0 0.0
0.0 0.0 0.0 0.0 0.0 0.0 0.0 0.0
0.0 0.0 0.0 0.0 0.0 0.0 0.0 0.0
0.0 0.0 0.0 0.0 0.0 0.0 0.0 0.0
0.0 0.0 0.0 0.0 0.0 0.0 0.0 0.0
0.0 0.0 0.0 0.0 0.0 0.0 0.0 0.0
0.0 0.0 0.0 0.0 0.0 0.0 0.0 0.0
0.0 0.0 0.0 0.0 0.0 0.0 0.0 0.0
0.0 0.0 0.0 0.0 0.0 0.0 0.0 0.0
0.0 0.0 0.0 0.0 0.0 0.0 0.0 0.0
0.0 0.0 0.0 0.0 0.0 0.0 0.0 0.0
0.0 0.0 0.0 0.0 0.0 0.0 0.0 0.0
00000000: 0000 0000 0000 0000 0000 0000 0000 0000
00000010: 0000 0000 0000 0000 0000 0000 0000 0000
00000020: 0000 0000 0000 0000 0000 0000 0000 0000
00000030: 0000 0000 0000 0000 0000 0000 0000 0000
00000040: 0000 0000 0000 0000 0000 0000 0000 0000
00000050: 0000 0000 0000 0000 0000 0000 0000 0000
00000060: 0000 0000 0000 0000 0000 0000 0000 0000
00000070: 0000 0000 0000 0000 0000 0000 0000 0000
00000080: 0000 0000 0000 0000 0000 0000 0000 0000
00000090: 0000 0000 0000 0000 0000 0000 0000 0000
000000a0: 0000 0000 0000 0000 0000 0000 0000 0000
000000b0: 0000 0000 0000 0000 0000 0000 0000 0000
000000c0: 0000 0000 0000 0000 0000 0000 0000 0000
000000d0: 0000 0000 0000 0000 0000 0000 0000 0000
000000e0: 0000 0000 0000 0000 0000 0000 0000 0000
000000f0: 0000 0000 0000 0000 0000 0000 0000 0000
00000100: 0000 0000 0000 0000 0000 0000 0000 0000
00000110: 0000 0000 0000 0000 0000 0000 0000 0000
00000120: 0000 0000 0000 0000 0000 0000 0000 0000
00000130: 0000 0000 0000 0000 0000 0000 0000 0000
00000140: 0000 0000 0000 0000 0000 0000 0000 0000
00000150: 0000 0000 0000 0000 0000 0000 0000 0000
00000160: 0000 0000 0000 0000 0000 0000 0000 0000
00000170: 0000 0000 0000 0000 0000 0000 0000 0000
00000180: 0000 0000 0000 0000 0000 0000 0000 0000
00000190: 0000 0000 0000 0000 0000 0000 0000 0000
000001a0: 0000 0000 0000 0000 0000 0000 0000 0000
000001b0: 0000 0000 0000 0000 0000 0000 0000 0000
000001c0: 0000 0000 0000 0000 0000 0000 0000 0000
000001d0: 0000 0000 0000 0000 0000 0000 0000 0000
000001e0: 0000 0000 0000 0000 0000 0000 0000 0000
000001f0: 0000 0000 0000 0000 0000 0000 0000 0000

value_heads.value_heads.extrinsic.weight f4 [1, 128]
0.02318522 0.21498214 -0.1987599 -0.13401215 -0.107772805 0.093411714 0.11052367 0.10770657
-0.017004773 -0.070335574 0.0015384468 0.028885905 0.04158642 0.040646642 -0.17984696 0.20222345
-0.19183281 -0.040237322 -0.026398733 -0.120153524 -0.10319296 0.087751135 0.14377664 0.13902903
-0.13129228 0.1485059 0.14307033 0.02429576 0.20457461 -0.11485226 -0.14793867 -0.15421009
0.12690763 0.20862024 0.07507083 -0.1971794 0.16123801 0.038358614 0.18476321 -0.0659227
-0.20495611 -0.20845798 0.013174801 -0.012364635 -0.19694315 -0.21381089 -0.00092925114 -0.114975914
-0.202755 0.13094364 0.117090836 0.2041482 0.15438038 -0.10865198 0.2008344 0.01622403
0.087061584 0.10945018 0.005413255 -0.15809214 -0.11456464 -0.08523334 0.1656807 -0.20948455
-0.11719766 0.04770491 -0.13199659 0.19159925 -0.051699445 -0.01017474 0.09141382 -0.18667741
0.0024429013 0.16632272 -0.1898823 -0.18000358 0.0130904745 -0.060143974 -0.12183592 -0.06632348
-0.14632964 0.17082073 0.112598434 -0.07955969 -0.21033245 -0.11924788 -0.15725031 -0.08963235
-0.026802216 -0.0057139774 0.17981249 0.0019312854 0.16420649 -0.029947354 0.045147832 -0.059583806
0.13307199 0.15068702 0.009673807 0.19133066 0.20075396 -0.12879969 -0.08536822 0.06602661
-0.06999115 0.083472356 0.10356911 -0.11182764 -0.1934535 0.08145667 0.02678895 -0.03873428
-0.20154203 -0.029513715 0.15127161 0.1956269 0.2064759 -0.07321626 0.08462259 -0.14841557
-0.1778439 0.16034749 0.09635548 0.079962775 0.19637275 -0.007416951 0.15038542 0.0028686991
00000000: eeee bd3c 4724 5c3e b787 4bbe 7b3a 09be
00000010: fdb7 dcbd a44e bf3d 3c5a e23d 4395 dc3d
00000020: 984d 8bbc 190c 90bd b5a5 c93a 22a2 ec3c
00000030: 8656 2a3d 187d 263d cd29 38be aa13 4f3e
00000040: d26f 44be e4cf 24bd 2842 d8bc 0d13 f6bd
00000050: d556 d3bd deb6 b33d 2f3a 133e a05d 0e3e
00000060: 7c71 06be ee11 183e 0781 123e e707 c73c
00000070: 027c 513e a937 ebbd 3c7d 17be 40e9 1dbe
00000080: 13f4 013e 8ba0 553e bcbe 993d 66e9 49be
00000090: 941b 253e ec1d 1d3d 9132 3d3e 7b02 87bd
000000a0: 04e0 51be 0276 55be 1fdb 573c 0a95 4abc
000000b0: 77ab 49be 3ef1 5abe fd98 73ba 7e78 ebbd
000000c0: 029f 4fbe 1716 063e 52cd ef3d 3a0c 513e
000000d0: e415 1e3e ee84 debd 88a7 4d3e 42e8 843c
000000e0: 584d b23d 6a27 e03d ad61 b13b e8e2 21be
000000f0: dea0 eabd d18e aebd 34a8 293e 1e83 56be
00000100: 5405 f0bd 3966 433d 1d2a 07be 9832 443e
00000110: ccc2 53bd f4b3 26bc 2b37 bb3d 5d28 3fbe
00000120: 1519 203b 8150 2a3e 8170 42be dc52 38be
00000130: 6e79 563c 8759 76bd 1c85 f9bd 9bd4 87bd
00000140: 70d7 15be a1eb 2e3e 029a e63d 31f0 a2bd
00000150: 6461 57be 3c38 f4bd 3a06 21be 2a91 b7bd
00000160: 5290 dbbc 513c bbbb c420 383e 2f23 fd3a
00000170: bf25 283e 2754 f5bc efec 383d 260e 74bd
00000180: 0644 083e b34d 1a3e e37e 1e3c 2fec 433e
00000190: 7292 4d3e 11e4 03be 89d5 aebd f638 873d
000001a0: 8557 8fbd 8ef3 aa3d 0b1c d43d e405 e5bd
000001b0: ad18 46be c1d2 a63d 8074 db3c d6a7 1ebd
000001c0: 0961 4ebe bfc6 f1bc f2e6 1a3e 6b52 483e
000001d0: 6b6e 533e 68f2 95bd 9c4e ad3d 40fa 17be
000001e0: b61c 36be 2232 243e 0656 c53d 86c3 a33d
000001f0: f015 493e e509 f3bb a3fe 193e c900 3c3b
