Shortcut Run/results/Test8/Move.onnx (onnx, 71941 bytes, 5 tensors)

network_body._body_endoder.seq_layers.0.weight f4 [128, 6]
0	0x3e9c13c2	0.30483824
1	0xbe566438	-0.20936668
2	0xbea0f171	-0.31434205
3	0x3df45962	0.11931111
4	0xbe729584	-0.23689848
5	0x3ea97b9d	0.33102122
6	0xbe9416b7	-0.2892358
7	0xbe8d3188	-0.27576852
8	0xbf26a5d0	-0.6509676
9	0x3eb96bcc	0.36215055
10	0xbeb6f9f4	-0.35737574
11	0x3d67c4ea	0.056584276
12	0x3ed47992	0.41499
13	0x3e71cc94	0.23613197
14	0xbf4daa24	-0.8033774
15	0xbe22481f	-0.15847825
16	0x3e71ea41	0.23624517
17	0x3d9b72ed	0.0759028
18	0xbf310805	-0.6915286
19	0x3e59c570	0.21266723
20	0xbf197938	-0.5995059
21	0x3f222142	0.63332
22	0xbf36250a	-0.7115027
23	0x3d7d5b78	0.06185481
24	0xbe9fcbab	-0.31210074
25	0xbc439c11	-0.011939065
26	0xbe38f1f0	-0.18061042
27	0x3e4e1476	0.20124993
28	0xbe8f5f9c	-0.28002632
29	0xbe15fc02	-0.14646915
30	0x3d22efc8	0.039779454
31	0x3ccbb92d	0.024868572
32	0xbef99f93	-0.48754558
33	0xbed32412	-0.41238457
34	0xbd795419	-0.060871217
35	0xbedc83c9	-0.43069294
36	0x3eb06594	0.34452498
37	0x3eb78ab3	0.35848007
38	0x3ee5e9ae	0.44904846
39	0xbf55f426	-0.83575666
40	0x3d534cf8	0.051587075
41	0xbe9eecd8	-0.31040072
42	0x3b97b56c	0.0046297815
43	0xbd840929	-0.0644706
44	0xbe1a2f8e	-0.15057203
45	0x3f517f5a	0.8183495
46	0x3e6bc2c9	0.23023523
47	0xbeb0ef96	-0.3455779
48	0x3f1321bf	0.5747337
49	0xbdc75422	-0.09732844
50	0xbc812212	-0.015763316
51	0xbf554e1a	-0.833223
52	0xbe28cd59	-0.16484584
53	0x3e9ec995	0.3101317
54	0xbec51c15	-0.38497987
55	0xbed484a3	-0.41507444
56	0xbdb5fe55	-0.088864006
57	0xbc9c0c96	-0.01904897
58	0xbeb9afe5	-0.3626701
59	0xbe82bc62	-0.2553435
60	0xbed38b86	-0.41317385
61	0xbe51d822	-0.20492604
62	0x3e9d38d6	0.30707425
63	0xbf200572	-0.6250831
64	0x3e2d3369	0.16914143
65	0xbe4a7c5c	-0.19774002
66	0xbdbff12b	-0.09372171
67	0x3f970b29	1.1800281
68	0x3dfc9d05	0.123346366
69	0xbee3e27f	-0.4450874
70	0xbe364d34	-0.17802888
71	0x3f470fdc	0.77758574
72	0x3e7bfa5d	0.24607225
73	0x3e46c694	0.19411689
74	0x3e359233	0.17731552
75	0x3f225874	0.6341622
76	0x3e4a81e5	0.19776113
77	0x3ed7b0bb	0.42127022
78	0x3ebd37c1	0.369566
79	0xbf0613a7	-0.5237374
80	0xbe69ebf6	-0.22843918
81	0x3ce7a1ac	0.028275333
82	0x3ea43b1f	0.32076356
83	0x3da24b52	0.079245225
84	0xbef57eb8	-0.4794824
85	0xbeb26c4a	-0.34848243
86	0xbdbc984d	-0.092087366
87	0x3f509e4c	0.8149154
88	0x3e5888cf	0.21145938
89	0x3eabd3cb	0.33560023
90	0xbeb085bf	-0.3447704
91	0xbe403428	-0.18769896
92	0x3eb8349c	0.35977638
93	0x3f49f560	0.7889004
94	0x3f70f127	0.9411797
95	0xbd991cd0	-0.07476199
96	0x3e9add31	0.3024688
97	0xbebb2d18	-0.3655784
98	0xbd3cb8b7	-0.046074595
99	0xbde76669	-0.1129883
100	0x3edb79bf	0.42866322
101	0xbf4177ff	-0.75573725
102	0x3f558ab2	0.8341476
103	0x3d01f7d1	0.031730477
104	0x3e55e4d7	0.20888077
105	0xbe6e1ade	-0.23252437
106	0x3e981ff5	0.2971188
107	0x3e35acd8	0.17741716
108	0xbd35e37a	-0.04440639
109	0x3ccb3541	0.024805667
110	0xbe540f28	-0.20708907
111	0xbe7c40ce	-0.24634096
112	0xbf450dd5	-0.7697423
113	0x3cae1078	0.021248087
114	0xbea11a87	-0.3146555
115	0xbf03eddd	-0.51534826
116	0x3e18f646	0.14937696
117	0x3d859843	0.06523182
118	0x3f412045	0.75439864
119	0x3e925a49	0.28584507
120	0x3e6c138b	0.2305433
121	0xbe94c36e	-0.2905535
122	0x3d2520f8	0.040314645
123	0xbe6deea6	-0.23235568
124	0xbe74cfcc	-0.23907393
125	0x3f0eb7c7	0.5574917
126	0x3f0bded5	0.5463689
127	0xbdc62865	-0.096756734
128	0x3e708271	0.2348726
129	0xbd651a80	-0.055933475
130	0xbef4e834	-0.47833407
131	0x3e2cabe0	0.1686244
132	0x3e6dbe40	0.23217106
133	0xbd96f9aa	-0.073718384
134	0x3dfeef09	0.12447936
135	0x3d5fccab	0.054638546
136	0xbda17ee3	-0.0788553
137	0x3e2e80e8	0.17041361
138	0xbe9d75f5	-0.30754057
139	0xbee7a3d4	-0.45242178
140	0xbee40c82	-0.44540793
141	0xbdfe040c	-0.12403116
142	0x3dbf709d	0.09347651
143	0xbf5fc7be	-0.8741416
144	0x3f607571	0.876792
145	0x3ecf4cea	0.40488368
146	0x3d3e9ddc	0.046537265
147	0xbec5878a	-0.3857997
148	0xbe5938e6	-0.21213111
149	0x3ec333c8	0.38125443
150	0x3e84e54a	0.25956184
151	0x3e4e78c9	0.20163263
152	0x3f0b2909	0.5435949
153	0x3d0acded	0.033887792
154	0xbe713a56	-0.2355741
155	0x3e261261	0.16217948
156	0x3ca6b724	0.020351
157	0xbec94e41	-0.39317515
158	0x3eea280b	0.45733675
159	0xbe94be7f	-0.29051587
160	0x3f18d420	0.5969868
161	0x3ec90847	0.39264128
162	0xbea7198a	-0.32636672
163	0x3f22cc08	0.63592577
164	0xbf443b9b	-0.7665345
165	0x3e9d5f3e	0.30736727
166	0x3faa5b17	1.3309048
167	0x3e2760eb	0.16345565
168	0x3f8bfaba	1.0935891
169	0x3e31f4e2	0.17378572
170	0x3d4daca0	0.050213456
171	0xbee89aa2	-0.45430475
172	0xbed7f2f2	-0.4217754
173	0xbea1cd07	-0.31601736
174	0xbea1ea5b	-0.31624112
175	0x3ecaa089	0.39575604
176	0xbe52bd90	-0.20580125
177	0x3ed2094a	0.41022712
178	0x3e591de1	0.21202804
179	0x3e8050fe	0.25061792
180	0xbf0f1451	-0.55890375
181	0xbe388dbd	-0.18022819
182	0xbdd7ba8c	-0.10533628
183	0xbea2bc11	-0.31784108
184	0xbf0c5a25	-0.5482505
185	0xbed7c6f5	-0.4214398
186	0x3e133cee	0.14378712
187	0x3e38dcad	0.18052931
188	0xbf0f3fc6	-0.55956686
189	0xbe381913	-0.17978315
190	0x3e9ae91d	0.30255976
191	0xbd5a6133	-0.053315353
192	0xbe4f9be4	-0.20274311
193	0x3de8da6c	0.11369786
194	0xbe270d72	-0.16313723
195	0xbbb39d5a	-0.0054814043
196	0xbf3bf69b	-0.73423165
197	0x3d5d81d3	0.05407889
198	0xbf39aff5	-0.72534114
199	0xbd777edc	-0.060423717
200	0x3e4db4f0	0.20088553
201	0xbe614054	-0.21997195
202	0x3e6d8a98	0.231974
203	0xbe2900e8	-0.16504252
204	0x3df1c7d2	0.11805691
205	0x3e138706	0.14406976
206	0x3e3c9ec9	0.18419947
207	0x3ecf6b5a	0.4051159
208	0x3ee9e2ce	0.4568085
209	0x3b1d1ac1	0.0023972245
210	0xbf4f15ba	-0.8089253
211	0x3d9f01a9	0.077639885
212	0xbe8ba1bf	-0.2727184
213	0xbedd1768	-0.4318192
214	0x3b4c8870	0.0031209253
215	0x3eb39bec	0.35079896
216	0x3e10a432	0.14125136
217	0x3f035616	0.5130323
218	0xbe8ae1f6	-0.2712552
219	0x3dd9ce62	0.106350675
220	0x3e6c2ba7	0.23063527
221	0x3edb117e	0.42786783
222	0x3e5339c2	0.20627502
223	0x3e408bc4	0.18803316
224	0xbebc3dc7	-0.36765882
225	0x3e620d50	0.22075391
226	0x3e2d1c20	0.1690526
227	0xbf69c324	-0.91313386
228	0x3efc6341	0.49294475
229	0x3f2d1d6e	0.6762303
230	0x3d048ddc	0.03236185
231	0x3e0a8fe5	0.13531454
232	0x3e04252c	0.12904805
233	0x3d3e159f	0.04640734
234	0x3d355ae3	0.04427613
235	0x3f1d4452	0.61432374
236	0xbecf5223	-0.40492353
237	0x3e81b561	0.25333694
238	0xbee544d7	-0.44779083
239	0x3d939e24	0.07207897
240	0xbe541c16	-0.20713839
241	0x3f16c696	0.5889677
242	0x3f1521ab	0.582545
243	0xbe9a7135	-0.30164495
244	0x3b544f97	0.0032396072
245	0x3dd62dee	0.10457979
246	0xbf10b72f	-0.56529516
247	0x3e13ad7c	0.14421648
248	0xbecce70a	-0.4002002
249	0xbe743d23	-0.23851447
250	0x3d7e9743	0.062155973
251	0xbe14dfed	-0.14538546
252	0x3d88a4b8	0.066720426
253	0x3e71f8b2	0.23630026
254	0x3f700f6f	0.9377355
255	0xbf224b4d	-0.6339615

network_body._body_endoder.seq_layers.0.bias f4 [128]
0	0x00000000	0.0
1	0x00000000	0.0
2	0x00000000	0.0
3	0x00000000	0.0
4	0x00000000	0.0
5	0x00000000	0.0
6	0x00000000	0.0
7	0x00000000	0.0
8	0x00000000	0.0
9	0x00000000	0.0
10	0x00000000	0.0
11	0x00000000	0.0
12	0x00000000	0.0
13	0x00000000	0.0
14	0x00000000	0.0
15	0x00000000	0.0
16	0x00000000	0.0
17	0x00000000	0.0
18	0x00000000	0.0
19	0x00000000	0.0
20	0x00000000	0.0
21	0x00000000	0.0
22	0x00000000	0.0
23	0x00000000	0.0
24	0x00000000	0.0
25	0x00000000	0.0
26	0x00000000	0.0
27	0x00000000	0.0
28	0x00000000	0.0
29	0x00000000	0.0
30	0x00000000	0.0
31	0x00000000	0.0
32	0x00000000	0.0
33	0x00000000	0.0
34	0x00000000	0.0
35	0x00000000	0.0
36	0x00000000	0.0
37	0x00000000	0.0
38	0x00000000	0.0
39	0x00000000	0.0
40	0x00000000	0.0
41	0x00000000	0.0
42	0x00000000	0.0
43	0x00000000	0.0
44	0x00000000	0.0
45	0x00000000	0.0
46	0x00000000	0.0
47	0x00000000	0.0
48	0x00000000	0.0
49	0x00000000	0.0
50	0x00000000	0.0
51	0x00000000	0.0
52	0x00000000	0.0
53	0x00000000	0.0
54	0x00000000	0.0
55	0x00000000	0.0
56	0x00000000	0.0
57	0x00000000	0.0
58	0x00000000	0.0
59	0x00000000	0.0
60	0x00000000	0.0
61	0x00000000	0.0
62	0x00000000	0.0
63	0x00000000	0.0
64	0x00000000	0.0
65	0x00000000	0.0
66	0x00000000	0.0
67	0x00000000	0.0
68	0x00000000	0.0
69	0x00000000	0.0
70	0x00000000	0.0
71	0x00000000	0.0
72	0x00000000	0.0
73	0x00000000	0.0
74	0x00000000	0.0
75	0x00000000	0.0
76	0x00000000	0.0
77	0x00000000	0.0
78	0x00000000	0.0
79	0x00000000	0.0
80	0x00000000	0.0
81	0x00000000	0.0
82	0x00000000	0.0
83	0x00000000	0.0
84	0x00000000	0.0
85	0x00000000	0.0
86	0x00000000	0.0
87	0x00000000	0.0
88	0x00000000	0.0
89	0x00000000	0.0
90	0x00000000	0.0
91	0x00000000	0.0
92	0x00000000	0.0
93	0x00000000	0.0
94	0x00000000	0.0
95	0x00000000	0.0
96	0x00000000	0.0
97	0x00000000	0.0
98	0x00000000	0.0
99	0x00000000	0.0
100	0x00000000	0.0
101	0x00000000	0.0
102	0x00000000	0.0
103	0x00000000	0.0
104	0x00000000	0.0
105	0x00000000	0.0
106	0x00000000	0.0
107	0x00000000	0.0
108	0x00000000	0.0
109	0x00000000	0.0
110	0x00000000	0.0
111	0x00000000	0.0
112	0x00000000	0.0
113	0x00000000	0.0
114	0x00000000	0.0
115	0x00000000	0.0
116	0x00000000	0.0
117	0x00000000	0.0
118	0x00000000	0.0
119	0x00000000	0.0
120	0x00000000	0.0
121	0x00000000	0.0
122	0x00000000	0.0
123	0x00000000	0.0
124	0x00000000	0.0
125	0x00000000	0.0
126	0x00000000	0.0
127	0x00000000	0.0

network_body._body_endoder.seq_layers.2.weight f4 [128, 128]
0	0x3bdf19e6	0.0068085073
1	0xbd6b850a	-0.057499923
2	0x3dd53ada	0.10411616
3	0x3c6ae62d	0.014337105
4	0xbe05e04c	-0.13073844
5	0x3d395aed	0.04525273
6	0xbd0b6c15	-0.034038622
7	0x3a49e497	0.0007701604
8	0x3d7a5d46	0.06112411
9	0xbd2ce149	-0.042207036
10	0xbc73f6aa	-0.014890352
11	0x3e313fd8	0.1730951
12	0x3dc6e351	0.09711326
13	0x3ce3ed17	0.027823014
14	0x3d1c8563	0.038213145
15	0x3c00d260	0.007862657
16	0x3d26b595	0.040700514
17	0xbceca988	-0.028889433
18	0xbb955d48	-0.004558239
19	0xbd8fdb76	-0.07024281
20	0x3d5f6963	0.054543864
21	0xbda30414	-0.07959762
22	0x3c8db802	0.017299656
23	0x3cb3970d	0.021922613
24	0xbdf5cbc6	-0.12001757
25	0x3de38112	0.111086026
26	0x3c2aad06	0.010417229
27	0xbdf4c0a3	-0.11950805
28	0x3bd91730	0.0066250786
29	0x3c9a9ec7	0.018874539
30	0x3deedb25	0.11662892
31	0x3cc58c07	0.024114622
32	0x3cc94372	0.024568293
33	0xbc439813	-0.011938113
34	0x3d0b831b	0.03406058
35	0x3d1d8938	0.03846094
36	0x3e2a8b29	0.16654648
37	0xbd68b859	-0.056816433
38	0xbe2dcdea	-0.16973081
39	0xbd3c787a	-0.046013333
40	0xbcafb6af	-0.021449415
41	0xbd0bfb35	-0.034175117
42	0x3d1ba827	0.03800216
43	0x3dd25bbb	0.102714024
44	0xbc33b742	-0.010968985
45	0x3e17d0b4	0.14825708
46	0x3daf5fb4	0.08563176
47	0xbb12ff60	-0.0022430047
48	0x3dc5e530	0.09662855
49	0xbe07b0d9	-0.13251056
50	0xbc5162be	-0.01277989
51	0xbd650c0b	-0.05591969
52	0xbd9e65f0	-0.07734287
53	0x3b0b9270	0.0021297
54	0xbd673e4d	-0.0564559
55	0xbd8fe008	-0.070251524
56	0xbd9a2f89	-0.07528598
57	0x3bd0b64d	0.006369388
58	0xbd33a16b	-0.043855112
59	0x3e20ad6a	0.15691152
60	0xbdf982b3	-0.12183132
61	0x3e44f4c9	0.19234003
62	0x3d83ac2d	0.06429324
63	0xbd703d6c	-0.058652326
64	0x3e05c419	0.13063087
65	0xbdf4d560	-0.119547606
66	0xbd9c3dea	-0.07628997
67	0x3c8e7aee	0.017392602
68	0xbd3c3ed8	-0.04595837
69	0x3d9ac8c4	0.07557824
70	0xbe1d7474	-0.15376455
71	0x3dbdb130	0.092623115
72	0x3dabca36	0.08388178
73	0x3df2a550	0.11847937
74	0x3d58aed6	0.05290111
75	0xbd87ec1f	-0.066368334
76	0x3d926d73	0.07149782
77	0xbddd6e8c	-0.10812101
78	0xbd481131	-0.04884452
79	0xbc09a2cd	-0.008400631
80	0x3dec87bc	0.11549327
81	0x3aac3c03	0.0013140443
82	0x3bfb8a01	0.0076763635
83	0x3e0ee2b6	0.13953671
84	0x3d89142e	0.06693302
85	0xbe0a694b	-0.13516729
86	0x3d5af60e	0.053457312
87	0x3d715413	0.05891807
88	0x3dd6cf91	0.10488809
89	0x3e1c7d6f	0.15282224
90	0x3d5dd43e	0.054157488
91	0xbd554ba8	-0.052074105
92	0x3c850cd1	0.016241463
93	0xbcfc5ce7	-0.030806018
94	0x3c49df43	0.012321296
95	0xbc16e64c	-0.0092101805
96	0x3dc5a03b	0.09649702
97	0xbd1afa85	-0.03783657
98	0xbd4fd6e4	-0.050742045
99	0xbd7aac03	-0.0611992
100	0x3ca74aad	0.02042135
101	0x3dc0b2c3	0.09409096
102	0xbbb3a1b5	-0.0054819235
103	0x3dd72cac	0.10506567
104	0xbd8366bb	-0.06416079
105	0xbd3c57ab	-0.045982044
106	0x3d7d9646	0.06191089
107	0xbe32da3e	-0.17466065
108	0xbd5fbc4a	-0.054622926
109	0xbca0810f	-0.01959279
110	0x3bf1bcfc	0.007377265
111	0x3c2156c4	0.009847347
112	0x3c9a0b5c	0.018804245
113	0xbde43350	-0.111425996
114	0x3d3202e8	0.043459803
115	0xbd8f6a36	-0.0700268
116	0x3d6620ac	0.056183502
117	0xbcfedb39	-0.031110393
118	0xbca5d2bd	-0.02024209
119	0x3d1a8a0f	0.03772932
120	0xbcedcb42	-0.029027585
121	0x3cd8eb7e	0.026479479
122	0x3d947981	0.072497375
123	0x3dc8eb0a	0.09810455
124	0xbdaf7028	-0.08566314
125	0x3dab5b18	0.08366984
126	0x3d213a60	0.03936231
127	0x3d5233bd	0.051318873
128	0xbcb679a8	-0.022274807
129	0xbe1dcc38	-0.15409935
130	0x3d431e4b	0.04763631
131	0x3e1daa47	0.15396987
132	0xbd374b13	-0.04474933
133	0x3b65d466	0.0035069226
134	0x3cad1195	0.021126548
135	0xbdb26d02	-0.08712198
136	0xbcced0a6	-0.025245976
137	0x3e143c24	0.14476067
138	0x3c42ee18	0.011897586
139	0x3cd73768	0.026271537
140	0x3d67cc75	0.05659147
141	0xbd67bdea	-0.0565776
142	0xbce4fd76	-0.02795289
143	0x3ddf4c9c	0.10903284
144	0xbcf6d085	-0.030128727
145	0x3c7c50b6	0.015400102
146	0x3ce0d1ca	0.027443785
147	0x3d5c1abd	0.053736437
148	0x3d001645	0.031271238
149	0x3e02133d	0.12702651
150	0xbd398cf7	-0.04530045
151	0xbc202d38	-0.009776406
152	0x3e3fb2a8	0.18720496
153	0xbdf8e2a0	-0.121526
154	0xbd151f5b	-0.036406856
155	0xbdd4c6c5	-0.10389475
156	0xbd58c226	-0.05291953
157	0x3c37e112	0.011223095
158	0xbdb86e8c	-0.0900546
159	0xbc82b69e	-0.01595622
160	0x3cb5ece8	0.022207692
161	0xbc6cf53b	-0.014462764
162	0x3c8f6092	0.017502103
163	0xbd1716b7	-0.036886897
164	0x3dfac7cc	0.122451395
165	0xbd75d4c7	-0.060017373
166	0xbc3ca6fc	-0.011514422
167	0x3d414c2c	0.047191784
168	0xbcdf7b80	-0.02728057
169	0x3d3cc7cc	0.04608898
170	0x3df463e9	0.11933119
171	0x3daa9f36	0.08331148
172	0x3dd114f9	0.10209078
173	0x3e0d0e98	0.13775098
174	0xbc9d61bc	-0.019211642
175	0x3d1e1d54	0.03860219
176	0x3a4803fe	0.00076299894
177	0x3d7aa3e7	0.061191466
178	0xbd219dd8	-0.039457172
179	0x3e27108f	0.1631491
180	0xbd2ebd29	-0.042660866
181	0x3b211210	0.0024577416
182	0x3d822d5e	0.06356309
183	0xbd5db928	-0.054131657
184	0x3d7c768e	0.0616365
185	0xbe02f07a	-0.12787047
186	0xbcceafa4	-0.025230236
187	0x3da6ab79	0.081381746
188	0x3d277831	0.040886108
189	0xbd91043e	-0.07080887
190	0xbbcc809c	-0.0062409174
191	0x3e1c3896	0.15255961
192	0x3b742357	0.003725251
193	0xbce94a1c	-0.02847772
194	0xbd1f2c1b	-0.03886042
195	0x3df280ed	0.11840997
196	0x3d243704	0.04009153
197	0xbbf06534	-0.007336283
198	0x3cc74351	0.024324091
199	0x3d2702ad	0.040774036
200	0xbb9f5da1	-0.0048634564
201	0xbd5bff03	-0.053709995
202	0xbdfbc48a	-0.12293346
203	0x3dd3faf4	0.103506
204	0x3d8bbc1f	0.068229906
205	0xbe815d66	-0.2526657
206	0x3d9ac784	0.07557586
207	0xbbe41c82	-0.006961406
208	0xbd48c2f3	-0.049014043
209	0x3cca527a	0.024697531
210	0x3bb18c8d	0.0054183663
211	0x3db9874c	0.09059009
212	0x3c56e69a	0.013116503
213	0x3d7d3e70	0.061827123
214	0xbc371713	-0.011174935
215	0xbce83999	-0.028347777
216	0x3c849d28	0.01618822
217	0x3dbcf525	0.09226445
218	0x3d76c5e0	0.060247302
219	0x3c45d1f8	0.012073986
220	0x3dc64b47	0.09682327
221	0xbdcee3ef	-0.10102069
222	0xbe046bcf	-0.1293175
223	0xbdda0659	-0.10645742
224	0x3e2245ad	0.15846892
225	0x3dcfee60	0.10152888
226	0xbd7d2a3f	-0.061807867
227	0x3ccac24b	0.02475085
228	0x3c10a8ff	0.008829354
229	0x3d3aab30	0.045573413
230	0x3db33227	0.087498
231	0xbe0d7a63	-0.13816218
232	0xbccfd5e1	-0.02537054
233	0x3c985695	0.018595973
234	0xbd112225	-0.035432953
235	0x3de2469b	0.11048623
236	0xbbb6573c	-0.0055645984
237	0xbca4b899	-0.020107554
238	0x3da2b045	0.07943777
239	0xbd44a3a2	-0.048007615
240	0xbd06a088	-0.03286794
241	0xbcd3ee46	-0.025870454
242	0xbe242f89	-0.16033758
243	0x3e1c51df	0.15265606
244	0xbcf90a74	-0.030400492
245	0xbd9d7877	-0.076889925
246	0x3d36e408	0.04465106
247	0x3ce71026	0.028205942
248	0xbd9be537	-0.07612079
249	0x3de66c79	0.11251158
250	0xbe4a0ebc	-0.19732183
251	0xbddadcf2	-0.10686673
252	0x3dddf454	0.108376175
253	0x3d4389c9	0.047738824
254	0x3de41070	0.11135948
255	0xbc5c6604	-0.013452057

network_body._body_endoder.seq_layers.2.bias f4 [128]
0	0x00000000	0.0
1	0x00000000	0.0
2	0x00000000	0.0
3	0x00000000	0.0
4	0x00000000	0.0
5	0x00000000	0.0
6	0x00000000	0.0
7	0x00000000	0.0
8	0x00000000	0.0
9	0x00000000	0.0
10	0x00000000	0.0
11	0x00000000	0.0
12	0x00000000	0.0
13	0x00000000	0.0
14	0x00000000	0.0
15	0x00000000	0.0
16	0x00000000	0.0
17	0x00000000	0.0
18	0x00000000	0.0
19	0x00000000	0.0
20	0x00000000	0.0
21	0x00000000	0.0
22	0x00000000	0.0
23	0x00000000	0.0
24	0x00000000	0.0
25	0x00000000	0.0
26	0x00000000	0.0
27	0x00000000	0.0
28	0x00000000	0.0
29	0x00000000	0.0
30	0x00000000	0.0
31	0x00000000	0.0
32	0x00000000	0.0
33	0x00000000	0.0
34	0x00000000	0.0
35	0x00000000	0.0
36	0x00000000	0.0
37	0x00000000	0.0
38	0x00000000	0.0
39	0x00000000	0.0
40	0x00000000	0.0
41	0x00000000	0.0
42	0x00000000	0.0
43	0x00000000	0.0
44	0x00000000	0.0
45	0x00000000	0.0
46	0x00000000	0.0
47	0x00000000	0.0
48	0x00000000	0.0
49	0x00000000	0.0
50	0x00000000	0.0
51	0x00000000	0.0
52	0x00000000	0.0
53	0x00000000	0.0
54	0x00000000	0.0
55	0x00000000	0.0
56	0x00000000	0.0
57	0x00000000	0.0
58	0x00000000	0.0
59	0x00000000	0.0
60	0x00000000	0.0
61	0x00000000	0.0
62	0x00000000	0.0
63	0x00000000	0.0
64	0x00000000	0.0
65	0x00000000	0.0
66	0x00000000	0.0
67	0x00000000	0.0
68	0x00000000	0.0
69	0x00000000	0.0
70	0x00000000	0.0
71	0x00000000	0.0
72	0x00000000	0.0
73	0x00000000	0.0
74	0x00000000	0.0
75	0x00000000	0.0
76	0x00000000	0.0
77	0x00000000	0.0
78	0x00000000	0.0
79	0x00000000	0.0
80	0x00000000	0.0
81	0x00000000	0.0
82	0x00000000	0.0
83	0x00000000	0.0
84	0x00000000	0.0
85	0x00000000	0.0
86	0x00000000	0.0
87	0x00000000	0.0
88	0x00000000	0.0
89	0x00000000	0.0
90	0x00000000	0.0
91	0x00000000	0.0
92	0x00000000	0.0
93	0x00000000	0.0
94	0x00000000	0.0
95	0x00000000	0.0
96	0x00000000	0.0
97	0x00000000	0.0
98	0x00000000	0.0
99	0x00000000	0.0
100	0x00000000	0.0
101	0x00000000	0.0
102	0x00000000	0.0
103	0x00000000	0.0
104	0x00000000	0.0
105	0x00000000	0.0
106	0x00000000	0.0
107	0x00000000	0.0
108	0x00000000	0.0
109	0x00000000	0.0
110	0x00000000	0.0
111	0x00000000	0.0
112	0x00000000	0.0
113	0x00000000	0.0
114	0x00000000	0.0
115	0x00000000	0.0
116	0x00000000	0.0
117	0x00000000	0.0
118	0x00000000	0.0
119	0x00000000	0.0
120	0x00000000	0.0
121	0x00000000	0.0
122	0x00000000	0.0
123	0x00000000	0.0
124	0x00000000	0.0
125	0x00000000	0.0
126	0x00000000	0.0
127	0x00000000	0.0

action_model._continuous_distribution.mu.weight f4 [1, 128]
0	0xbc57b807	-0.013166434
1	0xbce844d5	-0.028353134
2	0xbc7e8bd7	-0.01553627
3	0x3bc4e5f6	0.006008859
4	0xbc226bc4	-0.009913389
5	0xbbddd91f	-0.0067702676
6	0x3cecf5bd	0.02892577
7	0xbbe9f28b	-0.007139509
8	0x3cb95e1d	0.022627885
9	0xbc73432b	-0.014847557
10	0xbbb5f16f	-0.005552463
11	0x3c2e36f3	0.010633218
12	0x3c289305	0.010288958
13	0xbbe8dcb0	-0.007106386
14	0xbcc74b94	-0.02432803
15	0x3cd551a3	0.026039904
16	0x3ba63f2e	0.0050734496
17	0x3c855afb	0.016278734
18	0x3cd421ab	0.02589496
19	0x3a9fbced	0.0012187042
20	0x3ccb9daf	0.024855463
21	0x3cef7e3b	0.029234996
22	0xbc6915d5	-0.014226397
23	0xbca04ccb	-0.019567868
24	0xbbade625	-0.0053069764
25	0xbc364994	-0.011125941
26	0xbd0a0ac3	-0.03370167
27	0xba760a08	-0.000938565
28	0x3b10ec23	0.0022113405
29	0xbc645ad3	-0.01393767
30	0xbc3d95b9	-0.011571341
31	0x3bad605d	0.0052910284
32	0xbcbbcafb	-0.022923937
33	0x3bb2f027	0.0054607573
34	0x3b8b1c13	0.00424529
35	0xbce4c7af	-0.027927248
36	0x3c661647	0.014043397
37	0x3bd92882	0.0066271434
38	0xbc38c437	-0.01127725
39	0xbcbf4813	-0.023349797
40	0xbae670b3	-0.0017581194
41	0x3b0078f2	0.001960334
42	0x3b4e5f2d	0.0031489835
43	0xbad6e04d	-0.0016393751
44	0xbd077093	-0.033066344
45	0xbc96bfb8	-0.018401965
46	0xbcc7d443	-0.024393206
47	0xbc763d23	-0.015029225
48	0xbc8fc282	-0.017548803
49	0xbd334b06	-0.04377272
50	0xbc926bfb	-0.017873755
51	0xbc532a62	-0.012888523
52	0x3b735c90	0.003713403
53	0xbcb31e19	-0.021864938
54	0x3cd07b5a	0.025449444
55	0xb9edd76d	-0.00045364667
56	0x3c85292f	0.01625499
57	0xbd206a32	-0.039163776
58	0xbc13fc6c	-0.00903235
59	0xbc21d8fa	-0.009878391
60	0x3d0a3946	0.033746026
61	0xbc130961	-0.008974404
62	0x3b479f7b	0.0030460048
63	0xbbd686f5	-0.00654685
64	0x3c347763	0.011014792
65	0x3c1c3d9f	0.009536176
66	0xbc0f28e2	-0.008737775
67	0xbc28e497	-0.010308406
68	0xbaa61279	-0.00126703
69	0x394155d2	0.00018437885
70	0x3c00d323	0.007862839
71	0xbb716f68	-0.0036840085
72	0xbc289c7b	-0.010291214
73	0x3cc95f1f	0.02458149
74	0xbb8f2489	-0.004368369
75	0xbd396050	-0.045257866
76	0xbcec8bc2	-0.028875235
77	0xbc87f053	-0.016594088
78	0x3cb1ecdb	0.021719387
79	0xbba9b19a	-0.0051786425
80	0xbad6726a	-0.0016361002
81	0xbb066e99	-0.0020512699
82	0xbc943fe4	-0.018096872
83	0x3b3224a0	0.0027182475
84	0x3c921ee7	0.017837001
85	0xbc67c34f	-0.014145686
86	0x3ca419aa	0.020031769
87	0xbab8148f	-0.0014044213
88	0xbc216ab6	-0.009852102
89	0xbb97b0b6	-0.00462922
90	0xb8be56c3	-9.0760666e-05
91	0x3c6565e3	0.0140013425
92	0x3d3b2e8f	0.0456987
93	0x3c390857	0.011293492
94	0xbc798a63	-0.015230748
95	0xb8cdfd85	-9.8223834e-05
96	0x3ce57f13	0.028014695
97	0x3c672f9f	0.014110475
98	0xbcd6e985	-0.026234398
99	0xbabc8c9e	-0.0014385169
100	0xbbd3e755	-0.006466786
101	0xbc8e311f	-0.017357407
102	0x3b8fa0b3	0.0043831705
103	0x3bd2c8f0	0.006432645
104	0x3c371b64	0.011175964
105	0x3c690e9f	0.014224677
106	0xbc845de3	-0.01615805
107	0x3bf65dfa	0.007518527
108	0x3c36120c	0.011112701
109	0xbb36bdb7	-0.0027884075
110	0xbca15193	-0.019692218
111	0xbbaa86ca	-0.0052040564
112	0x3aabd5ef	0.0013110022
113	0x3d0a9fb6	0.03384372
114	0xbc233f07	-0.009963757
115	0xbca91849	-0.020641463
116	0x3bad18e1	0.005282507
117	0xbc3083ff	-0.010773658
118	0xbc075cad	-0.008261842
119	0xbc1a6a76	-0.009424796
120	0xbc899264	-0.016793437
121	0xbc93db26	-0.018048834
122	0x3bc3d257	0.005976002
123	0xbb2a6e8c	-0.0026005832
124	0xbd1da319	-0.03848562
125	0xbc42925c	-0.011875715
126	0xbc77a5ba	-0.015115196
127	0xbbf70fe3	-0.0075397356
