Shortcut Run/results/ppo/Move/Move-1920.onnx (onnx, 69539 bytes, 5 tensors)

network_body._body_endoder.seq_layers.0.weight f4 [128, 1]
000000 59 f3 30 bf ec b0 3d 40 36 af 08 bf ec 24 46 bf
       -0.6912132 2.9639235 -0.5339235 -0.7740009
000010 63 93 8f 3f 1b 87 ab bf d4 a8 03 3f 7f f0 41 3e
       1.1216854 -1.3400606 0.51429486 0.18939398
000020 6e 7d cf bf f5 47 27 be e8 26 3c bf 94 9f 90 be
       -1.6210153 -0.16336043 -0.73496866 -0.28246748
000030 b7 08 d9 be 3d 77 68 3f 89 f3 4b bf 94 74 42 bf
       -0.4238946 0.90806943 -0.7966848 -0.75959134
000040 4c 80 67 3f b0 47 9a bf 07 3f b8 3f 8e 2f ab bf
       0.9043014 -1.2053127 1.4394234 -1.3373888
000050 28 2b e7 bf a6 50 d4 be b6 48 04 bf b5 e1 2b bf
       -1.8060045 -0.4146778 -0.5167345 -0.67141277
000060 ed 4e a7 3e 2c 46 59 bf bb db c0 3d 5e 67 1d bf
       0.32677403 -0.848727 0.0941691 -0.6148585
000070 d6 f5 ae 3e ff 71 79 3f 4b 3d 53 3f f3 20 44 be
       0.34171933 0.9743957 0.825154 -0.19153194
000080 ba a8 e1 bf 59 d8 00 3d aa 09 9d bf 7f 1c 64 bf
       -1.7629616 0.031456325 -1.2268574 -0.8910598
000090 c0 55 44 bf 36 a6 32 bf 83 b6 19 3f 72 25 9b bf
       -0.76693344 -0.6978487 0.60044116 -1.2120802
0000a0 5a b7 47 3f c3 6a b8 bf b7 8f e7 bf 1c 03 9f 3e
       0.7801415 -1.4407581 -1.8090733 0.3105706
0000b0 3c 51 c8 be ef 02 1e bf f2 f9 b0 3f d1 0e 46 be
       -0.39124477 -0.61723226 1.3826277 -0.1934159
0000c0 e0 a9 b2 3d 1f 29 95 bf 5c aa 4f bf 32 09 14 bf
       0.08723807 -1.1653174 -0.8111932 -0.5782653
0000d0 ed fb 6b 3f 78 b6 00 40 00 01 4a bc f7 fb d6 be
       0.92181283 2.011137 -0.01232934 -0.4198911
0000e0 33 3e ad be 37 f2 f0 bf c3 3d 62 bf de 42 56 3f
       -0.33836517 -1.8823918 -0.8837549 0.8369578
0000f0 16 c9 f2 bf eb ec 4e 3f d7 47 d3 3f c3 1e 06 bf
       -1.8967617 0.8083026 1.6506299 -0.5239069
000100 7f 29 fc be 61 3b 79 bf af 3c f9 3e e8 ad 96 bf
       -0.4925041 -0.9735623 0.4867911 -1.1771822
000110 ce 3d a3 3e ea af 91 3f bb 1b fd 3f 5e 24 4d be
       0.3188309 1.138181 1.9774088 -0.20033404
000120 50 6b 83 3f 26 f2 8f 3f e9 08 e9 bf f2 5d ba 3f
       1.0267124 1.1245773 -1.8205844 1.455992
000130 8e f8 ce 3f 79 3d 29 bd aa 35 1e 3f 4f 23 26 3f
       1.6169603 -0.04131839 0.61800635 0.64897627
000140 77 d8 2d 3f 36 4e 16 40 54 e5 c0 3e 71 51 1a be
       0.67908424 2.3485236 0.37674963 -0.1507013
000150 b3 e8 19 3e 6d 0f ca be f9 6e f6 3f 6e 92 0f c0
       0.15030174 -0.39464894 1.9252616 -2.2433124
000160 13 78 3f bf 0b cc da be 1a ca 19 3f ab dd 92 3f
       -0.74792594 -0.42733797 0.6007401 1.1473898
000170 7e 96 e8 be 81 08 a5 bf 84 34 8a 3f fd e8 4a 3f
       -0.45427316 -1.289322 1.0797276 0.7926176
000180 dd 12 d9 3e dc 43 c4 3f 6f ab 7e bf 90 82 d7 3e
       0.42397204 1.5333209 -0.99480337 0.420918
000190 61 f6 c6 bc 93 dd c5 3f 94 3b 3f be 74 de 29 bf
       -0.024287404 1.5458244 -0.18675071 -0.6635506
0001a0 06 e3 e8 3f e7 14 b7 be 96 75 32 bf 39 ea 9c 3f
       1.8194282 -0.35758135 -0.6971067 1.2258979
0001b0 cd 08 41 3f cc 40 e8 3e 89 e6 87 bc 3f ed 2e bf
       0.75404054 0.45361936 -0.01658942 -0.6833076
0001c0 b0 8e 22 c0 6a c6 9c bd 96 b3 2c 3f c3 6d 25 3f
       -2.539959 -0.07655032 0.67461526 0.6462061
0001d0 09 5e d3 3f 86 4b 1f c0 10 a6 39 3f b2 c4 15 40
       1.6513072 -2.4889846 0.72519016 2.3401303
0001e0 0e 10 13 c0 e1 82 00 be de f3 13 bb 70 e2 e6 bc
       -2.297855 -0.12549926 -0.0022575776 -0.028184146
0001f0 fd 76 8c 3d 0c 38 d9 3e 58 e3 3f 3f 05 30 1d bf
       0.06858633 0.42425573 0.74956274 -0.61401397

network_body._body_endoder.seq_layers.0.bias f4 [128]
000000 00 00 00 00 00 00 00 00 00 00 00 00 00 00 00 00
       0.0 0.0 0.0 0.0
000010 00 00 00 00 00 00 00 00 00 00 00 00 00 00 00 00
       0.0 0.0 0.0 0.0
000020 00 00 00 00 00 00 00 00 00 00 00 00 00 00 00 00
       0.0 0.0 0.0 0.0
000030 00 00 00 00 00 00 00 00 00 00 00 00 00 00 00 00
       0.0 0.0 0.0 0.0
000040 00 00 00 00 00 00 00 00 00 00 00 00 00 00 00 00
       0.0 0.0 0.0 0.0
000050 00 00 00 00 00 00 00 00 00 00 00 00 00 00 00 00
       0.0 0.0 0.0 0.0
000060 00 00 00 00 00 00 00 00 00 00 00 00 00 00 00 00
       0.0 0.0 0.0 0.0
000070 00 00 00 00 00 00 00 00 00 00 00 00 00 00 00 00
       0.0 0.0 0.0 0.0
000080 00 00 00 00 00 00 00 00 00 00 00 00 00 00 00 00
       0.0 0.0 0.0 0.0
000090 00 00 00 00 00 00 00 00 00 00 00 00 00 00 00 00
       0.0 0.0 0.0 0.0
0000a0 00 00 00 00 00 00 00 00 00 00 00 00 00 00 00 00
       0.0 0.0 0.0 0.0
0000b0 00 00 00 00 00 00 00 00 00 00 00 00 00 00 00 00
       0.0 0.0 0.0 0.0
0000c0 00 00 00 00 00 00 00 00 00 00 00 00 00 00 00 00
       0.0 0.0 0.0 0.0
0000d0 00 00 00 00 00 00 00 00 00 00 00 00 00 00 00 00
       0.0 0.0 0.0 0.0
0000e0 00 00 00 00 00 00 00 00 00 00 00 00 00 00 00 00
       0.0 0.0 0.0 0.0
0000f0 00 00 00 00 00 00 00 00 00 00 00 00 00 00 00 00
       0.0 0.0 0.0 0.0
000100 00 00 00 00 00 00 00 00 00 00 00 00 00 00 00 00
       0.0 0.0 0.0 0.0
000110 00 00 00 00 00 00 00 00 00 00 00 00 00 00 00 00
       0.0 0.0 0.0 0.0
000120 00 00 00 00 00 00 00 00 00 00 00 00 00 00 00 00
       0.0 0.0 0.0 0.0
000130 00 00 00 00 00 00 00 00 00 00 00 00 00 00 00 00
       0.0 0.0 0.0 0.0
000140 00 00 00 00 00 00 00 00 00 00 00 00 00 00 00 00
       0.0 0.0 0.0 0.0
000150 00 00 00 00 00 00 00 00 00 00 00 00 00 00 00 00
       0.0 0.0 0.0 0.0
000160 00 00 00 00 00 00 00 00 00 00 00 00 00 00 00 00
       0.0 0.0 0.0 0.0
000170 00 00 00 00 00 00 00 00 00 00 00 00 00 00 00 00
       0.0 0.0 0.0 0.0
000180 00 00 00 00 00 00 00 00 00 00 00 00 00 00 00 00
       0.0 0.0 0.0 0.0
000190 00 00 00 00 00 00 00 00 00 00 00 00 00 00 00 00
       0.0 0.0 0.0 0.0
0001a0 00 00 00 00 00 00 00 00 00 00 00 00 00 00 00 00
       0.0 0.0 0.0 0.0
0001b0 00 00 00 00 00 00 00 00 00 00 00 00 00 00 00 00
       0.0 0.0 0.0 0.0
0001c0 00 00 00 00 00 00 00 00 00 00 00 00 00 00 00 00
       0.0 0.0 0.0 0.0
0001d0 00 00 00 00 00 00 00 00 00 00 00 00 00 00 00 00
       0.0 0.0 0.0 0.0
0001e0 00 00 00 00 00 00 00 00 00 00 00 00 00 00 00 00
       0.0 0.0 0.0 0.0
0001f0 00 00 00 00 00 00 00 00 00 00 00 00 00 00 00 00
       0.0 0.0 0.0 0.0

network_body._body_endoder.seq_layers.2.weight f4 [128, 128]
000000 e6 16 e8 3d 33 2c cb 3c 2d 67 1d be 4a 0e 96 ba
       0.113324925 0.02480135 -0.1537139 -0.001144835
000010 34 24 f9 3c eb c9 cf 3b 65 59 4c 3d d3 0c c1 bd
       0.03041277 0.006341209 0.04988994 -0.09426274
000020 81 e3 0f bc 0b f1 ad 3d b6 14 98 bd ee c7 60 bd
       -0.0087822685 0.08493241 -0.07425825 -0.054878168
000030 31 9f 18 bc 41 8d 37 3e 4e 61 52 3d d3 65 cc 3d
       -0.009315298 0.17924978 0.05136233 0.09980359
000040 60 16 84 3a 81 82 61 bd 28 56 23 3d 09 c8 00 bd
       0.0010077469 -0.0550561 0.039877087 -0.03144077
000050 17 70 d8 3c 7b 7f 3b be be cb b8 bd db 2c 71 3c
       0.026420636 -0.18310349 -0.09023236 0.014720167
000060 4b 58 56 3d f7 f6 06 bd 13 d6 b0 3d b1 47 84 3d
       0.052330296 -0.032950368 0.086345814 0.064589866
000070 73 1c 05 3d 9b 34 f3 bd ec cf 87 bd e7 f4 95 3d
       0.032497834 -0.11875268 -0.06631455 0.07322102
000080 48 4d 68 3e 51 c0 87 bd c0 a0 cc bd 1a c1 e8 bc
       0.2268573 -0.06628478 -0.09991598 -0.02841239
000090 59 05 b5 3d e4 dc 8a bc 44 a9 81 bd c3 ae bf bb
       0.088389106 -0.016951032 -0.06331113 -0.0058496906
0000a0 5f e4 dd bd c5 e3 19 3d 73 70 08 be 4a aa c0 bd
       -0.10834574 0.037570734 -0.13324146 -0.0940748
0000b0 cf 1c da 3d e4 b4 18 3d b3 7b ba 3d 0b 8d e4 3d
       0.10650026 0.037281886 0.09105625 0.11159714
0000c0 62 1d 57 3d 5f d5 0c bd 0d 16 07 3c 75 ba 87 3d
       0.052518256 -0.034383174 0.008245003 0.06627361
0000d0 f7 8f 95 bd eb dc 22 be f6 3e 64 bd 95 ba c4 bd
       -0.0730285 -0.15904586 -0.055724107 -0.096059
0000e0 94 9a 56 bd e8 64 10 3e 80 5b a4 3d a9 26 10 3d
       -0.05239351 0.14100993 0.08025265 0.03519312
0000f0 50 3d 41 bb 50 91 9b 3c 59 d7 13 3d 6e a6 8c 3c
       -0.0029486008 0.018990189 0.036094043 0.017169204
000100 c7 0d e6 bd c0 27 ef 3d 49 72 c1 bd 53 4b 94 3d
       -0.112330966 0.116775036 -0.09445626 0.072409295
000110 b7 28 01 be 5b 6f 27 3d 05 e8 3b bc 8a ae ed 3c
       -0.12613188 0.04087768 -0.011468892 0.02901389
000120 b9 0f 10 bd 2c 7a 28 bd 90 8b 90 3d f6 f3 7a bd
       -0.035171244 -0.041132137 0.070578694 -0.061267816
000130 fd fd 06 3e 50 86 6a 3d 9f 3f 83 bd cd 84 9d bb
       0.13182826 0.057256997 -0.06408619 -0.004807091
000140 38 4a ae bd cd 02 64 bd cf 60 4e 3d 78 6c f4 3d
       -0.0851025 -0.055666734 0.050385293 0.11934751
000150 a7 d4 99 bc 72 ca d0 3c 60 ec b1 bb 35 c6 1b bc
       -0.018778158 0.025487158 -0.0054297894 -0.009507705
000160 98 a1 81 bd 0b b1 7f bd ad 9b 2f be 6c 18 ae 3d
       -0.0632965 -0.0624247 -0.1714923 0.08500752
000170 69 a4 3d bb 32 8f 3a 3d c3 37 06 be 0a 34 36 be
       -0.0028937107 0.045546718 -0.13107209 -0.17793289
000180 54 0e d6 3c 82 52 29 bc 49 31 eb 3d a7 29 5d bd
       0.026129879 -0.010334613 0.1148401 -0.0539948
000190 0f 41 b5 bc 5b 7c 1d be 6c 95 fe bc 2b 47 f5 3c
       -0.022125749 -0.15379469 -0.03107711 0.029941162
0001a0 54 85 01 3d b3 fc 77 3e 05 63 7b 3d 2d c7 27 be
       0.031621292 0.24217491 0.06137373 -0.16384573
0001b0 c7 0d 9f 3d 87 80 28 bd c7 43 7a bd 5d 3b 10 3c
       0.077663 -0.0411382 -0.061099794 0.008803216
0001c0 5c a0 e2 bd 9c 10 b4 3d 7e 7c be bb 9b de 03 be
       -0.110657424 0.087922305 -0.0058131805 -0.12877886
0001d0 81 42 ee 3c e4 c6 91 3d d1 51 9e bb da c2 88 bc
       0.029084446 0.071180135 -0.0048315306 -0.016694475
0001e0 d0 05 23 3e ec 06 a1 3d a4 e1 94 3d 18 86 1e 3c
       0.15920186 0.07862648 0.072696 0.009675525
0001f0 bd 63 44 3d c5 ab b5 bd 0d 85 32 3d 60 f5 c5 3c
       0.04794668 -0.08870653 0.04358392 0.024164855
000200 54 11 d3 3d 88 38 b8 3b 83 51 40 3c 88 ed 4a 3d
       0.103060395 0.0056219734 0.011738184 0.049542934
000210 c8 93 b8 bd b4 4a dc 3d 79 e8 a3 3d 0f 9a c6 bd
       -0.09012562 0.10756436 0.08003325 -0.09697353
000220 ba 23 fb 3d 4e 5e 13 3c b1 d0 69 3d f7 fe 16 3d
       0.12262674 0.008994652 0.05708379 0.036864247
000230 66 ef 98 bd d8 c0 25 3d 5d bf ba bd c8 17 38 3d
       -0.07467537 0.040467113 -0.09118531 0.044944555
000240 cd 95 0e 3e cf 2e 7f bc 98 19 a9 bd dc 68 2f 3c
       0.13924332 -0.015575125 -0.08256835 0.010706153
000250 a6 cd 54 3d 56 74 b6 bd 8f 93 51 bd f2 d3 d5 bc
       0.051953934 -0.08908908 -0.051166113 -0.02610204
000260 8b fe 6a 3e 30 1a 78 bd 3b f0 c3 bd df 60 14 be
       0.22948663 -0.06057185 -0.09567305 -0.14490078
000270 8c 31 c5 3c b2 bf 00 3e 6a 02 86 bc 32 df 7d bc
       0.024071477 0.12573126 -0.016358573 -0.015495108
000280 63 18 0f 3e 12 66 38 3e 20 60 04 be 16 71 96 3c
       0.13974147 0.18007687 -0.12927294 0.01836447
000290 c0 7e 9f 3d 16 58 4a 3e f6 66 93 3c 4d a1 fb bd
       0.077878475 0.19760165 0.017993432 -0.12286625
0002a0 e4 2e 71 bb d5 f5 e4 bd 3f cb 92 3c c2 4e 0e be
       -0.003680163 -0.11179701 0.01791918 -0.13897231
0002b0 76 82 b2 bb 64 35 4d 3d b4 75 91 3d 73 5d 77 bd
       -0.005447681 0.050099745 0.07102528 -0.060391854
0002c0 a0 03 38 3d be cd af 3d f5 4f a4 bc 12 09 a4 bd
       0.044925332 0.08584164 -0.020057658 -0.080095425
0002d0 43 52 2c 3e f9 71 72 bc eb 98 0b bd 5d 00 ae bd
       0.16828255 -0.014797681 -0.03408138 -0.08496163
0002e0 c5 d2 b2 bd 77 c6 06 bc 91 0c dc 3c 56 bf 86 3c
       -0.08731607 -0.008226029 0.02686146 0.016448658
0002f0 e2 5f a4 bd 2b 4c ec 3d c5 dc 81 3d ec 66 24 3d
       -0.08026101 0.115379654 0.063409366 0.040137216
000300 66 21 d6 3b 17 eb ba bd 39 36 79 3d 03 ae 53 bc
       0.006534743 -0.09126871 0.060842726 -0.012919906
000310 c4 4f 08 bc f8 16 a5 3d 30 53 d7 bc ec 49 ec bd
       -0.008319799 0.080610216 -0.026284784 -0.11537537
000320 4c 13 bd bd b7 d4 3e bd 91 82 3e bd 33 42 89 3d
       -0.09232196 -0.04658958 -0.046511237 0.067020796
000330 e5 10 cc bd 51 04 25 3e 57 55 3d bd 13 b2 60 3d
       -0.0996416 0.16114928 -0.046223965 0.054857325
000340 5b 04 a7 bd fa 14 9c 3d ab 17 4c 3e 07 b4 c3 bd
       -0.081551276 0.076211885 0.19930904 -0.09555822
000350 09 4f 1f 3d 3f 7d 3d bc ea cf a7 bc a1 34 21 3e
       0.038893733 -0.0115655055 -0.020484883 0.15742733
000360 5d fb 17 bd 75 b1 00 bc ac 9e 89 bc ff 9a ac bd
       -0.037104953 -0.007854809 -0.016799293 -0.08428001
000370 25 bb b8 bd c0 88 89 3d 11 32 e0 3c 28 76 59 3e
       -0.0902007 0.06715536 0.027367624 0.2123648
000380 54 6e 84 3d 37 a2 b4 3d a0 3b 60 3d 26 8a c7 3c
       0.06466356 0.088200025 0.054744363 0.024357866
000390 93 ba 89 3d 39 18 35 bd 28 56 72 bd 86 76 b5 bd
       0.06725039 -0.044212554 -0.059164196 -0.08860497
0003a0 e7 b7 07 be 18 da 53 bb 19 c2 cf bc 8c 06 0f 3d
       -0.13253747 -0.003232604 -0.025361108 0.034918353
0003b0 da 22 ad 3d 14 2e 65 3d 4f ca 8f 3d 9c dc 41 3d
       0.08453913 0.055952147 0.07021009 0.04732953
0003c0 78 28 52 3d 45 b6 0a 3d b2 1f 27 3d a7 06 c9 bd
       0.051308125 0.033865232 0.04080171 -0.09815722
0003d0 9a 12 3e bd 35 0d 4c bd a8 36 03 be f4 52 48 3d
       -0.04640446 -0.049817283 -0.12813818 0.048907235
0003e0 bb 58 32 bd 2e 7b 1b 3e 04 34 e1 bc 25 08 26 3e
       -0.04354165 0.15183708 -0.027490623 0.16214044
0003f0 03 8a 41 bd dc 07 7b bd a8 bb 04 3b 6e f9 da bd
       -0.04725076 -0.061286792 0.0020253453 -0.10692106

network_body._body_endoder.seq_layers.2.bias f4 [128]
000000 00 00 00 00 00 00 00 00 00 00 00 00 00 00 00 00
       0.0 0.0 0.0 0.0
000010 00 00 00 00 00 00 00 00 00 00 00 00 00 00 00 00
       0.0 0.0 0.0 0.0
000020 00 00 00 00 00 00 00 00 00 00 00 00 00 00 00 00
       0.0 0.0 0.0 0.0
000030 00 00 00 00 00 00 00 00 00 00 00 00 00 00 00 00
       0.0 0.0 0.0 0.0
000040 00 00 00 00 00 00 00 00 00 00 00 00 00 00 00 00
       0.0 0.0 0.0 0.0
000050 00 00 00 00 00 00 00 00 00 00 00 00 00 00 00 00
       0.0 0.0 0.0 0.0
000060 00 00 00 00 00 00 00 00 00 00 00 00 00 00 00 00
       0.0 0.0 0.0 0.0
000070 00 00 00 00 00 00 00 00 00 00 00 00 00 00 00 00
       0.0 0.0 0.0 0.0
000080 00 00 00 00 00 00 00 00 00 00 00 00 00 00 00 00
       0.0 0.0 0.0 0.0
000090 00 00 00 00 00 00 00 00 00 00 00 00 00 00 00 00
       0.0 0.0 0.0 0.0
0000a0 00 00 00 00 00 00 00 00 00 00 00 00 00 00 00 00
       0.0 0.0 0.0 0.0
0000b0 00 00 00 00 00 00 00 00 00 00 00 00 00 00 00 00
       0.0 0.0 0.0 0.0
0000c0 00 00 00 00 00 00 00 00 00 00 00 00 00 00 00 00
       0.0 0.0 0.0 0.0
0000d0 00 00 00 00 00 00 00 00 00 00 00 00 00 00 00 00
       0.0 0.0 0.0 0.0
0000e0 00 00 00 00 00 00 00 00 00 00 00 00 00 00 00 00
       0.0 0.0 0.0 0.0
0000f0 00 00 00 00 00 00 00 00 00 00 00 00 00 00 00 00
       0.0 0.0 0.0 0.0
000100 00 00 00 00 00 00 00 00 00 00 00 00 00 00 00 00
       0.0 0.0 0.0 0.0
000110 00 00 00 00 00 00 00 00 00 00 00 00 00 00 00 00
       0.0 0.0 0.0 0.0
000120 00 00 00 00 00 00 00 00 00 00 00 00 00 00 00 00
       0.0 0.0 0.0 0.0
000130 00 00 00 00 00 00 00 00 00 00 00 00 00 00 00 00
       0.0 0.0 0.0 0.0
000140 00 00 00 00 00 00 00 00 00 00 00 00 00 00 00 00
       0.0 0.0 0.0 0.0
000150 00 00 00 00 00 00 00 00 00 00 00 00 00 00 00 00
       0.0 0.0 0.0 0.0
000160 00 00 00 00 00 00 00 00 00 00 00 00 00 00 00 00
       0.0 0.0 0.0 0.0
000170 00 00 00 00 00 00 00 00 00 00 00 00 00 00 00 00
       0.0 0.0 0.0 0.0
000180 00 00 00 00 00 00 00 00 00 00 00 00 00 00 00 00
       0.0 0.0 0.0 0.0
000190 00 00 00 00 00 00 00 00 00 00 00 00 00 00 00 00
       0.0 0.0 0.0 0.0
0001a0 00 00 00 00 00 00 00 00 00 00 00 00 00 00 00 00
       0.0 0.0 0.0 0.0
0001b0 00 00 00 00 00 00 00 00 00 00 00 00 00 00 00 00
       0.0 0.0 0.0 0.0
0001c0 00 00 00 00 00 00 00 00 00 00 00 00 00 00 00 00
       0.0 0.0 0.0 0.0
0001d0 00 00 00 00 00 00 00 00 00 00 00 00 00 00 00 00
       0.0 0.0 0.0 0.0
0001e0 00 00 00 00 00 00 00 00 00 00 00 00 00 00 00 00
       0.0 0.0 0.0 0.0
0001f0 00 00 00 00 00 00 00 00 00 00 00 00 00 00 00 00
       0.0 0.0 0.0 0.0

action_model._discrete_distribution.branches.0.weight f4 [1, 128]
000000 a0 c1 ed 3b 24 fd 24 bc 3a 9f d2 3b 10 f1 e5 3a
       0.007255748 -0.010070119 0.0064276727 0.0017543156
000010 87 76 78 bc 03 7e 87 bb 67 c6 a3 bb 58 80 d6 ba
       -0.015164978 -0.004134895 -0.0049980166 -0.0016365154
000020 39 50 08 3c e1 9d 0a ba c1 ec ad 3b 32 3c 83 bb
       0.008319908 -0.0005287808 0.0053077643 -0.0040049786
000030 3c 7d 17 bc e7 4e e4 3b 35 ae 62 bc f0 1a 71 bc
       -0.009246167 0.0069674137 -0.0138354795 -0.014715895
000040 92 09 d5 bb d8 4a 3c 3a 0a 78 bd 39 f7 71 59 3b
       -0.006501385 0.00071827834 0.00036138325 0.00331795
000050 57 10 1b bc 0e 81 03 3c 0b f8 8b 3b ff 01 0a bc
       -0.009464345 0.0080263745 0.0042715124 -0.0084233275
000060 24 b2 22 bc d6 2d 42 ba da 2f 55 3c 03 7c 10 3c
       -0.009930167 -0.0007407343 0.013011897 0.008818629
000070 9a b4 80 3c 03 bb 14 3a c5 7b f3 bb 77 7d dc 3b
       0.015711118 0.0005673619 -0.007430526 0.0067288238
000080 9e 3d 39 bc a5 70 fb b9 78 91 de 3b bf 0a ca 3b
       -0.011306195 -0.00047958377 0.0067922436 0.006165832
000090 22 d5 39 bb 37 48 65 3b b6 f3 8a bc cd 62 dc bb
       -0.0028355797 0.003498567 -0.016961914 -0.006725645
0000a0 d8 79 1a 3c 2a b9 5d bb bb 9a f1 3b 41 24 98 bb
       0.009428464 -0.003383229 0.0073731816 -0.0046429937
0000b0 bb a9 8c 3b 5c 71 28 bb f2 c1 d3 39 ea 7c 55 3b
       0.0042926944 -0.0025702333 0.00040389557 0.0032575675
0000c0 cd 86 c6 bb 37 b8 88 bc 08 fc 13 3c 3a f5 72 3a
       -0.00605855 -0.016689403 0.009032257 0.0009268109
0000d0 eb a9 fa 3a cb 14 a2 3a ac a6 83 3b 7b 4c 8d bb
       0.0019124126 0.0012365816 0.0040176716 -0.0043120957
0000e0 6b 39 6a 3c 62 43 ac 3b b1 0d 0b 3c da 80 97 3b
       0.014295916 0.005257056 0.008487151 0.0046235146
0000f0 84 60 84 3c 23 84 23 3b ae 3f 81 ba 97 00 2a bb
       0.016159303 0.0024950586 -0.0009860897 -0.0025940293
000100 34 3e c4 bc 47 e7 b6 3b 97 91 49 bb 8f 69 14 ba
       -0.023955442 0.0055817696 -0.0030756944 -0.00056614814
000110 bb ab 21 3a 9b 18 c0 bb cb 5d f0 3a a3 45 17 bb
       0.00061672524 -0.005862308 0.0018338499 -0.0023082278
000120 6a 02 04 3c c2 69 53 3c d3 5f b1 ba b0 90 88 bb
       0.008057216 0.012903633 -0.0013532586 -0.0041676387
000130 ab 70 13 bc 13 55 90 bb 45 2a 5d 39 d6 87 20 3c
       -0.00899903 -0.004404673 0.00021091949 0.009798011
000140 a9 11 81 ba 15 30 ab 3a 8f 08 3c 3c 97 d6 b8 bc
       -0.0009847182 0.0013060594 0.01147665 -0.022563262
000150 27 8e a1 bb c9 8a 13 bc 57 60 f1 bb d2 c4 1f bc
       -0.004930276 -0.009005257 -0.007366221 -0.009751515
000160 1c d6 39 bc 2a 64 d5 3b 71 84 c6 bb a0 82 8a bb
       -0.011342552 0.0065121846 -0.0060582687 -0.0042269975
000170 db e0 a1 3b 98 a8 e4 bb d1 8c c6 3b 2f 33 66 bc
       0.004940135 -0.0069781058 0.006059267 -0.014050289
000180 bf 75 24 bb 8f 93 56 ba ec 8e 92 bb af 38 4c 3b
       -0.0025094596 -0.000818544 -0.004472604 0.0031161716
000190 c5 17 2c 3c 80 8e 2a 3c 95 19 98 3a 19 e8 9d b7
       0.010503714 0.010409951 0.0011604304 -1.8823937e-05
0001a0 e2 24 6a bc 80 5d 78 bc ea 7a 99 3c 73 b1 18 3a
       -0.01429102 -0.015159011 0.018735368 0.0005824782
0001b0 06 bd 02 bc e8 a3 30 bc af ac ab 3a 2d 38 11 bc
       -0.007979637 -0.010781266 0.0013097728 -0.008863491
0001c0 00 ea 9a ba 1c 68 38 bb 25 cb 82 ba 1b 99 08 bc
       -0.0011819005 -0.0028138226 -0.0009978755 -0.008337284
0001d0 98 44 ab 3b c8 0c a4 bb 67 26 4d bc 9b a0 a7 3c
       0.005226683 -0.0050064065 -0.012521363 0.020462325
0001e0 87 27 98 bc 2a 2f 2a ba 29 49 94 bb 32 39 1e bc
       -0.018573536 -0.00064920133 -0.004525323 -0.009657191
0001f0 1a 27 76 3c df a8 1e 3c 14 0a 34 bb fe f3 c2 bb
       0.015023971 0.009683817 -0.0027471827 -0.0059494963
