Shortcut Run/results/Test7/Move/Move-464.pt (torch, 149007 bytes, 10 tensors)

network_body._body_endoder.seq_layers.0.weight f4 [128, 6]
00000000: f12b 4fbd 73e3 3abf b252 b6bd b161 d9be
00000010: a9cd 233e a061 173f 6fda ec3e 6ead f9be
00000020: 643b e03d 8b50 7cbe 44b8 453e 3f9a 16bf
00000030: 7a93 0b3e 0b8c 683d 078f 76bf 6e00 4d3f
00000040: f65b f1be c9b0 6dbc c7fc adbe 9d3f 1abf
00000050: dbe5 b33e d1a9 013e 02a3 4dbe 1798 c03e
00000060: cd5a c93c 52fc 793e 167a 2cbf 2437 663e
00000070: a9ed 1c3e 66c9 22bf 18dc 913e f49b c2be
00000080: 84a4 a6bd 931f 553e 2993 133f 28ae 743e
00000090: 513e 35bf 114b 1abf 0028 c6be c5e6 05bd
000000a0: 938a f43e e879 b7bd 41dd a43e 408e 8bba
000000b0: d586 ea3d 2c7f 04bf 4650 92be f6c3 da3d
000000c0: 1632 263f 0736 a2be d4ae 033f 5ca1 7bbf
000000d0: bbae 623f f13f 893e 5991 77be 5d4b a83e
000000e0: d466 9d3d ec51 cebe d59e ecbd b0a4 103f
000000f0: b906 1ebf 134a ac3d 03f3 e6bd 3a87 e63e
00000100: de3a 213e fe3f 153f 2b7d cfbe 2aaa 0f3e
00000110: d1d1 d13e 8f12 00bf 60c5 9f3e ed4d 2bbf
00000120: 2cae ae3e fd00 de3e d888 0dbf 5b87 13bf
00000130: 16da 433d c96e dc3e c929 903e 0d0d 45bf
00000140: 892e b8be ee79 d8bd 5fac 00bf 50ec 26bf
00000150: 3440 b63e 9548 37be cfec 30bf 564f 5abd
00000160: 5136 e23d 31b8 0c3e 516b d53e 8afe 4c3f
00000170: b90e 7fbf 2c90 40bd 0148 0abf f9a4 e83e
00000180: 42e3 10bf 1591 10be 46c6 ecbe 048a 5cbe
00000190: 6ae5 003f e21a 8abc b7ff 243d e826 04bf
000001a0: 1417 95bd 94c4 c23e 4235 783e 7290 2cbd
000001b0: 9f4c 333f 3d52 183f 76dc cf3b 1cf2 d7be
000001c0: c897 3dbe 1cb4 1fbf cfc3 7abe 6393 193f
000001d0: 8f19 d5be aa69 243a 0280 adbe 3215 d7bd
000001e0: 8ed3 d7bd 4f1a 53be 3f0a ab3e df0b ac3d
000001f0: 4750 353e 0d88 d1be cbfe 3ebf 5c27 903e
00000200: b95d 5a3e 8946 9dbe 9f5a d73e 0233 29be
00000210: eb85 d23e 06d3 c9be 9c06 9fbd 455a 5f3d
00000220: d93c d2be 5980 9bbe c5c0 963d 7217 15bf
00000230: 67a2 1dbf 7b08 123e 3175 de3e 64b5 80bf
00000240: a957 ecbe 2589 52be 5524 b6be 590e a43e
00000250: 80fd 78bf f731 cfbc a55f 8dbe e581 583e
00000260: 178e 3d3e a62b 75be 934f 903d 21bd f4be
00000270: 305f 233d 5f3e 453f b99b eabe 673b 8a3e
00000280: 1da4 cbbe 5978 fcbe 71b6 18bd 2c3e 87be
00000290: 95a7 c23d b0d7 0b3f 0c85 15be 9966 523e
000002a0: b968 90be 2558 ba3e 2d8f b4be 0ba3 8abe
000002b0: 867e 963e b436 c5be 221e 7e3f c813 d1be
000002c0: e405 d73e 4633 8ebc 2d43 2a3e e052 a43e
000002d0: 73a1 15be d439 c0be 2542 da3d 356e 1dbe
000002e0: 2503 2b3e fdc6 833e 9017 573f d31e e33d
000002f0: 9a23 6b3e 1906 cc3e 601c 0fbe 726e 1bbe
00000300: 9f66 423f 6909 a13c 919e 583f d924 a93e
00000310: 4593 7dbe 9edf 023f 113d 13bf bf5c 413e
00000320: a6be c8bd fd6a 89be 98bb 4c3f 2fbc 70be
00000330: 75fc 273e d62f 013f 8d66 1a3f 1623 d63e
00000340: 9e2c 363e 0334 2dbd 5f9b 26be 1637 99be
00000350: 404b cdbc ceb6 12bf 6b1a 42bd 1ef2 e23e
00000360: 5e64 a3be 7678 35be 4bfe dbbc f3ca 353f
00000370: 6f3f 373e 2bbf cabd 0a7f f53b 2747 cb3d
00000380: 8270 3cbe bb7a 003b 6866 f9be 933f 843e
00000390: 6d1e 31be 9a27 a3be 320c 4ab9 f5f1 be3e
000003a0: 27c6 243f 6ab7 8b3e fe14 053f a91c cfbd
000003b0: 6bee d2be 72df e73e 59f7 dfbe 0e3f 36bc
000003c0: 8cc8 3a3e 83e0 1dbf 9959 8e3c 6f92 e93e
000003d0: a1e4 9a3e 27aa ecbe d062 be3e 0e2e 56be
000003e0: 0e54 073f 0fe8 0fbf 9561 eabd 28fa 73bc
000003f0: edc0 f53e 418c 89bd 1cfc b83e bc07 5ebe
-0.050579015 -0.7300331 -0.08902492 -0.42457345 0.15996422 0.5913334 0.46260402 -0.4876513
0.10948828 -0.246401 0.19308573 -0.5882911 0.13630477 0.05677418 -0.9631199 0.8007878
-0.47140473 -0.014507481 -0.33981916 -0.60253316 0.35136303 0.12662436 -0.20081714 0.37616035
0.02457943 0.24412659 -0.6737379 0.22481972 0.15325035 -0.6358856 0.2848823 -0.38009608
-0.081368476 0.20812826 0.57646424 0.2389456 -0.7079821 -0.6027079 -0.38702393 -0.032690782
0.47761974 -0.08958799 0.32200053 -0.0010647252 0.114514984 -0.5175655 -0.2857687 0.10681908
0.64920175 -0.31681845 0.5143864 -0.9829309 0.8854787 0.26806596 -0.2417654 0.32869998
0.076856285 -0.40296876 -0.11553732 0.56501293 -0.6172901 0.08412566 -0.112768196 0.45025045
0.15745112 0.5830077 -0.40525183 0.14029756 0.4098039 -0.5002832 0.31205273 -0.6691578
0.34117258 0.4336013 -0.5528693 -0.5762841 0.047815405 0.43053272 0.2815688 -0.7697304
-0.35973004 -0.10570131 -0.5026302 -0.65204334 0.35595858 -0.17898782 -0.6911134 -0.053298317
0.11045516 0.13742138 0.41683438 0.80075896 -0.9963184 -0.047012493 -0.5401612 0.45438364
-0.5659677 -0.14117844 -0.4624502 -0.21537024 0.5035006 -0.016858522 0.04028293 -0.51621866
-0.072797924 0.38040602 0.24239066 -0.04212994 0.7003879 0.59500486 0.0063434197 -0.42176902
-0.18514931 -0.623842 -0.24488758 0.5999052 -0.41621062 0.00062718487 -0.33886725 -0.105020896
-0.10538398 -0.20615505 0.33406255 0.08400702 0.17706405 -0.4092411 -0.74607533 0.2815503
0.21324815 -0.30717877 0.42061326 -0.16523364 0.41117796 -0.3941881 -0.077649325 0.054529447
-0.41062048 -0.3037136 0.073609866 -0.582389 -0.6157593 0.14261048 0.43448785 -1.0055356
-0.4616063 -0.20560129 -0.35574594 0.32042196 -0.9726181 -0.02529238 -0.27612033 0.21143301
0.18511234 -0.23942432 0.070464276 -0.47800544 0.0398857 0.77048296 -0.45821932 0.26998445
-0.39773646 -0.49310568 -0.037283365 -0.2641462 0.0950462 0.5462599 -0.14601535 0.2054695
-0.28204897 0.36395374 -0.35265484 -0.27077517 0.29393405 -0.38518298 0.9926473 -0.40835404
0.41996682 -0.017358433 0.16627188 0.3209448 -0.14612369 -0.3754412 0.10657147 -0.15374072
0.16700418 0.25737754 0.8402033 0.11089864 0.229628 0.39848402 -0.13975668 -0.1517885
0.7593784 0.019657807 0.84616953 0.33035925 -0.2476321 0.5112246 -0.57515055 0.18883036
-0.09801988 -0.26839438 0.79973745 -0.23509286 0.16404898 0.50463617 0.6031273 0.41823643
0.17790458 -0.04228593 -0.16270207 -0.2992484 -0.025060296 -0.5731019 -0.047388475 0.44325346
-0.31912512 -0.17721733 -0.026854655 0.710128 0.17895292 -0.09899744 0.007491951 0.099256806
-0.18402293 0.0019604403 -0.48710942 0.25829753 -0.17296763 -0.3186615 -0.00019268764 0.37293974
0.64364856 0.2728837 0.51985157 -0.10112888 -0.41197523 0.45287663 -0.437434 -0.011123432
0.18240565 -0.616707 0.017376708 0.45619532 0.30252555 -0.46223566 0.37184763 -0.20916006
0.5286263 -0.5621347 -0.114443935 -0.014891185 0.47998753 -0.067162044 0.36129844 -0.21682638

network_body._body_endoder.seq_layers.0.bias f4 [128]
00000000: 0000 0000 0000 0000 0000 0000 0000 0000
00000010: 0000 0000 0000 0000 0000 0000 0000 0000
00000020: 0000 0000 0000 0000 0000 0000 0000 0000
00000030: 0000 0000 0000 0000 0000 0000 0000 0000
00000040: 0000 0000 0000 0000 0000 0000 0000 0000
00000050: 0000 0000 0000 0000 0000 0000 0000 0000
00000060: 0000 0000 0000 0000 0000 0000 0000 0000
00000070: 0000 0000 0000 0000 0000 0000 0000 0000
00000080: 0000 0000 0000 0000 0000 0000 0000 0000
00000090: 0000 0000 0000 0000 0000 0000 0000 0000
000000a0: 0000 0000 0000 0000 0000 0000 0000 0000
000000b0: 0000 0000 0000 0000 0000 0000 0000 0000
000000c0: 0000 0000 0000 0000 0000 0000 0000 0000
000000d0: 0000 0000 0000 0000 0000 0000 0000 0000
000000e0: 0000 0000 0000 0000 0000 0000 0000 0000
000000f0: 0000 0000 0000 0000 0000 0000 0000 0000
00000100: 0000 0000 0000 0000 0000 0000 0000 0000
00000110: 0000 0000 0000 0000 0000 0000 0000 0000
00000120: 0000 0000 0000 0000 0000 0000 0000 0000
00000130: 0000 0000 0000 0000 0000 0000 0000 0000
00000140: 0000 0000 0000 0000 0000 0000 0000 0000
00000150: 0000 0000 0000 0000 0000 0000 0000 0000
00000160: 0000 0000 0000 0000 0000 0000 0000 0000
00000170: 0000 0000 0000 0000 0000 0000 0000 0000
00000180: 0000 0000 0000 0000 0000 0000 0000 0000
00000190: 0000 0000 0000 0000 0000 0000 0000 0000
000001a0: 0000 0000 0000 0000 0000 0000 0000 0000
000001b0: 0000 0000 0000 0000 0000 0000 0000 0000
000001c0: 0000 0000 0000 0000 0000 0000 0000 0000
000001d0: 0000 0000 0000 0000 0000 0000 0000 0000
000001e0: 0000 0000 0000 0000 0000 0000 0000 0000
000001f0: 0000 0000 0000 0000 0000 0000 0000 0000
0.0 0.0 0.0 0.0 0.0 0.0 0.0 0.0
0.0 0.0 0.0 0.0 0.0 0.0 0.0 0.0
0.0 0.0 0.0 0.0 0.0 0.0 0.0 0.0
0.0 0.0 0.0 0.0 0.0 0.0 0.0 0.0
0.0 0.0 0.0 0.0 0.0 0.0 0.0 0.0
0.0 0.0 0.0 0.0 0.0 0.0 0.0 0.0
0.0 0.0 0.0 0.0 0.0 0.0 0.0 0.0
0.0 0.0 0.0 0.0 0.0 0.0 0.0 0.0
0.0 0.0 0.0 0.0 0.0 0.0 0.0 0.0
0.0 0.0 0.0 0.0 0.0 0.0 0.0 0.0
0.0 0.0 0.0 0.0 0.0 0.0 0.0 0.0
0.0 0.0 0.0 0.0 0.0 0.0 0.0 0.0
0.0 0.0 0.0 0.0 0.0 0.0 0.0 0.0
0.0 0.0 0.0 0.0 0.0 0.0 0.0 0.0
0.0 0.0 0.0 0.0 0.0 0.0 0.0 0.0
0.0 0.0 0.0 0.0 0.0 0.0 0.0 0.0

network_body._body_endoder.seq_layers.2.weight f4 [128, 128]
00000000: c5df ca3d 5321 18be 836a 2bbd c266 bb3d
00000010: b6d7 dbbd 500b 9b3c c69c 6e3d 8b27 babc
00000020: dd04 59bd d5c6 91bd 161d 1ebe 1831 9cbe
00000030: bf8a cbbd 0ab9 973d a818 4d3d 57fa ec3d
00000040: a3d3 fcbd 3395 a7bc ec06 e53d d596 6cbd
00000050: 08e2 993d ef67 a4bd 866e 98bd 5191 dd3d
00000060: c6ca d93d c0f9 0a3e ca97 05be 71a8 ccbd
00000070: a7c0 cc3c d941 fb3c 9d25 7dba c1fe d33d
00000080: 94d9 aebc 2c54 e8bc 4500 223d d13a a4bd
00000090: 8ee6 5d3c 0b35 89bb 2dc3 52bd 2de7 c33c
000000a0: 540e 98bc e673 1b3d 39f4 e5bd f1df 40bd
000000b0: ef6b d13d a1b1 77be a2fe 263e 88a6 66bd
000000c0: 8d43 113c dafd eebc ecb9 a4bd aad1 9abd
000000d0: 717b 863a 8f71 16bc 54cd eebb 3606 8fbd
000000e0: 779f 85bd ab98 9abd a02b 73bd 4803 79bd
000000f0: 39a1 023e 759e 2f3e dab7 48be 8676 da3d
00000100: b691 3bbd fac5 31bc 196b b53d a3b0 0ebe
00000110: feb6 aebc 963b fe3d 3bd7 5fbd 7104 283e
00000120: 8668 85bd d4ef ebbc 4350 ee3d 774b 9abd
00000130: bd08 ae3c 83b7 b53c 1abe 053c 983f a8bc
00000140: 5b33 e1bd fc01 8c3d 6f64 083e deb0 ac3d
00000150: e0cb ecbc f778 f03d 06a8 c1bc 2a62 b0bc
00000160: a7bd 8abd 1430 473e 38f9 24be cbec 09bd
00000170: 35c3 c0bd b36a 2bbd 16d9 72bd 34da c5bd
00000180: ad27 76bc d578 153d decc 373d 5c48 e4bd
00000190: f15f 8c3b 7f1d a7bd 2433 0dbd be1f 1cbd
000001a0: 7cb9 42bc f9ad a83d e538 f8bd a156 1d3d
000001b0: de5b e93d 43d8 5abe 17de 9bbc 4cef 1abd
000001c0: 56fa aabd 530e c93d c465 27bc 394c 0c3d
000001d0: c9a7 c5bd 890a 5f3c bc62 173e 840b c33c
000001e0: 6e34 0bbe 8682 41bd 036f d63d f7cd 81bd
000001f0: a527 fc3d d0d3 d43d 66d0 3d3c 2741 5ebc
00000200: a40c 1cbc 92c7 8a3b ffae 1a3c aef5 833b
00000210: 3b8d 873d 57bd 79bd 52c2 c43d 6928 76bd
00000220: 1490 82ba 93c9 a43c 74d3 b4bb e4a9 83bb
00000230: e255 1b3d 558f 9cbd 2d60 56bc ad4b 373e
00000240: 0509 4b3d c332 b6bd 9067 73bc 1e55 ffbc
00000250: 53c7 b43d bd9d 0c3e 84d5 643d f8e5 eb3c
00000260: 35e2 8f3a 3b93 2abd cc75 2cbd a886 063d
00000270: b89a 8a3c 72b1 82bd 9e53 c4bd b25b f2bd
00000280: fabe c53d bbfe 30bd b322 8ebd 9616 6cbd
00000290: 91f1 bf39 9332 a23c 1d25 40bd 261b 333d
000002a0: f19d aa3d c743 1d3e 0943 ca3d 1be2 d43d
000002b0: 2914 ad3d ea67 d63d f0a8 87bd 8f25 263d
000002c0: 7247 3bbe 3fed cdbc 0d53 84bc a6c5 e3bd
000002d0: 9688 89bd 85ce 083b a2b4 0c3d f7ee bb3c
000002e0: 4662 f7bd a979 473e 85c4 8fbd 0baa e73d
000002f0: 0b00 163e 5e86 a43d 0069 d23c 6a14 8e3d
00000300: 3fe9 96bc 7bd9 aabc 6935 29be 5615 de3c
00000310: d550 073e 472e 1e3d 2892 00bd 14e1 1b3e
00000320: bd6f 32be a2f1 97bd c677 233d 5974 78bd
00000330: a16a 9bbd 3b69 04bd 1508 fbbd 6c84 50be
00000340: ba6e acbd 740b f4bd 04d4 60bc 6a28 0ebb
00000350: 9aaf 603d 96c8 1dbe eaba 513d 9628 07bc
00000360: 3e07 aebd 45aa 0f3e a626 c7bb bae1 373c
00000370: 377b 653d 5f1f 89bd a150 d0bc cef6 f8bc
00000380: 8f6b b73c 4a47 b43d 7c19 2bbd 0b04 dbbc
00000390: 8594 833d 03d1 873d 0104 10bd ad5a e1bc
000003a0: 0d50 a7bc a214 383e 79b1 bc3c 2efb eebc
000003b0: b5db ac3d 1ac8 9dbd 9b9c a03d f01d f33d
000003c0: 0e1b 12bd 9b13 48bc d24a 093e b3bc f5bd
000003d0: 7468 383c e712 34bd a724 28be dd45 51bd
000003e0: c8db a1bd 2a54 053e c324 133c 7288 fabd
000003f0: 8510 c23d ea3c 983d a01e a5bb 75a6 43bb
0.09905962 -0.14856462 -0.041849624 0.09150459 -0.10734503 0.018926293 0.05825498 -0.022723934
-0.052983154 -0.07118002 -0.15440783 -0.30506206 -0.09938573 0.0740834 0.050072342 0.11571186
-0.12345054 -0.020456886 0.11182961 -0.057761032 0.07513815 -0.08027636 -0.07442956 0.108187325
0.10634379 0.13571835 -0.13046184 -0.09993065 0.024994208 0.030671047 -0.0009656789 0.10351325
-0.021343984 -0.028360449 0.03955104 -0.08019031 0.013543738 -0.0041872314 -0.051455665 0.023913944
-0.01856152 0.037952326 -0.112282224 -0.047088567 0.10225665 -0.24188854 0.16308072 -0.05631116
0.008866203 -0.02917378 -0.08043274 -0.075595215 0.0010260177 -0.009182348 -0.0072876606 -0.069836065
-0.06524556 -0.0754865 -0.059367776 -0.060794145 0.12756814 0.1715029 -0.19601384 0.10667138
-0.045793258 -0.010850424 0.08858318 -0.13934569 -0.021327492 0.12413709 -0.05464862 0.16407944
-0.06514077 -0.028800882 0.116364025 -0.07533925 0.021244401 0.022182232 0.0081629995 -0.020538136
-0.109961234 0.06836316 0.13319562 0.08432172 -0.028905809 0.11741822 -0.02363969 -0.021531183
-0.067744546 0.19451934 -0.16110694 -0.03367309 -0.09412233 -0.041849803 -0.05928906 -0.096607596
-0.015024108 0.036492188 0.04487311 -0.11146614 0.004283898 -0.08159923 -0.0344726 -0.03811621
-0.011885043 0.08236308 -0.12120227 0.038412694 0.113944754 -0.2137156 -0.0190268 -0.037825868
-0.08348529 0.09817185 -0.010217134 0.03425238 -0.09651143 0.013613352 0.14783758 0.023809202
-0.13594219 -0.047243617 0.104703926 -0.06338113 0.12312249 0.103919625 0.011585331 -0.013565338
-0.009524498 0.0042352164 0.009441136 0.00402709 0.066187344 -0.060971584 0.09607376 -0.060097132
-0.0009961152 0.02011565 -0.0055183712 -0.0040180553 0.0379237 -0.07644526 -0.0130844535 0.17899962
0.04956915 -0.08896401 -0.014856234 -0.031168517 0.088270806 0.13732047 0.055867687 0.028796181
0.0010977449 -0.041644316 -0.042104527 0.032843262 0.016919479 -0.06381501 -0.09586261 -0.11833896
0.096555665 -0.04321168 -0.06940212 -0.057638727 0.0003661034 0.019799506 -0.046910394 0.043727063
0.08330906 0.15357886 0.09876067 0.10394689 0.08451111 0.10469039 -0.06624019 0.040563162
-0.18288973 -0.025137542 -0.016152883 -0.11121683 -0.06715505 0.0020875048 0.034351952 0.022941096
-0.12079291 0.19480003 -0.07019905 0.1131173 0.14648454 0.08033441 0.025684834 0.069374874
-0.018421767 -0.020855656 -0.1652428 0.027109783 0.13214429 0.038618352 -0.031389385 0.15222579
-0.17425437 -0.07419135 0.039909147 -0.060657833 -0.07588697 -0.032326918 -0.12257401 -0.20363015
-0.08419557 -0.11916247 -0.013722423 -0.002169157 0.054854967 -0.15408549 0.051203646 -0.008249423
-0.08497475 0.14029796 -0.0060776053 0.011223251 0.05602571 -0.06695437 -0.025429072 -0.030391123
0.022390155 0.0880266 -0.04177235 -0.026735326 0.06424812 0.06631663 -0.03516007 -0.027509058
-0.020423913 0.17976621 0.023033844 -0.029172506 0.08440343 -0.07704182 0.0784237 0.118709445
-0.035670333 -0.012211706 0.13407448 -0.11998882 0.011255372 -0.04396334 -0.16420232 -0.051092017
-0.07903248 0.13020387 0.008980933 -0.12233056 0.09475807 0.074334934 -0.005039051 -0.0029853855

network_body._body_endoder.seq_layers.2.bias f4 [128]
00000000: 0000 0000 0000 0000 0000 0000 0000 0000
00000010: 0000 0000 0000 0000 0000 0000 0000 0000
00000020: 0000 0000 0000 0000 0000 0000 0000 0000
00000030: 0000 0000 0000 0000 0000 0000 0000 0000
00000040: 0000 0000 0000 0000 0000 0000 0000 0000
00000050: 0000 0000 0000 0000 0000 0000 0000 0000
00000060: 0000 0000 0000 0000 0000 0000 0000 0000
00000070: 0000 0000 0000 0000 0000 0000 0000 0000
00000080: 0000 0000 0000 0000 0000 0000 0000 0000
00000090: 0000 0000 0000 0000 0000 0000 0000 0000
000000a0: 0000 0000 0000 0000 0000 0000 0000 0000
000000b0: 0000 0000 0000 0000 0000 0000 0000 0000
000000c0: 0000 0000 0000 0000 0000 0000 0000 0000
000000d0: 0000 0000 0000 0000 0000 0000 0000 0000
000000e0: 0000 0000 0000 0000 0000 0000 0000 0000
000000f0: 0000 0000 0000 0000 0000 0000 0000 0000
00000100: 0000 0000 0000 0000 0000 0000 0000 0000
00000110: 0000 0000 0000 0000 0000 0000 0000 0000
00000120: 0000 0000 0000 0000 0000 0000 0000 0000
00000130: 0000 0000 0000 0000 0000 0000 0000 0000
00000140: 0000 0000 0000 0000 0000 0000 0000 0000
00000150: 0000 0000 0000 0000 0000 0000 0000 0000
00000160: 0000 0000 0000 0000 0000 0000 0000 0000
00000170: 0000 0000 0000 0000 0000 0000 0000 0000
00000180: 0000 0000 0000 0000 0000 0000 0000 0000
00000190: 0000 0000 0000 0000 0000 0000 0000 0000
000001a0: 0000 0000 0000 0000 0000 0000 0000 0000
000001b0: 0000 0000 0000 0000 0000 0000 0000 0000
000001c0: 0000 0000 0000 0000 0000 0000 0000 0000
000001d0: 0000 0000 0000 0000 0000 0000 0000 0000
000001e0: 0000 0000 0000 0000 0000 0000 0000 0000
000001f0: 0000 0000 0000 0000 0000 0000 0000 0000
0.0 0.0 0.0 0.0 0.0 0.0 0.0 0.0
0.0 0.0 0.0 0.0 0.0 0.0 0.0 0.0
0.0 0.0 0.0 0.0 0.0 0.0 0.0 0.0
0.0 0.0 0.0 0.0 0.0 0.0 0.0 0.0
0.0 0.0 0.0 0.0 0.0 0.0 0.0 0.0
0.0 0.0 0.0 0.0 0.0 0.0 0.0 0.0
0.0 0.0 0.0 0.0 0.0 0.0 0.0 0.0
0.0 0.0 0.0 0.0 0.0 0.0 0.0 0.0
0.0 0.0 0.0 0.0 0.0 0.0 0.0 0.0
0.0 0.0 0.0 0.0 0.0 0.0 0.0 0.0
0.0 0.0 0.0 0.0 0.0 0.0 0.0 0.0
0.0 0.0 0.0 0.0 0.0 0.0 0.0 0.0
0.0 0.0 0.0 0.0 0.0 0.0 0.0 0.0
0.0 0.0 0.0 0.0 0.0 0.0 0.0 0.0
0.0 0.0 0.0 0.0 0.0 0.0 0.0 0.0
0.0 0.0 0.0 0.0 0.0 0.0 0.0 0.0

action_model._continuous_distribution.mu.weight f4 [1, 128]
00000000: a3e7 1c3c 28df 5a3c 9f69 92bc fdb5 6b3c
00000010: 7582 d3b9 494c 2339 7eb9 ca3c 785c cf3c
00000020: 5a35 1dbd 84ae b1bc 17af 003c dbc5 f7bb
00000030: f271 713b 5b53 2c3d 81db 82bc 8f41 0bbd
00000040: 6ffc b83b 1734 6bbc af64 cd3c 4242 06bc
00000050: e737 0b3c ff02 b7bb aefd 223b 8d26 e33c
00000060: 2dd3 973c 9c61 13bd 64ff a1bc ff61 00bc
00000070: 3274 d83c 2314 f43b 8fae 13bc 082a 013d
00000080: 5da0 7a3c a33f 69bc 731a 8d3c 1fa1 193c
00000090: e3ef 2d3c 6fb2 00bc 4309 f83c b71e 8fbb
000000a0: a3ca 933c 2d1e 723b 2f53 523c 7dda 603c
000000b0: da1a 1c3a 0a39 60ba 5595 fe3c 06a6 a33c
000000c0: a26e 6fbc 2d27 603c 47a9 a2bb 7f9b 653c
000000d0: a04e d73c ba10 73bc dbc9 d33c 6ef6 84bc
000000e0: 2fab 0e3d ded2 933b a004 acbc 0e35 273c
000000f0: dc9a 123a 6df3 243c 8362 82bc 0a43 babc
00000100: b89c 38bc d120 bdbb f4f5 843c 7b37 2a3b
00000110: 2b69 d03c 41bc b03c 2f3e b43b 7367 8bba
00000120: 3d65 dcbb 3fb8 b8bc 29b8 81bc 6087 e8bb
00000130: 8842 afbc e5da efbc 1270 7f3c 67dd 293b
00000140: e515 303b 6eb2 a7ba f565 db3c 9aaa b6bc
00000150: c5ef 643b 03a7 eebc cd66 dcba 9b9e f5bb
00000160: 35bc c5bb 0f35 d93a ed6b 9dbc 58d0 ac3c
00000170: ed2e 043c f5bb 32bb 28de 443c 0351 f7bb
00000180: 3780 6f3a 8378 b2bc a088 45bc 1526 30bc
00000190: 83db 953c 85fd 6ebc a083 d6bb b3a1 93bb
000001a0: 5d37 aebc 6801 e13b 1065 a43c 29f4 abbc
000001b0: d973 0f3d 0392 a43c 55a2 983c 3889 5abc
000001c0: a39a 26bd 42c2 febc 2d5a b3bc e018 a03c
000001d0: 91e2 903c 7288 fe3b 7257 0bbb 668d 2ebc
000001e0: b379 03bc d3c9 44bd 0661 88bc 6399 333b
000001f0: 2657 0cbc e563 14bb d7fe f53c 5876 67bc
0.009576711 0.013358869 -0.01787263 0.014386651 -0.00040342254 0.0001557331 0.024746653 0.025312647
-0.03838096 -0.02168966 0.007854245 -0.007561428 0.0036841598 0.04207168 -0.015973808 -0.03399807
0.005645327 -0.014355681 0.025072424 -0.008194508 0.008497215 -0.005585074 0.0024870443 0.027728343
0.018533314 -0.03598176 -0.0197751 -0.007835864 0.026422594 0.0074486895 -0.009013786 0.031534225
0.015297023 -0.014236364 0.017224526 0.009376793 0.0106162755 -0.007855042 0.030277854 -0.004367675
0.01804096 0.0036944256 0.012837215 0.013723967 0.0005954929 -0.00085534214 0.031077066 0.019976627
-0.014613779 0.013681215 -0.004964027 0.014014124 0.026282609 -0.014835531 0.025853088 -0.016230788
0.034831222 0.0045112213 -0.0209983 0.01020552 0.0005592534 0.010067803 -0.015916115 -0.022737045
-0.011267833 -0.0057717343 0.01623056 0.002597301 0.025440773 0.021574141 0.005500577 -0.0010635689
-0.0067259357 -0.022548793 -0.015834885 -0.007096216 -0.02139403 -0.029279182 0.0155906845 0.002591932
0.002686852 -0.0012794265 0.026782015 -0.022298146 0.0034932953 -0.029132372 -0.0016815305 -0.007495714
-0.006034399 0.0016571599 -0.019216502 0.02109544 0.008067829 -0.0027272676 0.012015857 -0.007547499
0.0009136232 -0.02178598 -0.0120565 -0.010751267 0.018293148 -0.014586811 -0.0065464526 -0.00450536
-0.021266634 0.0068666227 0.020067722 -0.020990448 0.03502259 0.020089155 0.018632093 -0.01333838
-0.040674817 -0.031098489 -0.021893585 0.019543111 0.01768616 0.0077677304 -0.0021261838 -0.010653829
-0.008024621 -0.048044037 -0.016647827 0.0027404658 -0.0085657 -0.002264255 0.030028744 -0.014127336

network_body._body_endoder.seq_layers.0.weight f4 [128, 6]
00000000: b815 6ebf a4e5 14be 33ad 5d3e 8c4a df3e
00000010: 3398 553f fcfd a03e b0a5 0abf 9930 40bd
00000020: c92d 6cbd 8b95 6a3e b956 e33e 0716 803e
00000030: 423e 6b3e 14a3 fdbe 0405 503e 631b 033e
00000040: 4b4e 75bd 527c cdbe ba62 98be b719 023f
00000050: f5f2 23be 64d9 ecbd 2118 aebe 10f8 bcbd
00000060: da79 97bc 06d3 5cbe a106 533f fe2a f73e
00000070: d185 a0bc 50fd c2be 1715 783e e6e1 933f
00000080: 6565 013f 31db 45bf 1c24 06bd 614d e1be
00000090: b446 7d3e 5c41 22bf f481 ad3d 4cec 62be
000000a0: 61de 7bbd ef2b 9a3e d4c7 c0bd 5dfd 4f3d
000000b0: 7cd0 dc3d f8ad 133e fbed af3e 188d 333f
000000c0: 2a6e 613b 807b 833d 53fb bdbe 1ac8 8b3f
000000d0: f2e3 dabd 6abb ea3e 5b9d 823d 40fd 1cbe
000000e0: 7883 ad3e 2fcc d83d 14e1 0cbf 0b33 26bf
000000f0: 166c 34bf 530d 9a3e aaad 16be 5b98 03be
00000100: a3f3 4c3e 0ab8 ea3c fb92 0fbe 03d8 f13d
00000110: aa3d b33e 0a3d 493f 9a66 0c3e 2a4f d4bd
00000120: 4d90 eabe d483 bc3e c515 003f 597e 8e3e
00000130: b27b c3bd 0c43 4b3e 0485 e1bd 2e3e 9b3e
00000140: 9daf 18bf 67a1 0cbf 6d6c 4abc 9d49 81be
00000150: 6d60 51bf 8c70 6e3e 1c26 a43d 353c e1bd
00000160: 7f60 123e ef3f b13e 97ce 0abd d08d f33e
00000170: 9004 9d3d dbcd 28bf f309 25be 8d0a eb3e
00000180: ed99 303f dde4 c4be 0bce 14be a98b 5f3f
00000190: 7251 6dbe 8ac2 9fbe 66bb 07bf c92b 1fbe
000001a0: 2605 20be 1a4d 1f3f 20c2 ecbe 60a4 0bbf
000001b0: d6cc c9be 9951 6dbe 66a7 7abf 85c7 7dbe
000001c0: 9405 a5bd 6026 be3e f33f ba3e 3650 783c
000001d0: 33ce 613f 8bb3 8c3f bb9a 5e3e 4f0a 70be
000001e0: 68ae 1b3f 6646 d03e 6bcd b43c bd4a 84be
000001f0: 7312 4dbe 5476 a73e 1d9c d1be 6293 993e
00000200: c08a e8be 5ad9 6c3e 35b7 143f b6db 993d
00000210: 7d58 28bd 5e9f 833e f18b 98be 76b3 15be
00000220: cd47 b2be 8fc6 48bf d50f ed3c 53b5 c0bd
00000230: 8e8d 85bd fb6f af3d 95f1 db3d 1f5a c0be
00000240: ca05 e3be 8826 a63d 7255 d63d f6a2 c63e
00000250: b7f0 23be 0650 44bf 9ec0 183f 5f26 45bc
00000260: 3f05 f7be 47de 24bf 8d57 3ebf 9f5b 6d3e
00000270: d49e 07bf 0e0c 1bbc 9f10 fa3e 4e20 983e
00000280: 6b76 c53e 5a51 43be aeed 1a3e afb6 083f
00000290: 7a98 f83e 9874 843e 78d3 51bd d853 8ebe
000002a0: c341 5fbe 58fa 20bf ad78 b83e 8ccb 923e
000002b0: 3e8d b1be 97eb 303e ecb4 22be edc5 98be
000002c0: f12e f43e 1236 bb3d c44b 2e3f acb9 923f
000002d0: 4c23 be3e d596 27bd 3e39 21be c213 fa3c
000002e0: 31de 533f 55be 5dbf 5a6e b0be 472c ecbc
000002f0: 2ba6 a9bd e387 6a3d ee20 413e cc81 7b3c
00000300: bb51 c13e 4527 5dbf f192 4abd 1e45 51be
00000310: 5630 05bf f7b3 103f 408d ccbd ad4f 0a3e
00000320: a3aa 58bf f2d2 c0bc 114c 053e 62d7 e03d
00000330: a3af cabe 10de 06bf 408d 06be 450b 33be
00000340: 959c 363e 6c27 90be 72d9 9b3e 5b84 c7be
00000350: e397 463d e9ac 993e c11a 0bbe 838c 863e
00000360: a7cf 043c 3d8f 2fbd 5b55 c9be 4f2e f53e
00000370: 2541 de3c 15cf 293f 4d73 7cbe 4690 873d
00000380: 26d8 7d3d 26a0 6f3e 53dd 95be 7a6a 483e
00000390: 21de a13d c8d2 4b3d f02c 0abe dc2f 1d3e
000003a0: e9b1 7c3e a299 a53e 2530 0e3e fc10 6e3e
000003b0: ab56 59bf 677f e7be 350b 0d3f 6849 ebbd
000003c0: 728b 6fbe 7638 123f 8f16 6e3e 94bb b8be
000003d0: 73ca 043e df4d 83be 62d9 87bc 5d99 c9be
000003e0: b4f7 623e 7f3d 19bf 6765 e83e 426d f2be
000003f0: 1ea9 e13d 913c f7bd 866b 8ebe 1e72 833e
-0.9300189 -0.14540726 0.21648102 0.43611562 0.8343536 0.31443775 -0.5415907 -0.046921346
-0.05766085 0.22908609 0.44402102 0.25016806 0.22972968 -0.4953848 0.20314413 0.12803416
-0.05988912 -0.4013391 -0.29762822 0.5082049 -0.1601065 -0.115649015 -0.34002784 -0.09227002
-0.01849072 -0.21564874 0.8243199 0.48274988 -0.019595059 -0.38083887 0.24226795 1.1553314
0.5054534 -0.77287585 -0.03274928 -0.44004348 0.24734002 -0.6338098 0.08472052 -0.22160453
-0.061491374 0.30111644 -0.09413114 0.050778735 0.10781953 0.14421833 0.34361252 0.70137167
0.0034397938 0.0642004 -0.37105808 1.0920441 -0.10688008 0.4584611 0.063776694 -0.15330982
0.33889365 0.1058582 -0.5503094 -0.64921635 -0.70477426 0.3008829 -0.14714685 -0.12851088
0.20014815 0.02865221 -0.14020912 0.11808779 0.35007983 0.78608763 0.13711014 -0.10366662
-0.45813218 0.36819327 0.5003322 0.2783077 -0.095450774 0.19849795 -0.11011699 0.30320877
-0.59642965 -0.5493378 -0.012354952 -0.25251475 -0.8178776 0.2328512 0.08015081 -0.10997812
0.14294623 0.3461909 -0.033888426 0.47569132 0.07666886 -0.6593911 -0.16117077 0.45906487
0.6898487 -0.3845586 -0.14531724 0.8732248 -0.231756 -0.3120311 -0.5302032 -0.15544046
-0.15626964 0.6222702 -0.46241856 -0.5454769 -0.3941409 -0.23175658 -0.9791168 -0.24783142
-0.080577046 0.37138653 0.36376914 0.0151558425 0.8820526 1.0992292 0.21738712 -0.23441432
0.60813 0.4067871 0.022070607 -0.2583827 -0.20026569 0.32707465 -0.40939417 0.29995257
-0.45418358 0.23129788 0.5809205 0.0751261 -0.041100014 0.25707525 -0.29794267 -0.1461924
-0.34820405 -0.78427976 0.028938213 -0.09409585 -0.0652114 0.085662805 0.107394375 -0.37568757
-0.44340354 0.08112818 0.10465516 0.38796204 -0.16009794 -0.76684606 0.5966891 -0.012033074
-0.4824619 -0.6440167 -0.7435234 0.23179482 -0.5297673 -0.009463323 0.48840806 0.29712147
0.38566908 -0.19074002 0.1512973 0.53403753 0.4855383 0.25870204 -0.051227063 -0.27798343
-0.2180243 -0.62881994 0.36029568 0.2867092 -0.34678072 0.1727737 -0.15889329 -0.29838505
0.47692063 0.091411725 0.6808436 1.1462913 0.37136304 -0.04091533 -0.15744492 0.030527
0.8276091 -0.8661855 -0.34459192 -0.028829707 -0.08283647 0.057258498 0.18860218 0.01535077
0.37757668 -0.86388046 -0.04945654 -0.20436522 -0.5202688 0.56524605 -0.09987879 0.13506956
-0.8463537 -0.023538087 0.13017298 0.10978581 -0.39587125 -0.5268259 -0.1313982 -0.17484768
0.17833169 -0.28155077 0.30439335 -0.38968167 0.048484694 0.30014732 -0.13584425 0.26279077
0.008106149 -0.042861212 -0.39322934 0.47886893 0.027130673 0.6633161 -0.24653359 0.06619315
0.061973713 0.23400936 -0.2927042 0.19571868 0.07903696 0.049761564 -0.13493705 0.15350288
0.24677242 0.32343775 0.13885553 0.23248667 -0.8489787 -0.45214388 0.55095226 -0.114886105
-0.23393038 0.571174 0.23250793 -0.3608061 0.12967853 -0.25645348 -0.016583148 -0.3937482
0.22164804 -0.5985946 0.45389864 -0.47348982 0.11018585 -0.12072099 -0.2781641 0.25673002

network_body._body_endoder.seq_layers.0.bias f4 [128]
00000000: 0000 0000 0000 0000 0000 0000 0000 0000
00000010: 0000 0000 0000 0000 0000 0000 0000 0000
00000020: 0000 0000 0000 0000 0000 0000 0000 0000
00000030: 0000 0000 0000 0000 0000 0000 0000 0000
00000040: 0000 0000 0000 0000 0000 0000 0000 0000
00000050: 0000 0000 0000 0000 0000 0000 0000 0000
00000060: 0000 0000 0000 0000 0000 0000 0000 0000
00000070: 0000 0000 0000 0000 0000 0000 0000 0000
00000080: 0000 0000 0000 0000 0000 0000 0000 0000
00000090: 0000 0000 0000 0000 0000 0000 0000 0000
000000a0: 0000 0000 0000 0000 0000 0000 0000 0000
000000b0: 0000 0000 0000 0000 0000 0000 0000 0000
000000c0: 0000 0000 0000 0000 0000 0000 0000 0000
000000d0: 0000 0000 0000 0000 0000 0000 0000 0000
000000e0: 0000 0000 0000 0000 0000 0000 0000 0000
000000f0: 0000 0000 0000 0000 0000 0000 0000 0000
00000100: 0000 0000 0000 0000 0000 0000 0000 0000
00000110: 0000 0000 0000 0000 0000 0000 0000 0000
00000120: 0000 0000 0000 0000 0000 0000 0000 0000
00000130: 0000 0000 0000 0000 0000 0000 0000 0000
00000140: 0000 0000 0000 0000 0000 0000 0000 0000
00000150: 0000 0000 0000 0000 0000 0000 0000 0000
00000160: 0000 0000 0000 0000 0000 0000 0000 0000
00000170: 0000 0000 0000 0000 0000 0000 0000 0000
00000180: 0000 0000 0000 0000 0000 0000 0000 0000
00000190: 0000 0000 0000 0000 0000 0000 0000 0000
000001a0: 0000 0000 0000 0000 0000 0000 0000 0000
000001b0: 0000 0000 0000 0000 0000 0000 0000 0000
000001c0: 0000 0000 0000 0000 0000 0000 0000 0000
000001d0: 0000 0000 0000 0000 0000 0000 0000 0000
000001e0: 0000 0000 0000 0000 0000 0000 0000 0000
000001f0: 0000 0000 0000 0000 0000 0000 0000 0000
0.0 0.0 0.0 0.0 0.0 0.0 0.0 0.0
0.0 0.0 0.0 0.0 0.0 0.0 0.0 0.0
0.0 0.0 0.0 0.0 0.0 0.0 0.0 0.0
0.0 0.0 0.0 0.0 0.0 0.0 0.0 0.0
0.0 0.0 0.0 0.0 0.0 0.0 0.0 0.0
0.0 0.0 0.0 0.0 0.0 0.0 0.0 0.0
0.0 0.0 0.0 0.0 0.0 0.0 0.0 0.0
0.0 0.0 0.0 0.0 0.0 0.0 0.0 0.0
0.0 0.0 0.0 0.0 0.0 0.0 0.0 0.0
0.0 0.0 0.0 0.0 0.0 0.0 0.0 0.0
0.0 0.0 0.0 0.0 0.0 0.0 0.0 0.0
0.0 0.0 0.0 0.0 0.0 0.0 0.0 0.0
0.0 0.0 0.0 0.0 0.0 0.0 0.0 0.0
0.0 0.0 0.0 0.0 0.0 0.0 0.0 0.0
0.0 0.0 0.0 0.0 0.0 0.0 0.0 0.0
0.0 0.0 0.0 0.0 0.0 0.0 0.0 0.0

network_body._body_endoder.seq_layers.2.weight f4 [128, 128]
00000000: 0f65 453c 7a31 a3bc 0e50 4fbd 312a bfbd
00000010: 2813 febd e6e5 72bb 84e5 6ebd 3758 eebd
00000020: 5f21 dbbd 901d e9bd c2ac 463c 7427 a53c
00000030: 7f31 40be 5726 7c3d 7450 a13c 95e7 d93d
00000040: e69c 013d 9e6e c83c 6d5d 863c da67 b5bd
00000050: bf3e 94bc a17a 3d3e 03d5 f3bd d0ca 843d
00000060: a584 21be d043 2dbe 506a b0bd 855a 80bd
00000070: 3ed8 9bbd 8ad8 ed3d 5e34 173d 475d 703e
00000080: dd3f bd3d dd54 353c a414 0fbd efc5 9bbc
00000090: 815f 813c 9baa ecbd a275 443d b191 cbbc
000000a0: 4355 483d dffd 813d ea7a 49ba 467d 4e3d
000000b0: 0f63 87bd 8245 fcbd 32b6 cc3d bbcc 0cbe
000000c0: 5eb9 8bbd e649 15be 6584 70bd 58ef ec3c
000000d0: 5251 933d 0520 3bbd 5249 68bd 6f7f 89bd
000000e0: 8d58 423c 0811 3a3b b94d 1a3d 1ae0 ea3c
000000f0: d028 6e3c c1ff e7bd 5784 213d a53e 9d3c
00000100: 4ff0 d2bd 3e82 e9bd c2df 0ebc b38f fd3d
00000110: 8f49 233d 5e43 d43c 5cf3 b93d 2999 95bd
00000120: 4fc7 15be 5fbc b2bc 0a7d eabd d3ba b1bd
00000130: 3b51 2b3c 0380 713b df0f 823c c72c c5bd
00000140: e9c4 11be 261b 2fbe 71e5 413d 62e4 b83c
00000150: d9e9 3b3e 0c11 d63b 12a4 13bd a76a 50be
00000160: 3ace cbbd 8e07 173d 35a1 2bbd 327e 4ebe
00000170: c209 863c f577 58bd 7fdf 0d3d 7d6f 9cbd
00000180: 7313 d83c 05be e63c 5bf1 73be 9223 1d3e
00000190: c7f3 92bd 4833 853d 3b21 673c ca9b d7bd
000001a0: 0a80 273d 140d 88bd fdee a8bd 4e97 503c
000001b0: b37c 6ebd d495 853d ce40 9c3c 7e08 193e
000001c0: 429e 1b3b 9472 f8bb 3d5e 353e db90 da3b
000001d0: 095c d4bd efa3 e0bd 5cc0 ebbc 2cd6 f53a
000001e0: 3560 8c3d 8ae7 87bd b778 2b3d 3ced 703d
000001f0: ce3e 4dbe fc4e 86bd 9205 573d e7fc 533c
00000200: 35cc 863d be7c a1bd 6241 133e 6942 003e
00000210: 770d 7e3d 6c77 26bd 875e 843c 635e ddbd
00000220: 039a a8bd 3fba 933d 50e0 a53d a789 0b3a
00000230: 0f9b c63d bbb8 8ebd ae19 253d 5061 513e
00000240: 40bc e4bc 2bd7 f03d 7fad e9bd 9817 17bd
00000250: 0375 7dbd 8090 3b3d 8662 89bd 267b fbbc
00000260: f2d4 e13c 6272 d53d 5c4b afbd 0fbc 0abe
00000270: c166 babd 421a 87bd ea5c 763d 7fc4 1b3c
00000280: 917d bdbd da95 29be d2fc 143e 454f ae3d
00000290: 6f00 143e 97a3 86be 2bbc aebd 3bc1 673b
000002a0: 5371 9dbd 60c8 973d cbc7 fc3d bf9e 00bd
000002b0: d5f7 25bd c465 fb3d fca1 babd d0c7 cc3c
000002c0: 7612 053d 5463 103e b03b 11be f914 7e3c
000002d0: 6f50 743c 7ddc 5bbd 89fa ec3b fa81 e0bd
000002e0: 653b 81bd bcec 32bd 5ab0 b63c 6242 82bd
000002f0: b330 a4bd 607d 373d 3137 033d a99f 14bd
00000300: 210a 823c 5295 60bd 4d11 433d 4f38 dd3d
00000310: 7786 243d 2901 cebc 81f1 57bd 5ff9 6f3d
00000320: bb1a 583c 44ed dfbd 2b1b b0bd 03db 6ebd
00000330: 3bea 89bd ed97 3c3c 76d8 343e cc52 d8bd
00000340: 4da2 333e 8504 a03e 9de8 ec3c 8c28 6d3c
00000350: 4351 f8bd 2800 2c3d c586 a5bd 7ada c73d
00000360: 9ced 15bd 893c 37bd 5d1f 32bc 9628 113d
00000370: edf7 ffbd 6a38 a73d cd5d c8bd 1cc5 803b
00000380: 946e a3bd 7b1e c93d d4e8 86bd 1cf6 0aba
00000390: e7a7 c43d 056e d5bc 05ee 653e 4752 6d3d
000003a0: e678 b0bd d83b 73bd f6c0 acbd c34c a4bc
000003b0: 2448 843d 9f7c 18bd 498b 4bbc fd7e 1dbd
000003c0: 8e7f 263e 7fd2 a4bd 33ba 96bd 8097 b0bd
000003d0: f302 b93d 7838 aabd d159 953d ca98 843d
000003e0: 284d 74bd e0c0 80bd 7421 03be 5e61 433e
000003f0: 4e1b b5bc b9dc 0a3d d559 81bd 311f 0e3d
0.01204802 -0.019921053 -0.050613455 -0.09334219 -0.124059975 -0.00370633 -0.058324352 -0.116379194
-0.106997244 -0.11382592 0.01212615 0.020160414 -0.18768881 0.06156 0.019691683 0.10639874
0.03164377 0.024466809 0.01640197 -0.08857699 -0.018096326 0.1850381 -0.11905863 0.06483996
-0.15773256 -0.169204 -0.086140275 -0.06267265 -0.07609604 0.11613567 0.036915176 0.23473082
0.092406966 0.011067596 -0.034931794 -0.01901528 0.01579261 -0.11555978 0.047963746 -0.024849745
0.048909437 0.0634725 -0.0007685857 0.05041244 -0.06610691 -0.12317945 0.099956885 -0.13749973
-0.06822465 -0.14578971 -0.05872001 0.028922722 0.07193245 -0.045684833 -0.05671055 -0.06713759
0.011861932 0.00283915 0.03767178 0.028671313 0.014536098 -0.11328078 0.03943285 0.01919491
-0.102997415 -0.11401795 -0.00872034 0.12380924 0.039865073 0.02591103 0.0907962 -0.073046036
-0.14626811 -0.021818338 -0.114496306 -0.08678212 0.010456379 0.0036849983 0.015876709 -0.09627681
-0.14235272 -0.171002 0.047337953 0.022569839 0.18350925 0.006532794 -0.03604514 -0.20353185
-0.09951444 0.03687244 -0.041901786 -0.20165327 0.016362075 -0.052848775 0.03463697 -0.07638452
0.026376462 0.02816678 -0.23822539 0.153456 -0.07175403 0.06503922 0.014107044 -0.10527761
0.040893592 -0.066431195 -0.082487084 0.012731386 -0.05822439 0.06522718 0.01907387 0.14944646
0.0023745452 -0.007582018 0.1771173 0.0066701 -0.10369117 -0.10968768 -0.028778248 0.0018755845
0.068542875 -0.066359594 0.04186317 0.058819994 -0.2004349 -0.06558034 0.052495547 0.012938715
0.06581918 -0.07885121 0.1438041 0.12525333 0.06202456 -0.040641233 0.016158355 -0.108090185
-0.082325004 0.07213258 0.08099425 0.0005322941 0.09697544 -0.06968828 0.040307693 0.20447278
-0.027921796 0.1175979 -0.11410045 -0.036887735 -0.06187917 0.045792103 -0.06708245 -0.03069837
0.02756736 0.104222074 -0.085592955 -0.13548301 -0.0910163 -0.06596805 0.060147204 0.009507298
-0.092524655 -0.1656107 0.14549568 0.08511213 0.1445329 -0.26296684 -0.08531984 0.0035362977
-0.076876305 0.074112654 0.12342795 -0.031401392 -0.040519554 0.1227527 -0.09112927 0.024997622
0.03248831 0.1410039 -0.14182925 0.01550793 0.014911755 -0.05367707 0.0072320146 -0.10962291
-0.06310157 -0.0436828 0.022300888 -0.06360318 -0.08017101 0.0447973 0.032035057 -0.036285076
0.01587397 -0.054829903 0.04762392 0.10801756 0.0401673 -0.025147038 -0.05272055 0.05858743
0.013189967 -0.10933927 -0.08598932 -0.058314335 -0.06734129 0.011510831 0.17660698 -0.10562667
0.17542382 0.31253448 0.028919512 0.014474999 -0.121248744 0.041992337 -0.08082346 0.09758468
-0.036603555 -0.044735465 -0.010871735 0.035439096 -0.1249846 0.08165057 -0.09783516 0.0039297473
-0.079800755 0.09820267 -0.06587377 -0.00053009554 0.09602337 -0.026053438 0.22454078 0.057939794
-0.086168095 -0.059383243 -0.08435242 -0.020056134 0.06459072 -0.037228223 -0.012423345 -0.038451184
0.16259596 -0.080479614 -0.073597334 -0.08622646 0.09033766 -0.08311552 0.07292522 0.06474455
-0.059643894 -0.06286788 -0.1280573 0.19080111 -0.022107746 0.033901904 -0.06315962 0.034697715

network_body._body_endoder.seq_layers.2.bias f4 [128]
00000000: 0000 0000 0000 0000 0000 0000 0000 0000
00000010: 0000 0000 0000 0000 0000 0000 0000 0000
00000020: 0000 0000 0000 0000 0000 0000 0000 0000
00000030: 0000 0000 0000 0000 0000 0000 0000 0000
00000040: 0000 0000 0000 0000 0000 0000 0000 0000
00000050: 0000 0000 0000 0000 0000 0000 0000 0000
00000060: 0000 0000 0000 0000 0000 0000 0000 0000
00000070: 0000 0000 0000 0000 0000 0000 0000 0000
00000080: 0000 0000 0000 0000 0000 0000 0000 0000
00000090: 0000 0000 0000 0000 0000 0000 0000 0000
000000a0: 0000 0000 0000 0000 0000 0000 0000 0000
000000b0: 0000 0000 0000 0000 0000 0000 0000 0000
000000c0: 0000 0000 0000 0000 0000 0000 0000 0000
000000d0: 0000 0000 0000 0000 0000 0000 0000 0000
000000e0: 0000 0000 0000 0000 0000 0000 0000 0000
000000f0: 0000 0000 0000 0000 0000 0000 0000 0000
00000100: 0000 0000 0000 0000 0000 0000 0000 0000
00000110: 0000 0000 0000 0000 0000 0000 0000 0000
00000120: 0000 0000 0000 0000 0000 0000 0000 0000
00000130: 0000 0000 0000 0000 0000 0000 0000 0000
00000140: 0000 0000 0000 0000 0000 0000 0000 0000
00000150: 0000 0000 0000 0000 0000 0000 0000 0000
00000160: 0000 0000 0000 0000 0000 0000 0000 0000
00000170: 0000 0000 0000 0000 0000 0000 0000 0000
00000180: 0000 0000 0000 0000 0000 0000 0000 0000
00000190: 0000 0000 0000 0000 0000 0000 0000 0000
000001a0: 0000 0000 0000 0000 0000 0000 0000 0000
000001b0: 0000 0000 0000 0000 0000 0000 0000 0000
000001c0: 0000 0000 0000 0000 0000 0000 0000 0000
000001d0: 0000 0000 0000 0000 0000 0000 0000 0000
000001e0: 0000 0000 0000 0000 0000 0000 0000 0000
000001f0: 0000 0000 0000 0000 0000 0000 0000 0000
0.0 0.0 0.0 0.0 0.0 0.0 0.0 0.0
0.0 0.0 0.0 0.0 0.0 0.0 0.0 0.0
0.0 0.0 0.0 0.0 0.0 0.0 0.0 0.0
0.0 0.0 0.0 0.0 0.0 0.0 0.0 0.0
0.0 0.0 0.0 0.0 0.0 0.0 0.0 0.0
0.0 0.0 0.0 0.0 0.0 0.0 0.0 0.0
0.0 0.0 0.0 0.0 0.0 0.0 0.0 0.0
0.0 0.0 0.0 0.0 0.0 0.0 0.0 0.0
0.0 0.0 0.0 0.0 0.0 0.0 0.0 0.0
0.0 0.0 0.0 0.0 0.0 0.0 0.0 0.0
0.0 0.0 0.0 0.0 0.0 0.0 0.0 0.0
0.0 0.0 0.0 0.0 0.0 0.0 0.0 0.0
0.0 0.0 0.0 0.0 0.0 0.0 0.0 0.0
0.0 0.0 0.0 0.0 0.0 0.0 0.0 0.0
0.0 0.0 0.0 0.0 0.0 0.0 0.0 0.0
0.0 0.0 0.0 0.0 0.0 0.0 0.0 0.0

value_heads.value_heads.extrinsic.weight f4 [1, 128]
00000000: c169 e93c c707 04be 1a87 a23d 571c 1bbd
00000010: ea13 0f3e 9921 a33d 32a2 8c3d 080d 0e3e
00000020: 3894 173e b66b d7bd a356 32be 8f9b 20bc
00000030: a4c9 2ebd 4d0a 383e aaa6 a0bc a841 2a3e
00000040: bb6e 6b3d 36aa 403e cec1 d23d bca3 0e3c
00000050: f26a 2e3e 206a 29bc a2dd 66bd 4182 e23d
00000060: 6308 303e 3f49 aa3d 134a 37be ff82 ff3d
00000070: 033b 8c3d c004 0dbe 2736 1bbd 2231 103e
00000080: 31fb 04be 6886 10be fd29 70bd 0d39 a3bd
00000090: 88a3 8cbb 2923 803c a3ab 2b3e 1bc3 103d
000000a0: 4c9f a7bb 1a46 25be af9a 373e 391f 3fbe
000000b0: 7b3b 4c3e 19df 0bbe bc3f 0f3e 646a d5bd
000000c0: edab 0bbe db13 553e d4f3 303e 763c 4abe
000000d0: 9c6b ae3c 9afc 5abd 369f 57be 5d81 ea3c
000000e0: f725 d13d ae48 0f3e dc73 b93c deda 0e3d
000000f0: 43b1 a1bd 602d cf3d 9542 e43d 1e64 13bd
00000100: e3dd a2bd 043e 5b3e 9560 a0bd e12a 00be
00000110: 55bd d43d cc82 4fbe 7b3c 6bbd b6c6 a43d
00000120: e840 3c3e 5456 a0bb 876a fb3c ba48 ef3d
00000130: e141 88bc 1f69 333e 923f 943d 8edb 503e
00000140: 2865 153c 16af 443e 2571 3dbb b62c e53d
00000150: 6d5d 3fbd fd51 56bd 1aa5 b83d 797e 21be
00000160: b20a a5bd bb90 54bc c259 393e b87a d73b
00000170: 2cd2 5bbe c1bc 4d3e 0a15 bd3d ec6c 053e
00000180: 056d 30be 0f99 1cbe 1b73 313e 377c a43c
00000190: c377 1abe a45c c7bd 6c47 d33d 5750 4c3e
000001a0: bd94 db3d ef91 453e a1ca 9a3d 0df8 f73d
000001b0: 4719 0e3d d371 123e 9684 4cbd 367e c43c
000001c0: 7481 b1bd f10b b23d 81af aebd df04 e0bd
000001d0: 094c 02be 5e64 a43d b671 3ebe 80d8 bdbc
000001e0: 7b45 b63d ca73 6d3d b6a4 d93c b3f5 623d
000001f0: 7b6e 28be 53fc 48be 6742 edbd be0b 753d
0.02849281 -0.12893592 0.07935925 -0.037868824 0.1397244 0.079653926 0.06866874 0.13872159
0.14802635 -0.10518591 -0.17415862 -0.009802713 -0.04267277 0.1797268 -0.019610722 0.16626608
0.057478648 0.1881493 0.102908716 0.0087060295 0.17032984 -0.010340244 -0.05636371 0.1106
0.171907 0.08314752 -0.17899351 0.124761574 0.06847193 -0.13771343 -0.03789344 0.14081243
-0.12986447 -0.14113772 -0.058633793 -0.07969866 -0.0042919554 0.015641766 0.16764693 0.035342317
-0.005115425 -0.16140023 0.17930101 -0.18664254 0.19944565 -0.13659324 0.13989156 -0.10420683
-0.13639803 0.20808356 0.17280513 -0.19749627 0.021291547 -0.053463556 -0.21056828 0.028626138
0.10212319 0.13992569 0.022638254 0.034876697 -0.07895138 0.101160765 0.11145512 -0.03598415
-0.07952478 0.21410376 -0.078309216 -0.12516357 0.10387675 -0.20264739 -0.057430726 0.080457136
0.18384135 -0.0048931036 0.030690445 0.11683793 -0.016632976 0.1752057 0.072386876 0.20396253
0.009118356 0.19207415 -0.002890655 0.111901686 -0.046719957 -0.052324284 0.090158656 -0.15770902
-0.080586806 -0.01297396 0.18100646 0.0065759085 -0.21466893 0.20091535 0.092325285 0.13029832
-0.17229088 -0.15292762 0.17329066 0.020078762 -0.15084748 -0.09734467 0.10316357 0.19952522
0.10721729 0.1929395 0.0755818 0.12107859 0.034692075 0.14301233 -0.04993113 0.023985963
-0.08667269 0.08693684 -0.085295685 -0.10938429 -0.12724318 0.08026956 -0.18598065 -0.023174524
0.08899971 0.057971753 0.026567798 0.0554101 -0.16448395 -0.19627504 -0.11584931 0.05982565
