Shortcut Run/results/Test10/Move.onnx (onnx, 71941 bytes, 5 tensors)

network_body._body_endoder.seq_layers.0.weight f4 [128, 6]
000000 0b 16 6f bf d5 2d 3d 3e 4d b3 0a bf 2d 25 47 be
       -0.9339301 0.18474515 -0.5417984 -0.19447775
000010 1e d1 2c 3e 68 9a b4 3e ee f7 fd 3e 1c 0f 00 bf
       0.16876647 0.35274053 0.49603218 -0.50023055
000020 26 94 1f bf 0b 12 c4 3e fd 74 a8 be bd 8b 1e 3f
       -0.6233543 0.38295016 -0.32901755 0.61931974
000030 d6 cc a4 bd 26 62 b5 bd 53 0d f5 be f1 0e ff 3e
       -0.08046882 -0.08856611 -0.47861728 0.49816087
000040 ff c4 23 3f 7b f5 28 3f df 98 fa bd 06 bb 0f be
       0.6397247 0.65999573 -0.12236189 -0.14036188
000050 5e 87 b2 3e 3b a4 d2 3e 7b 3c 0b bf 71 4c b4 bd
       0.34868902 0.41140923 -0.5438916 -0.088036425
000060 a4 a2 e2 3e 00 08 be 3e 9f f5 ba 3e 0b f2 cd 3e
       0.4426471 0.3711548 0.3651552 0.40223727
000070 de fd 50 bf 46 2e 44 bf f0 94 61 3e 13 53 16 3f
       -0.8163737 -0.7663311 0.22029471 0.5872051
000080 66 e9 35 be a9 88 43 bf 6f 15 34 3d 6f 4a d2 3d
       -0.17764816 -0.763804 0.043965753 0.10268103
000090 d7 78 03 3f 98 a9 1b 3e 66 68 8f be 00 8a 5c 3f
       0.5135626 0.15201414 -0.28009337 0.8614807
0000a0 fd 7b 95 be 68 6d 43 3e c4 a2 93 3d 80 b8 f8 bd
       -0.29196158 0.19084704 0.072087795 -0.121445656
0000b0 2d 35 3a be 0d be 1c 3f 78 7d e0 be a6 bf 68 be
       -0.18184347 0.61227494 -0.43845725 -0.22729358
0000c0 eb 5e 63 3e 53 08 bd bd 28 85 ce 3e 10 81 6e bd
       0.22204177 -0.09230103 0.40335965 -0.058228552
0000d0 61 f1 2f bd 20 e1 cf 3e 96 58 ac 3e 16 27 2f bd
       -0.042954806 0.40601444 0.33661336 -0.042761885
0000e0 40 0a 15 bf 36 c3 a5 3e 67 68 4b 3e 0e fc b7 3e
       -0.58218765 0.32375497 0.19864045 0.3593449
0000f0 1f fe da 3d cf 9f ce be 41 b1 65 3c 52 72 d8 3e
       0.10693001 -0.403563 0.014019311 0.4227472
000100 6a 8e 6f bd b2 c4 1b 3f e4 64 a0 3f 53 92 2f be
       -0.058485426 0.6084701 1.2530789 -0.17145662
000110 d6 db aa 3c 0d aa e5 bd db 00 4a be 36 51 d7 3d
       0.02085678 -0.11214075 -0.19726889 0.10513537
000120 71 15 9e be 95 09 06 bf 85 e3 83 be 59 b5 0e be
       -0.30875733 -0.5235837 -0.2575952 -0.13936366
000130 34 b2 bb 3d bb 59 cc be 09 8e 13 3f 92 41 31 3e
       0.09164849 -0.3991221 0.57638603 0.1731017
000140 a2 5f 24 bf c0 84 26 be 49 d2 76 be 67 b3 89 be
       -0.64208424 -0.16261578 -0.24103655 -0.26894686
000150 0a d3 7a be e1 87 4a 3d 8e 80 55 bf 8e e9 d5 3e
       -0.24494568 0.04944599 -0.83399284 0.4177975
000160 01 c5 93 be ca 2b 93 3e 5d 2d dc be bc 29 04 3e
       -0.2886124 0.28744346 -0.4300336 0.12906545
000170 6a 45 cf be 01 23 5d 3d af fe 4d 3e dc 45 09 3f
       -0.40482646 0.05398846 0.20116685 0.5362222
000180 84 cd fe be 89 88 d1 bd 8c 9a 46 bf e4 fb 17 3f
       -0.4976617 -0.1023112 -0.7757957 0.5936873
000190 44 27 5e 3e c2 af b0 3e f5 97 a9 bd 07 ef aa be
       0.21694666 0.34509093 -0.08280937 -0.33385488
0001a0 19 93 2a be 0f 47 6c 3f ea d2 09 bf de 43 95 3e
       -0.16657676 0.92295927 -0.53837454 0.2915334
0001b0 cf 59 de 3e 15 af 3d 3d 29 0a 53 3d 91 68 35 3e
       0.43427894 0.04630955 0.05152336 0.1771567
0001c0 20 32 ba be 4b 83 15 3d e5 b1 ce be a9 bf 68 3f
       -0.36366367 0.036502164 -0.40370098 0.9091745
0001d0 9f c3 3d 3e cd 72 0e 3f 4a fd 01 3f f4 66 15 3f
       0.18531655 0.5564392 0.50777113 0.5836022
0001e0 e3 5a 38 bf ce d8 e0 3d 38 b9 8c 3e b7 f0 cb be
       -0.7201368 0.10978852 0.2748506 -0.39832088
0001f0 4e 32 82 3e 3c d6 16 bf 20 8f 97 bc b3 e9 94 bd
       0.25429004 -0.58920646 -0.018500865 -0.07271137
000200 97 79 f1 bc 8e a6 02 bf ae 8e fc bd 15 42 ca 3c
       -0.029476924 -0.5103539 -0.123319015 0.024689713
000210 8e 9e 83 bc a7 fe cc 3e e5 c7 9f 3e 77 2f 4d bf
       -0.016066816 0.40038034 0.31207195 -0.8015055
000220 54 88 5e 3e d0 66 1c 3e be 2c 0b bf 16 65 cb 3e
       0.21731693 0.15273595 -0.54365146 0.3972556
000230 69 a5 8d 3f bc 22 7c be 9b 14 6f bf dd b5 d8 3d
       1.1066104 -0.24622625 -0.93390816 0.10581563
000240 3b f3 f3 be 7a 20 d8 3e 23 be 96 3d d5 c9 f7 be
       -0.47646508 0.42212278 0.073604845 -0.48396173
000250 72 11 74 3e b2 57 86 be 21 8e 13 be cf 7b ed bd
       0.2383478 -0.2623878 -0.14409687 -0.1159588
000260 f8 13 2d 3d db 3f c6 3d ce 8f 12 3e d8 ad 42 3e
       0.04225537 0.09680148 0.1431267 0.19011629
000270 61 17 8d 3e d4 ef 34 bf ec 48 f5 be 6e a9 94 bd
       0.275569 -0.7067845 -0.47907197 -0.07258879
000280 bf f1 43 be 5c 86 29 3e 56 4c f2 3d 78 61 01 be
       -0.19135188 0.1655516 0.11830966 -0.12634838
000290 59 1c 92 bd 17 55 85 3d d8 ad 8b bd 2c 48 ab 3e
       -0.07134313 0.0651037 -0.068202674 0.334535
0002a0 d6 0d 15 bf c4 b1 32 bf 2b 7d 2b bf 1b f8 b3 bd
       -0.58224237 -0.698025 -0.66987866 -0.08787557
0002b0 6f d6 29 3e a9 05 4f be 89 aa ab 3d 7a 2a 3e bf
       0.16585706 -0.20217003 0.083821364 -0.74283564
0002c0 01 61 f3 3e 14 41 38 be c2 57 a1 3e 6e 67 f1 3e
       0.47534946 -0.17993575 0.31512266 0.47149223
0002d0 34 33 8d 3e 86 23 c7 be 58 f0 82 3e 06 b6 35 3f
       0.27578127 -0.3889429 0.25573993 0.7098087
0002e0 84 8b bc be 16 53 25 bd e2 b0 1d b9 07 17 95 3e
       -0.36825192 -0.04036244 -0.00015038581 0.2911913
0002f0 59 ad 6c be e5 69 02 3f 99 8a 2f bf 96 e0 0b 3e
       -0.23113002 0.5094283 -0.6857086 0.13659891
000300 78 49 b0 3e ad 45 20 be a7 c6 a9 be 72 01 19 bf
       0.34431052 -0.15651579 -0.33159372 -0.5976783
000310 46 34 61 3e 09 7d bd 3b 29 73 0c be 53 28 09 3f
       0.21992597 0.0057827276 -0.13715805 0.53577155
000320 4f b2 c4 3e 87 41 31 3d b7 c0 25 3f 05 c6 9b 3d
       0.3841729 0.043275382 0.64747185 0.076061286
000330 07 f3 12 be 40 09 8a 3f b3 cd ba 3e 4e 42 0e 3e
       -0.1435052 1.0784073 0.3648506 0.1389248
000340 ee 44 ef 3e ce 1a 01 3a 3c 2a a0 3e ac b3 13 3f
       0.46732277 0.00049249537 0.31282222 0.5769603
000350 c8 2e 1b 3e 69 f7 1d bd c4 f4 df be ed 96 bb 3e
       0.15154564 -0.038566027 -0.4374143 0.36638585
000360 ca 65 38 3f 29 54 96 3d cb 46 2f be 40 80 5c bf
       0.7203032 0.07340271 -0.17116849 -0.86133194
000370 11 5a 29 be 05 9d 5e 3e 0d 71 0e be 3a 6d 1c bf
       -0.16538264 0.21739586 -0.13910313 -0.61104167
000380 a3 d4 8a 3e bd ce 4b bd 76 4e e8 3e 73 b9 7d 3e
       0.27115354 -0.049757708 0.4537236 0.24777775
000390 c7 27 e0 bc 45 f8 ea bc bb ba 76 3e 9e 3a fc bc
       -0.027362717 -0.028682837 0.2409467 -0.03078967
0003a0 a7 88 1e bf ba 2f b9 bd 93 6c 10 3d 52 74 9a 3f
       -0.61927265 -0.09042306 0.035259794 1.2066748
0003b0 26 cc 7b 3f ea 9f 5f 3f 08 e1 65 bd e5 8c 28 3e
       0.9835838 0.87353384 -0.05612281 0.16459997
0003c0 60 3d eb be 2c bc a9 be 5d 8b 16 3f 7d 6e bf 3e
       -0.45945263 -0.33151376 0.588064 0.37388983
0003d0 76 b4 28 3f f5 59 e0 3e 2e f1 e7 3e 73 74 87 be
       0.6590036 0.43818632 0.45301193 -0.2645603
0003e0 cc 4e 8d 3c 30 51 82 be 42 fe ca be c4 58 06 3f
       0.017249487 -0.25452566 -0.39647108 0.52479196
0003f0 55 42 8b be 20 40 1e bf 78 34 dc 3e a7 da 5a bf
       -0.27199045 -0.61816597 0.4300878 -0.85489887

network_body._body_endoder.seq_layers.0.bias f4 [128]
000000 6e e4 03 b8 df 26 ca b8 73 fc 84 b9 93 5e c0 2e
       -3.1445576e-05 -9.639351e-05 -0.0002536509 8.747949e-11
000010 00 00 00 00 3e 51 61 39 7b 35 88 b9 dc d1 49 ba
       0.0 0.00021487937 -0.00025979787 -0.0007698813
000020 a9 ef 0c b9 ad e3 ad b9 6c 88 10 b9 01 96 d9 38
       -0.00013440721 -0.00033166763 -0.00013783731 0.00010375307
000030 53 3c 4c 3a c9 d1 83 ba 18 b6 d9 3a 2e 7c ee b9
       0.00077909714 -0.0010057028 0.0016610054 -0.00045487419
000040 ac 54 ba b9 fe fa 7c b9 b1 6c 37 b9 e7 cd 37 b9
       -0.0003553977 -0.00024126095 -0.0001749273 -0.00017528945
000050 fa af 15 8b 48 85 42 b9 7e 23 df b8 33 b1 e9 17
       -2.8828746e-32 -0.00018550933 -0.000106400796 1.5102003e-24
000060 ab bb 19 ad 36 2a 6f bb 96 bf 2c bb c9 9e 15 b8
       -8.738714e-12 -0.0036493666 -0.0026359311 -3.567225e-05
000070 29 65 5b bb 4b 00 8e b9 64 d3 83 b6 69 23 93 b7
       -0.0033477044 -0.0002708457 -3.9287133e-06 -1.7540255e-05
000080 d1 b6 81 39 89 6f 74 34 66 69 d8 32 3f bf 02 39
       0.00024741006 2.2764847e-07 2.519364e-08 0.00012469011
000090 24 4d 8d ba 4a f7 d8 ba b0 fa 03 2f 25 1a d2 a7
       -0.0010780436 -0.001655319 1.2003443e-10 -5.8315055e-15
0000a0 44 80 9c ba d8 42 07 b9 e2 53 71 23 c2 19 73 b9
       -0.0011940082 -0.00012899505 1.3082399e-17 -0.00023183881
0000b0 ac 82 f8 b1 cf 02 e5 2e 3d bd 28 39 72 81 56 38
       -7.2326056e-09 1.0414213e-10 0.00016092225 5.114213e-05
0000c0 25 e4 e2 b7 81 87 7b 20 c6 13 ba b9 56 ec a8 38
       -2.7047538e-05 2.1305361e-19 -0.00035491417 8.054885e-05
0000d0 58 9b 4d 3b 45 3f 2c b9 07 e1 3a b9 c0 3a 83 28
       0.003137311 -0.00016426768 -0.00017822172 1.45694e-14
0000e0 f1 f9 55 b9 cd f8 d3 ba 62 3f d7 b9 f3 d8 9b b9
       -0.00020406373 -0.0016172171 -0.0004105522 -0.00029725544
0000f0 c9 ae 63 39 f1 c9 05 b9 e0 34 b1 0f bf 13 9e 38
       0.0002171352 -0.00012759097 1.7473914e-29 7.537705e-05
000100 87 86 0c a5 35 5c ef b5 c6 bf 21 8f e5 62 47 30
       -1.2188644e-16 -1.7833723e-06 -7.974847e-30 7.2536316e-10
000110 a6 86 80 ba bd d3 fc 92 18 57 ac b9 65 7d c1 ba
       -0.0009805753 -1.5955633e-27 -0.00032871286 -0.0014762102
000120 14 3c cd 37 7e 70 40 03 ef 19 5c 9f 59 0e 0c b9
       2.446588e-05 5.6552864e-37 -4.6608264e-20 -0.00013356785
000130 57 e2 e2 b8 61 61 16 b8 7d 91 26 bb d8 42 23 b7
       -0.00010818679 -3.5853478e-05 -0.0025416308 -9.73112e-06
000140 78 a8 48 39 4f 68 fa 36 be 9f d7 39 31 51 80 28
       0.00019136246 7.4627237e-06 0.00041127013 1.4246066e-14
000150 d3 d4 c8 b8 c2 e4 6d b9 90 77 e6 36 59 3b 4d bb
       -9.576385e-05 -0.000226873 6.868453e-06 -0.0031315892
000160 51 fd 5a 1a 68 56 fc ba 86 a4 0f b6 97 31 74 39
       4.528597e-23 -0.0019251825 -2.1404426e-06 0.00023288127
000170 de 28 ba b8 69 1d 31 b8 7f e2 1d 38 dd e0 2c ba
       -8.876783e-05 -4.222748e-05 3.7642658e-05 -0.00065947865
000180 8c b1 21 b8 e1 85 a8 b9 f7 c3 34 31 0d ee 5e b7
       -3.8550745e-05 -0.00032143205 2.630484e-09 -1.3287657e-05
000190 28 43 e8 39 30 cf 4c ab 3f d3 56 b8 50 ff c9 37
       0.00044300524 -7.276289e-13 -5.1218314e-05 2.4079956e-05
0001a0 ab e8 f4 b6 a4 c9 32 b8 66 6c e8 12 27 8f 41 b7
       -7.298853e-06 -4.26263e-05 1.4667981e-27 -1.1537027e-05
0001b0 26 ac 85 3a 25 e9 8d 39 07 03 2a 3a b5 14 bb 38
       0.0010198399 0.00027067322 0.00064854365 8.920712e-05
0001c0 22 48 83 ba fb a3 75 9b a5 2e 48 37 08 c9 7a ba
       -0.0010016004 -2.031891e-22 1.1931789e-05 -0.0009566699
0001d0 a6 8f d3 1f 79 bb 84 3b be 1c 04 ba 34 ca 4e 0b
       8.959962e-20 0.004050669 -0.00050396833 3.9826278e-32
0001e0 08 d3 c4 39 c0 c8 e2 35 04 52 ad ba ad 15 80 b9
       0.00037541264 1.6896738e-06 -0.0013223295 -0.00024430212
0001f0 d6 37 0a 37 fa b0 c5 3a f1 83 17 b9 1c a0 b7 b8
       8.238441e-06 0.001508265 -0.00014449634 -8.755943e-05

network_body._body_endoder.seq_layers.2.weight f4 [128, 128]
000000 52 77 32 3d 15 2e c9 3c 5d 4d 50 bc c0 0c f3 bd
       0.043570824 0.024558106 -0.012713757 -0.11867666
000010 5c 1c 11 be f2 e8 f9 bc 48 b7 e9 bd 75 c6 17 3d
       -0.14170974 -0.030506585 -0.11411911 0.037054498
000020 11 b5 cf 3d 0b 5d 8e bd 1d 9e 36 3b 13 fb 53 be
       0.101419576 -0.0695134 0.002786524 -0.20701246
000030 68 ec fa bd 32 7b 09 3e 0e 1f 28 3c 58 67 98 3d
       -0.12252122 0.13425902 0.01026131 0.07441586
000040 24 f9 8f 3c 1f f7 16 be 05 d5 0f bd 28 07 10 3d
       0.017574854 -0.14742707 -0.03511526 0.035163075
000050 e6 19 53 bc 12 9e 85 3d de 31 9b 3d 47 85 83 3d
       -0.012884593 0.0652429 0.07577871 0.06421905
000060 02 5e 54 be 57 cf 17 3b 1e 69 35 3c 96 ae 06 be
       -0.20738986 0.0023164356 0.011072425 -0.13152537
000070 ba 67 57 3d b4 c4 04 be 03 9c dd 3d 29 50 0a 3e
       0.052589156 -0.12965661 0.108207725 0.13507141
000080 59 fa 9d 3d d0 41 07 3e b9 05 d9 bd ef b6 17 be
       0.07713766 0.13208699 -0.10596795 -0.14815877
000090 36 07 0f 3e f6 98 a7 bc 13 2a 82 3d d9 82 ae 3d
       0.13967595 -0.02045868 0.06355681 0.08521051
0000a0 f3 b2 81 bc 03 49 c9 bc 01 7c 3d bd e7 6e e4 bd
       -0.0158324 -0.024570948 -0.046260837 -0.111539654
0000b0 45 7e bb 3d 3c 28 5f 3d 71 e0 99 bc d8 82 f6 3d
       0.091549434 0.05448173 -0.01878378 0.12036675
0000c0 4e 5a 0a bd 29 bc c1 3c 7c c0 60 be 1b ed 3a 3d
       -0.033777528 0.023649292 -0.21948427 0.045636278
0000d0 12 eb 6c 3d 46 db fe 3c a8 27 98 3d 34 93 f2 3d
       0.057841368 0.031110417 0.07429439 0.11844483
0000e0 89 41 80 bd 15 cd 24 bd cc ef d2 bc 88 09 e5 3d
       -0.062625 -0.040234644 -0.02574911 0.111834586
0000f0 43 44 e9 3c f8 ca 7e 3c d2 e8 a3 3c ef 06 31 be
       0.028474933 0.015551321 0.020008478 -0.17287801
000100 ce 2d 86 bd 59 54 a0 bd af 0b 6c 3d 36 96 13 be
       -0.06551705 -0.07828588 0.05762833 -0.1441277
000110 b9 6b 4c 3d d1 33 5d bd 31 a5 81 bb da b3 ad 3c
       0.04990742 -0.054004494 -0.00395646 0.021203924
000120 09 70 04 be 8d 5a 50 bc 65 32 f7 bc da 9e 87 3c
       -0.12933363 -0.0127169015 -0.030175397 0.016555239
000130 de 49 c9 3d 3a 64 9b 3d 43 6f 35 3c ef d3 fb 3d
       0.09828542 0.07587476 0.01107389 0.122962825
000140 93 ce d7 bc 89 d3 04 3e b6 f3 87 bd c1 01 92 3d
       -0.02634362 0.1297132 -0.06638281 0.07129241
000150 04 1a fa 3d b3 20 8c 3b 56 f9 64 ba cd ac b1 3a
       0.12211993 0.004276359 -0.0008734664 0.0013555527
000160 fb ae 2e 3c 42 4e dc 3b b1 a6 ed bc 82 03 1c be
       0.010661836 0.0067231962 -0.029010149 -0.15235713
000170 b2 84 c9 bc b6 ae b1 bd d6 09 2a 3e 7b 8c c4 3d
       -0.024599407 -0.086759016 0.16605315 0.09597107
000180 bc 7c b6 3a 0b a1 0b be 5a 0c c6 bc ca 38 8a bd
       0.0013922672 -0.13635652 -0.024175812 -0.06749113
000190 2b c4 9c 3b 01 9f 19 3d 7a 48 98 bd 96 a8 bf bc
       0.004784127 0.037505154 -0.07435699 -0.023395818
0001a0 83 b0 44 bd 6b 7f b7 3c b8 e1 9d 3d ce 10 4b 3d
       -0.048019897 0.022399625 0.07709068 0.049576573
0001b0 c8 93 cf bc 03 21 fe bc 63 71 d4 bc c9 89 15 be
       -0.025339022 -0.0310216 -0.025932973 -0.14603342
0001c0 39 74 59 bd dc c6 15 bd 25 b4 ff 3d 28 20 c0 3d
       -0.053089354 -0.0365666 0.12485532 0.09381133
0001d0 52 8a 67 3e d3 07 97 3d 56 40 0f 3e 03 00 40 bc
       0.22611359 0.07374539 0.13989386 -0.011718753
0001e0 3b 73 5a 3c 67 b8 41 bd 70 8a 12 3e 6a 9f 13 bd
       0.013333137 -0.047295 0.14310622 -0.0360407
0001f0 41 60 e9 3c 74 96 b9 3d 48 27 82 3d cb d0 d9 3d
       0.02848828 0.090619 0.063551486 0.10635527
000200 26 f7 7b 3d bb b6 ed bd fa 48 be bd ce 98 b4 bc
       0.061514996 -0.11607119 -0.09291263 -0.02204552
000210 05 88 fd bd af be 93 3d 54 81 e2 3d 5b 49 df bc
       -0.12379459 0.072141044 0.11059824 -0.027256658
000220 89 f5 33 3d 28 0a 9c bd 87 46 e1 3c ea cb 30 3e
       0.043935332 -0.07619125 0.02749945 0.17265287
000230 f7 ec 49 bd 49 8c 57 3d 49 13 90 3c 3b 92 9e bd
       -0.049298253 0.05262402 0.01758732 -0.07742735
000240 93 26 44 3d 69 26 23 be bc eb 51 bd c0 a4 df bc
       0.04788835 -0.15932621 -0.051250204 -0.027300239
000250 9d 8a c1 3c f2 f6 01 3d 55 b1 2e bd 5e 56 b6 3d
       0.023625666 0.031729646 -0.042649586 0.08903192
000260 7c 17 0c 3e ba 46 b5 bd eb 74 ff bc b0 9b af 3c
       0.13680834 -0.08851381 -0.03118368 0.021436542
000270 11 f9 ef 3d 5b 88 28 3c 19 41 02 be 3a 66 74 bd
       0.117174275 0.010286416 -0.12720145 -0.059667803
000280 8a 3c 21 3e 9f 10 8e bd 80 ef b8 bd c6 9c 3d 3e
       0.1574575 -0.06936764 -0.09030056 0.18516836
000290 4b 47 a8 3d 5a 53 4e 3c 9f e3 1c 3c ee 29 7b 3d
       0.08216723 0.012593115 0.0095757535 0.061319284
0002a0 c5 80 0f 3e 58 c2 06 3e cb 2c 20 3d 07 ab 9a bb
       0.14013965 0.13160074 0.039105218 -0.004720095
0002b0 6a 66 8a 3c b0 4f 1b 3e c8 ee 08 3e 2b 37 c7 3c
       0.016894538 0.15167117 0.13372338 0.024318298
0002c0 ae 36 11 3b d0 ac da bd e7 86 af bd 8f 67 95 3d
       0.0022157836 -0.106774926 -0.085706525 0.07295143
0002d0 e8 99 96 3d 40 94 97 3b 8f 66 01 bd 2a 4d 94 3d
       0.07353574 0.004625827 -0.031591948 0.072412804
0002e0 d3 2b 9d 3d d7 c1 b7 3b 96 75 26 be 6d d4 2d 3e
       0.076743744 0.0056078243 -0.16255793 0.16975565
0002f0 9e 9e e1 bd 98 e5 9a bd 86 f7 a3 3d 69 a8 ba bc
       -0.11016582 -0.07563323 0.08006196 -0.022785382
000300 72 54 f9 bd 92 01 af 3d bb 45 0a bd 31 5d 67 3d
       -0.1217431 0.085452214 -0.033757906 0.05648536
000310 1e 7a 94 3d ec a1 8b 3c 7c ce 8d 3d 14 20 83 3d
       0.072498545 0.017044984 0.069241494 0.06402603
000320 82 f1 de bd 8a a0 b2 3d 95 81 9c 3c 27 4c b1 3d
       -0.10885908 0.08722027 0.019104758 0.08657103
000330 ab 75 02 3d 71 fb 88 bd 22 93 de bd 0b f3 eb 3c
       0.0318505 -0.06688584 -0.10867907 0.028802415
000340 cf 74 eb bd 2b 1a f9 bc 8d ea f3 bd 07 84 0a bd
       -0.11496889 -0.030407986 -0.119099714 -0.033817317
000350 2c c1 44 bd 78 92 c1 bc 22 cc 21 3e 66 9d 4a 3d
       -0.048035786 -0.023629412 0.15800527 0.049466513
000360 22 e4 d6 3c fb 36 8a 3d d6 c3 ef 3d f1 ba e6 3d
       0.02623183 0.06748768 0.117072746 0.11266125
000370 76 10 c6 3d 5a 01 8b bd 95 a6 e7 bb 3c ff e0 bd
       0.096711084 -0.06787367 -0.0070694187 -0.10986182
000380 8b 39 c0 3d 39 39 bf bd d0 da 0f 3e 72 88 ce 3b
       0.093859755 -0.09337086 0.14048314 0.0063028866
000390 b4 1b a2 3d c7 c5 92 bc 13 f3 b1 bd 05 4b 3c bd
       0.0791544 -0.017916573 -0.08688941 -0.04596998
0003a0 37 c2 fb bd 41 93 cd bd 34 7e 0a bd 57 6d ee bd
       -0.12292903 -0.10037852 -0.033811763 -0.11641949
0003b0 09 f7 a1 3b 79 ae 91 bd fc 60 a8 3c 60 24 81 3c
       0.004942779 -0.07113356 0.020554058 0.015764415
0003c0 6b 00 0b bd 4c 7f 98 bd 81 f4 6d 3b e3 e0 e3 bc
       -0.033935945 -0.07446155 0.0036309066 -0.027817195
0003d0 3a ca 14 3e 01 4e 4a bd 83 de 8e 3d 43 95 b1 3d
       0.14530268 -0.049390797 0.069760345 0.086710475
0003e0 67 51 3a be 06 7b d1 bd 0c 05 0b bd ca d0 6b 3c
       -0.18195115 -0.10228543 -0.03394036 0.014393041
0003f0 a7 70 a6 3d 21 8d b3 bd e2 d4 8e 3c 5b d1 77 bd
       0.081269555 -0.087671526 0.017435495 -0.06050239

network_body._body_endoder.seq_layers.2.bias f4 [128]
000000 aa e8 3e b6 2f 3f c4 0a 4e dd b1 b9 4a 03 10 b9
       -2.8447635e-06 1.889788e-32 -0.00033924956 -0.00013734135
000010 93 7e 82 ba 54 b6 ff b8 3f d1 61 33 1e 39 0e b9
       -0.0009955935 -0.00012193309 5.2577203e-08 -0.00013563453
000020 56 1c ca ba 22 73 4c b7 33 6d 9f 28 65 0b 12 ba
       -0.0015419822 -1.2186154e-05 1.7699904e-14 -0.0005571156
000030 6d 3d fd b9 52 e1 6d 1a ed 29 04 ba f0 2c 33 b9
       -0.00048301686 4.9192464e-23 -0.0005041648 -0.00017087511
000040 b7 c3 9e b9 59 98 97 b8 2e 33 81 b8 9f 84 82 3a
       -0.00030281927 -7.228618e-05 -6.160732e-05 0.0009957737
000050 31 6b 59 9c 2d ca 9a b8 c5 cd 64 b8 aa 01 af b9
       -7.193782e-22 -7.3809504e-05 -5.4551074e-05 -0.0003337984
000060 97 e8 66 b8 e7 a2 a0 b8 84 93 bc ba 22 14 a2 24
       -5.505289e-05 -7.6597375e-05 -0.0014387225 7.029041e-17
000070 d6 0a 89 b8 51 cf 4a 37 95 ab 60 b8 47 8c 9c b7
       -6.5346874e-05 1.2088408e-05 -5.356556e-05 -1.866197e-05
000080 cc 0c 99 26 f2 81 a3 ba 18 a3 35 b9 ec f7 e1 b7
       1.0619976e-15 -0.001247464 -0.00017322262 -2.6937538e-05
000090 46 b2 8b b9 8d 76 2a b8 90 24 8f 2b e8 06 bb 37
       -0.0002664497 -4.0641567e-05 1.0170909e-12 2.2295353e-05
0000a0 e3 77 3e b9 77 59 07 25 13 52 9a ba af 2f ed b9
       -0.00018164473 1.1739695e-16 -0.0011773728 -0.0004523969
0000b0 79 33 a9 b9 5b a9 ac ba db af 33 1d cd 61 82 b8
       -0.00032272542 -0.001317303 2.3781368e-21 -6.2171e-05
0000c0 a9 95 60 2f b6 a0 e4 1c 2d 52 0b ac e1 35 a5 b9
       2.0425851e-10 1.5129317e-21 -1.9798705e-12 -0.00031511395
0000d0 de 73 4f 37 f6 e9 56 b9 8c 4a ba b7 b3 09 af b9
       1.2365139e-05 -0.00020495788 -2.2207641e-05 -0.00033385828
0000e0 8c ce 88 ba d0 df 63 ba e7 9f e9 b8 00 81 ff b7
       -0.0010437532 -0.00086927135 -0.0001114009 -3.045844e-05
0000f0 ed 26 bc b8 3d 79 a4 38 e3 a8 80 b8 9a b6 bf b8
       -8.971789e-05 7.842712e-05 -6.134973e-05 -9.141602e-05
000100 51 c2 9c ba 78 34 81 b7 b7 83 4a 1d 9b ea b1 b8
       -0.0011959766 -1.5402431e-05 2.6802572e-21 -8.4837164e-05
000110 bd f0 e3 ba ad 96 83 b8 95 4a 78 b9 17 cb 3d b9
       -0.0017390471 -6.274632e-05 -0.00023678907 -0.00018100101
000120 11 10 98 b8 2c eb 1d ba 56 75 a0 b8 60 ba 81 b8
       -7.2509174e-05 -0.0006024118 -7.65125e-05 -6.1859144e-05
000130 bf c2 de 30 3d 61 89 b9 c8 53 68 b7 d9 66 4f 35
       1.6207976e-09 -0.00026203124 -1.3847784e-05 7.726317e-07
000140 cb d6 b3 ba ed 2a 6e 31 12 69 f5 b8 ea 8b a1 ba
       -0.001372063 3.4657959e-09 -0.00011702081 -0.0012325023
000150 dc 39 80 ba da 76 05 b8 9c c0 e9 b5 4f f5 5c b8
       -0.0009782868 -3.182036e-05 -1.741591e-06 -5.268055e-05
000160 8b 90 20 27 3c 71 06 b7 72 4d 9f ba c3 a9 75 ba
       2.2282817e-15 -8.013387e-06 -0.0012153818 -0.0009371305
000170 6c 83 9a b8 3e f6 41 b7 ec b4 df 19 73 bb f6 b9
       -7.3677715e-05 -1.1561029e-05 2.3130733e-23 -0.00047060437
000180 3d 84 fa 30 3d 5b db 39 da 39 e1 15 52 34 8d b9
       1.8227478e-09 0.00041838913 9.096805e-26 -0.00026932597
000190 b9 18 e7 ba 76 ca 6d b2 5d 9b 14 b9 c0 4f 17 ba
       -0.0017631269 -1.384125e-08 -0.00014172257 -0.00057720765
0001a0 96 6d 75 b8 86 98 b5 b9 76 d3 1a ba 39 8e 5d 37
       -5.851461e-05 -0.0003463665 -0.0005906144 1.320574e-05
0001b0 d2 95 02 bb 02 09 2c 36 5b c9 5b ba 64 49 84 35
       -0.0019925726 2.563524e-06 -0.00083841913 9.856126e-07
0001c0 b7 a7 1a b9 dc 67 19 22 89 c9 bb ba 2e 8b 90 b8
       -0.00014749063 2.079035e-18 -0.001432703 -6.892379e-05
0001d0 f7 f4 1a b6 22 1f 1a b9 f2 49 12 ba a0 17 2c ba
       -2.3090377e-06 -0.00014698182 -0.0005580477 -0.00065647997
0001e0 fd 0c e3 b8 14 12 b1 ba 3a b4 a0 36 4a ac 2c ba
       -0.00010826623 -0.0013509416 4.7893527e-06 -0.00065869524
0001f0 45 41 9c bb 24 7c 17 1e 2b ff 64 b8 dd aa b1 b9
       -0.004768523 8.019545e-21 -5.459708e-05 -0.00033887374

action_model._continuous_distribution.mu.weight f4 [1, 128]
000000 35 51 9c bc 87 0b ab 3c e7 71 f9 ba c5 58 e6 3b
       -0.019081691 0.02087952 -0.0019031138 0.007029625
000010 22 5f 97 bb d4 93 4a 3b e2 c0 49 3c 52 40 ea 3b
       -0.004619495 0.0030910866 0.012314053 0.007148781
000020 96 0a c0 bc 5d 67 7a bc 9d 65 ed 3b b9 48 ae 3a
       -0.023442548 -0.015283433 0.0072447793 0.001329682
000030 e8 8e 63 bc 9f 18 a2 bc cc 5e bf 3a 1d 19 ad 3b
       -0.013889052 -0.01978713 0.0014600395 0.0052825348
000040 43 3d 06 bb 55 68 a0 3c 73 b2 e0 3c 5a 0f 4c bb
       -0.0020483292 0.019581 0.027428841 -0.003113708
000050 62 a6 fa bb 43 2a 95 3c 1a 5f 19 3d 3a db f8 ba
       -0.007649229 0.018208629 0.03744421 -0.0018986233
000060 6d 18 cc bc b4 ca d4 bb f5 2f 52 bc 00 b0 5c bc
       -0.02491399 -0.0064938907 -0.012828817 -0.013469696
000070 f4 21 be 3c cb f5 ce bc cb 32 22 3d 48 a1 b6 3c
       0.02320955 -0.025263688 0.03959922 0.022293702
000080 8d c2 48 bc d6 de c6 3c e8 70 aa 3b 48 d3 3f bc
       -0.012253416 0.024276178 0.0052014478 -0.011708088
000090 6f e0 4a 3b ef 4e 1d bc cd ba 0f bd 9c 21 67 bd
       0.0030956527 -0.009601339 -0.035090256 -0.056428537
0000a0 9d d4 9f 3b 13 8c ba bb 16 35 ca bb cf 12 b9 bc
       0.0048776404 -0.0056929677 -0.006170879 -0.022591976
0000b0 4f c0 1c 3b cc 0b 12 bc 07 ae 35 3b db df dc 3c
       0.0023918336 -0.008913945 0.0027722137 0.026962211
0000c0 89 f4 98 3a 81 6d c5 bb 89 f4 71 3b c6 d5 23 3c
       0.0011669557 -0.006025017 0.0036919436 0.009999698
0000d0 99 3b 90 bc d0 09 a8 bc f1 bd 1d 3d cf a0 f4 ba
       -0.017606543 -0.020512491 0.03851122 -0.0018663647
0000e0 ad 34 88 3c 39 80 61 bc b4 e4 1b 3c e4 f6 34 bc
       0.01662668 -0.013763481 0.009514976 -0.011045191
0000f0 28 cb 59 3c d2 f2 a5 bc 74 a5 e3 3c f8 99 53 3c
       0.013293065 -0.020257387 0.027788855 0.012915127
000100 ab 1f 66 3c 39 e0 6a bc ab 0f cb 3b 9b 7b 6f 3c
       0.014045636 -0.014335685 0.006196936 0.014616872
000110 af 20 be bc 04 bc d1 3c 31 1d 5b 3b 7f 16 a2 3b
       -0.023208944 0.025602348 0.0033434147 0.0049465294
000120 2d 83 d8 bc 2b 74 01 bb 04 0f 90 3c 52 5f 74 bc
       -0.026429737 -0.001975308 0.017585285 -0.014915304
000130 53 f9 47 bc 35 f6 67 bc 82 ed 72 bc 10 3f ad bc
       -0.01220544 -0.014157821 -0.014827134 -0.021148235
000140 3c d9 26 3b c7 08 54 3c 48 3a 0d 3c 19 2e 07 ba
       0.0025459072 0.012941546 0.008619852 -0.00051567104
000150 ed 14 98 bc c7 38 e6 3c 2e 46 38 3c 0b c4 d4 bb
       -0.018564666 0.028103245 0.011247201 -0.0064930967
000160 e7 8d 53 bc 96 dd 88 bc d4 10 c9 bc ea 76 c1 bc
       -0.01291225 -0.016707223 -0.024544157 -0.023616273
000170 47 cd 9a 3c 7a 1c 7e bc 28 91 b5 3c 5e d9 27 bc
       0.018896712 -0.015509719 0.022163942 -0.0102446955
000180 4d 92 2d 3c df 5e c8 bb c7 b4 96 3b 60 a7 44 3b
       0.010593963 -0.006114825 0.004599187 0.003000699
000190 60 d0 15 3c 27 96 08 3c 2e ab de 3b b5 89 90 bb
       0.009143919 0.00833658 0.0067953086 -0.004410947
0001a0 fa 55 fe 3c 52 1d 7b bc 48 ad 4a 3b 00 14 07 bd
       0.031046856 -0.015326815 0.0030926038 -0.032978058
0001b0 2d 9b 5c ba bc ec b4 bc 6d 78 8f 3c dd 44 ae bc
       -0.0008415457 -0.02208554 0.017513478 -0.021273071
0001c0 c5 01 d3 3b e7 e7 2b 3c 57 53 7d bc 1c 68 e2 bb
       0.00643942 0.010492302 -0.015461764 -0.0069093835
0001d0 58 8f e0 b9 b3 f2 49 bc d6 3e f2 3b 57 80 02 3d
       -0.0004283141 -0.01232593 0.0073927445 0.031860676
0001e0 25 79 99 bc a5 9c da ba 11 4e be bc 2a 79 82 3c
       -0.018734524 -0.0016678764 -0.023230584 0.015926916
0001f0 a1 5b ba 38 2d c0 9e 3c cf 49 0b b8 84 4c 1a 3b
       8.886238e-05 0.019378746 -3.3208922e-05 0.0023544142
